2026-01-29_07-44-49_Fase2_Empuje_V1/exported/policy.pt (torch, 40114 bytes, 6 tensors)

weight f4 [64, 43]
00000000: 3100 bd3c acf2 9d3e 7c68 40bd 2e70 2b3c
00000010: 05a9 aabe ae09 d1be cb94 00be 4b7e 3dbe
00000020: 26ee 133c 3bb8 013d 864f e33b 2b51 e03d
00000030: a3cc 0a3e 2f18 573e c41e c43c 47eb 2dbe
00000040: dc76 27be 2ff0 1fbe dc01 58bd 97e8 b23c
00000050: ca21 833f 3c4e 9e3e 4c34 023e 2577 b0bd
00000060: 0c7b 0cbf ee64 05be c64a 44be 1c86 99be
00000070: e20a 163e 72f8 9abe 6e67 a23e 78ac 00bd
00000080: 9c85 973e cdbf 09bf 25f7 ca3d dcc1 b33e
00000090: fed8 343e 5379 983e e18f ff3d 2fc2 083e
000000a0: c11b f0be 38a9 7ebe 2bcf 9c3e 0132 9fbd
000000b0: 7044 2f3e e9a7 9d3e 8bb1 233f 7ac1 2ebf
000000c0: 75e7 3fbe c374 783d 9cc5 1ebf a85f 08be
000000d0: 93cd 87bd bef9 673e 40cf 643d 3828 b43d
000000e0: c964 f8bd babc 3fbb 4fd6 d43e bf1c 26bf
000000f0: e038 26be b2e6 20bd 3975 353c 5d28 45bf
00000100: ec1c 6a3f e2a3 0c3f 0f12 df3e 5fe9 50bf
00000110: a759 2dbf 3749 b3bc b684 e3bd 4f62 d43e
00000120: b622 913e 29c6 d0bd e33e 59be 9cfb 6b3e
00000130: 8cc8 d8bd ee41 d8be 59c0 a03e e4c8 1e3f
00000140: bdc5 8abd 93bb 13be 02de e53e 0e95 f33d
00000150: 9bd9 113f 8de8 55be 3731 ccbe b33a 5cbe
00000160: 8eda 9fbe 57f7 9c3d 9c96 5cba d7e6 48be
00000170: 8646 8f3e b8ef 79bd 858e 70be d924 95be
00000180: 938c 27bc 1254 233d e7fc 65be f900 3abe
00000190: 86c7 c0be 622a 923d b771 1ebd b098 86be
000001a0: e8f2 8e3c 06b8 96ba 2c94 d1be e052 23bf
000001b0: 42fe a83d b536 cfbe 4a6e 00bd c327 c6be
000001c0: a982 b23d b49c f9be 6c85 17be 7bbc dabd
000001d0: 8fb5 8abc adb7 9a3e 103c 233f cb27 9bbe
000001e0: 07b3 e83c 90f1 33be 1029 ecbe 6812 33be
000001f0: 2243 a83e a754 1a3f 2dde dcbe 15bb 7cbd
00000200: e8f9 e53e 8c05 2f3d 0992 8f3c 7a39 0f3e
00000210: 75b8 e5be fd9c bc3e 9667 febb f212 ad3d
00000220: fe5e 85be c7fd 863e ea2e 5f3e 00ec 82bd
00000230: 928b 7c3d 39d0 d73b d550 0d3d 21ad 1e3d
00000240: 782c 62be dfae 753e 47ae 223e 9014 10bb
00000250: 9aac 9b3c d920 16be 48a4 5bbe 4f7a d5be
00000260: 606d 3a3e 110b 0dbe d300 423e 0f25 5bbe
00000270: 8c82 c9bb cf57 92be 8e38 60bc 136d 5cbd
00000280: f023 a1bd 1c55 a03e 3c17 04be d89f ffbd
00000290: 237f 0dbe 25b5 ddbc 92b8 4dbd 4665 bcbd
000002a0: c2c8 a13e 4c62 6a3e 15ec 96bd 6322 12bf
000002b0: c85b 603e eb60 21bf 85de 14bf 008d 113d
000002c0: 74ae e43c 8c2a f43e 4026 2b3e a588 a83e
000002d0: ba67 953e 1236 2d3d 1eda 8fbd cf10 803a
000002e0: 2c66 423e 39c9 06be cfe3 97bd 4bd9 143e
000002f0: 8074 be3c 83ee 443e 30df 0d3d e4a8 9f3b
00000300: c03c e6bc ef43 253f a1d4 363e 8dd7 9dbe
00000310: f59e 98be 1119 d5bd a6fb 59bd 1f3a 34bd
00000320: 8fa6 c9bc 9b94 3ebe bd79 43be ae9c 8b3e
00000330: 2d91 28be 1251 b3be 8dd1 41bd 59cc 33be
00000340: 5ccd 9abe 38b8 8abe fd52 983e 72bc b1bd
00000350: d4b8 483e 1ab0 9abf 964a 863e 73c9 9ebd
00000360: 22f7 c1bd cf79 cbbd e431 6ebd 5a85 523e
00000370: 3412 05be 3faf 9b3e 2244 4bbf f6fa 44bd
00000380: 9fb5 f33c 8723 783d e2d3 9ebc fb4f e5bd
00000390: 8577 adbe 6ce4 85be 6858 67be 9dfb e33e
000003a0: 2a52 3a3e c308 103d e1c5 083c 1cfe 5abe
000003b0: ad7a 3abf 39ac 60bd eca7 d43e 4960 b5bd
000003c0: 5e3c bfbe b73e 95be 84ca 2ebe a369 68be
000003d0: 7820 1abe 964c 22be 3ae7 66be 1ce3 533e
000003e0: 4c25 5abd 8eaa db3d 25bf 29be e455 b8be
000003f0: 52a4 9fbd b54f 4bbe fb1c e33d 2b1e 35bf
0.02307138 0.30849206 -0.046974644 0.010463757 -0.33332077 -0.40827698 -0.1255676 -0.18505208
0.009028947 0.031669836 0.00693697 0.109529816 0.13554625 0.21005319 0.023940451 -0.16984282
-0.16353935 -0.15618967 -0.05273615 0.021839423 1.0244687 0.30919063 0.12715262 -0.08616475
-0.54875255 -0.13026783 -0.19169149 -0.2998513 0.14652589 -0.30267674 0.31719536 -0.03141448
0.29594123 -0.5380829 0.0991042 0.3510884 0.17660901 0.29780063 0.124786146 0.13355325
-0.46896175 -0.2486924 0.30626807 -0.07773209 0.1711595 0.30792168 0.63942784 -0.6826397
-0.18740638 0.060658228 -0.6202028 -0.1331774 -0.06631007 0.22653863 0.05586171 0.087967336
-0.12128598 -0.0029256777 0.41569754 -0.64887613 -0.16232634 -0.03928251 0.011075311 -0.77014714
0.9145038 0.54937565 0.43568465 -0.81606096 -0.67714924 -0.021885497 -0.11109297 0.41481254
0.28346795 -0.10194046 -0.21215396 0.230452 -0.10585126 -0.422378 0.3139675 0.62025285
-0.06775997 -0.14427023 0.4489594 0.11893664 0.56972665 -0.20889492 -0.39881298 -0.21506767
-0.31221431 0.07664364 -0.00084147765 -0.19619308 0.27983493 -0.06101963 -0.23491867 -0.29129675
-0.010226387 0.039875098 -0.22459756 -0.18164434 -0.37652224 0.0713699 -0.038682666 -0.26288366
0.017449811 -0.0011498935 -0.4093336 -0.6379833 0.08251621 -0.40471426 -0.03135518 -0.3870221
0.08716328 -0.48752367 -0.1479699 -0.10680481 -0.016932277 0.30218259 0.63763523 -0.30303797
0.02840568 -0.17572618 -0.46125078 -0.1748749 0.32863718 0.6028542 -0.43138257 -0.061701853
0.44917226 0.0427299 0.01752569 0.1398677 -0.44867292 0.36838523 -0.0077638132 0.08450879
-0.26049036 0.26365492 0.2179524 -0.0639267 0.061656542 0.0065861014 0.034500916 0.038739327
-0.22087276 0.2399249 0.15886794 -0.0021984912 0.019003201 -0.14660968 -0.21449387 -0.41694877
0.18205786 -0.13773753 0.18945627 -0.21400855 -0.0061495956 -0.28582618 -0.013685359 -0.05381496
-0.07868183 0.31314933 -0.12899488 -0.1248166 -0.1381803 -0.027063916 -0.050224848 -0.09199004
0.3159848 0.2288906 -0.07369248 -0.5708372 0.21910012 -0.6303851 -0.5815204 0.03553486
0.027915217 0.4768871 0.1671381 0.32916752 0.291807 0.042287894 -0.070240244 0.0009770634
0.18984288 -0.13162698 -0.07416498 0.14536016 0.02324891 0.1923161 0.034636676 0.0048724283
-0.02810514 0.64556783 0.17854549 -0.30828515 -0.29808775 -0.10405172 -0.053218506 -0.04400074
-0.024615554 -0.18611376 -0.19089408 0.27267975 -0.1646163 -0.3502279 -0.047318984 -0.17558421
-0.30234802 -0.27093673 0.29750815 -0.08678521 0.19601756 -1.2084992 0.2622878 -0.07753267
-0.09470965 -0.099353425 -0.05815305 0.20558682 -0.12995225 0.3040714 -0.7940084 -0.048090898
0.02974969 0.060580757 -0.019388143 -0.11196896 -0.3388025 -0.26150835 -0.22592318 0.44527903
0.18195406 0.035164606 0.008347959 -0.21385998 -0.7284344 -0.054851744 0.41534364 -0.088562556
-0.37350744 -0.2914941 -0.17069441 -0.22696547 -0.15051448 -0.15849528 -0.22549143 0.20692104
-0.053258225 0.1072589 -0.16576822 -0.3600303 -0.077950135 -0.19854625 0.11089512 -0.7074916

bias f4 [64]
00000000: e001 aab9 8f9d 653e 9374 083d 21a4 ebbd
00000010: a218 3a3c c5c5 a9bd a855 413e 4f94 043d
00000020: 24b8 3fbd 0b4c 053e 9dad b6be bee6 603e
00000030: b27c a1be ba4e 5bbe 0d84 6e3d 3932 9f3b
00000040: c1c3 e0bc 5ea1 6dbd 6f56 c0be ab73 cfbd
00000050: 8940 03bf 803b d03d a48e 28be 4486 72be
00000060: dac3 76be 2b0a f53d 306b 1fbe 4058 f5bb
00000070: 217a 463d bc06 abbe 93ac ae3e dba8 0d3e
00000080: dd48 dcbd 4262 2a3e 4e95 6fbe 0861 fe3c
00000090: 16a9 343e 9560 babe c3fb bdbd f6ff c7be
000000a0: 3dcb fcbd 575b 12be 8ae2 0abd b5a9 c6bd
000000b0: 2531 44bd a5ff 0c3e 52d9 1a3e 8a04 29be
000000c0: 84cd 86be d6cb 74bd 500c a63d 45d9 1abe
000000d0: 4c81 05be c244 0ebe c8dd 4cbd 1e65 283d
000000e0: 700d b83e cbd5 15b8 7098 6a3c 1348 d2be
000000f0: fdf7 e8be c7c8 d33d 150f 2abe b52b 29be
-0.00032426324 0.22423385 0.0333143 -0.115059145 0.011358412 -0.08289675 0.18880332 0.032368
-0.04680647 0.1301729 -0.3567933 0.21963021 -0.31540447 -0.2141675 0.058231402 0.004858282
-0.027437093 -0.05801522 -0.37565944 -0.10129484 -0.5127035 0.10167599 -0.16460663 -0.23684031
-0.24098149 0.1196483 -0.15568233 -0.007487327 0.048456315 -0.33403575 0.3411604 0.13833944
-0.10756085 0.16639045 -0.23396799 0.031052127 0.17642626 -0.3640181 -0.09276535 -0.3906247
-0.12343452 -0.14292656 -0.03390745 -0.09700338 -0.04789843 0.13769396 0.15121964 -0.16505638
-0.2632867 -0.059764706 0.08107817 -0.15121944 -0.13037604 -0.13893417 -0.050016195 0.041112058
0.35947752 -3.572348e-05 0.0143185705 -0.41070613 -0.455017 0.103410296 -0.16607316 -0.16520579

weight f4 [64, 64]
00000000: dbd7 343d 536e 203d e9f6 35bd 2448 9a3d
00000010: ea6d 3a3c e566 b4bb 19f0 853d 3a6f b83d
00000020: 47ab f3bd dd7d d03c 5dab ed3c b41a 7fbd
00000030: fd2a ce3d c6bd 16be 4c48 963e b6b7 7ebe
00000040: 6430 27be c191 503e 4dba 60bc fce8 393d
00000050: 4708 713d 9b6c 5abd 0dce a1be f7d7 3d3d
00000060: 3f53 113e 4821 233d f62c 0a3d e294 9d3d
00000070: 7645 843e 290e adbd 12f6 af3d d789 1b3e
00000080: 8eeb d33d 1f43 2c3e 093a 06be 7db2 093d
00000090: 64ab f3bd e892 86ba e50e a23e add9 883d
000000a0: 73ee 35bc e4df 1bbe d629 5bbd f460 dabd
000000b0: 2e88 b93d 1704 8cbe 0fc4 c03d 5545 ec3d
000000c0: d5dd aebd 0ae1 e3bc bd5d 51bd f48e 2abe
000000d0: 99f4 eb3d 6236 53be 46b8 933c 1e16 633e
000000e0: 199a 783d 131e bfb9 e931 11be 3b73 11bc
000000f0: 2afd 403d 735d 583e e135 eebd f1ee f9bd
00000100: 6294 53be e77f 13be 35ae 2f3e 16d0 8cbd
00000110: e74d 123e 02ec 6a3e 2d5f ea3d 20b5 38be
00000120: 212f e1bd c2a3 d7be ff33 b73c c2b5 093e
00000130: 94d9 d0bc 50d0 16bc 0620 8ebe b9b6 3dbe
00000140: 7f0e e63d 2b01 013e 300d 843e fab8 c43c
00000150: 9681 ac3d 9c44 84bd aa11 363e da60 e33d
00000160: 7019 a23c 1bb1 303e 30b1 cbbe ab8f 143d
00000170: 2772 463d 6b2c cf3d d0c2 b2bd 3d86 9f3d
00000180: 1898 373e 66ad 55be 61f1 883e 3954 90bd
00000190: e252 1abe c8b8 bc3e bd98 e03c d4ee 023e
000001a0: 54bd 853e fa64 6c3e 4091 4cbb 88fa e03e
000001b0: e0d8 abbe 38fc 31bd 0626 23bf 9bd0 25bd
000001c0: 855f 813e cbfc 223c c55a 273e 8993 4f3c
000001d0: 310a 3c3d 03a2 a63d 872d 7abd a621 afbe
000001e0: 052e 8f3e 31fd c23d dd85 e1bd c52e 1d3e
000001f0: e16f d0bd 23dd 873e 7266 0bbf 4cad 1e3e
00000200: 5d79 99bc cc27 9e3c e85f 8d3d b74e 633d
00000210: e5bb e63d e1a3 6ab9 6f21 5f3e d19f 73be
00000220: 09d9 05bd 1852 ec3d df79 78be 31da 333e
00000230: 9ea0 c1bc 58bc 3cbd 28e9 1b3e 2a95 0c3d
00000240: eef2 b63c d537 41bd 9e5c 83bd abb8 4a3e
00000250: aa7b 4b3c 39b0 63be d32a 7c3d 0d6c 85be
00000260: c4e1 2cbd 8b99 95bd ade7 7fbb db61 43bf
00000270: 3612 bd3d 2c7e 92bd 31f4 82be f4b2 df3d
00000280: fd09 33be 9adc 12bc 4ac7 823e 3cf6 efbc
00000290: 13a5 943b 9cdf 15bc 667d f8bc 6469 7d3d
000002a0: d47b 653d 3be3 fbbc 5848 d4bd 7a06 5cbd
000002b0: 9f84 24bd 7009 10be a099 a7be 85ba 62be
000002c0: f072 18bb 6282 00be c4b0 703e d3aa c0be
000002d0: 35ea 55bd 723c 3c3d 6941 2ebe f1c1 0abe
000002e0: adc6 2f3e c59e 663d 101b 00be f2de 73be
000002f0: 8dc2 6bbd c457 f83c 00f0 c8be 87b9 1f3e
00000300: a3e9 023c 1c68 f93c a2fd b4bd 1ac8 7b3d
00000310: b092 be3c ab23 1e3e ebf4 a63d e735 adbd
00000320: 52dc 093c cf75 e53c 1b5e ca3d 662c 31bd
00000330: 0b93 b53c 70e4 07be 9a16 543e 2a0f dfbd
00000340: 92a3 17bc 1ec9 983c f620 243d f912 253d
00000350: 3d2f 07be b93e b1bd ab94 ae3c d5b8 2abd
00000360: 5fef a73d 2542 8a3d 7bb7 a93d e7e0 d93d
00000370: dd90 4cbc d800 bebb 5181 3ebe e55d cfbd
00000380: 1d07 b93d 14b0 1dbd 4652 c8bc dd36 e93d
00000390: 7972 2fbe a36e c03d 697b 9d3e 04fe 8e3d
000003a0: ad34 7bbd c45b cabd 179a a73d b019 973d
000003b0: ca45 4c3e 34dc 653c f6d1 a33d 2b59 183e
000003c0: d18e 933c 30ec 34bd af4e 11be c5f3 183e
000003d0: 1647 3dbb c5cb 273e b6ac d7bd 1b83 483e
000003e0: 83b0 38be 2444 0cbe 511d df3d a8d5 84bc
000003f0: c5a4 033e dc69 963d bc2c e0bb 28a7 5cbd
0.04415117 0.039167713 -0.044424925 0.07533291 0.011378745 -0.00550543 0.065399356 0.0900559
-0.11897903 0.025450641 0.029012376 -0.062281325 0.10066793 -0.1472083 0.29352033 -0.24874768
-0.16327053 0.203681 -0.013716293 0.045388207 0.058845785 -0.05332623 -0.31602517 0.04634854
0.14191912 0.03982666 0.033734284 0.07694413 0.25834244 -0.084499665 0.08591856 0.151893
0.10347663 0.1682248 -0.13108076 0.033617485 -0.118979245 -0.001026717 0.3165199 0.06682143
-0.011104214 -0.15222126 -0.053506695 -0.106630236 0.09059177 -0.2734687 0.09412395 0.115366615
-0.08538405 -0.027817268 -0.051114786 -0.16656095 0.11521263 -0.20626214 0.018032204 0.22176406
0.060693834 -0.00036452766 -0.14179195 -0.008877571 0.047116436 0.21129398 -0.1163137 -0.122037776
-0.20662072 -0.1440426 0.17156298 -0.06875627 0.1428753 0.22941592 0.114439346 -0.18037844
-0.10995317 -0.42117125 0.02236366 0.13448241 -0.025494374 -0.009204939 -0.27758807 -0.18526734
0.11233234 0.12598102 0.2579131 0.024013985 0.08423154 -0.06458399 0.17780176 0.11102457
0.01978752 0.1725506 -0.3978362 0.036269825 0.048448708 0.10115894 -0.08728564 0.07789276
0.17929113 -0.20866928 0.26746657 -0.07047314 -0.1507068 0.36859727 0.027416581 0.12786418
0.26121008 0.23085395 -0.0031214505 0.4394114 -0.335639 -0.043453425 -0.63729894 -0.040482145
0.25268188 0.009947966 0.1634322 0.0126694525 0.045908157 0.0813637 -0.061078575 -0.3420536
0.27964798 0.09520949 -0.110118605 0.15349872 -0.10177589 0.265359 -0.54453194 0.15495795
-0.018734628 0.019306086 0.06903058 0.05549499 0.11266307 -0.00022377029 0.21790098 -0.23791434
-0.032677684 0.11539096 -0.2426524 0.17563702 -0.023636159 -0.046078056 0.15225661 0.03432194
0.022332635 -0.047172386 -0.0641415 0.19797008 0.0124196205 -0.22235192 0.061564278 -0.26059
-0.042207494 -0.073046766 -0.0039048002 -0.7632119 0.09231989 -0.071529716 -0.25576928 0.109228045
-0.17484279 -0.008963728 0.2554267 -0.029292218 0.00453628 -0.009147551 -0.030333232 0.061868086
0.056026295 -0.030748 -0.10365361 -0.053717114 -0.04016554 -0.140661 -0.32734394 -0.22141464
-0.0023261867 -0.12549737 0.2350493 -0.3763033 -0.05222531 0.045956083 -0.1701714 -0.13550545
0.17165633 0.05630376 -0.12510324 -0.23815516 -0.057558585 0.030315287 -0.39245605 0.15598117
0.007990274 0.030445151 -0.08837439 0.06147013 0.023263305 0.15443294 0.08152183 -0.08457547
0.008414345 0.028010277 0.098812304 -0.043255232 0.022164842 -0.13270736 0.20711747 -0.10891564
-0.009255307 0.018650588 0.040070496 0.040301297 -0.13201614 -0.086545415 0.021311125 -0.041680176
0.08199953 0.06750897 0.08286949 0.106386 -0.01248571 -0.0057984404 -0.18604018 -0.10125331
0.0903456 -0.038498 -0.024453294 0.113874175 -0.17133512 0.09396102 0.30758217 0.069820434
-0.061329532 -0.09880784 0.08183687 0.073779464 0.19948497 0.014029551 0.07999031 0.14877765
0.018012436 -0.04417056 -0.14190172 0.1493674 -0.0028881482 0.16386326 -0.10530989 0.19581263
-0.18036084 -0.13697869 0.108942635 -0.01621516 0.12855823 0.0734441 -0.0068412703 -0.05387035

bias f4 [64]
00000000: e4dd c6bd e47d 593d 58b3 423c 9948 1f3e
00000010: cfc6 373d 3cd6 1d3d d9db 2dbd cbfc 8e3e
00000020: 506e d3bd b41e a8bd c0dd c43e a4b7 12be
00000030: ae12 afbc 0ca6 7dbe 78cc 743d 6a58 713e
00000040: 69aa f93b e787 a2be edc7 afbc 5a09 01be
00000050: 8bee 503d 395d 88bd 0624 0abe bf34 00bd
00000060: fbe9 59bc c579 a43e b383 ca3d 6602 153e
00000070: b3c1 34be 0eef 27be c276 053e e6fc d93d
00000080: a2ca 8ebe 1540 2fbe 22b0 47bd 605c 81be
00000090: 7be3 f2bd 943d 0bbe 3f99 56bd bf6d 0bbc
000000a0: 6f13 0f3e a2ab bebe 2008 03bd 1bc5 2d3d
000000b0: 4464 d0bd b369 3fbe aaa4 4ebe 2205 57be
000000c0: 24bc 993d 8e3f ba3e 7eca a2bd 184c 56be
000000d0: 1a10 843e 3f54 a53d 71b8 c23d 322a a6be
000000e0: b50f 323e e464 f23d 6de0 4dbd 82f6 f2bd
000000f0: 9c04 1b3c 0393 033c 4422 48be 79a5 4c3e
-0.09710291 0.053098574 0.011883579 0.15555038 0.044867333 0.038534388 -0.04244599 0.2792724
-0.10323775 -0.08208981 0.38450432 -0.14327866 -0.021371212 -0.24770373 0.05976531 0.23568884
0.0076191914 -0.3174431 -0.021457637 -0.12601224 0.051008742 -0.06658406 -0.13490304 -0.031300303
-0.013300414 0.32124153 0.09888401 0.14551696 -0.17652015 -0.16399786 0.13033584 0.1064394
-0.27888972 -0.17114289 -0.048751958 -0.2526579 -0.11859795 -0.13597709 -0.05239224 -0.008510052
0.13972257 -0.3724032 -0.03199017 0.042424303 -0.10175374 -0.18692665 -0.20180002 -0.20998052
0.07506588 0.36376613 -0.079487786 -0.20927465 0.25793535 0.08072709 0.09507836 -0.32454067
0.17388804 0.118356496 -0.050262857 -0.11863424 0.009461548 0.008030656 -0.19544321 0.19984998

weight f4 [6, 64]
00000000: ca41 2abe 41f2 00be 2e21 36bc e41e f0bd
00000010: 5eda b9bd 214c 793d 6bd8 fbbd f675 323d
00000020: 16be 5c3d b047 e8bd f8c9 5fbd 5280 153d
00000030: e846 733d 08e8 4f3d cba0 d1bd a3e1 bcbd
00000040: 9396 4a3e fbc0 423e 7753 843d cf1d df3d
00000050: 0749 e93c c3c6 38be 0c7d 843d ced6 103e
00000060: deca 273e 097a 0e3c 58f9 783d a1a6 cbbd
00000070: 2016 14bd 2660 92be 5416 9639 1118 8f3a
00000080: a22c 6fba 7cd8 1e3e 39b0 7dbc 1213 773d
00000090: 6ac5 003c 6626 543d e305 84be 3786 753e
000000a0: 4a98 bc3d 590c 923d 17ef b53c 6438 54bd
000000b0: 3fa1 9a3e 9c5f ab3d 0e75 773c 44ac 8c3d
000000c0: ba7c 123d 624d 40bc dfa8 c8bd e4fe dabc
000000d0: 96e2 35be 9dac 43bd ee3a 89be 66f3 12bd
000000e0: df08 b53d 7922 c0bd 2456 4f3c 0b8c 3cbe
000000f0: 443a b8bd 6522 dc3c c771 a23e 3263 e4bd
00000100: 5a93 9d3d 538b e33d 667e 8abe 6d4a 26bd
00000110: 495e 123d 4b7e 50bd 12c1 d93d d49b 8bbd
00000120: e009 283e dedc b2bd c588 103e 79f6 6e3c
00000130: e4a8 33be 42af 43bd 8db2 653d c5a8 94bb
00000140: 687b bd3d c0c2 cfbc c827 b13d 5f4e 9dbd
00000150: 55dc 90bc dc9e f73d 766d 74bd 640b 30be
00000160: 591c 03bd dde4 9e3c 972a fc3c 9ded 67bc
00000170: a0aa 09be 8f94 17bc 6f8f 12be b36d acbb
00000180: bb54 143d fae7 9bbc d791 093e ece5 1a3b
00000190: d9a9 69bc 9d52 debd 2672 efbd cab2 323d
000001a0: 0206 593e 5b34 96bd 8cbd 89be e633 133d
000001b0: 9044 153e 397c 283e 8eb5 c53d 7db0 68bc
000001c0: c44d f93d 5521 8a3d cb68 cc3c 89b8 143e
000001d0: d842 193d 983e 623d 5aa2 053e c5bc bdbc
000001e0: 9048 6dbd c9df e03d 7d8d f1bd a7f3 17be
000001f0: 2ecb 323e 5c4b 483c deb6 53bb 6d9b ac3d
00000200: 476e 87ba e41f 133d 37e0 babd a946 4e3d
00000210: 3a9d 9e3c c511 543c 3184 583b 4781 f43d
00000220: 188a 8cbe f650 9a3d 513e 223d 2b63 8dbe
00000230: a810 33be 1e7f 6ebe 9a45 de3c 7a10 043d
00000240: 23ee 8cbd 9160 3bbe 9593 bc3d 17f0 41be
00000250: a91a 5e3d 7421 4cbd 89c7 21be 73f0 b7bd
00000260: 5784 cbbd 896e 003e 9586 213d b8b1 653d
00000270: d298 98be 4584 a6bd dd9f b43d 1727 c63d
00000280: 529f 1abd 4267 57be 74d0 813b 8aee 41be
00000290: 4944 4cbd def2 183c eb6f 39bd 0b4f 5ebd
000002a0: 9dee 053d a145 6fbe 0ed1 52bc b260 cc3d
000002b0: b526 5f3c d43d 99bd 2707 8dbd 93fc 99bd
000002c0: 1c92 e53d a66e cb3d 0619 ecbd 3f5b b2bd
000002d0: 93e2 063e 1ca6 803d 0cc5 473c 909c 62be
000002e0: 2907 e93d 66f3 d13d 4171 023d 4541 6cbc
000002f0: 2e7b 233c a4cb 533d e18f 31be 39c8 673d
00000300: 9d67 b4bd b2e1 5c3e 1dc0 25be 8e3a 9a3c
00000310: cacc 80bc 1dab e93d 4750 5ebd 654e c3bd
00000320: 5da3 3a3c 3e6d eebd eac3 f43d 9002 3a3e
00000330: 26b3 ccbb af3d 31be 7b8e dabd ea4d 033e
00000340: acda 973d 1310 5cbe e1cc 27be 3cc3 3ebe
00000350: fcaf e2bd ed4b 6abd 140d aabd baee 72bd
00000360: 8238 49be dce5 54bd 8a19 67bd 4535 1f3e
00000370: 9fc7 6d3d ed07 0d3e 3102 0a3e 1176 20bd
00000380: 4e64 ccbd 50cf 2a3c 54a1 0bbe c776 fd3d
00000390: edca c03c 8399 c9bc 4c37 4f3d 4daa b13e
000003a0: f95a 3f3e 6536 45bd f3ef 6c3e f851 8fbe
000003b0: dd63 393d 3cce 27be bfbb 55be 0d46 a73e
000003c0: 34c7 ae3c 52db 823d 114f 1d3c 1fcb b7be
000003d0: d376 5abd b280 f43d 0d9b a33d 8a68 19be
000003e0: 39b1 3e3e 841f 2abd cb90 01be 231c e6bd
000003f0: c171 10bd 249f 13be ce3b d4bb 0b8d 1dbd
-0.16626659 -0.12592413 -0.011116309 -0.11724642 -0.09074853 0.060863618 -0.12297138 0.043569528
0.053892218 -0.11341798 -0.05463597 0.03649933 0.059393793 0.05075839 -0.10235747 -0.09222724
0.19784002 0.19018929 0.06461232 0.108943574 0.028477205 -0.18044572 0.06469163 0.14144441
0.16385981 0.008696088 0.060784668 -0.09943891 -0.036153913 -0.2858898 0.00028626865 0.0010917207
-0.0009123777 0.1551227 -0.015483909 0.06032092 0.007859567 0.051794432 -0.2578574 0.2397698
0.09208734 0.071312614 0.022208733 -0.05181159 0.30201146 0.083678454 0.015103592 0.068687946
0.03576348 -0.0117371995 -0.097978346 -0.02673287 -0.17762217 -0.04777204 -0.26802772 -0.035876654
0.08839583 -0.09381575 0.012654815 -0.18412797 -0.08995488 0.02687187 0.3172743 -0.111517325
0.07694121 0.11110558 -0.2704956 -0.04059832 0.03573445 -0.050901692 0.10632528 -0.06816831
0.16410017 -0.08733533 0.14114673 0.014585131 -0.17544895 -0.04777456 0.056078482 -0.0045367205
0.092520535 -0.025361419 0.08650166 -0.07680964 -0.017683187 0.12090847 -0.059674703 -0.17191845
-0.032009456 0.01939624 0.030782027 -0.0141557725 -0.13443995 -0.009251728 -0.14312528 -0.0052621006
0.036213618 -0.019031513 0.1343454 0.002363558 -0.014261686 -0.10855601 -0.11691694 0.043627538
0.21193698 -0.07334205 -0.26902425 0.035938166 0.14576936 0.16453637 0.096537694 -0.014202234
0.12173036 0.06744639 0.024952313 0.1452352 0.037417263 0.055235475 0.13050213 -0.023161301
-0.05793053 0.10980184 -0.11794565 -0.1483904 0.1746032 0.012224998 -0.0032305042 0.084280826
-0.0010332548 0.035919085 -0.09124797 0.050360356 0.01936208 0.01294369 0.0033037777 0.1193872
-0.27449107 0.07534973 0.03961021 -0.27614722 -0.17486823 -0.23290679 0.027132798 0.032242276
-0.068813585 -0.18298556 0.092078365 -0.18939243 0.054224644 -0.04983659 -0.15798773 -0.08981409
-0.09937351 0.12542166 0.039434988 0.05607769 -0.29804093 -0.08130697 0.08819554 0.096754245
-0.037749596 -0.21035483 0.003961617 -0.18938652 -0.04986981 0.009335248 -0.04527275 -0.0542746
0.032698262 -0.23366405 -0.012867225 0.09979381 0.013620068 -0.07482496 -0.0688613 -0.07518878
0.11209509 0.09933214 -0.1152821 -0.0870881 0.13172369 0.06281683 0.012192976 -0.22130036
0.11378319 0.10251503 0.03184629 -0.014419858 0.009978099 0.05170788 -0.17340042 0.05658743
-0.08808825 0.21570471 -0.16186567 0.01882675 -0.015722651 0.114095904 -0.054275777 -0.09536437
0.011391488 -0.1164193 0.1195143 0.1816504 -0.006246942 -0.17308687 -0.10671707 0.1282269
0.07414755 -0.21490507 -0.16386749 -0.18629164 -0.110687226 -0.057201315 -0.08303276 -0.0593097
-0.19650462 -0.051977023 -0.05642084 0.15547664 0.0580517 0.13772555 0.13477398 -0.039175097
-0.09980069 0.010425404 -0.1363576 0.123761706 0.023534263 -0.024609333 0.050589845 0.34700242
0.18687047 -0.048147578 0.23138408 -0.27992225 0.045261253 -0.16387266 -0.208724 0.32670632
0.021335222 0.06389488 0.00960137 -0.35897157 -0.053335976 0.11938609 0.07988558 -0.14981285
0.18622293 -0.041533962 -0.1265289 -0.112358354 -0.035264734 -0.14416176 -0.006476856 -0.038464587

bias f4 [6]
00000000: 18c7 13be b121 023d 8cbc 1e3e d36d 433e
00000010: 12ac 033e a0cf 983c
-0.14431417 0.031770412 0.15501612 0.19084863 0.12858608 0.01865369
