2026-01-29_07-44-49_Fase2_Empuje_V1/model_1700.pt (torch, 189045 bytes, 36 tensors)

std f4 [6]
00000000: bd21 e33e 425c eb3e bc77 a93e 04b6 5a3f
00000010: de7a 583f 8be1 3340
0.44361678 0.45968825 0.33099163 0.85433984 0.8456248 2.810641

actor.0.weight f4 [64, 43]
00000000: dbd2 8c3c 3046 a83e 7005 99bd e5a0 303d
00000010: bf9e 8fbe 89c9 a6be 197d 01be 8aef 7cbe
00000020: 017b e3bb 5821 933d 610a 54bd 378b aa3d
00000030: 553a 183e 010d 6d3e ffab 27bc 54c0 dcbd
00000040: 082e 27be 64ce 69be 1a7a 0ebd afd0 4d3b
00000050: a8a5 4f3f 6c10 5b3f fb73 873e 867e 61bd
00000060: 3e72 1abf 1abd e9be c141 1cbe 29f1 71be
00000070: 8214 613c ed68 88be e7f2 9e3e fd6f 8a3d
00000080: 1f90 c63e f697 00bf edf7 d13d 62fd 613e
00000090: f60e 8f3e 6d46 963e 8aba 5f3e b8bf 613e
000000a0: 844b d7be b6ce 71be ab05 b23e 62af 3abd
000000b0: 8e32 5c3e c99a 9f3e 1fc9 203f 72da 1cbf
000000c0: 1f25 1ebe e3cb cb3d 5bba 36bf 40ec 16be
000000d0: 88ed 88bd f905 2c3e aca1 b73c 98a7 053e
000000e0: 110b a2bd 278a 5dbc c606 f73e 1cb8 2abf
000000f0: cb67 33be 84cf 14bd 010e 233c 6c58 26bf
00000100: 797c 883f 7c06 e93e c261 8e3e af57 54bf
00000110: 3f9f 72bf ae84 7d3d 693f bcbd 4928 263e
00000120: 8b7b 9c3e 6d69 81be 8e3d 12be 4e39 d53e
00000130: 1354 0cbe 3ab0 c1be 0111 9e3e 33c0 003f
00000140: 1b96 53be 6fcb 9dbd 0b3b 1d3f 0f69 bf3d
00000150: 3979 1f3f 0350 e0bd 73de c8be 9472 38be
00000160: 385e 88be ac2d c23c 862c 1abc adff 9cbe
00000170: 6246 a23e 40f5 8abd 907e cabe 7fa0 3cbe
00000180: e33e 8dbc d781 643d 2aa1 2dbe 7e9c 18be
00000190: 2245 aebe 15a1 d93d 2094 2fbd 407d 89be
000001a0: ac49 deba 70cd 9f3b 1e20 babe f056 b6be
000001b0: 01ce eabc 78e3 b3be 32e8 bfbd 4c54 66be
000001c0: ea2c 843d b340 dcbe a67f edbd 337e bdbd
000001d0: 9b24 4bbe 1f1e 763e e950 033f d359 97be
000001e0: 64a2 5abd a32d cfbd d438 1fbf 2a4e a9be
000001f0: abf5 8c3e e2db f93e f28e 06bf a05e 89bd
00000200: c886 ea3e 8482 28bd e943 563d 6cb7 233e
00000210: 4283 ecbe e478 ac3e ff8d 3b3d dc66 2d3d
00000220: 6e47 6dbe 28b7 7a3e 0d13 cc3d 6c82 95bd
00000230: e94a 9c3d f9bd d6bd db39 9b3d 6437 683d
00000240: 92a2 83be 96b7 5d3e b9fb 093e 7455 dd3c
00000250: b7e9 523b 2b8a c6bd 6bca d4be 9d09 09be
00000260: 6b98 2e3e 36c6 a9bd 8a3c 403e 39ae 55be
00000270: 97cb 73bb 0586 d2bb b4f2 04bc eb6e f6bb
00000280: 9194 95bd 6e8c 9d3e 4e06 a7bd af4e 4bbd
00000290: dd4a 92bd 4d3a 073d 0419 04bc e13e c4bd
000002a0: b0d5 9d3e e124 253e 7177 aebd e8a3 08bf
000002b0: 45b5 513e ceef f9be a8a0 06bf 3216 31bd
000002c0: 70de af3c 6c74 a83e d433 0c3e 7c7d 8d3e
000002d0: 5eb1 af3e c702 bc3d ae79 55bd 3733 3bbd
000002e0: f8ad 2c3e d49c 94bd 4bba 3cbd f2d1 1f3d
000002f0: 1c27 193b 9dbf 353e 7e99 b23c 2ccb ebbb
00000300: a4ab eb3c 2de1 f23e a706 033d 7e83 8cbe
00000310: be08 49be a35a 183c 61db 1abd 2153 e2bc
00000320: 942c d8bd 93fc 18be 05ac 2dbe 4003 9c3e
00000330: a2fa 3abe c78c aebe 1827 4bbb 657d 76be
00000340: 66cb c4be 2e50 7fbe 7108 b13e f28e d6bd
00000350: 9d12 573e fad9 87bf 6d2c af3e ffdd b9bd
00000360: f6f8 8abd 97a4 afbd cbb8 26bd 88ee 5c3e
00000370: 434c 06be 0d3b 833e 31d7 5cbf 3399 9b3d
00000380: 71ad 10bd bee8 7a3d d665 eabc 3566 36be
00000390: 0056 93be 2909 76be 8ced 67be fc04 f23e
000003a0: d547 163e dbc3 eb3c 64c0 afbb c755 1abe
000003b0: c6bb 46bf 5763 773c 92ae c83e ba4e a8bd
000003c0: dec3 a8be 6969 8ebe e285 32be 304d 02be
000003d0: e616 0bbe 7016 75be e6c9 26be e66d 543e
000003e0: e766 27bb 0a00 373e 6e9d 5fbd 6f19 c2be
000003f0: b4db 1ebe 2350 0abe 0b96 e53d fd7c 20bf
0.017190387 0.3286605 -0.0747174 0.04312219 -0.280508 -0.32575634 -0.12645377 -0.24700752
-0.0069421534 0.07184094 -0.05176771 0.083273344 0.14866002 0.23149492 -0.010233878 -0.10778871
-0.16326153 -0.22832638 -0.034784414 0.0031404903 0.81112146 0.8557193 0.26455674 -0.055052303
-0.6033057 -0.45652086 -0.15259458 -0.23627152 0.0137378 -0.26642552 0.31044695 0.06759641
0.3878183 -0.50231874 0.10252366 0.22069314 0.27941102 0.29350606 0.21848503 0.22045791
-0.420498 -0.2361401 0.3476995 -0.045577414 0.2150366 0.3117278 0.62806886 -0.6127082
-0.15443848 0.09950998 -0.71378106 -0.1473856 -0.066859305 0.16799153 0.022415958 0.13052213
-0.07912267 -0.013521708 0.48247355 -0.6668718 -0.17520063 -0.036330715 0.009952069 -0.6497867
1.0662986 0.4551276 0.27808958 -0.82946295 -0.9477424 0.06189411 -0.09191782 0.16226305
0.30563006 -0.25275746 -0.14281294 0.41645283 -0.13703947 -0.37829763 0.30872348 0.5029327
-0.2066273 -0.077048175 0.6141822 0.0934621 0.62294346 -0.10952761 -0.39232215 -0.18012458
-0.26634383 0.023703419 -0.009410029 -0.30663815 0.31694323 -0.06785059 -0.39549685 -0.184206
-0.0172419 0.055787887 -0.1695601 -0.14903447 -0.3403712 0.10626427 -0.042865872 -0.2685337
-0.0016959212 0.004876785 -0.36352628 -0.35613203 -0.028662683 -0.35134482 -0.093704596 -0.22493094
0.06453879 -0.43018112 -0.11596613 -0.09252586 -0.19838183 0.24034928 0.51295334 -0.29560718
-0.053377524 -0.101161264 -0.6219609 -0.33067447 0.2753118 0.4880057 -0.5256187 -0.067075014
0.45805955 -0.041140094 0.052310858 0.15987939 -0.46193892 0.33685982 0.045789715 0.042334422
-0.2317178 0.24483931 0.09964571 -0.073002666 0.076314755 -0.10485453 0.075793944 0.05669345
-0.2570997 0.21652064 0.13474931 0.027018286 0.0032182762 -0.09694322 -0.41560683 -0.13382573
0.1705033 -0.08289759 0.18773094 -0.20867242 -0.0037200206 -0.006424668 -0.008114506 -0.0075205467
-0.073037274 0.30771202 -0.081554994 -0.049635585 -0.07143185 0.033014584 -0.008062605 -0.09582306
0.30827093 0.1612735 -0.085188754 -0.533751 0.20479305 -0.4881577 -0.5258889 -0.043234058
0.021468371 0.32901323 0.13691646 0.276348 0.34315008 0.09180217 -0.052117996 -0.04570314
0.16863239 -0.07256475 -0.0460761 0.03901858 0.0023369258 0.17748876 0.021801706 -0.007195851
0.028768368 0.4743742 0.031988766 -0.2744407 -0.19632241 0.009298953 -0.037806872 -0.02762753
-0.105553776 -0.149401 -0.16960151 0.3047123 -0.18259671 -0.3409178 -0.0030998643 -0.24071272
-0.3843643 -0.2493293 0.34576753 -0.104764834 0.21003194 -1.0613396 0.34213582 -0.090755455
-0.06785767 -0.08576315 -0.040703576 0.21575367 -0.13115029 0.2563099 -0.86265856 0.0759758
-0.035321657 0.061257116 -0.028613012 -0.17812426 -0.2877655 -0.24026932 -0.2264921 0.47269428
0.14675839 0.028779915 -0.005363511 -0.15071784 -0.7763027 0.015099368 0.39195687 -0.08218141
-0.32961935 -0.27814797 -0.17433885 -0.12724757 -0.13582954 -0.2393434 -0.16287956 0.20745048
-0.0025543512 0.17871109 -0.054593496 -0.3791003 -0.15513498 -0.13507132 0.11210259 -0.62690717

actor.0.bias f4 [64]
00000000: 2fc9 133d db72 7c3e 1915 433d da38 e0bd
00000010: 6e74 463d 268b 8bbd 07dc ae3d 5825 dfba
00000020: 0a7a 89bd 638e c63d eea3 d2be 1b04 4b3e
00000030: 1673 8bbe 36be 5fbe 44f5 233d f1e0 773b
00000040: 2c55 b8bc 334e a2bd c2ef bbbe cc3e a3bd
00000050: bc2c dbbe 19c0 373d 0e2c 30be 8eb5 42be
00000060: 1442 5fbe 0f4a b33d 0084 08be 8e10 35bd
00000070: f3a9 cb3c 8d77 a9be 53d7 9d3e bdf9 ad3d
00000080: b18c 96bd bfb0 e83d 493b 75be 9069 a23c
00000090: e4a3 1f3e 7e6b 98be 1509 22be 5a6a b9be
000000a0: e25a 01be 90ed 76be d735 3abd 9b46 b4bd
000000b0: 4d05 8abd c4b0 d03d b0b8 ee3d f279 54be
000000c0: faa0 41be a50f 883b fb5f a93d 07dd e5bd
000000d0: 9578 04be 99a0 3cbe 0c0d 24bd 29aa e03b
000000e0: ab27 a63e 541d cc3c b439 393d 9a48 d9be
000000f0: 9064 b9be 53d8 ce3d 3944 3bbe 42c5 37be
0.036080536 0.24653189 0.047627542 -0.109483436 0.04845088 -0.0681365 0.08538061 -0.0017024679
-0.0671273 0.09695127 -0.41140693 0.19825785 -0.2723624 -0.21849903 0.040028825 0.0037823285
-0.02250155 -0.079250716 -0.36706358 -0.07970962 -0.42807567 0.044860933 -0.17204306 -0.1901457
-0.2180255 0.0875436 -0.13331604 -0.04420524 0.024861312 -0.33099023 0.30828342 0.084948994
-0.073510535 0.11361837 -0.23948397 0.019825727 0.15589863 -0.2976951 -0.15823777 -0.36213952
-0.12632325 -0.2411406 -0.045461502 -0.088025294 -0.06739292 0.10189965 0.1165632 -0.20749643
-0.18909064 0.0041522556 0.0827026 -0.11223798 -0.12936623 -0.18420638 -0.040051505 0.006856222
0.3245214 0.024916328 0.045221046 -0.42438203 -0.36209536 0.10099854 -0.18287744 -0.17946342

actor.2.weight f4 [64, 64]
00000000: 17f6 0f3d 051a 083c 620b 1d3d 92bf 8f3d
00000010: f2ff 203d 546c 4d3c bcfe 143d f11a cf3d
00000020: d895 0bbe dc7b 213d b36c 043d 3704 adbc
00000030: f0f8 573d eab7 00be dd31 8d3e 6349 8cbe
00000040: f432 19be ce2a 4b3e dc8f 7dbb a907 2c3c
00000050: 904c 983d 2613 febd 0190 84be 1c26 d53c
00000060: 5fc5 de3d 4fee ee3c 35c6 d23c 33da d03d
00000070: a28e 273e 62d1 94bd c74e 6a3d 0291 383e
00000080: 401f 1f3e a6b6 fc3d b7d0 bebd a373 4d3d
00000090: 4813 03be b95a 5b3c 09b9 b63e 8776 8c3d
000000a0: c35d c43c 696d 92bd de90 bcbd 9fc6 6fbd
000000b0: 5ba0 c73d 86ee 13be a938 083e f408 113e
000000c0: bf2b 52bd ad42 22bb 0707 963c 9d49 0bbe
000000d0: 0e1e ba3d c383 febd 53d3 1c3d b3fe 383e
000000e0: 5584 86bc d2ed 883d 932d efbd 4755 f63c
000000f0: c32e e63c 63a4 3d3e 0811 fcbd 62e5 a0bd
00000100: 459d 95be 88ac 70be 433b 0d3d 8f7b 9bbd
00000110: 896c bf3c ec3f 9a3e e5b3 a93d ba11 02be
00000120: 3f24 fbbd f516 d5be 304b 913b 9f80 13bd
00000130: 60a0 49bd 5404 283c 53e1 acbe c190 ecbd
00000140: 1d29 1c3e 1050 243e afc7 943e 97eb 333d
00000150: ae45 533d 381d b13c 8371 cd3d 9fc1 c13d
00000160: f080 26bc 94e0 333e fda4 96be ff25 c93d
00000170: cb1b 183b 1e47 e13d f71a 0fbd b22a bc3d
00000180: 4ec2 173e bc8c 16be e7a1 873c 69f1 233d
00000190: 9fa0 f9bd b144 bd3e 63eb 8b3d 54f3 b23d
000001a0: 0d88 f53d bc20 233e 1bd5 a23d b95b a23e
000001b0: fbc8 e5be c7bc 6bbd daa6 1bbf 4177 93bd
000001c0: a1dc 513e 2922 e8bc bec4 323e 3a0c b23c
000001d0: d57e b73c c514 2f3d 854d e9bb d2d0 b7be
000001e0: 0caa 553e a8b9 2cbd 2b93 a9bd 0b17 c83d
000001f0: 9aff b2bd 747a 873e 3689 c8be b580 483e
00000200: 3457 64bc 68c8 31ba 026a f7bc 7ae9 273e
00000210: f909 9b3d 10f7 cb3b e236 bc3d 3374 6cbe
00000220: 14e2 343d e03a dc3d d649 7ebe bf70 e03d
00000230: 313c 12bd 4f8e 00bd 131b e83d 8c00 a4bc
00000240: dce2 e8bc f5cf 0cbd ac0f 0ebd 57e2 3d3e
00000250: 0ba9 8fbc 66df 15be 0365 a93c 831f 61be
00000260: 24af 84bd 2ed2 b4bd d6da ee3c 7bc1 3dbf
00000270: d227 cf3d eed4 b6bb 8c2a bebe 1a87 9d3c
00000280: e923 37be 04f0 d83c 854b 393e 4b39 39bd
00000290: 9559 9bbc ec4f 37bc 1116 7ebd cd59 8a3c
000002a0: 9b62 68bd 0629 2fbc 16b0 11bd 6a4c e9bb
000002b0: e830 adbd 9ed1 5abe 9943 a7be 4fa0 66be
000002c0: 92b8 afbc 6920 b7bd c84b 353e 0a0a 8dbe
000002d0: 91bd d4bc 9c8b 3cbc 3803 a2bd 2fe5 09be
000002e0: 1776 383e fcff b53d a82b b0bb 4f78 6cbe
000002f0: 0a96 e2bc eae1 433d ea33 a3be dc15 0a3d
00000300: d9cf cf3c b0ec 293c f121 97bd ca1a 9d3d
00000310: ca1a 1e3d acf6 2f3e 22a4 e13c 5a1f 4fbd
00000320: c05a 883b 004c 6c3d f713 c13d 289c 69bd
00000330: 84e8 80bc 9be8 fcbd 55de 163e 2ae9 1cbe
00000340: 6dae efbc e720 9fbc 2c6e 5f3d 99b3 7f3c
00000350: 6004 f5bd 69eb 02be b88a 293d cab7 9fbd
00000360: c8ff a33d 0d63 7e3d 6246 d43d d131 d63d
00000370: 814e 39bc 0da2 b63c 8ddc 3cbe e50f 13bd
00000380: 0a3c 213e d6ee 2dbc 0738 0fbd 106c d73d
00000390: db4c 21be b7a5 cf3d e99f 9f3e d935 693d
000003a0: 94f8 91bd 5942 09be 667f b63d 236b 983d
000003b0: 5ec8 443e ebf6 bb3d 1021 093d db48 243e
000003c0: c30e 7f3c 0dc4 2fbc ff19 9bbd 0c41 1b3e
000003d0: 4fed f4bc be75 213e d50a a4bd 545d 3c3e
000003e0: 855a 63be 6b42 d4bd 617c 1e3e 12dd d0bc
000003f0: 0548 e43d a4fb cf3d ab8f 48bc 5637 3cbd
0.0351468 0.008306985 0.038340934 0.07018961 0.03930659 0.0125380345 0.036375746 0.101125605
-0.1363138 0.039424762 0.032330226 -0.021120174 0.05272764 -0.12570158 0.27577105 -0.2739974
-0.14960843 0.19840547 -0.0038690483 0.010499873 0.07436478 -0.12405996 -0.25891116 0.026019149
0.10877489 0.029166369 0.025729278 0.10197868 0.16363004 -0.07266499 0.057204034 0.18024066
0.15539265 0.12339525 -0.09317153 0.050159108 -0.12800324 0.013388329 0.35688046 0.06858545
0.02397049 -0.071497746 -0.09207319 -0.05853903 0.09747382 -0.14446458 0.13302864 0.14163572
-0.05131125 -0.002475898 0.018313898 -0.136023 0.09087764 -0.12427475 0.038287472 0.1806591
-0.016420523 0.066859856 -0.116786145 0.03006996 0.02809847 0.1851974 -0.12307936 -0.07856251
-0.2922155 -0.23503315 0.034480345 -0.07591926 0.023367183 0.30126894 0.08286265 -0.12702075
-0.12262773 -0.41619077 0.004434012 -0.036011335 -0.04922521 0.010254938 -0.3376566 -0.11551047
0.15250058 0.16046166 0.29058596 0.043925848 0.051580124 0.021620378 0.10031416 0.094607584
-0.010162577 0.17566139 -0.2942275 0.098217 0.0023209925 0.10999893 -0.034937825 0.09187831
0.14820215 -0.14702123 0.016556693 0.04002515 -0.12188839 0.3696647 0.06832006 0.087378174
0.1198884 0.15930456 0.07950803 0.31710604 -0.44879898 -0.05755308 -0.6080147 -0.0720048
0.2049432 -0.028336601 0.17457864 0.021734346 0.022399345 0.042744417 -0.0071198368 -0.35901505
0.20865649 -0.042169243 -0.08280023 0.0977002 -0.087401584 0.26460612 -0.39167184 0.19580348
-0.0139368065 -0.0006781877 -0.030201916 0.16397658 0.075702615 0.0062245205 0.091901556 -0.23091201
0.044160917 0.10753417 -0.24832854 0.109590046 -0.035701934 -0.031385716 0.11333289 -0.020019792
-0.028428487 -0.03437801 -0.034682915 0.18543373 -0.01753666 -0.14636001 0.020678049 -0.21984677
-0.06478718 -0.08829151 0.029157083 -0.7412335 0.10115017 -0.0055795824 -0.37141836 0.01922946
-0.17884792 0.026481636 0.18095215 -0.045220654 -0.018963614 -0.011188488 -0.062032763 0.016888523
-0.056734663 -0.010690933 -0.03556832 -0.007119705 -0.08456594 -0.21369025 -0.3266876 -0.2252209
-0.021450315 -0.089417286 0.1770469 -0.27546722 -0.025969299 -0.011507895 -0.0791077 -0.13466333
0.18013798 0.08886716 -0.005376298 -0.23092769 -0.027659435 0.04782287 -0.31875545 0.033712253
0.025367664 0.010371372 -0.07379521 0.07671125 0.038599767 0.17183942 0.027544085 -0.05056701
0.004161209 0.057689667 0.09427636 -0.057033688 -0.015735872 -0.123490535 0.1473325 -0.1532332
-0.029257977 -0.019424869 0.054548427 0.015606784 -0.11963725 -0.12785114 0.041392058 -0.07798727
0.08007771 0.06210618 0.10364987 0.104587205 -0.011310221 0.022294069 -0.18443508 -0.03590383
0.1574556 -0.010616025 -0.03496554 0.10518658 -0.15751974 0.101390295 0.3117669 0.05693612
-0.07127491 -0.13404216 0.08911018 0.0744231 0.19217059 0.09177955 0.033478796 0.16043417
0.015567484 -0.0107278945 -0.07573318 0.15161532 -0.029898314 0.15767571 -0.080098785 0.18394977
-0.22202499 -0.10364231 0.15477134 -0.02549604 0.11146549 0.101554185 -0.012241284 -0.04595121

actor.2.bias f4 [64]
00000000: 2c02 eebd 5eb2 ab3d 99a3 5b3d a00f 063e
00000010: f0c8 993b 6fe7 cb3c 2561 4dbd 1dcd 803e
00000020: f2c3 babd 6751 dfbd ed25 ad3e a0df d4bd
00000030: e3d5 2b3d 0104 80be 6363 4b3d 2d1b 833e
00000040: 44ed 0d3a abed 97be 30d2 89bc 8d08 35be
00000050: f792 853d 3664 74bd 1eea 17be 220e cdbc
00000060: ab6b 9d3c c066 8c3e 1011 b13d db7f fa3d
00000070: 8655 3cbd eaa7 0abe 3a43 ec3d d529 953d
00000080: 4d2e 91be 02c5 0fbe c42c 9abd df66 65be
00000090: d50b 91bd 872d fcbd 79d2 10bd 689e e83c
000000a0: 1373 033e 2995 97be c034 c0bc c1bf a63c
000000b0: 3a5c b4bd 1fef 1ebe 3265 07be d37a 24be
000000c0: 5e00 983d 4069 af3e ca82 a3bd 7f19 24be
000000d0: 1ddc 4f3e 9eec 383d 2c34 bf3d 1342 9ebe
000000e0: 3e70 173e 3b9a a03d 66de 52bd 5d29 ddbd
000000f0: 811e 343b e90c 1cbd ad00 33be ac3b 553e
-0.11621508 0.0838363 0.053622816 0.13091898 0.004693143 0.02489063 -0.050141472 0.2515649
-0.09119405 -0.10904198 0.33817998 -0.103942156 0.041952025 -0.25003055 0.04965533 0.2560667
0.00054140785 -0.29673514 -0.016823858 -0.17679043 0.06522172 -0.05966588 -0.14835402 -0.025031153
0.01921638 0.27422142 0.086458325 0.12231418 -0.04598 -0.13540617 0.1153626 0.072833695
-0.28355637 -0.14039996 -0.075280696 -0.22402523 -0.07082335 -0.12313371 -0.035356972 0.028395846
0.12836866 -0.29605988 -0.023462653 0.020355107 -0.08806653 -0.15520905 -0.13222197 -0.16062479
0.07421945 0.34259987 -0.079839304 -0.16025351 0.2029881 0.04514753 0.09336123 -0.30909786
0.14788911 0.07841917 -0.051481627 -0.10798905 0.0027484002 -0.03809825 -0.17480727 0.20823544

actor.4.weight f4 [6, 64]
00000000: 06e5 25be 75e0 e6bd 88b7 463c f644 2dbe
00000010: 636b 9bbd 9b0d 5c3d 31e3 bebd 6f7a 603d
00000020: 6f0f 9f3d 97ba dcbd e0c5 67bb da77 233d
00000030: c9e8 983d a722 443d 7111 98bd 1e95 2ebd
00000040: a68e 403e 75bb 393e 13c5 583d 7cca ed3d
00000050: 14f7 463a f050 17be 3527 873d 43d7 153e
00000060: 3dfd 1b3e 8116 b9bc f705 be3d a2a1 96bd
00000070: 323d e3bc a193 55be f0b1 8d3b 7eae dfbc
00000080: 9458 093d cf02 1b3e 234f 0ebd 0968 693d
00000090: 40d4 6bbd ea80 0b3a f573 85be 32ea 503e
000000a0: 37c8 eb3d e771 933d 8ccd e53c 99a3 92bd
000000b0: 9b0f 943e c846 c23d 7989 59bd 22c1 fa3c
000000c0: 09a3 4b3d 3c30 94bb 2c5f e6bd 6ba7 1a3d
000000d0: ed6c 09be 150a 90bd d526 78be 45de d7bc
000000e0: 30f8 ab3d 016b 10be eb65 f13c a0c6 a1bd
000000f0: 5073 adbd e2f9 6d3c a284 8a3e 4d2b febd
00000100: 3925 8f3d 2978 f03d fc50 7fbe 914e 83bd
00000110: ee9d bb3c 7411 84bd c267 c63d 10d2 38bc
00000120: ea62 163e fbbc 72bd 8c97 003e 7f00 ce3c
00000130: dff9 28be 0a7b c9bc ec95 a63d de01 dbbb
00000140: fd7e df3d f296 5fbc 6675 9b3d ddec 9abd
00000150: 538a 65bd b274 103e a1b6 80bd 1c38 16be
00000160: 8c68 293c f31f 983c 3b3d 903d f31e 2abc
00000170: 148e 06be 80e7 28bd e702 26be 38fe fb3b
00000180: 9164 e73c 26c9 39bc 230d eb3d 8e6c 343b
00000190: ca3d 12bd 3f87 92bd fb42 cabd f591 8d3d
000001a0: 0fa9 253e b2bb aabd 39cb 8ebe 577c 953c
000001b0: 0c96 dd3d c9c1 bb3d 6d18 7b3d 7119 55bc
000001c0: 7bc8 0c3e 3009 193c 84dc 0b3d 1962 0e3e
000001d0: 6e7a 6e3d e49f c43c b235 223d 4828 e8bc
000001e0: 3b76 70bd a4c6 ac3d cb29 9bbd a923 0ebe
000001f0: 4c1f 973d 110a 433d b837 a7ba 75df 0b3d
00000200: 0683 fabb 7fa4 853d 4f66 8cbd 4b42 4e3d
00000210: 5e96 0d3d 6a5e e73c e6e5 7ebb 3ef0 0f3e
00000220: 577d 85be a2ad a73d 21c8 913d 8c2c 82be
00000230: 285e 09be f3c1 57be 5952 133b 2347 a63d
00000240: 605a 73bd a58b 1cbe fbd0 b63d e72d 37be
00000250: e5a2 943d d215 bbbd 5617 14be 0aec a9bd
00000260: 2a26 f6bd b497 013e 9634 983d 1826 643d
00000270: b294 85be 24c1 c9bd f008 c43d d91a c73d
00000280: 6c60 3bba f104 4abe bc5a 7d3b 23ac 2fbe
00000290: a41a 83bd ae9f 663c a337 8fbd a2e0 97bd
000002a0: 1292 2a3c 33fb 49be d38a 75bc 4c2c c03d
000002b0: 9211 633c 48a8 60bd 6f79 74bd c780 84bd
000002c0: eda8 073e a2b9 e33d a943 dabd 0af4 e7bd
000002d0: 1a37 003e 2539 bc3d 692c 103c 99f8 42be
000002e0: 0d43 023e 8c98 bf3d 99f8 2c3c 70b3 5bbd
000002f0: b32e 10bd 46fe 613d bad7 45be 10eb 3c3d
00000300: 1893 c3bd 8cac 6a3e 43b8 debd 77bd b0bc
00000310: 5930 3abd 2ad7 9d3d ce90 35bb 5b1c 48bd
00000320: 9323 753d 8378 11be e6ac e93d fb24 493e
00000330: 3cac 733d e761 41be ad8a fdbb f3b9 d33d
00000340: b9a8 dd3a dbff 20be 21df 09be 0e59 2ebe
00000350: c015 03be e55f 65bc e3bd 84bd beac 11be
00000360: 7794 53be 7b8e f5bc 2bd2 8ebd b421 973d
00000370: 5caa 663d ef45 bb3d c9cd 733d acfe babc
00000380: 59db f8bd 7da3 aabb c082 e5bd 1d30 273e
00000390: cc69 85bd 615c c6bc 93fe 44bd 2186 c73e
000003a0: 8ef5 123e db00 4abc 9067 323e 0d94 64be
000003b0: 1aa0 c23d 9464 0cbe 555a 7ebe da3b b23e
000003c0: d019 66bc fc08 cb3d 6d01 3c3c 48fd 94be
000003d0: c441 2ebd 1857 2a3d e1f5 e13c d0f2 05be
000003e0: ba87 3c3e aa64 02bd 36e3 95bd f8f3 1fbe
000003f0: df44 0dbc 0646 c2bd 2443 63bd 5cd9 0bbd
-0.16200647 -0.112732805 0.012128718 -0.16920838 -0.07588842 0.053723913 -0.09320677 0.05480426
0.077666156 -0.10777777 -0.0035365745 0.03990922 0.07466275 0.04788461 -0.07425202 -0.042622678
0.18804416 0.18137915 0.05292232 0.116108865 0.0007589918 -0.14776969 0.06599275 0.14632897
0.15233321 -0.022593739 0.092784815 -0.07355048 -0.027739141 -0.20857097 0.0043241903 -0.027304884
0.03353174 0.1513779 -0.03474344 0.05698398 -0.057575464 0.0005321639 -0.2606503 0.20401838
0.11512797 0.071994595 0.028052114 -0.0716011 0.28918156 0.09486157 -0.05310962 0.030609671
0.04971603 -0.0045223515 -0.11248621 0.03775732 -0.13420458 -0.07033173 -0.24233563 -0.026351104
0.083969474 -0.14103319 0.029467544 -0.07899213 -0.0846926 0.014524909 0.27054316 -0.12410603
0.069895215 0.11741669 -0.24933237 -0.0641147 0.022902455 -0.064486414 0.09687759 -0.011280552
0.1468617 -0.059262257 0.1255781 0.02514672 -0.16501568 -0.024594802 0.08134064 -0.006683572
0.10912893 -0.013646828 0.07590751 -0.07564709 -0.05604012 0.14107016 -0.06284834 -0.14669842
0.010339867 0.018569922 0.07042929 -0.010383355 -0.13140136 -0.0412364 -0.16212045 0.0076902173
0.028246196 -0.011339461 0.11477115 0.0027530524 -0.035703458 -0.071547024 -0.09876057 0.06912605
0.16177772 -0.08336581 -0.27889422 0.018247766 0.10819635 0.09167821 0.06130259 -0.013006554
0.13748352 0.009340569 0.034145847 0.13904609 0.058222227 0.024002023 0.03960199 -0.02833952
-0.058706503 0.08436325 -0.07576331 -0.13880791 0.07379016 0.047617022 -0.0012757694 0.034148652
-0.0076450137 0.06525516 -0.06855451 0.05035619 0.03456723 0.028243262 -0.0038894354 0.14056489
-0.2607219 0.08187415 0.0711825 -0.25424612 -0.13414824 -0.2107008 0.0022479503 0.08119037
-0.05941236 -0.15287645 0.089265786 -0.17888604 0.07257632 -0.09135021 -0.14462027 -0.08296974
-0.12018998 0.12655526 0.07431905 0.05570039 -0.26090008 -0.09851292 0.09572017 0.09721918
-0.0007147852 -0.19728447 0.0038658818 -0.17155509 -0.06401566 0.014076157 -0.06993034 -0.07415892
0.010410802 -0.19724731 -0.014986712 0.09383449 0.01385917 -0.054847986 -0.05968612 -0.06469875
0.13248034 0.11119391 -0.106574364 -0.11325844 0.1252102 0.09190587 0.008799651 -0.19040145
0.1272089 0.09355268 0.010557317 -0.05363792 -0.035200786 0.055174135 -0.19320574 0.04612261
-0.0954954 0.22917384 -0.10874989 -0.021574719 -0.045456264 0.07707055 -0.0027704719 -0.048855167
0.05984838 -0.14206128 0.11409931 0.19643013 0.059490427 -0.18885003 -0.0077374787 0.103382014
0.0016911245 -0.15722601 -0.13464023 -0.17026159 -0.12801266 -0.013999914 -0.064815305 -0.14226052
-0.20662104 -0.029975167 -0.0697368 0.07379475 0.05631481 0.09144198 0.059522424 -0.022826515
-0.12151212 -0.0052074776 -0.11206579 0.16326948 -0.0651432 -0.024213972 -0.048094343 0.3896952
0.14351484 -0.0123293055 0.17422318 -0.22322102 0.09503193 -0.13710243 -0.24839146 0.34811288
-0.01404424 0.09913823 0.011474949 -0.29099488 -0.042543188 0.041586965 0.027583065 -0.13080907
0.1841115 -0.031834282 -0.07318728 -0.1562041 -0.008622377 -0.09486012 -0.055483952 -0.034142837

actor.4.bias f4 [6]
00000000: 2541 19be 8903 d93c dcb9 ea3d ae6c 463e
00000010: b001 9f3d 2b24 4e3d
-0.14966257 0.026490944 0.11461231 0.19377396 0.07763994 0.05032746

critic.0.weight f4 [64, 43]
00000000: db83 ec3e fbe6 66bf 4ec4 50bf f458 19be
00000010: 72ae ca3d 0d38 d03e a7e1 22be 8369 e7bd
00000020: cf77 b4bc 9f42 81bd 0dde 94bc 945e 61bc
00000030: ea6c 483e 7c4a 843d 1e37 a5be 87f1 643d
00000040: 004f b0bd dd02 ac3d 5b51 0bbb 6a17 37bb
00000050: f922 f13e d444 c93e 45ec 20bc f85d 29bd
00000060: 40d0 48bf c28e bdbe d1fd 05bf 66d2 24bf
00000070: eab8 11be 1841 11bf 6f6f 8e3f a55f c6bc
00000080: 825f dcbe 28d0 00be ba48 133e 1a14 d0be
00000090: 61d3 44bf 123e 6c3f 3682 1e3d f15c 05bf
000000a0: 0f56 09bf bc9f 14bd fe94 dfbb b53e 853e
000000b0: 62e3 32bf 696f 05bf 9f9b c6bd 8f14 7e3c
000000c0: 95ff a93d 7c25 163d 0cf8 253e faa4 a83d
000000d0: 4ec2 a43c 5b07 4abd b020 47bc 20b1 92bd
000000e0: 4c09 cfbe 33f8 d3be 10f9 3dbd b4c4 b93d
000000f0: ad42 ac3c e783 fd3b 5185 42bc d8ed 3d3f
00000100: bfba 9a3e 782a 8dbe 920f 60bf fc2e 14bf
00000110: 66a1 773e d68a b1be cd07 d8be b0ea a9be
00000120: 69e2 05bf ac45 0440 f4f0 a43e 1568 f53d
00000130: 4183 89be f87f 283f a33f 473e 17fb 803b
00000140: 06cc 0140 cc34 323e 924f 92bd ac6c 89be
00000150: 7973 783e 088c 99bd 76c6 273f 2b13 d2be
00000160: 6206 3bbe dc52 8e3d fb67 4fbd 6cd3 a93e
00000170: 6ce8 b3bd bef2 dcbc c42c fabb 4949 8eba
00000180: 5be9 383d 6b60 bbba c732 313e e745 c83d
00000190: 0ea1 43bd 1bc7 a1bc 022c 1bbe f15f bebc
000001a0: f5f4 95bb dbe3 043b 28b0 70bc c49b 0340
000001b0: 3e59 003f ca65 4f3d 8f47 f73b 76ae 8cbe
000001c0: 3cdd 133e cd2d ab3e ffd7 1d3f 11de 5fbd
000001d0: 72a3 03c0 5959 1c40 5840 84bf 573f a8be
000001e0: f8be aebe b140 e9bc ff04 4a3e 1d5d 01c0
000001f0: 446d 1c40 89d9 92bf 28b2 053e 9a8c 6d3d
00000200: 2224 c13d 3b4a 343e 7721 82be f148 e0bd
00000210: 1ef4 bf3d 1678 983d 6992 0f3b e196 b03d
00000220: d1fd 853c abb3 043e 9ce8 0ebc 030d 11bd
00000230: 4a02 863b 7dd5 c7bc 9e31 80bd b876 2a3d
00000240: 4440 e23d fe9c 1c3e 7471 8abc cf98 0f3c
00000250: a84a 59bb fac5 80bf c40f 3940 ee02 d03f
00000260: 693d 5f3f 0118 91bf f014 9b3e de20 543e
00000270: 8ffc dabd 9690 ad3f 3d7f 383e 4f25 273e
00000280: 314e 1dbf fa5d 893e ded5 613c e135 a7be
00000290: d7ed c23d 9a16 bf3d f282 693d 3379 11bf
000002a0: 3d2f c33d f5ca 0f3f bd04 46be 97d8 4cbe
000002b0: ea60 203f 7621 fb3c fa95 e83d ad3b 1b3e
000002c0: 17f2 213e 4e15 10bd 6a1e 33bd d0fc e2bb
000002d0: 945b 25bd 0a8a 123d 1ded 46bd 24af 99bb
000002e0: 91b0 7d3e c735 9c3d f295 a6ba 17d4 2ebe
000002f0: 5b98 623e 66c8 1f3c be2f fbbb af87 e33a
00000300: f896 fabe 091d f0bf e6fe 2bc0 2865 333f
00000310: 703e 853f d180 c53f 4bf1 ea3d aef0 383e
00000320: 0263 95bf e8a4 fdbb 0e04 1fbf d590 3f3d
00000330: f3ac e5bd 3e6a dbbd cd0c bbbe 95db 1fbe
00000340: dd2b 313e c7a2 f1be ac03 24bd 6d88 13be
00000350: f838 19be 7caa 4cbd d5c6 8dbd 4436 f33c
00000360: cf64 263d 38c5 9bbc a89d 2fbc e3d0 e13c
00000370: 83fa 34bd ad9c 263d 1fb0 4ebd 9de4 03bd
00000380: f5fc 31b9 060f 4e3c 0b8e 1a3b 0b2b bdbd
00000390: ddf3 843d 6c2e 263d 1432 55bd 61be 27bd
000003a0: 1ac1 dbbb d981 05bb d8c2 a239 327e f33d
000003b0: d75f 2040 3101 1cc0 ddbb 92bf bd9e b0bf
000003c0: 7ee0 0740 9f4f 773e dd26 88be acd2 e6bf
000003d0: c179 c13d 57cc 65be 9a97 8f3e a043 793f
000003e0: a7b4 a13e ced8 7e3d 600c b83e 9d4c f1bd
000003f0: cb36 e7bd 3266 e53e 8a1e 5d3f b95d dabd
0.46194348 -0.901962 -0.8154954 -0.14975339 0.09896554 0.40667763 -0.15906392 -0.11299422
-0.022029785 -0.06311535 -0.018172288 -0.013755459 0.19572797 0.06459519 -0.32268614 0.0558944
-0.08608818 0.08398984 -0.0021258208 -0.002793754 0.47096995 0.39310324 -0.009821956 -0.04134938
-0.78442764 -0.37022978 -0.5234042 -0.6438354 -0.14230695 -0.5673995 1.1127757 -0.024215529
-0.43041617 -0.12579405 0.14383212 -0.40640336 -0.7688504 0.9228221 0.038698398 -0.5209494
-0.5364694 -0.036285147 -0.006823181 0.26024404 -0.6987821 -0.52123123 -0.09697651 0.015507831
0.083007015 0.03665684 0.16207904 0.08234592 0.020112183 -0.04932342 -0.012153789 -0.0716269
-0.4043678 -0.41400298 -0.046380103 0.09070721 0.021027887 0.0077366713 -0.011872605 0.74191046
0.302206 -0.27571464 -0.8752376 -0.5788419 0.24182662 -0.34676236 -0.42193452 -0.33186865
-0.522986 2.0667524 0.32215083 0.11982743 -0.2685795 0.65820265 0.19457869 0.0039361822
2.0280776 0.17402953 -0.07144083 -0.26840723 0.242628 -0.07497412 0.655372 -0.4103025
-0.18264154 0.06949398 -0.050636273 0.33169115 -0.08784565 -0.026971217 -0.007634731 -0.0010855581
0.04514442 -0.0014295703 0.17304526 0.09778958 -0.047761016 -0.019748261 -0.15153506 -0.023239108
-0.0045763203 0.0020277414 -0.014690436 2.0563822 0.5013617 0.050634183 0.0075463722 -0.27476853
0.14439863 0.3343338 0.6165771 -0.05465514 -2.056851 2.4429533 -1.0332136 -0.32860824
-0.34130073 -0.02847323 0.19728468 -2.0213082 2.444169 -1.1472636 0.13056242 0.057995416
0.0943072 0.17606442 -0.25416157 -0.109514125 0.093727335 0.074447796 0.0021907336 0.08622528
0.01635638 0.12959163 -0.008722451 -0.0354128 0.0040896283 -0.024393791 -0.06259464 0.041617125
0.11047414 0.15294263 -0.016899802 0.00876446 -0.003315607 -1.0060418 2.8915873 1.6250894
0.8720308 -1.133545 0.30289412 0.20715663 -0.10692703 1.3559749 0.18017288 0.16322826
-0.61447436 0.2682951 0.0137839 -0.32658294 0.095180206 0.09330483 0.057009645 -0.5682556
0.09530494 0.5616906 -0.19337745 -0.20004497 0.6264788 0.030655604 0.11356731 0.15159483
0.15815006 -0.035176568 -0.043730177 -0.0069271103 -0.04037054 0.035776176 -0.048565973 -0.004690068
0.24774386 0.07627445 -0.0012709482 -0.17073093 0.22128431 0.009752369 -0.0076656034 0.0017359162
-0.48943305 -1.8758861 -2.6874328 0.7007623 1.040968 1.5429937 0.11471804 0.18060562
-1.167084 -0.0077406056 -0.6211556 0.046768982 -0.11214628 -0.107136235 -0.36533204 -0.15611108
0.17301889 -0.47194502 -0.040042564 -0.14407511 -0.14963138 -0.049967274 -0.0692269 0.029688962
0.040623482 -0.01901494 -0.0107187405 0.027565425 -0.04418422 0.04067676 -0.05046093 -0.032200444
-0.00016974269 0.012576824 0.00235832 -0.092367254 0.06491826 0.040571615 -0.05204971 -0.040953044
-0.006706369 -0.0020371585 0.00031044218 0.11889304 2.5058496 -2.4375727 -1.1463581 -1.3798443
2.123077 0.24151467 -0.2659215 -1.8033042 0.09447051 -0.2244123 0.2804535 0.9736881
0.3158314 0.06221848 0.3594694 -0.11782191 -0.11289748 0.4480453 0.86374724 -0.106624074

critic.0.bias f4 [64]
00000000: 1f05 03bf 9542 06bf a84c bc3d 247d c33e
00000010: 93f4 493d 30d5 d83d 4899 9b3d f633 fdbc
00000020: d92d 763e 4b76 01bd 122d 693e 7c5f 8bbe
00000030: 222f 80bd a98b 913c a10d 96be 4293 1b3f
00000040: 4de5 87be 1d3f bbbe d815 b63e 28e8 a5bc
00000050: 2534 afbe 2894 92bd db5c ec3e da87 e3bd
00000060: f60e f63c 37ee 033e d42b cabe eed8 2b3e
00000070: 1a63 493e b12a 213e 7d0d ed3e 30e2 4dbe
00000080: 9809 74be 40e0 723e 5e1e acbb 16c1 cabe
00000090: fb34 e6be 2158 3f3e c28d 433d 9311 613e
000000a0: 1a5f f73e 888f 843e 958e 203d 10f8 413e
000000b0: 7d40 d13c b5da 9bbe 28b5 64be 5120 703e
000000c0: fd58 e83d 2e25 b2be 8ed7 1ebe 2a12 3d3e
000000d0: 49ad e7bd c9d3 233e 116d cc3e ee6c 593e
000000e0: 0fa6 b93c 22be 023e 017e d5be 1fb4 19be
000000f0: b665 edbc 9c4e d5be e243 8dbd 9bdb 38be
-0.5117969 -0.52445346 0.091943085 0.38181412 0.04930551 0.10587537 0.075975955 -0.030908566
0.24040927 -0.031606954 0.22771099 -0.27221286 -0.0625899 0.01776679 -0.29307273 0.6077157
-0.2654213 -0.3657159 0.3556354 -0.020252302 -0.3421947 -0.07157165 0.46164593 -0.11109896
0.03003643 0.1288384 -0.39486563 0.16781971 0.1966671 0.15738942 0.46299353 -0.20105815
-0.23831785 0.23718357 -0.0052526435 -0.39600438 -0.44962296 0.18685962 0.047742613 0.2197936
0.48314744 0.25890756 0.039198477 0.18942285 0.025543446 -0.30440298 -0.2233473 0.23449828
0.11345098 -0.3479399 -0.15511915 0.1846396 -0.113123484 0.15998758 0.3992696 0.2123296
0.02266219 0.12767842 -0.41697696 -0.15010117 -0.028979164 -0.41661537 -0.06897713 -0.18052523

critic.2.weight f4 [64, 64]
00000000: 79c2 0b3c 3622 d23d d36c 8c3d 9243 09be
00000010: 6375 8a3c 8a1a acbd 6fbe 323d a8c5 23bd
00000020: 428b b6be 5695 173d edfe 78be 2e47 393d
00000030: afcf abbd 85dd 973c 5c48 8d3c d3ab 0e3e
00000040: 5b81 863e b8ad 0fbd 3bb8 72bd 9296 243e
00000050: 783a 3b3e cae2 ae3d 9a49 12bc 984d b73d
00000060: dd3f 7ebe b12d c5bd 73a8 7b3e d5e1 28bb
00000070: 01f9 92bd a6f1 33bc 1294 03be 951c 3dbd
00000080: c29a b3bc b164 1b3d e5f9 9e3c 6ed4 0a3e
00000090: 72f7 27bd c353 793e 012d 44be b5fb 29be
000000a0: cff7 b73d d5a1 6abd 0cd2 313e c81a 273e
000000b0: 1b72 14bc 8cd8 3a3d 6d03 edbd c8f5 1cbe
000000c0: 062c e5bd 1402 0c3c 10e4 563c 9f9e 11be
000000d0: 4ae4 8cbe 173c a13c 371d 373e 6466 3bbe
000000e0: 4da9 79be da89 b7bc 6fbe 833d 31a7 c8bd
000000f0: 17a7 ae3d 8fec 6fbd f005 fdbd 0b86 4fbe
00000100: 6f82 3dbe 9f15 57be 1eaa f0bd b0fe 9fbd
00000110: 8cf7 91be 3957 2ebe 6a90 443e 493c a7bb
00000120: 6f45 93bd 0610 fe3b f3b3 62bd 8f32 11be
00000130: 28ce 88bd a51d cf3d b603 eabd 1a47 a4be
00000140: 3756 c4be cd28 82bd 3a06 ce3d cf22 da3e
00000150: 3bd1 10be 9dc9 a8bd c109 4d3d d50d 52bd
00000160: bee0 e6bc 27ee 23be 4e0a 04be 4698 763e
00000170: b6b8 ed3c 6368 473e 2d04 223e fe3f 9ebd
00000180: 1816 16be 7191 163e 308d 92bd 8e73 77bd
00000190: bbac 7ebd 8785 0cbe 2dee 193e e783 5bbc
000001a0: 679d 2ebe 0e8c 953d 4385 52bd fc71 0cbe
000001b0: 288a 38ba 9d9f 813b 9cfe 93bd 6680 4cbe
000001c0: 3b70 93bd 5d4c d0bd 32dd ea3d 66d8 143d
000001d0: 6247 083d b126 7d3d d5fa a03c e5a6 a3be
000001e0: d316 683c 8a13 f73d 2e32 e33b f756 12be
000001f0: 296e a23d 5018 84be c3f4 66bd d83c cdbc
00000200: 7c59 86be 604b 8ebe f6ba 99be 1b2e bdbd
00000210: fd36 a53d e1c3 a0be 0bad 81bd d5dd 663d
00000220: 819e 27be de7a ecbd 882b 96be ba51 133e
00000230: 4f27 9fbc 5054 88bd ff17 6c3c 5b4c 6cbc
00000240: 1ace 8e3c 7fb2 7d3d a66e 67be dbff 76bd
00000250: c5a9 633b 42f7 e93d 6666 35be f484 273e
00000260: 33a6 02bc 1d1c abbe 07f5 cd3d 5b6f 3ebc
00000270: 3e59 85bd eadd 80be 726f 0b3e 61b2 953b
00000280: 3cf3 3f3d 7d32 1e3e 3e6d c7bd 8929 3e3d
00000290: bad8 6e3d a887 a0be 695f adbd aa45 96bd
000002a0: 429e 6dbe b8c0 ddbe 9333 50bd 3fc2 43bc
000002b0: 37de 26be 2bf7 013d 1c4a 0e3e cab6 d6bd
000002c0: 9f77 c73d bb1c 6f3d 818a 923d b449 25be
000002d0: 8552 c2be 25b4 323e 8f23 a1be 1250 01be
000002e0: 60ea 2a3e dfe3 d5bd a409 8abd 8e2a 4e3d
000002f0: 27b3 f93d 2707 343d 90b8 9dbd 86d7 97bd
00000300: 7cb9 2bbe 39cf 24be b6c4 19be 7f8b 54bd
00000310: 4612 36bd 87b5 26be f544 26be 13c4 8bbe
00000320: 7fd5 9dbe 7dfd 16bc 11b6 75be a351 913d
00000330: 9a62 2c3e 9f2b 64be 3801 f13c d602 473d
00000340: c84c 56be 9961 80bc dc6c 30be 52a2 063e
00000350: 189e 2b3e 6336 4ebe b021 b13c 32ef 5abd
00000360: db07 003d 403f 88be c4b2 c03e 9203 c2bd
00000370: 2490 45be ada2 59be c17e 833d 9246 6ebe
00000380: d7b6 19bd 529e ce3d d176 2cbe 9441 1e3c
00000390: 2185 a23c 8858 21be d390 41bd 48f4 053e
000003a0: b31c a1be 65c7 ebbe f2e7 54bd 5e17 acbc
000003b0: 5b84 cfbd 868f 403d dee9 cf39 b11c bcbd
000003c0: 27a7 283a f218 ebbd 5b58 e9bc 5d69 13be
000003d0: 9c3a 4fbd 2ee6 a43c edcb dc3b faa3 45bf
000003e0: bf43 413e 55c7 f5be 2f46 8a3c b327 2fbe
000003f0: 4139 5dbe c872 22bd 2faa 753d e173 1ebd
0.008530253 0.102604315 0.06856694 -0.13404682 0.016901677 -0.084034994 0.043638643 -0.03998342
-0.3565312 0.037007652 -0.24315996 0.045233898 -0.08389222 0.018538246 0.017246418 0.13932733
0.26270565 -0.03507778 -0.059257727 0.16073063 0.18284023 0.0853935 -0.008928681 0.08950347
-0.2482905 -0.096278556 0.24575977 -0.0025769372 -0.071764 -0.010982906 -0.12849453 -0.046169836
-0.02192438 0.037937824 0.019406268 0.13557598 -0.041007467 0.24348359 -0.19157793 -0.16599925
0.089828126 -0.05728324 0.17365283 0.1631881 -0.009060408 0.04561667 -0.11572919 -0.15328133
-0.111900374 0.008545417 0.013115898 -0.14220665 -0.2751792 0.019681973 0.17882238 -0.18300778
-0.2438099 -0.0224046 0.06432807 -0.09797514 0.085279636 -0.05857521 -0.12354648 -0.20265977
-0.18506788 -0.21004342 -0.11751197 -0.0781225 -0.28509176 -0.1702546 0.19195715 -0.005103622
-0.07190978 0.007753375 -0.055347394 -0.14179443 -0.06679946 0.10113076 -0.11426489 -0.32085496
-0.38347027 -0.063554384 0.100597814 0.42604682 -0.14142315 -0.0824158 0.05005813 -0.051282723
-0.028183337 -0.16008817 -0.12894556 0.24081525 0.029018741 0.19473414 0.15821905 -0.07727049
-0.14656866 0.14703919 -0.07155836 -0.060412936 -0.062176447 -0.13722812 0.15032263 -0.013398147
-0.17052232 0.07302104 -0.05139662 -0.13715357 -0.000703963 0.003955795 -0.07226297 -0.19970855
-0.07199141 -0.10170815 0.11467971 0.036339186 0.0332712 0.061804477 0.019650856 -0.31963268
0.014165598 0.12064274 0.006933472 -0.14290987 0.07931168 -0.257998 -0.056385767 -0.025053427
-0.26240146 -0.27791882 -0.30025452 -0.092373095 0.08067129 -0.31399444 -0.063318335 0.0563639
-0.16369058 -0.115468726 -0.29330087 0.14386645 -0.019427923 -0.06656706 0.014410018 -0.014422501
0.017432261 0.061937805 -0.22600803 -0.060302597 0.0034738642 0.11424114 -0.17714843 0.16359311
-0.007974195 -0.33419886 0.10056501 -0.011623229 -0.06511162 -0.25169307 0.13616732 0.0045683836
0.046862826 0.15448947 -0.09737633 0.04642633 0.058312155 -0.31353498 -0.08465464 -0.07337506
-0.23204902 -0.43311095 -0.050830435 -0.011948167 -0.16295706 0.03172986 0.13895458 -0.10484083
0.09739613 0.05837701 0.07155324 -0.16141397 -0.37953582 0.17451532 -0.31472442 -0.126282
0.1669097 -0.104438536 -0.0674012 0.050333552 0.12192374 0.043952134 -0.07701218 -0.07414155
-0.16769975 -0.16094674 -0.15016446 -0.051890846 -0.04445102 -0.16280185 -0.16237243 -0.2729803
-0.30826947 -0.00921571 -0.23995234 0.07095649 0.16834489 -0.22282265 0.029419526 0.04858669
-0.20927727 -0.015671538 -0.17229027 0.13147858 0.16759527 -0.20137934 0.021622509 -0.05345077
0.03125749 -0.26610756 0.37636387 -0.09473337 -0.19293267 -0.21253462 0.06420661 -0.23269108
-0.037527885 0.10088791 -0.168422 0.00965919 0.019838871 -0.15756428 -0.047257256 0.13081467
-0.31467208 -0.46050563 -0.051979013 -0.021007236 -0.10132667 0.047011875 0.0003965636 -0.0918516
0.0006433599 -0.11479367 -0.028484514 -0.14395662 -0.050593004 0.02012929 0.006738177 -0.77203333
0.188735 -0.4800364 0.01687917 -0.17104988 -0.21603872 -0.039660245 0.059976753 -0.03868473

critic.2.bias f4 [64]
00000000: 5c75 9c3c 8d9c 9fbc f528 81bc c015 1d3d
00000010: ec1d 423e d3f5 c5b9 0b5c e8bd d323 103d
00000020: c097 16be b8ef 903e d0fb 743d 4996 3f3e
00000030: eebb bebd 205e d83c 7e8d 3f3e 9c18 09bd
00000040: 5a21 4ebe 8bd8 183d 11d9 61bd a04b 73bd
00000050: 1754 00be d2dc 9ebd 04f5 45be dcfe e23b
00000060: afe9 ae3d d4d5 053e 5400 7ebd 2dad 883e
00000070: 9294 12be d405 bbbe c8d7 e8bd 3252 17be
00000080: f20f f93c f81b 2ebe 315c c93d e800 fabd
00000090: d984 18bc ad36 a23d 963b 8f3d a8bf 593d
000000a0: 3a97 333d a7c5 173d 76d4 d03d 055e 933d
000000b0: 63c6 18bd eb5f 88bd 3433 f4bd 967c 573d
000000c0: a4f0 c9bd a5c2 d23d 2d1f 41be 0946 bfbd
000000d0: 6ef6 e339 1456 5abd f274 38be e193 f5bc
000000e0: edb2 5bbd 68e1 a73d 71b8 79bd 8991 f23d
000000f0: 3833 1f3e 1874 133d 2b16 403e fe4a cbbb
0.01909893 -0.019483829 -0.0157666 0.03835082 0.18956727 -0.0003775792 -0.11345681 0.035190415
-0.14706326 0.2830789 0.05981046 0.18709673 -0.093131885 0.02641207 0.18706319 -0.033470735
-0.2012991 0.037315886 -0.05513865 -0.059398293 -0.12532078 -0.07756962 -0.19331747 0.0069273543
0.08540665 0.1306985 -0.06201203 0.26694623 -0.14314488 -0.36527884 -0.11369282 -0.14777449
0.030403111 -0.17002857 0.09832037 -0.12207204 -0.009309017 0.07920585 0.06993787 0.053161293
0.043845393 0.03705373 0.10196774 0.07195667 -0.03729857 -0.0665892 -0.11923829 0.05260905
-0.09860352 0.10291032 -0.18859549 -0.0933953 0.00043480418 -0.053304747 -0.18013361 -0.02997774
-0.053637434 0.0819729 -0.060966913 0.11844165 0.15546882 0.035999388 0.18758456 -0.006204008

critic.4.weight f4 [1, 64]
00000000: 6613 aebd 960c 123e 14ae 5e3e 6462 573e
00000010: 7bb4 093f b29e 64be 150c 7b3e c296 6e3f
00000020: 7194 c43e 6473 493e cda1 023e 86cb 203e
00000030: a71c e5bd 0a84 f03e 145a 833e d42e b43e
00000040: d9fb 1dbf 74b9 3dbe da17 ec3d 12e7 6c3f
00000050: e2cf b43d 03b6 f5be e4f5 f63e 4ef7 f23d
00000060: a9a3 e1bd dc7d f03d 4ca8 96be 3723 ea3d
00000070: b9d7 92bf ca1e 0dbf 0371 fd3d 0456 d5be
00000080: e436 f0be 560f 0cbf 36a3 95bf 238b 42bf
00000090: 9c71 a73e 210d 203e fdcc 643e a117 173e
000000a0: 1232 93be aee1 b73e 82a2 3fbe 965d 0d3e
000000b0: 9449 023e 9ccc 0dbe afe3 06be 1bfa 013e
000000c0: bfdc 253f 8bad 613e 09be 3f3e 675e 563f
000000d0: 8b8d 14bf 1672 60bf 4f93 bdbe 611a 40be
000000e0: 8584 95bf ae6f 5d3e 166f a93d e4a5 6c3f
000000f0: 7130 bc3e 6cb0 5e3d dd80 2f3f b68d a8be
-0.08499794 0.14262614 0.21746093 0.21033627 0.53791016 -0.22326162 0.24516328 0.9319879
0.38394502 0.19672924 0.12757035 0.15702638 -0.111871056 0.46975738 0.25654662 0.35191977
-0.61712414 -0.18527776 0.11527987 0.92540085 0.08828713 -0.47990426 0.48234475 0.11863576
-0.11017544 0.11742756 -0.29425275 0.11432498 -1.1472083 -0.55125105 0.12375071 -0.41667187
-0.46916878 -0.547109 -1.1690433 -0.75993556 0.32703865 0.15630008 0.22343822 0.14755107
-0.28749138 0.35914367 -0.18714336 0.13805231 0.1272338 -0.13847584 -0.13172792 0.12693064
0.64789957 0.22038858 0.18724836 0.83737797 -0.5802848 -0.8767408 -0.3702645 -0.18760063
-1.1681067 0.21624634 0.08273141 0.9244063 0.36755708 0.054367468 0.68556005 -0.32920617

exp_avg f4 [6]
00000000: e07a 9e38 5a9e 9cb7 8f73 88b8 8cc3 e2b8
00000010: 6c78 80b7 c10b b0b7
7.556914e-05 -1.8670387e-05 -6.50651e-05 -0.00010812943 -1.5314865e-05 -2.0986308e-05

exp_avg_sq f4 [6]
00000000: fd43 0a36 021c ad35 da36 7736 27a4 0535
00000010: a78b e734 0398 3133
2.0603177e-06 1.2897656e-06 3.6837796e-06 4.9785234e-07 4.3128713e-07 4.1349278e-08

exp_avg f4 [64, 43]
00000000: f6e4 a336 67c4 4fb6 a8ae 8fb7 a580 9635
00000010: faa1 10b7 4e52 dd36 8e32 a736 e998 8c37
00000020: 3a4c 9d37 c33f 25b8 fa65 0fb8 c902 0ab8
00000030: e12d b637 25d0 2eb7 884b c4b7 a19e 1ab6
00000040: 7350 d4b7 a794 a6b6 91a9 2e39 1be0 f238
00000050: 81c5 d734 9bd7 d933 0622 bbb5 4908 1eb3
00000060: e0b1 1ab6 1d2a a0b4 816f 04b4 6aff 13b6
00000070: 6efa e2b5 86d4 2bb4 f0b0 bbb4 88d8 b9b6
00000080: 16e5 b136 860b abb6 b560 07b6 6fe5 adb6
00000090: ff19 1735 f0b0 bbb4 e9d9 b9b6 16e5 b136
000000a0: ed24 a7b5 a74b 8b36 2509 e730 d2c9 b937
000000b0: caf8 50b7 a710 18b8 71c7 66b6 8240 80b7
000000c0: e090 8d37 7b16 25b8 ed5d 1cb6 22cd 47b7
000000d0: ce93 3338 44ee 9237 b8a6 d738 1958 f837
000000e0: 89b6 01b8 ebc8 a9b8 b866 81b6 7194 d6b7
000000f0: de52 3238 4a1b c539 0a76 2639 b7be ce35
00000100: 056e c8b5 20c1 e1b6 fe21 d0b3 904f a4b6
00000110: 703f 3c36 de40 bdb4 5472 d6b6 de96 83b6
00000120: c02f f1b4 802a 04b6 bce5 24b6 95af 5536
00000130: 4d8a 53b7 a2d7 c2b6 7fe3 3cb7 e234 e1b5
00000140: 802a 04b6 ebe7 24b6 95af 5536 e7ab 9db6
00000150: 3b3a ceb6 b612 a136 8ed7 afb6 260e f535
00000160: 8faa ac36 0c74 0e36 8af8 0b35 24c5 00b6
00000170: a50b 8237 4ba5 c036 baad 3bb7 7a95 a137
00000180: ffb5 1037 85d7 7337 f48f a7b6 cb60 ba36
00000190: 7b7c 9637 ab54 0f37 6ce8 9536 21cf ec35
000001a0: 1e32 a5b8 8743 f3b8 1695 65b4 f88e 6c35
000001b0: c709 0e36 dc1c 3ab2 f6be a033 bd05 a1b5
000001c0: 2ec7 a733 6070 8035 04dd 7535 d370 9033
000001d0: 2b39 90b5 a548 3434 31c6 c4b4 d7b9 9635
000001e0: 7325 0236 5b19 f835 cac5 bd34 2b39 90b5
000001f0: 6da2 3434 31c6 c4b4 8f04 8136 91ef 1836
00000200: 543e fab4 41fc f2b6 6d05 8736 2fe7 ae37
00000210: cc88 efb4 9dd4 bf36 dc1d 05b7 34f4 4b34
00000220: 740b b635 a6ce 8e35 0fd9 4e37 f434 de37
00000230: 3f46 ad36 e51e a7b7 c8fb 7e37 0e98 2938
00000240: 31a6 b436 ead4 a237 5f97 acb7 ab28 1cb8
00000250: 1911 2bb9 8a0f 8fb5 e776 1b36 f984 6436
00000260: db93 b032 a4fc 8435 1143 abb4 2fe6 5f34
00000270: 7bfa 5d36 8311 4f36 7fe2 7534 f542 ddb5
00000280: bc98 8ab5 53a3 96b5 ecbb c936 c4f5 cab4
00000290: d7ae fe36 0286 ee35 f542 ddb5 6896 8ab5
000002a0: 53a3 96b5 31d4 55b5 be81 ff35 ea86 b3b5
000002b0: 1644 4835 9664 e5b5 c924 39b6 ba2d 4e35
000002c0: 0f7e beb4 cdd1 6735 da79 9735 7ce6 0cb5
000002d0: 5b71 09b5 08a3 0837 097a 3037 485a a7b7
000002e0: 1b6b 5f36 b8ea 2ab5 4aba b6b6 ec53 7b36
000002f0: 9da4 a435 b118 35b5 2625 55b8 6942 c038
00000300: d8a7 0c34 59d0 ceb4 007e e1b4 9689 db30
00000310: 03dd 1fb3 6a5a 4533 b141 e3b2 09f2 e2b4
00000320: 22d7 c8b4 e793 d5b2 7ed5 a8b4 6fe0 a934
00000330: 5dc6 6035 5d53 2535 56d6 a4b5 25ee 62b2
00000340: e85b a534 7ed5 a8b4 1edf a934 5dc6 6035
00000350: 3932 10b4 2746 b634 33f0 1935 f25b d536
00000360: 870b 3db6 517e a535 5a83 fab6 8813 e8b5
00000370: 6946 af36 814d 1db5 2561 ecb6 4041 af33
00000380: 792b 1f38 b2e8 b736 80d5 d037 addb 8337
00000390: 8fdc b0b6 b1b7 bf36 4e15 3ab6 3b80 0bb6
000003a0: 1049 f737 49c4 be37 1f44 a3b6 13dd 2eb5
000003b0: 956b d834 7073 e0b4 76bc 76b2 073d 81b5
000003c0: fdea 8235 868a 2231 9b6b 16b5 b8e2 1535
000003d0: 4b7e 4db2 8eda 7735 bad5 1f36 4b0d e4b4
000003e0: c3a3 7db6 6f48 9db5 ca82 83b6 d10f 5935
000003f0: 8eda 7735 0ed6 1f36 4b0d e4b4 48dd 4235
4.884433e-06 -3.0959725e-06 -1.7128259e-05 1.1213311e-06 -8.620782e-06 6.595895e-06 4.982873e-06 1.6760505e-05
1.8751354e-05 -3.939845e-05 -3.418883e-05 -3.2904358e-05 2.1717455e-05 -1.0419671e-05 -2.3400193e-05 -2.3040122e-06
-2.5309831e-05 -4.964491e-06 0.00016657102 0.00011581202 4.0190574e-07 1.0144068e-07 -1.3942488e-06 -3.6794777e-08
-2.3051325e-06 -2.9832964e-07 -1.2334023e-07 -2.2053378e-06 -1.6911197e-06 -1.6002932e-07 -3.4960203e-07 -5.538637e-06
5.30168e-06 -5.0975386e-06 -2.0172859e-06 -5.1825114e-06 5.628971e-07 -3.4960203e-07 -5.5387977e-06 5.30168e-06
-1.2453216e-06 4.15133e-06 1.6810061e-09 2.2147698e-05 -1.2455692e-05 -3.6255133e-05 -3.438876e-06 -1.5288828e-05
1.6875973e-05 -3.9360002e-05 -2.3300483e-06 -1.19090855e-05 4.281458e-05 1.7515507e-05 0.00010283053 2.9604927e-05
-3.0925996e-05 -8.095972e-05 -3.8564576e-06 -2.5579911e-05 4.2515683e-05 0.000375951 0.00015874967 1.5403701e-06
-1.4933181e-06 -6.7280052e-06 -9.691938e-08 -4.896843e-06 2.8051109e-06 -3.525119e-07 -6.3910065e-06 -3.9216675e-06
-4.492449e-07 -1.969427e-06 -2.4571627e-06 3.1841676e-06 -1.2608781e-05 -5.8067535e-06 -1.1258641e-05 -1.6779197e-06
-1.969427e-06 -2.4572898e-06 3.1841676e-06 -4.6989767e-06 -6.1460573e-06 4.800352e-06 -5.2405003e-06 1.825804e-06
5.145855e-06 2.1227197e-06 5.2143207e-07 -1.9188237e-06 1.550263e-05 5.7412885e-06 -1.1186517e-05 1.9262301e-05
8.625443e-06 1.4534108e-05 -4.993746e-06 5.5545e-06 1.793936e-05 8.5431775e-06 4.4676035e-06 1.7643653e-06
-7.877148e-05 -0.00011599721 -2.1381524e-07 8.81249e-07 2.116534e-06 -1.0833187e-08 7.485316e-08 -1.1997105e-06
7.812774e-08 9.569449e-07 9.159123e-07 6.726045e-08 -1.0745474e-06 1.6790234e-07 -3.6652048e-07 1.1229957e-06
1.9393308e-06 1.8484819e-06 3.5347904e-07 -1.0745474e-06 1.6822896e-07 -3.6652048e-07 3.8450303e-06 2.278921e-06
-4.6611478e-07 -7.2415282e-06 4.023945e-06 2.085007e-05 -4.4616752e-07 5.716995e-06 -7.93437e-06 1.8994689e-07
1.356339e-06 1.0639967e-06 1.2329095e-05 2.648912e-05 5.1639795e-06 -1.9922338e-05 1.5198202e-05 4.0434352e-05
5.3837653e-06 1.941105e-05 -2.0574485e-05 -3.7231173e-05 -0.000163142 -1.0658853e-06 2.316601e-06 3.4052048e-06
2.0556334e-08 9.908294e-07 -3.190003e-07 2.0852234e-07 3.3077365e-06 3.0855597e-06 2.2899802e-07 -1.648527e-06
-1.0326253e-06 -1.1223404e-06 6.012144e-06 -3.780425e-07 7.590144e-06 1.7771383e-06 -1.648527e-06 -1.0325575e-06
-1.1223404e-06 -7.965746e-07 1.903674e-06 -1.3375804e-06 7.4604884e-07 -1.7091104e-06 -2.758856e-06 7.680752e-07
-3.5481978e-07 8.6359506e-07 1.128584e-06 -5.2489463e-07 -5.120143e-07 8.14419e-06 1.0518831e-05 -1.9949992e-05
3.3291933e-06 -6.3671496e-07 -5.4457096e-06 3.7450764e-06 1.2266861e-06 -6.7463685e-07 -5.0817755e-05 9.167643e-05
1.3099577e-07 -3.8522083e-07 -4.2001193e-07 1.5973451e-09 -3.722108e-08 4.5949868e-08 -2.6456151e-08 -4.2271884e-07
-3.7409433e-07 -2.4863722e-08 -3.1447775e-07 3.1642e-07 8.373516e-07 6.15886e-07 -1.2281332e-06 -1.3209079e-08
3.0800516e-07 -3.1447775e-07 3.1641042e-07 8.373516e-07 -1.3429316e-07 3.3951184e-07 5.734648e-07 6.3585985e-06
-2.8169904e-06 1.2330221e-06 -7.465872e-06 -1.7291031e-06 5.2236032e-06 -5.859984e-07 -7.044657e-06 8.1609414e-08
3.794904e-05 5.4809143e-06 2.4894951e-05 1.5718711e-05 -5.270885e-06 5.713628e-06 -2.772856e-06 -2.0787254e-06
2.9478717e-05 2.2741167e-05 -4.865709e-06 -6.5141757e-07 4.0311411e-07 -4.1807243e-07 -1.4361936e-08 -9.62901e-07
9.754145e-07 2.3652844e-09 -5.603594e-07 5.5836745e-07 -1.1961286e-08 9.233271e-07 2.3817252e-06 -4.247798e-07
-3.779526e-06 -1.1718492e-06 -3.91933e-06 8.0861815e-07 9.233271e-07 2.3817443e-06 -4.247798e-07 7.259264e-07
