2026-01-29_07-44-49_Fase2_Empuje_V1/model_1900.pt (torch, 189045 bytes, 36 tensors)

std f4 [6]
000000 92 fb 41 3f cd 0d 4e 3f 11 26 e1 3e 6d 4f aa 3f
       0.7577449 0.8048981 0.43974355 1.3305489
000010 46 ff 97 3f 4a 35 80 40
       1.1874778 4.006505

actor.0.weight f4 [64, 43]
000000 1f b2 c7 3c 3b 0c a1 3e b4 86 27 bd 5a a4 9b 3c
       0.024376927 0.31454644 -0.040899947 0.018999267
000010 90 75 9b be 5f 1e cc be eb 97 1a be 65 ff 67 be
       -0.3036313 -0.3986692 -0.15097015 -0.22656019
000020 3b 05 4b 3c 1d 59 57 3d 8f 54 ac bb 22 4f fa 3d
       0.012391384 0.05257522 -0.0052591036 0.12222125
000030 99 a6 07 3e 32 2c 59 3e e9 53 d2 3c 03 94 2f be
       0.13247146 0.21208265 0.025674777 -0.17146306
000040 c5 bc 26 be ad 18 1e be ba 27 55 bd 4e d9 26 3c
       -0.16282947 -0.154391 -0.05203984 0.010183645
000050 fe 83 77 3f fa 88 09 3f 39 07 48 3e cc cb 43 bc
       0.9668578 0.53724635 0.19534005 -0.011950444
000060 8d da 0c bf 83 16 75 be e5 c5 3c be 36 4f 85 be
       -0.5502098 -0.23934369 -0.18434866 -0.26036996
000070 88 f2 f4 3d e0 6f 8e be 00 26 a8 3e af 89 a3 bc
       0.11960322 -0.2781973 0.32841492 -0.019963114
000080 c0 9b a7 3e 3c 4f 00 bf 8b bc 11 3e 39 94 a6 3e
       0.32736015 -0.501209 0.1423208 0.3253496
000090 5c 0e 22 3e 48 2f 9e 3e 76 7f 0c 3e 46 cb 28 3e
       0.1582579 0.30895448 0.13720497 0.16483793
0000a0 f7 1f e4 be 2b 11 85 be ad df ad 3e b2 28 80 bd
       -0.44555637 -0.2598966 0.33959714 -0.06257762
0000b0 87 7b 2d 3e bd 57 a3 3e 2b f2 21 3f e4 0c 27 bf
       0.16941653 0.31902876 0.63260144 -0.65254045
0000c0 47 76 2b be 69 44 03 3d 56 0e 24 bf df 8e ce bd
       -0.16744338 0.032047663 -0.64084375 -0.10085844
0000d0 26 a2 da bd b8 ac 4f 3e 8e 61 e8 3c fc 69 b0 3d
       -0.106754586 0.2028073 0.02836683 0.08613965
0000e0 41 d8 f5 bd 7c 0f 9a bb 0b 8e d5 3e b0 a6 24 bf
       -0.12004138 -0.004701553 0.41709933 -0.64316845
0000f0 6e df 2b be 3d 56 74 bd 68 9e 8f 3c b0 a0 41 bf
       -0.1678445 -0.059652556 0.017531589 -0.75635815
000100 13 dd 80 3f b8 37 0d 3f 30 e7 bf 3e 80 06 52 bf
       1.0067466 0.55163145 0.3748107 -0.8204117
000110 41 b3 36 bf 98 1b d4 3a da 63 c4 bd aa 4d c7 3e
       -0.7136727 0.001618254 -0.09589358 0.3892644
000120 f4 ca 96 3e 84 06 05 be e5 c8 5a be 26 63 a2 3e
       0.29451716 -0.12990767 -0.21365698 0.3171627
000130 97 df df bd 72 13 c7 be 3f 14 97 3e fa a2 21 3f
       -0.10931318 -0.38882023 0.29507634 0.6313931
000140 4b ee c0 bd 85 1a 14 be f1 15 09 3f 0f df b2 3d
       -0.09420451 -0.14463241 0.53549105 0.08733951
000150 a8 c2 12 3f 60 de 12 be 5d 47 ca be ff fa 5a be
       0.5732827 -0.14342642 -0.3950757 -0.2138481
000160 d1 91 9d be 74 ea 90 3d c9 fb bc 3b 20 ef 4e be
       -0.30775312 0.070759684 0.00576732 -0.20208406
000170 88 87 8f 3e 79 08 3e bd 1d e9 83 be cd 80 76 be
       0.2803309 -0.0463948 -0.2576379 -0.24072571
000180 ce 26 53 bc 18 66 42 3d 9d 86 65 be 3b 83 38 be
       -0.01288767 0.047460645 -0.22414632 -0.1801881
000190 63 43 c1 be 6c 26 9b 3d 53 c0 13 bd 6c af 87 be
       -0.37746724 0.07575688 -0.036072087 -0.26501024
0001a0 2e 0f 86 bb 1f e0 ae bb 68 28 d6 be 1e 6f 0c bf
       -0.004091165 -0.005336776 -0.41827703 -0.5485705
0001b0 84 cd c2 3c c7 36 b7 be 5d 00 14 bd b8 bc a8 be
       0.023779638 -0.3578398 -0.03613316 -0.3295648
0001c0 ae cc 8c 3d 2f d7 ef be d3 cd 16 be f7 50 db bd
       0.06874977 -0.4684386 -0.14726953 -0.10708802
0001d0 cd 1e 82 bd 90 da 8e 3e 60 aa 17 3f 0c 6b 9a be
       -0.06353531 0.27901125 0.59244347 -0.30159795
0001e0 62 62 95 3b 38 ba 37 be a5 d3 04 bf b0 5e 61 be
       0.0045588473 -0.1794213 -0.51885444 -0.22008777
0001f0 0b 11 9c 3e e3 c4 0e 3f 80 3a ee be f5 3c 70 bd
       0.30481753 0.55769175 -0.46529007 -0.058651883
000200 fa d1 e1 3e 01 73 aa b9 3c 76 ed 3c c1 ee 14 3e
       0.44105512 -0.0003251061 0.028987043 0.14544202
000210 32 40 ef be 6d 3f a2 3e b3 75 e0 bb ef a3 98 3d
       -0.46728665 0.31689015 -0.0068499683 0.07453143
000220 f2 14 89 be a5 87 89 3e 2c ce 32 3e cc 3e ae bd
       -0.26773793 0.268613 0.17461461 -0.08508071
000230 ab 51 80 3d 3a 6e 7d bd e8 a4 32 3d 3d cc 18 3d
       0.06265577 -0.0618727 0.043614298 0.03730415
000240 b2 3b 7c be cd c3 47 3e a9 ab 37 3e b3 80 66 3c
       -0.24632147 0.19508286 0.17936577 0.01406877
000250 a7 31 8a 3c e0 b9 04 be d8 7f a8 be bf d5 b0 be
       0.01686938 -0.1296153 -0.32910037 -0.34538075
000260 06 c5 2c 3e 6e f6 e8 bd c7 b4 41 3e c3 d1 56 be
       0.16872033 -0.11375128 0.18916617 -0.20978455
000270 10 94 29 bc e5 61 59 be 09 0e 61 bc bc 9c a7 ba
       -0.010350242 -0.2122875 -0.013736256 -0.0012787799
000280 29 93 8d bd 82 81 ac 3e d9 a3 d2 bd f6 76 e1 bd
       -0.06912834 0.33692557 -0.10285158 -0.11009018
000290 3b 14 e3 bd 66 f3 0e 3d a3 24 d0 3a 4e 74 a9 bd
       -0.11087843 0.03490009 0.0015880059 -0.082741365
0002a0 57 d0 ad 3e 85 50 57 3e cc 58 9a bd c1 06 09 bf
       0.33948013 0.2102681 -0.07536468 -0.5352593
0002b0 02 a9 53 3e c8 fd 11 bf 40 f9 0f bf 58 8e ca bb
       0.2066994 -0.57027864 -0.562397 -0.0061815195
0002c0 91 67 1d 3d 0d c5 e9 3e be f3 1e 3e ee 83 ad 3e
       0.038428847 0.4565815 0.15522668 0.33889717
0002d0 c1 d4 9c 3e 3a b4 7c 3c c8 c6 96 bd d5 d7 79 bc
       0.30631068 0.015423829 -0.07362133 -0.015249212
0002e0 33 89 3a 3e d8 37 a2 bd e3 61 73 bd 58 fe a6 3d
       0.182164 -0.079208076 -0.059419524 0.08153981
0002f0 ec 1c 07 3d bd 9c 3b 3e a0 5b 0c 3d 8e 3c 6c bc
       0.032986566 0.1832151 0.034267068 -0.014418734
000300 64 e1 ea bc d2 be 31 3f c6 61 25 3e fe bf 8e be
       -0.028671928 0.69431794 0.16150579 -0.27880853
000310 9e ef 97 be 4f e8 b6 bd 6a e8 1f bd 3b a3 eb bc
       -0.29675 -0.08931028 -0.039040007 -0.028764358
000320 da 2a 0a bd a2 28 29 be 69 0c 40 be 0a e8 9f 3e
       -0.033732273 -0.16519406 -0.18754734 0.3123172
000330 a8 78 5c be 9c a7 ac be 8e 9a 43 bd 64 68 32 be
       -0.21530402 -0.33721626 -0.047754817 -0.17422634
000340 cf 21 9d be 1a e6 88 be 03 1b ad 3e b1 c5 0c be
       -0.30689856 -0.26738054 0.3380967 -0.13747288
000350 48 a8 58 3e cd aa 90 bf ff 1c 8f 3e 89 86 90 bd
       0.21157944 -1.1302124 0.2795181 -0.070569105
000360 55 97 c4 bd 27 e4 dc bd d1 24 a3 bd 71 2d 41 3e
       -0.09599177 -0.10785704 -0.079660065 0.18864991
000370 d1 84 c8 bd 8a c4 8d 3e e6 33 4c bf db 07 b9 bc
       -0.09790958 0.2768901 -0.7976669 -0.022586754
000380 ca 11 a9 3c a1 74 1b 3d 68 db 0c bc 18 0c 12 be
       0.020638365 0.037953023 -0.008597232 -0.14262426
000390 f0 95 a5 be 6d 5a 8c be ff e6 5b be fb ef df 3e
       -0.32340956 -0.2741274 -0.21474837 0.43737778
0003a0 44 7c 70 3e da 77 1a 3d 70 28 b5 3c 41 3e 43 be
       0.23484904 0.037711956 0.022114009 -0.19066717
0003b0 74 eb 31 bf 03 f6 98 bc 4f 3a c3 3e ac 0e d6 bd
       -0.694999 -0.018671995 0.38130423 -0.10452017
0003c0 50 9a d1 be 04 23 95 be a8 7c 36 be 60 59 57 be
       -0.40938044 -0.29128277 -0.1782099 -0.21030188
0003d0 5d f3 20 be 8a b7 0b be d0 83 1d be 04 57 80 3e
       -0.15717836 -0.13644233 -0.15382314 0.25066388
0003e0 c0 6b 76 bd 09 7f d1 3d c6 4b 2b be 9f a7 b1 be
       -0.060161352 0.10229308 -0.16728124 -0.34698197
0003f0 56 8b 65 bd b8 97 01 be fe 57 1e 3e e6 6c 2d bf
       -0.056041084 -0.12655532 0.15463254 -0.6774429

actor.0.bias f4 [64]
000000 42 e9 c6 3c 98 fe 70 3e d3 47 07 3d 7c c8 eb bd
       0.024281148 0.2353462 0.03302748 -0.11512849
000010 2f 16 05 3d a9 7f b7 bd e9 60 0f 3e fe a7 c5 3c
       0.03249186 -0.08959896 0.14001812 0.024127956
000020 75 a8 3d bd ec 16 f5 3d 28 24 ba be 2f 94 5a 3e
       -0.04630323 0.119672626 -0.3635571 0.2134559
000030 c6 a6 95 be 7d 2b 53 be 5b b1 68 3d 4a 5d 23 3c
       -0.292288 -0.20622058 0.056809764 0.009970972
000040 9a 16 0d bd 2e ac 69 bd 41 90 bd be 70 db 94 bd
       -0.034445383 -0.05704897 -0.3702412 -0.07268417
000050 4c 57 01 bf 69 5b b9 3d 71 de 27 be 9f b4 64 be
       -0.5052383 0.09050638 -0.16393448 -0.22334526
000060 68 58 69 be fe bb c4 3d 77 98 13 be c9 c1 be bc
       -0.2278763 0.09606169 -0.1441363 -0.023285763
000070 06 d5 2d 3d 65 04 ae be 52 85 a6 3e 29 be f6 3d
       0.042439483 -0.33987728 0.3252359 0.12047989
000080 cc 0d c5 bd 07 78 10 3e 02 e6 6f be a1 34 df 3c
       -0.09621772 0.14108287 -0.23427585 0.027246775
000090 80 ce 2b 3e cd aa ac be d8 7a 08 be e6 8f bc be
       0.16777992 -0.3372406 -0.13328111 -0.36828536
0000a0 71 52 04 be d0 24 1d be 1e 15 3a bd 6d 85 e1 bd
       -0.12922074 -0.15346074 -0.045430295 -0.11011777
0000b0 81 f0 36 bd d5 54 ee 3d 0e bf 01 3e 64 3a 46 be
       -0.044662956 0.11637274 0.12670538 -0.19358212
0000c0 63 83 73 be a2 91 3b bc f4 0b ae 3d 96 59 00 be
       -0.23780589 -0.011448296 0.08498374 -0.12534174
0000d0 3c 03 03 be a0 4d 27 be 0d 40 5a bd 43 d6 e9 3c
       -0.12794203 -0.16338205 -0.05328374 0.02854455
0000e0 12 a6 b6 3e 01 9e 1f 3c f3 1a 94 3c ef b4 d9 be
       0.35673577 0.009742261 0.018079257 -0.42520854
0000f0 18 e2 d6 be 9d c0 e9 3d 2d dc 31 be a0 fb 0b be
       -0.4196937 0.11413691 -0.17369147 -0.13670206

actor.2.weight f4 [64, 64]
000000 ce c7 2a 3d b0 39 0e 3d 56 ac 3e bd eb 60 70 3d
       0.041694455 0.034722984 -0.04655107 0.05868618
000010 a0 a2 3e 3d fb 7e 50 ba f4 6d 74 3d 84 67 bc 3d
       0.04654181 -0.0007953492 0.059675172 0.091994315
000020 6d e2 f5 bd 82 c4 8b 3c 91 2c ea 3c 0f 9f 84 bd
       -0.12006078 0.017061476 0.028585704 -0.064756505
000030 da 7e d7 3d d2 7c eb bd a9 00 85 3e 5a 5c 77 be
       0.10522242 -0.11498417 0.25977066 -0.24156323
000040 c8 f2 30 be c7 ce 56 3e 6b 78 8c bc 6a df 3e 3d
       -0.17280114 0.20977317 -0.017147264 0.046599783
000050 5e 6b 67 3d a6 56 97 bd dc 9b a1 be 4d 75 3f 3d
       0.056498878 -0.07389574 -0.31564224 0.046742726
000060 6a 90 c2 3d 12 37 10 3d a8 d4 c7 3c a7 bd ae 3d
       0.09500201 0.03520877 0.024393395 0.08532267
000070 72 e0 69 3e 34 17 72 bd fb 13 a3 3d 66 77 1f 3e
       0.22839525 -0.05910416 0.07962795 0.1557289
000080 e7 1f db 3d 2d ad 10 3e cc e6 08 be 80 9f cc 3c
       0.10699444 0.14128561 -0.13369292 0.0249784
000090 dc bb 01 be 47 53 60 3a a4 f9 a3 3e 86 1a 85 3d
       -0.12669319 0.0008557331 0.32026398 0.064991996
0000a0 bb a0 41 bc d9 da c4 bd a7 51 58 bd 47 91 db bd
       -0.011818106 -0.096120544 -0.052812245 -0.10721069
0000b0 69 4e b7 3d 19 63 6b be 50 4c fd 3d be 89 ee 3d
       0.089505024 -0.22987022 0.12368071 0.11647366
0000c0 30 25 9d bd fc 9b de bc ca ad 13 bc 14 bc 20 be
       -0.076731086 -0.027173989 -0.0090136025 -0.15696746
0000d0 51 b1 e8 3d c1 2e 53 be 9b ff a5 3c 10 d0 4e 3e
       0.113619454 -0.20623304 0.020263484 0.20196557
0000e0 f1 47 78 3c 64 8f cc 3c e0 c6 09 be 86 3d 36 bc
       0.015153871 0.024970718 -0.13454771 -0.011123067
0000f0 9e 3b 03 3d 96 34 5d 3e b6 24 f1 bd bb f4 cd bd
       0.032039277 0.21602091 -0.1177458 -0.10056444
000100 4f 62 52 be 3f eb 11 be c3 35 30 3e a3 4d 99 bd
       -0.20545314 -0.14249896 0.17208008 -0.07485511
000110 a2 86 b9 3d af 13 93 3e 31 01 f5 3d 35 ea 33 be
       0.09058882 0.28725955 0.11963118 -0.17569812
000120 06 8f d9 bd d1 cc be be 19 87 cb 3c 0f 29 0d 3e
       -0.10622983 -0.37265638 0.024844693 0.13785194
000130 6a a0 16 bd 35 54 51 bb c0 09 93 be 64 0e 2d be
       -0.036774077 -0.003194106 -0.28718376 -0.16900021
000140 d6 eb ed 3d 11 c6 f8 3d 94 2b 86 3e a3 e9 f5 3c
       0.11617248 0.12147153 0.26205122 0.030018633
000150 10 3f b0 3d bd aa 3e bd 9c 79 39 3e f5 f3 ed 3d
       0.08605778 -0.046549547 0.18112797 0.11618797
000160 75 f8 82 3c 63 40 33 3e a0 80 ca be f2 61 78 3d
       0.015987614 0.1750503 -0.39551258 0.060640283
000170 90 b0 dc 3c 63 49 c8 3d fa 71 a7 bd 18 b2 9f 3d
       0.02693966 0.097796224 -0.08176036 0.077976406
000180 28 d4 3a 3e c7 ce 28 be 44 26 8a 3e 53 62 8d bd
       0.18244994 -0.1648513 0.2698232 -0.069035195
000190 5b 43 ff bd bd fc b8 3e d6 61 fa 3c d3 4d 06 3e
       -0.12464019 0.36130324 0.03056423 0.13115625
0001a0 38 ec 86 3e 50 ad 5c 3e 39 17 ac 3b ce 1f e2 3e
       0.26352096 0.21550488 0.005251792 0.4416489
0001b0 a8 cf aa be d2 1c c3 bc 46 8a 22 bf f7 31 29 bd
       -0.33361554 -0.023817454 -0.6349224 -0.041307416
0001c0 e6 a4 7d 3e eb 0d ff 3a fa 57 3a 3e 6c 31 46 3c
       0.24769935 0.0019459104 0.18197623 0.012096744
0001d0 a0 f2 41 3d 73 d7 b1 3d 9e f3 6c bd 28 7d a3 be
       0.047350526 0.08683672 -0.05784952 -0.31931424
0001e0 f2 7a 84 3e 7a 48 85 3d 2a b1 f4 bd ac 66 20 3e
       0.2587505 0.065079644 -0.11947854 0.15664166
0001f0 83 f7 e2 bd 84 ae 8c 3e f0 f1 0a bf 23 e1 22 3e
       -0.11082365 0.27476895 -0.5427542 0.15906195
000200 f4 3d 47 3d fd a3 a0 3d 61 54 34 3d de 1e f9 3d
       0.048643067 0.07843778 0.044025782 0.121640906
000210 8e 0f 47 3d 74 78 19 3d 67 8b 1c 3e 07 57 39 be
       0.04859882 0.03746839 0.15287553 -0.18099605
000220 3b 5b d5 3d 4b a7 d1 3d b4 0c 6b be 2e 32 06 3e
       0.104177915 0.10236987 -0.22954065 0.1310508
000230 33 be 3c bd 5c 10 89 bd 4a 5e fa 3d dc 53 30 3c
       -0.046079826 -0.066925734 0.122250155 0.010762181
000240 d2 c9 20 3d b1 76 75 bc 07 8e 4f bd 72 0c 37 3e
       0.03925497 -0.0149819115 -0.050672557 0.17875841
000250 7b 8c 1f 3c 39 cf 30 be fe f4 43 3d e2 49 76 be
       0.009738083 -0.17266549 0.047841065 -0.24051622
000260 1c a4 80 bd 0f e2 71 bd db dd 30 3a 8e d4 45 bf
       -0.062813014 -0.059053477 0.0006746926 -0.7727746
000270 17 c2 93 3d 7a 18 5e bd 57 f3 88 be 65 a6 bf 3d
       0.07214754 -0.05422256 -0.26748154 0.09357909
000280 ec 06 00 be 2b 6a 8d bc d1 f6 84 3e f9 b4 38 bc
       -0.1250264 -0.017262539 0.25969556 -0.011273616
000290 30 a9 13 bd 0a 00 e1 3c 35 eb d9 bd f7 96 d5 3d
       -0.03605002 0.027465839 -0.10640565 0.10429185
0002a0 2d d4 0a 3d 98 eb cd bd 9e 89 75 bd ac 18 4a bd
       0.033893753 -0.100547016 -0.059945695 -0.049339935
0002b0 e1 8d de bc 8a f4 1c be 3f f6 94 be 6d 5f 3b be
       -0.027167263 -0.15327659 -0.2909412 -0.18298121
0002c0 60 55 2d 3c 2f 6e 5d bd 85 15 47 3e c0 0d b7 be
       0.010579437 -0.054060157 0.19441803 -0.35752678
0002d0 0d de bd bc 1b 31 92 bb 76 c8 2a be 31 ce 05 be
       -0.023177171 -0.0044614202 -0.16678032 -0.13066937
0002e0 3b 26 20 3e 76 71 f9 3d 13 8c e6 bd 55 8b 49 be
       0.15639584 0.12179844 -0.11257186 -0.19682057
0002f0 e9 42 64 bd d2 02 01 3c 83 31 af be d2 f1 f2 3d
       -0.055727873 0.007874208 -0.34217462 0.1186253
000300 02 d6 6f 3c 3b dc 01 3d 54 06 b2 bd 1c a0 84 3d
       0.014638426 0.03170417 -0.08692613 0.06475851
000310 6f 4a 32 3d af 79 2c 3e 37 b7 9d 3d b9 0e a6 bd
       0.043528017 0.16843294 0.07700961 -0.08108277
000320 69 b2 34 3c 7d f4 16 3d 2f 56 d3 3d c7 d7 39 bd
       0.011028864 0.036854256 0.103191726 -0.045371797
000330 95 bc c0 3c e0 e2 01 be 46 01 0d 3e c4 b7 f9 bd
       0.023527423 -0.12684202 0.13770017 -0.12193254
000340 26 bd e3 bc 0f 56 b6 3c 7a 25 24 3d c8 7f 13 3d
       -0.027800154 0.022257833 0.040074803 0.036010534
000350 59 54 04 be 6f 44 a0 bd 36 ad c8 3c 32 f9 2d bd
       -0.12922801 -0.07825553 0.024496656 -0.04247398
000360 2f 10 99 3d 0e e1 90 3d a9 05 b0 3d 82 83 c0 3d
       0.0747379 0.07074176 0.085948296 0.09400083
000370 f9 cf e0 3b a4 65 c9 3b 16 51 3d be f0 d3 99 bd
       0.00686073 0.0061461497 -0.18487963 -0.07511127
000380 83 c5 c4 3d be 75 96 bc 92 65 e7 bc b0 1a e0 3d
       0.09607985 -0.01836669 -0.028246675 0.1094259
000390 b5 64 26 be 4f 04 db 3d be 9f 9d 3e 9a f4 8f 3d
       -0.16249354 0.10694181 0.30785936 0.07029076
0003a0 5d 1d 76 bd 2c 8c fe bd 70 8a a4 3d df 37 9d 3d
       -0.060086597 -0.124290794 0.08034217 0.07676672
0003b0 ed 34 49 3e f5 ed 80 3c 88 44 3b 3d 18 a4 17 3e
       0.19649096 0.015738467 0.045719653 0.1480869
0003c0 42 28 cb 3c ed 0b 0c bd 68 04 ff bd 55 60 04 3e
       0.02479947 -0.03419106 -0.12452012 0.12927373
0003d0 eb 7c 1a bb 7f 7e 23 3e d6 30 d4 bd dc 2a 54 3e
       -0.0023572992 0.15966223 -0.10360877 0.20719475
0003e0 fe 97 42 be 2d 37 dd bd 9d b2 00 3e 19 ca 9c bc
       -0.19003293 -0.108015396 0.12568136 -0.019139336
0003f0 82 1a ea 3d 87 31 af 3d 37 90 08 bc 45 cd 28 bd
       0.11430837 0.085543685 -0.008335165 -0.041211385

actor.2.bias f4 [64]
000000 37 d0 d8 bd c6 3b 8d 3d b1 46 91 3c 59 d2 06 3e
       -0.10586589 0.068961665 0.017733904 0.13166179
000010 35 7b a5 3c cc f5 ef 3c 66 fe 2b bd 2c 7c 86 3e
       0.020200351 0.02929201 -0.04199066 0.2626661
000020 12 4f c6 bd ed 33 d9 bd 66 ed b8 3e 6f a9 06 be
       -0.0968305 -0.10605607 0.3611862 -0.13150571
000030 53 f5 64 3b b6 64 81 be 15 89 4d 3d 1a 7d 66 3e
       0.0034936264 -0.2527215 0.05017956 0.2250866
000040 8d 51 28 3c 67 ec 9f be ef bf 7d bc 03 67 f9 bd
       0.0102733495 -0.31235048 -0.015487655 -0.12177851
000050 1b 19 67 3d da 43 83 bd 94 84 10 be 1e 94 c4 bc
       0.056420427 -0.06409426 -0.14113075 -0.023996409
000060 73 46 09 bc 35 2d 9a 3e 3f c9 cb 3d 09 03 f5 3d
       -0.008378613 0.30112615 0.09950494 0.119634695
000070 6e 67 e7 bd 24 de 12 be 38 45 06 3e a6 45 b3 3d
       -0.112990245 -0.14342552 0.13112342 0.08753519
000080 30 bc 91 be 7a 7e 30 be 32 7c 6e bd 6c 6d 6e be
       -0.28463888 -0.17235747 -0.05822391 -0.23283929
000090 88 f1 be bd 88 b2 0c be 73 b9 30 bd 6b fb 75 ba
       -0.09323412 -0.1373998 -0.04314561 -0.00093834725
0000a0 9e 43 0e 3e 2b ac a8 be 36 d8 ba bc f4 38 d2 3c
       0.13892981 -0.32943854 -0.022808176 0.025661923
0000b0 3a 11 b9 bd 20 57 31 be 75 c9 47 be 92 9e 45 be
       -0.09036489 -0.17318392 -0.19510444 -0.19298771
0000c0 2a 5d 76 3d 5b 87 b5 3e 4a 2a 9e bd 55 f2 44 be
       0.060147442 0.3545483 -0.0772291 -0.19233067
0000d0 6a 75 6b 3e d0 e5 8b 3d c2 e1 c6 3d 9f a2 99 be
       0.22994009 0.06830943 0.09711029 -0.30006883
0000e0 4e 06 25 3e 74 c9 c8 3d 77 f8 4d bd a0 bf dc bd
       0.16115686 0.09804049 -0.050285783 -0.10778737
0000f0 c9 47 64 3c 6d 68 51 bc b4 16 3b be aa 65 5a 3e
       0.013933131 -0.012781245 -0.1827038 0.21327844

actor.4.weight f4 [6, 64]
000000 45 ca 29 be ff 21 01 be 35 e1 5c 3a 5e 16 e9 bd
       -0.16581066 -0.12610625 0.00084258924 -0.11381219
000010 3c 92 a6 bd b1 48 82 3d f9 fc 00 be a1 98 4d 3d
       -0.08133361 0.06361521 -0.12596501 0.050194386
000020 1a 36 64 3d e3 52 d2 bd df c4 64 bd ef 8b 1b 3d
       0.055715658 -0.10269716 -0.055851813 0.037975248
000030 8f 44 8a 3d c3 a7 56 3d db ed d3 bd 8b 53 7b bd
       0.06751358 0.052406084 -0.10348102 -0.06135897
000040 fe c2 4d 3e 6c d5 3c 3e 7c 2e 11 3d 1f 19 e6 3d
       0.20093915 0.18440789 0.03544472 0.1123526
000050 c5 2b c9 3c 19 5e 3d be 52 d5 8b 3d a1 d4 1c 3e
       0.024557004 -0.18492927 0.06827797 0.15315486
000060 9f 14 0b 3e 4b 34 73 bb 7e af a8 3d 0e d1 c9 bd
       0.13582085 -0.0037110026 0.082365975 -0.09854327
000070 41 61 04 bd 71 bc 8d be d6 c7 40 bc 30 7a 9b bb
       -0.03231931 -0.27682832 -0.011766395 -0.0047447905
000080 cc b1 50 3b af be 1f 3e 13 04 ed bc 91 b8 61 3d
       0.0031844256 0.15600084 -0.028932607 0.055107657
000090 77 8d 81 bc 41 6f 2a 3d 82 8e 84 be 08 99 75 3e
       -0.015814526 0.041610006 -0.25889975 0.23984158
0000a0 c2 e2 96 3d 2d 4e 94 3d c9 f8 6f 3c 47 a5 65 bd
       0.07367469 0.07241473 0.014646717 -0.056065824
0000b0 c6 9e 9c 3e 02 f7 98 3d 08 04 a0 bc 22 03 8f 3d
       0.30589885 0.07468988 -0.019533172 0.069830194
0000c0 d7 8a 85 3d 2d 2d 02 bc 2a a5 c8 bd 0e 31 03 3d
       0.06520622 -0.007945341 -0.097971275 0.032029204
0000d0 28 cc 0c be 52 e4 73 bd 7a 53 82 be 14 0c ec bc
       -0.13749754 -0.059543915 -0.25454313 -0.028814353
0000e0 cd 9e b6 3d 3d a6 cb bd 45 d5 05 3c 6e 86 0f be
       0.089170076 -0.09943817 0.008168523 -0.14016125
0000f0 0a 32 9b bd 08 ed c3 3c de 69 8e 3e 32 0e fb bd
       -0.075779036 0.023916736 0.27815145 -0.12258567
000100 08 1d 8b 3d 03 24 e9 3d 0c 98 89 be 2b c4 03 bd
       0.06792647 0.11383822 -0.26873815 -0.032169502
000110 55 a4 d7 3c cf 71 51 bd 31 82 b6 3d e5 eb 4e bd
       0.026323477 -0.051133927 0.08911551 -0.050517935
000120 39 49 2b 3e 91 3c 86 bd 15 26 05 3e 00 b5 a0 3c
       0.16727151 -0.06554521 0.13002808 0.019617558
000130 3d c1 31 be c7 c0 39 bd d8 dc 53 3d 1e 40 e1 bc
       -0.17358871 -0.045349862 0.051724285 -0.027496394
000140 84 53 c1 3d a7 a7 02 bd 04 15 a3 3d cd f9 98 bd
       0.094397575 -0.031898167 0.07962993 -0.07469521
000150 6f 5e 20 bd ca a0 f0 3d 44 eb 65 bd d8 8d 27 be
       -0.03915256 0.11749418 -0.05613257 -0.16362703
000160 56 07 bf bc cd 03 62 3c af 7b 29 3d 67 93 2a bc
       -0.023318928 0.0137948515 0.04137772 -0.01041112
000170 10 03 11 be f2 3f ad bc 59 95 10 be 06 c9 84 3b
       -0.14161325 -0.021148656 -0.14119472 0.004052284
000180 77 41 81 3c d5 2c 98 bc 3a b1 fb 3d 61 2b 99 bc
       0.015778286 -0.018576065 0.12289663 -0.018697442
000190 f9 5b b5 bc b9 35 9a bd a1 26 c8 bd 88 e5 49 3d
       -0.022138583 -0.07529778 -0.09772993 0.049291164
0001a0 ea 83 36 3e bf 46 b4 bd 09 61 91 be fe b6 09 3d
       0.17823759 -0.08802556 -0.28394344 0.03362178
0001b0 c6 61 08 3e 5f 1e 19 3e 3e 9e a6 3d a7 46 42 bc
       0.13318548 0.14952992 0.08135651 -0.011857665
0001c0 7b 85 02 3e b8 33 39 3d df 56 c7 3c 5f 60 13 3e
       0.12746231 0.04521534 0.024333416 0.14392231
0001d0 83 6a 82 3d 8c a0 1f 3d 14 00 d5 3d 34 2f 15 bd
       0.06367972 0.03897147 0.104004055 -0.03642197
0001e0 89 b9 63 bd 3d 2e dc 3d 0d 8a a1 bd 61 20 21 be
       -0.055596862 0.10751007 -0.07887659 -0.15735008
0001f0 1f c3 f4 3d 1b e3 9e 3c 80 54 eb 3b 7a 11 6c 3d
       0.11951279 0.019395402 0.007181704 0.057633854
000200 08 7d 67 3a f5 89 1c 3d 57 3d 90 bd 9c 2b 5f 3d
       0.0008830582 0.038217504 -0.0704295 0.05448495
000210 41 a9 d3 3c 31 f1 87 3c f8 6c 7b bc 47 ff fe 3d
       0.025837542 0.016594501 -0.015345804 0.12451034
000220 63 9e 8b be ae be 97 3d 0d c8 5a 3d 9b bc 8c be
       -0.27269277 0.07409416 0.05341344 -0.27487645
000230 e7 4e 1e be 51 b3 6c be e3 f1 dd 3c 12 85 16 3d
       -0.15459786 -0.23115279 0.02709288 0.036748
000240 f7 c8 88 bd ca 10 2b be 86 88 c0 3d 2c 05 3e be
       -0.06678956 -0.16705623 0.0940104 -0.1855666
000250 b6 2f 8e 3d 24 8b 5d bd 5e cd 1e be c4 9a af bd
       0.06942694 -0.054087773 -0.15508029 -0.08574441
000260 5d e8 f8 bd 6e a7 f4 3d 77 7f 53 3d ac 40 71 3d
       -0.12153695 0.11945997 0.05163523 0.058899567
000270 3e fc 8e be 1d 8e c9 bd ce f9 bd 3d 1c f2 cd 3d
       -0.2792682 -0.09841559 0.09276162 0.10055944
000280 b1 e2 b9 bc 8c b9 53 be 62 b7 12 3b 3e f1 42 be
       -0.022691103 -0.2067625 0.0022387137 -0.19037339
000290 8f 37 98 bd 4a 15 79 3c d3 33 81 bd 25 7a 5f bd
       -0.07432472 0.01520283 -0.06308713 -0.054559845
0002a0 a4 d9 d5 3c e2 ac 5c be 4a 08 02 bc 47 e6 c8 3d
       0.026104756 -0.21550325 -0.007936547 0.09809547
0002b0 a8 61 5b 3c f6 e7 93 bd e4 e2 af bd b0 22 97 bd
       0.013389982 -0.072219774 -0.08588198 -0.07379663
0002c0 ed 76 05 3e e5 67 d3 3d 04 87 f1 bd 68 bb a6 bd
       0.13033648 0.10322551 -0.1179333 -0.08141214
0002d0 b5 c9 03 3e 4b e8 94 3d 79 e7 f8 3b 7e f1 50 be
       0.12869914 0.07270869 0.007595953 -0.20404622
0002e0 ca f8 ea 3d 2b 6f d6 3d cb e0 90 3c 67 19 cc bc
       0.11473234 0.10470422 0.017685315 -0.024914457
0002f0 49 87 2e bc 15 c3 53 3d 26 85 2e be ef 75 28 3d
       -0.010652372 0.051699717 -0.1704298 0.041128095
000300 79 7a 30 bd d9 15 59 3e b7 d0 12 be f0 99 9f 3c
       -0.04308555 0.2119974 -0.14337431 0.019482583
000310 7c b4 ab bb 74 f0 b0 3d c5 d2 19 bd 3f c7 cb bd
       -0.0052400213 0.08639613 -0.03755452 -0.099501126
000320 5c c1 1f 3c 05 8c f0 bd 9b 7d 34 3e 5b d9 35 3e
       0.00975069 -0.117454566 0.1762604 0.17758696
000330 b6 29 84 3c 77 ce 33 be 17 88 be bd d0 b9 e7 3d
       0.01613317 -0.17559229 -0.09303301 0.11314738
000340 5f db 8d 3d 12 cc 3c be 7b 8a 22 be 81 5e 3f be
       0.06926607 -0.18437222 -0.15873139 -0.18688394
000350 bb 0e 04 be 5d 9b 4f bd 3d 38 a9 bd 8e 30 a3 bd
       -0.12896244 -0.050685275 -0.0826268 -0.079682454
000360 64 04 3a be 2b 7c 25 bd ff c0 a2 bd 49 9d 1c 3e
       -0.18165737 -0.04040162 -0.07946967 0.15294375
000370 85 36 7c 3d 57 96 f3 3d 24 bd ee 3d 6c d3 2b bd
       0.06157543 0.118939094 0.116571695 -0.041949674
000380 30 10 ca bd ad fe 0e 3c 0b 8e f3 bd 1f d3 f9 3d
       -0.09866369 0.008727712 -0.11892327 0.12198471
000390 e0 5c 3d 3d f5 31 28 bd 7b 34 0a 3d d0 ea b1 3e
       0.04623115 -0.041063268 0.033741456 0.3474946
0003a0 f6 1f 36 3e e2 7c 1b bd f5 37 4a 3e 25 a0 8e be
       0.1778563 -0.037960894 0.19747908 -0.27856556
0003b0 08 69 0d 3d 9e 52 0b be 4c a0 57 be 00 21 a6 3e
       0.034523994 -0.13605735 -0.21057242 0.32447052
0003c0 f1 b1 87 3b 0d af cf 3d 8b 68 2a 3c f7 1d bc be
       0.0041410853 0.1014081 0.010400902 -0.3674161
0003d0 8a 3d 94 bd b6 3b aa 3d a1 93 ad 3d 09 74 16 be
       -0.072383 0.0831217 0.084754236 -0.14692701
0003e0 64 99 3d 3e e5 2a 09 bd 1e 34 00 be 81 eb 10 be
       0.18515545 -0.033488173 -0.12519881 -0.14152338
0003f0 15 4d 34 bd cd 7d 11 be c7 98 37 bc a1 d6 0e bd
       -0.044018824 -0.14208145 -0.011205859 -0.034872655

actor.4.bias f4 [6]
000000 5c b7 17 be ef cf 1d 3d 75 ac 0a 3e 78 0e 40 3e
       -0.1481604 0.03852838 0.1354235 0.1875552
000010 e7 79 df 3d 24 cb c4 3c
       0.10911923 0.024022646

critic.0.weight f4 [64, 43]
000000 a7 8d a1 3e b3 a8 81 bf 4d 22 77 bf ac 1f 5d 3d
       0.31553385 -1.0129608 -0.96536714 0.053985283
000010 8d 55 0e 3e 35 1a eb 3e c5 5b 7f be 76 7a cb bd
       0.13899823 0.45918432 -0.24937351 -0.09935467
000020 b2 d5 12 bd b7 80 47 bc a6 0c 48 3c 8d 33 e0 ba
       -0.035848327 -0.012176684 0.012210047 -0.0017105207
000030 62 1e 23 3e a2 0a e5 3c cd 38 10 be 8d 00 59 bd
       0.15929559 0.027959172 -0.14084168 -0.05297904
000040 ca d9 af bd 19 94 30 3c da 0d e5 bb 1a cf 24 bb
       -0.08586462 0.010777497 -0.0069901766 -0.0025147856
000050 84 85 79 3f da 32 65 3e 27 17 c6 be 84 b0 24 be
       0.97469354 0.2238268 -0.3868954 -0.1608296
000060 74 51 7e bf 25 ec f5 be 7c 3c 45 bf b1 8a 96 bf
       -0.9934304 -0.48031726 -0.77045417 -1.1761075
000070 46 11 41 bf 3f 83 86 bf f5 79 81 3f d7 9a f6 bd
       -0.7541698 -1.0508803 1.0115343 -0.12041252
000080 5c 9a 92 be da e9 91 be 2b 4c ff 3e 8e a0 77 be
       -0.28633392 -0.28498727 0.498628 -0.2418234
000090 75 18 c3 be 54 a5 54 3f 67 e3 85 bd 76 4f c1 be
       -0.38104597 0.8306477 -0.06537514 -0.37755936
0000a0 d7 d6 6f be f6 ba 1b bf 02 f8 c6 bd af 1a 58 3e
       -0.23421799 -0.60832155 -0.097152725 0.21103929
0000b0 cd 65 4b bf da 97 0a bf 37 c2 0a be c6 1d e9 3b
       -0.7945221 -0.5413796 -0.1355065 0.007114145
0000c0 81 b0 f3 3c 5b 76 69 3d 1e 89 fa 3d ce 41 a1 3d
       0.02974725 0.05699764 0.12233184 0.078738794
0000d0 4e 25 04 3d 65 ca f6 bc bc 42 14 bc 8e a2 c7 bd
       0.03226214 -0.030125806 -0.009049114 -0.09747802
0000e0 8b f6 86 be 6d c8 46 be 1c a3 9b bd ca 31 5f 3d
       -0.26359972 -0.19412394 -0.0759947 0.054490842
0000f0 8f 84 c7 3c 96 45 66 bb 3d 9e c0 3b 60 26 89 3f
       0.024355201 -0.0035136691 0.0058782385 1.0714836
000100 2a 86 da 3e ac f1 c8 be 97 52 7a bf 82 3b 34 bf
       0.42680484 -0.3924688 -0.9778227 -0.704033
000110 07 66 65 3d 47 9c b2 be a5 20 fb be 09 a8 35 bf
       0.056005504 -0.34884855 -0.49048343 -0.70959526
000120 08 a7 32 bf 3e 16 fb 3f 9a 29 d5 3e cc 8e 2e 3f
       -0.6978612 1.9616163 0.41633302 0.6818664
000130 b3 37 89 be cf 0f 50 3f 06 f3 4e 3e 4c b8 9b be
       -0.26800308 0.8127412 0.20209894 -0.30414045
000140 ab bb f5 3f 0e d9 72 3e a0 5c d9 3e 6f ad 20 be
       1.9197897 0.23715612 0.4245348 -0.1569116
000150 72 dd 19 3e f5 86 a3 3d b1 80 3c 3f a1 e5 d3 be
       0.15025881 0.079847254 0.7363387 -0.4138613
000160 83 de 3e be 6a da b9 3c 7b 4b ce 3d db d0 8b 3e
       -0.18639569 0.022687156 0.100729905 0.27307782
000170 0a 0c 10 bd 6b b5 a5 bd 62 1f 70 bd 53 03 2e bc
       -0.03516773 -0.08091243 -0.05862368 -0.01062091
000180 f4 f4 82 3c 55 b8 5f 3b 52 30 ce 3d c3 bf 0b 3e
       0.015985943 0.003413697 0.1006781 0.1364737
000190 f0 7f 2f bd 0e 94 fe bc 7e d2 6c bd a9 c5 34 bc
       -0.04284662 -0.031076457 -0.05781793 -0.011033454
0001a0 a7 50 02 37 2b a1 8e ba 7f 34 00 be 7f 31 1f 40
       7.767382e-06 -0.0010881772 -0.12520026 2.487396
0001b0 fd 31 31 3f a9 26 f5 be 7c b6 a7 bb 96 e3 fc be
       0.692169 -0.47881058 -0.0051181894 -0.49392384
0001c0 97 26 11 3e ef 7b c7 3e d2 d8 23 3f 23 62 fc bd
       0.14174877 0.3896174 0.64002717 -0.123234056
0001d0 07 24 fe bf 4b 8b 20 40 3d 57 17 bf 89 66 25 be
       -1.9854745 2.5085018 -0.5911749 -0.16152395
0001e0 da 32 24 be fc 94 91 bd 7b cd da bc 52 eb f9 bf
       -0.16035023 -0.07108495 -0.026709309 -1.9524939
0001f0 a3 63 20 40 a5 89 34 bf fe 9b 2c be 90 79 ef 3d
       2.5060813 -0.7052253 -0.16856381 0.11693108
000200 00 cb 52 3d 6a 08 21 3e 5a 5c 86 be 50 36 cb bd
       0.051463127 0.15725866 -0.26242334 -0.09922469
000210 b7 39 b4 3d c6 76 a4 3d 78 72 59 bd 65 40 8c 3d
       0.08800071 0.08030467 -0.05308768 0.0684822
000220 40 60 4e 3d 59 be aa 3d 4f c2 34 3b 21 bb 0e bd
       0.05038476 0.08337087 0.0027581637 -0.03484643
000230 f9 1d 56 b8 4f 2b 72 bd ef 43 4a bd c0 13 bc 3c
       -5.104949e-05 -0.059123334 -0.049381193 0.022958636
000240 95 35 b9 3d 0f a0 e1 3d 95 c7 a9 bb e6 ae e8 3b
       0.09043423 0.11016857 -0.0051812627 0.0071009276
000250 27 46 7f ba 2d 64 86 bf 50 2f 80 40 66 ad 0d 40
       -0.00097379315 -1.0499321 4.0057755 2.2137084
000260 32 f6 bd 3f 59 cc 86 bf f4 44 e5 3d 45 7a 17 3e
       1.4840758 -1.0531112 0.111947924 0.14792736
000270 d1 f9 17 3e 5d d7 c2 3f 4d 2c 4d 3e db dd 5c 3d
       0.14841391 1.5221974 0.2003643 0.053922515
000280 da f7 de be 46 fe a2 3d 15 4a 2b bd 6a 00 a7 be
       -0.4354847 0.07958655 -0.041818697 -0.32617503
000290 d7 69 95 3d fd 2d 76 bc 5f eb 55 bd 6d c7 c6 be
       0.07295578 -0.015025613 -0.05222642 -0.38824025
0002a0 1c 4a bf bd db 8a cb 3e 2d 58 59 be 22 fd 2d bc
       -0.09340307 0.39754376 -0.21225043 -0.010619434
0002b0 20 e9 06 3f ef 37 77 3c 48 c3 cb 3d c2 cb 1d 3e
       0.5269947 0.015089019 0.09949356 0.15409759
0002c0 3e ac 1e 3e 24 77 45 bd 22 91 6c bc 3c 41 bb bc
       0.15495393 -0.048209324 -0.014438899 -0.022858255
0002d0 7b d1 fe 3b ba ad ce 3c 88 a0 61 bd 78 24 01 bb
       0.007776437 0.025229324 -0.055084735 -0.0019705575
0002e0 81 f4 0c 3e 35 87 8a 3d 51 e3 df bc 39 f2 da bd
       0.13765146 0.0676407 -0.027330073 -0.106907316
0002f0 17 e6 63 3e 0a 72 93 ba 54 a1 dc b9 17 89 97 39
       0.22255741 -0.0011249196 -0.0004208187 0.00028903104
000300 af 08 eb be 29 ec 08 c0 bb 2a 5f c0 af 1a 21 3f
       -0.45905063 -2.139414 -3.486983 0.6293134
000310 1a 00 8d 3f fd 36 e3 3f 0d c0 27 3e f8 73 59 3e
       1.1015656 1.7751156 0.16381855 0.21235645
000320 ac bd a2 bf 2c 2f f9 3c 8e a7 07 bf 9b 29 f3 3d
       -1.2714133 0.030418001 -0.52990043 0.1187317
000330 c4 00 79 3d b8 58 d0 bd 84 07 54 be b7 4a d7 bd
       0.060791746 -0.10173172 -0.20705992 -0.105122976
000340 80 a2 eb 3d a6 44 c1 be 8e 5e 3d 3d 84 e0 e0 3c
       0.11505604 -0.37747687 0.046232753 0.027450807
000350 67 b3 70 3d 15 1d 30 bd d2 a3 dd bc 7a 9e b9 bc
       0.05876484 -0.042996485 -0.027055655 -0.022658575
000360 8e 8f 98 3d f7 3d 05 bd fd a2 03 bc 6e 1b f2 ba
       0.07449256 -0.032529797 -0.008034465 -0.001847131
000370 a6 00 47 bc fc 00 c7 3c 70 d2 49 bd 15 72 4d bc
       -0.012146151 0.024292462 -0.049272954 -0.012539406
000380 78 23 5f 3b 79 87 30 3c dd b4 0b bb 00 a9 a7 bd
       0.003404824 0.010774487 -0.002131752 -0.08186531
000390 22 ba ae 3d d8 ff 0b 3d 47 e7 d7 bc 62 9b 0a bd
       0.08531596 0.03417954 -0.026355399 -0.03383959
0003a0 66 a3 9b 3b 0f 13 53 ba 17 62 c8 b9 55 01 2a 3e
       0.004749703 -0.0008051851 -0.00038220055 0.1660207
0003b0 d8 44 66 40 ec a1 4c c0 96 cb b4 bf 93 06 a7 bf
       3.597952 -3.197383 -1.412463 -1.3048881
0003c0 aa 0c 09 40 b8 32 a8 3e b7 bf 94 bd 67 6f 0a c0
       2.141398 0.32851195 -0.07263129 -2.1630495
0003d0 7f a3 fb 3d 0d c8 a2 be 1e ec fa 3e 0e 63 92 3f
       0.12287044 -0.31793252 0.49008268 1.1436479
0003e0 d4 12 a5 3e 4c a8 f9 3d de 71 a9 3e e4 07 e0 bd
       0.32240927 0.12190303 0.33094686 -0.10939005
0003f0 de 54 4e be a0 09 21 3f b0 82 81 3f e1 a0 1e 3d
       -0.20149562 0.6290531 1.0118008 0.038727645

critic.0.bias f4 [64]
000000 12 6e 80 bf 90 1b 33 bf 47 0a bf 3c 72 d4 cd 3e
       -1.0033591 -0.6996393 0.02332033 0.40201145
000010 4c 23 b3 3d 14 80 09 3e b4 d8 9e 3d c3 a2 ea 3b
       0.08746967 0.13427764 0.077561766 0.007160516
000020 f1 22 95 3e 7a f1 ba bb 67 ca 87 3e 29 8c 4c be
       0.2912822 -0.005705056 0.26521608 -0.19975342
000030 d5 98 ea bc d5 6b f7 bd 4b dc 8e be f9 54 28 3f
       -0.02863733 -0.12081114 -0.27902445 0.6575466
000040 bc f5 84 be aa 04 d6 be 39 24 a6 3e d8 ff 3b 3d
       -0.2596873 -0.41800433 0.3244951 0.04589829
000050 fd de 86 be 46 d6 c3 bd 31 41 02 3f 54 fd af bd
       -0.26342002 -0.09562354 0.50880724 -0.085932404
000060 0a 12 f8 3d 85 f1 10 3e 7e 36 b7 be 18 83 92 3e
       0.12112816 0.14154632 -0.35783762 0.28615642
000070 0e be 5e 3e a7 10 40 3e 01 32 00 3f f0 ad 79 be
       0.21752188 0.18756352 0.500763 -0.24382758
000080 f5 64 b6 be ab 61 b8 3e 90 d2 d5 be f4 56 dc be
       -0.356239 0.36012015 -0.4176221 -0.4303509
000090 99 f3 03 bf 66 af 15 3e cf 97 a1 3c 36 cc 53 3e
       -0.51543576 0.1461769 0.019725708 0.20683369
0000a0 c9 bc eb 3e 4f 05 95 3e 69 93 91 3d fa d7 8b 3e
       0.4604247 0.29105613 0.071081944 0.27313215
0000b0 fb 32 2f 3d ef e2 2f be 62 8f 1d be 94 ff 8c 3e
       0.04277323 -0.17176412 -0.15386727 0.2753874
0000c0 8a 01 1b 3e 93 52 c1 be 05 b1 86 bd 38 26 56 3e
       0.15137306 -0.37758312 -0.065767325 0.20913017
0000d0 21 4c 33 be 44 d3 4b 3e 88 4e d0 3e 61 96 84 3e
       -0.1750951 0.1990481 0.40684915 0.2589598
0000e0 c8 eb a3 3d 7e cb 33 3e af b5 05 bf 40 96 14 be
       0.08003956 0.17558095 -0.5223035 -0.14510441
0000f0 43 09 a2 bd 54 55 25 bf fc 7a c5 bd a6 b9 4a be
       -0.07911923 -0.64583325 -0.09642598 -0.19797382

critic.2.weight f4 [64, 64]
000000 1f e4 e3 3c 35 bc 8b 3d 04 d7 0f 3d 14 fd 7d bd
       0.027818738 0.06823007 0.035117164 -0.062008932
000010 01 90 89 bc 5d 48 ec bd f1 4b af 3d ef 3e c1 bc
       -0.0167923 -0.1153724 0.085594065 -0.02358958
000020 f8 ab b9 be e5 b8 18 3d 56 7a 8a be 68 a2 3c 3d
       -0.36264014 0.037285704 -0.2704646 0.04605332
000030 d9 14 93 bc d0 e7 df bc 88 25 17 3d a8 bd 2b 3d
       -0.017954277 -0.027332217 0.036901027 0.041928917
000040 7d ce db 3d 18 c2 02 bc 9f 66 93 bc 59 74 5a 3e
       0.10732744 -0.007980846 -0.01799327 0.21333446
000050 5f 44 1e 3e bd 51 cc 3d 85 42 7f 3d 27 00 a4 3d
       0.15455769 0.09976528 0.062319297 0.080078416
000060 85 98 73 be 7f a6 ca bd df 35 6a 3e 3a 6b e5 3d
       -0.2378865 -0.09895038 0.22872113 0.112020925
000070 2a f5 18 bd 30 6a 98 3d c4 31 33 bd 57 cf a7 bd
       -0.03734318 0.07442129 -0.043748632 -0.08193844
000080 72 74 26 bd 4d 68 a4 3d e2 c4 73 3c 87 67 00 3e
       -0.040638395 0.08027706 0.0148784835 0.12539493
000090 cd 13 ed bc 4a 2d 7b 3e 68 92 16 be 4f 15 c6 bd
       -0.028940106 0.24528995 -0.14704287 -0.09672033
0000a0 80 bf 26 3e 1b d8 a4 bd 37 0d 0c 3e 65 df 3f 3e
       0.16283989 -0.08049031 0.13676916 0.18737562
0000b0 54 d2 8d 3c 18 e5 83 3d bf 07 cf bd b9 ce dd bd
       0.017312206 0.064401805 -0.10108899 -0.10830445
0000c0 bd 62 62 bd 42 ae fb bb e2 79 92 3c 3a 43 2f be
       -0.055269945 -0.0076806853 0.017880384 -0.17115489
0000d0 f2 cd 79 be 2a 93 f8 3c 87 0e 8a 3e fa 2a 1c be
       -0.24394968 0.03034361 0.26964208 -0.1525077
0000e0 c2 7a 55 be ec 15 e7 3c 1e d3 83 3d 88 11 5a be
       -0.2084761 0.028208695 0.06436752 -0.2129575
0000f0 6a b2 c5 3d 6e fa 9f bd 65 f5 04 be 17 3c 53 be
       0.096531704 -0.078114375 -0.12984236 -0.20628391
000100 bb 0b 93 be b4 01 92 be 43 a4 b8 bd f4 67 09 bd
       -0.28719887 -0.28516924 -0.090157054 -0.033546403
000110 b4 25 ae be e3 fa 3d be 63 0e 80 3e e6 ce 65 3b
       -0.3401314 -0.18552737 0.25010976 0.0035065948
000120 dc fb bd bd 26 2d 5e 3b ba 28 7e be b7 bd 22 be
       -0.09276554 0.0033901422 -0.24820223 -0.15892683
000130 f2 0a 6b bd 93 2e 46 3d 9e ce 12 be c3 5d e8 be
       -0.057383485 0.04838426 -0.1433663 -0.45384035
000140 d8 b2 28 bf 58 2e 0a be b6 e4 34 3e 84 cb 05 3f
       -0.65897894 -0.13494241 0.17665371 0.52263665
000150 ba 11 15 be f6 7f cc bd 7b 9f 2f 3e cb 3e b4 bd
       -0.14557543 -0.09985344 0.1715068 -0.08801039
000160 93 b5 57 bc 9d ad b7 bd f6 35 1d be c8 4b 85 3e
       -0.013165849 -0.08968661 -0.15352616 0.2603438
000170 d1 c6 ae 3d bb ba 54 3e 99 0b 32 3e db a6 20 be
       0.08534015 0.20774357 0.17387237 -0.1568865
000180 ce 79 82 be b4 ca 27 3e d7 c0 0d be 44 e6 9c bd
       -0.25483555 0.16385919 -0.13843094 -0.07661107
000190 f0 e9 a9 bd ec e9 bf bd 59 81 22 3e 1b c6 3e 3d
       -0.08296573 -0.09370789 0.15869655 0.046575647
0001a0 e0 79 ea bd a7 fa ff 3d d7 cc 0b be 7d 44 e0 bd
       -0.11449027 0.1249898 -0.13652359 -0.10950563
0001b0 c8 24 95 3c fa e8 00 3c 67 8c e7 bd 74 65 34 be
       0.018206015 0.007868046 -0.113060765 -0.17616826
0001c0 48 cf 9e bd 03 dc 1d 3b 06 6f 0a 3e 13 d7 55 3d
       -0.077543795 0.0024087436 0.13518915 0.052207064
0001d0 cf e8 4b 3d b8 d6 b3 bb b2 02 12 3e a0 ab c0 be
       0.04978257 -0.005488243 0.1425884 -0.3763094
0001e0 60 9e 2c bd b4 5d ff 3d 35 20 19 bd 26 7d 0c be
       -0.042143226 0.12469044 -0.03738423 -0.13719615
0001f0 a8 b6 cb 3d 49 fa 90 be ba 92 be bd cd 97 c2 bd
       0.09946948 -0.28315952 -0.093053296 -0.0950161
000200 b7 13 a8 be 50 59 91 be 22 6f aa be 79 5d 18 be
       -0.3282754 -0.28388453 -0.33287913 -0.14879407
000210 77 52 ff 3c 2a 6f a4 be 0a 80 38 bd 4c cc 19 3d
       0.031167252 -0.3211606 -0.045043983 0.03754835
000220 7e cd 6f be bf f4 1e be e8 57 e2 be ed 29 06 3e
       -0.23418233 -0.1552305 -0.44207692 0.13101931
000230 20 1b fe bc be 1c c9 bd 6b 75 43 3c 17 45 f5 bb
       -0.031018794 -0.09819935 0.01192985 -0.007485043
000240 11 a5 01 bd af d3 39 3d 8d 78 3c be 31 a1 d8 bc
       -0.03165156 0.045367893 -0.18405361 -0.02644405
000250 60 54 6a 3d 5b 40 e8 3d 31 ca 00 be 10 35 1d 3e
       0.057209373 0.113404 -0.1257713 0.15352273
000260 cc 08 94 3b 60 95 a6 be fe 57 10 3e 31 e3 5d bd
       0.00451765 -0.3253584 0.14096066 -0.054171745
000270 6f ae 23 bd be 73 8b be 94 2e 03 3e b4 58 3a 3c
       -0.039961275 -0.27236742 0.12810737 0.011373688
000280 84 39 50 3d 41 bf 1b 3e 59 0d 18 be 7e 6a 41 3d
       0.0508361 0.15209676 -0.14848842 0.0472207
000290 c3 12 80 3d c7 47 bf be a1 16 c5 bd e7 b9 67 bd
       0.062535785 -0.3735945 -0.09623457 -0.056573775
0002a0 cf 4e d5 be d2 f6 14 bf 2a 70 b2 bd 2e 52 63 bc
       -0.4166169 -0.5818912 -0.087128 -0.013874574
0002b0 16 5e 7c be 89 fe 84 3c fd 11 19 3e 2d ff 08 be
       -0.24645266 0.016234653 0.14948268 -0.13378592
0002c0 e0 8c a2 3d e2 66 37 3d 56 e6 08 3e 7c 86 57 be
       0.07937026 0.04477585 0.13369116 -0.21047395
0002d0 9c 74 d7 be d1 74 3b 3e 8d c1 c1 be aa 89 a9 be
       -0.42081153 0.1830628 -0.3784298 -0.33112842
0002e0 3e 52 24 3e d7 b4 03 be 53 8c fc bd 49 37 81 3d
       0.16046998 -0.12861954 -0.12331452 0.06309373
0002f0 f5 98 e2 3d 0f 0e 4f 3d 5a 05 af bd 6e a7 b0 bd
       0.110643305 0.050550517 -0.085459426 -0.08625685
000300 32 84 4a be 71 72 16 be ef 82 4e be e8 a7 1b be
       -0.19776991 -0.14692093 -0.20167135 -0.1520077
000310 d0 23 56 bd ee 19 23 be 72 d6 3a be d8 23 a8 be
       -0.052280247 -0.1592786 -0.18245867 -0.32839847
000320 1c 64 d8 be 11 08 5a bd b7 d9 9f be f6 ca ab 3d
       -0.42263877 -0.05323035 -0.3122079 0.08388321
000330 95 c9 33 3e 1b de 6e be 31 30 37 3d 7e 76 d4 3d
       0.17557366 -0.23326914 0.044723693 0.10374163
000340 f5 93 58 be 5f 4e a9 bb 4b 47 33 be 1f 18 5f 3e
       -0.21150191 -0.0051668133 -0.17507665 0.21786545
000350 86 af 40 3e 20 dd 62 be cd 4e 43 3d 7f af bf bc
       0.18816957 -0.22154665 0.047682572 -0.023399113
000360 fc a5 48 3d c2 96 63 be 07 43 d9 3e d6 1e 0e be
       0.04898642 -0.22225478 0.4243395 -0.1387895
000370 6f 64 48 be 8a cd 7f be 9f 8c 3a 3d 46 2a 2f be
       -0.19569562 -0.2498075 0.045544263 -0.1710597
000380 07 87 9b 3d f6 71 c6 3d 32 02 3f be af b8 51 3d
       0.07594114 0.09689705 -0.18653181 0.05120152
000390 66 a4 6d 3d bc 17 13 be 55 c2 60 bd 03 fd 17 3e
       0.05801811 -0.14364523 -0.05487283 0.1484261
0003a0 a4 50 d0 be c0 2a 0a bf f4 04 07 bd c4 e0 d3 bd
       -0.40686524 -0.5397148 -0.032963708 -0.10345605
0003b0 2b f5 38 be 75 3d ba 3c a7 d9 9d 3b d1 9f 10 be
       -0.18062274 0.022734383 0.004817206 -0.14123465
0003c0 92 5f cb 3b 72 32 7a bd 1e 91 c8 bc 79 c0 56 be
       0.006206461 -0.061083265 -0.02448326 -0.2097186
0003d0 2e f5 bf bd 7f 55 75 3d 54 50 55 bd cd 47 5a bf
       -0.09372936 0.05989599 -0.05207856 -0.8526581
0003e0 16 86 14 3e 33 fc fe be dc 34 ec bc 7f c4 56 be
       0.14504275 -0.49801788 -0.028833799 -0.20973395
0003f0 5f 79 88 be 8d b6 77 bd 8b 66 83 3c 3b 64 48 bd
       -0.266551 -0.06047683 0.016040107 -0.048923712

critic.2.bias f4 [64]
000000 49 88 d4 ba 37 71 b0 3d 9a 8d 52 3d fd 6b 91 3d
       -0.0016214933 0.08615344 0.051404573 0.07100675
000010 8a 6f 79 3e 74 3c ef bc ca 1a 88 bd aa 1c b4 3d
       0.24358955 -0.029203631 -0.066457346 0.0879453
000020 fa 30 cb be 02 b5 cc 3e 50 b2 2b 3e 65 01 94 3e
       -0.39685804 0.39981848 0.1676724 0.28907314
000030 ac 88 20 be ed 76 03 3e a7 ee 90 3e ff eb dd 3c
       -0.15677136 0.12838335 0.28307077 0.02709007
000040 63 15 69 be 39 f1 0b 3c 1b 2d 2c bd 6a fb d0 bd
       -0.22762065 0.008541399 -0.042035203 -0.102042034
000050 6f 2f a3 bd 41 f7 27 be c7 53 d1 bd 3e 5d da 3d
       -0.079680316 -0.16402914 -0.102210574 0.10662316
000060 4e 3e 26 3d 6b a9 43 3e f3 11 db bd b8 7f a8 3e
       0.040586762 0.19107597 -0.10696783 0.32909942
000070 af 6a 35 be 5b 97 c1 be 0c a6 6e bc 8e d8 43 be
       -0.17716478 -0.37810788 -0.014565956 -0.19125578
000080 73 2e 1b bc 68 d0 4b be d1 b3 a5 3d af 4d 2a be
       -0.009471524 -0.1990372 0.08090938 -0.16631196
000090 b3 75 2c 3c e3 c1 2b 3e 71 1c eb 3d e1 6c 21 3e
       0.010526109 0.1677318 0.11480034 0.1576419
0000a0 c3 8b 60 3c 61 f8 10 3e 1f 34 51 3d f3 6e 2f 3e
       0.013705197 0.14157249 0.051075097 0.17132168
0000b0 1b b3 0b bd 3a 3e bf bd 79 61 28 be 7b 99 e3 3d
       -0.034106355 -0.09338041 -0.16443433 0.111132585
0000c0 1b e7 d8 bc 0c 93 75 bd 85 cd ec bd a6 01 94 bd
       -0.026477387 -0.059954688 -0.11562637 -0.07226877
0000d0 f6 64 05 bd 4f f1 77 bd 6d 3d 46 be 57 31 65 bd
       -0.032566987 -0.060532864 -0.1935937 -0.055955257
0000e0 4c 4e d2 bd 68 b6 39 3e 5e cc b7 3c d9 c4 4f 3e
       -0.1026884 0.18135989 0.022436317 0.20289935
0000f0 8f a5 48 3e b8 70 d2 3d 3d 8b 97 3e 4d 7f 2f bd
       0.19594406 0.10275406 0.29598418 -0.042846013

critic.4.weight f4 [1, 64]
000000 45 bf ae bd 24 b2 5c 3e d2 ab 96 3e 92 92 a2 3e
       -0.085325755 0.2155233 0.29427963 0.3175245
000010 09 3c 29 3f de 38 94 be ad 4a 6e 3e f3 67 87 3f
       0.6610723 -0.28949636 0.23270674 1.0578598
000020 76 80 a6 3f c3 fb 8f 3e d8 8d 4f 3e 73 0f 53 3e
       1.3007953 0.28121766 0.20268953 0.20611362
000030 eb 5a dc bd c1 28 0b 3f ae ab b0 3e 80 44 c8 3e
       -0.10759529 0.5435906 0.3450598 0.3911476
000040 3e c2 4b bf 48 fe 73 be 49 33 19 3e 2d f9 87 3f
       -0.79593265 -0.2382747 0.1496097 1.0622917
000050 8d fa 11 3e 20 33 1c bf 28 f5 13 3f 0d 0f 55 3e
       0.14255734 -0.6101551 0.57795954 0.20806523
000060 d0 ed 10 be 8d fa 2e 3e 1d 97 b0 be 87 33 10 3e
       -0.14153218 0.17087765 -0.3449029 0.14082156
000070 da 03 9f bf 2d ae 2e bf 42 5d 2b 3e 5b c4 1a bf
       -1.242305 -0.6823452 0.16734794 -0.60455865
000080 c3 fb 0b bf a9 ff 2b bf 25 b8 ab bf fe b9 7a bf
       -0.5468103 -0.6718698 -1.3415571 -0.9794005
000090 f6 f7 c2 3e 85 b5 56 3e b6 32 93 3e 5c fa 5d 3e
       0.38079804 0.20967682 0.28749627 0.21677536
0000a0 36 fd ab be c3 cc ec 3e de 88 78 be f0 db 95 3e
       -0.33591622 0.4624997 -0.2427096 0.29269361
0000b0 08 22 ff 3d 9f c0 47 be c4 b7 38 be e2 d5 52 3e
       0.12457663 -0.19507073 -0.18038851 0.20589402
0000c0 25 ee 42 3f 18 6b 22 3f 09 b4 6b 3e 99 8c 89 3f
       0.7614463 0.6344466 0.23017897 1.0746032
0000d0 32 ac 25 bf 2b 6b 75 bf b4 1b de be 28 60 6f be
       -0.64715874 -0.9586665 -0.4338051 -0.23376524
0000e0 52 7b a5 bf 7b 08 9a 3e 91 99 fd 3d 5a 4c 8b 3f
       -1.2928259 0.30084595 0.12382806 1.0882676
0000f0 46 6f fe 3e ec cc b0 3d 25 0d 42 3f 87 6d ca be
       0.4969427 0.08632836 0.75801307 -0.39536688

exp_avg f4 [6]
000000 5f e9 fa 36 e3 3a 96 b7 6f a6 50 b8 33 fe 08 37
       7.4777486e-06 -1.7908815e-05 -4.9746068e-05 8.165417e-06
000010 12 ab e4 b6 de 6d 1f b7
       -6.8148447e-06 -9.502719e-06

exp_avg_sq f4 [6]
000000 7b f3 79 35 63 c0 49 35 c6 01 f8 35 47 07 88 34
       9.311404e-07 7.5158295e-07 1.8477956e-06 2.533727e-07
000010 64 b9 be 34 c2 5e 7e 33
       3.5525147e-07 5.9225165e-08
