2026-01-29_07-44-49_Fase2_Empuje_V1/model_1050.pt (torch, 189045 bytes, 36 tensors)

std f4 [6]
000000 c8 0b 19 3e ef 16 a2 3d 50 a1 00 3e 39 f6 24 3e
       0.149459 0.079145305 0.12561536 0.16109551
000010 a5 6f 3e 3e 3c d4 80 3f
       0.18597277 1.0064769

actor.0.weight f4 [64, 43]
000000 fe cd 71 bc c6 03 98 3e cd b9 e8 bc 8a 60 e9 ba
       -0.014758585 0.2969038 -0.02840891 -0.001780526
000010 e4 70 80 be 0d 0c a9 be 8a ef 74 3c 37 58 49 be
       -0.2508613 -0.33017007 0.014949689 -0.19662558
000020 36 25 bc 3d 55 2b db bb 07 8f 22 3c 3d 54 91 3d
       0.09186785 -0.006688515 0.009921796 0.07096145
000030 ba bb 29 3e 2f c1 38 3e 6b 4f 1e 3d 31 a0 25 be
       0.16575518 0.18042444 0.038649958 -0.1617439
000040 9d 5d 00 be 0c 2d 84 be 32 f0 1b bd bb 32 e9 3a
       -0.1253571 -0.25815618 -0.038070865 0.0017791608
000050 ac 03 2c 3f fb b1 ba 3e 39 17 d8 bd 49 dc c6 bd
       0.671931 0.36463913 -0.10551304 -0.09709985
000060 67 cd f3 be 0e 8e 8d 3c 9d 5d fd bd 4f 1c 67 be
       -0.47617647 0.017279651 -0.12371371 -0.22569393
000070 90 44 61 bc 70 c4 7a be 24 0a b7 3e 94 5f 55 3e
       -0.013749257 -0.24488997 0.35749924 0.20837241
000080 fe 8a 08 3f dd f8 fe be 2a c1 2e 3e 87 f2 62 3e
       0.53337085 -0.49799243 0.17065874 0.2216283
000090 b9 12 96 3e 5c 9c af 3e 82 8c b5 3e b7 2e bc 3e
       0.2931116 0.3429898 0.3545876 0.3675439
0000a0 4d e6 8e be c4 67 e4 3c f8 60 b2 3e e5 da b6 3c
       -0.2791008 0.02788151 0.34839606 0.022321174
0000b0 a2 d7 77 3e 8e 49 b5 3e 2d 14 08 3f 7f fd 06 bf
       0.24203351 0.3540768 0.53155786 -0.52730554
0000c0 02 9a 8d bd 8a 43 bc 3c 90 da 2e bf 89 91 89 bd
       -0.0691414 0.022981424 -0.6830225 -0.06717212
0000d0 34 20 f7 bd 08 9e 0d 3e b3 55 52 3c c5 43 46 3e
       -0.12066689 0.13829815 0.012837815 0.1936179
0000e0 a4 0b ab bd 78 1f 11 3d 85 a4 b1 3e e5 63 15 bf
       -0.0835183 0.0354304 0.3469583 -0.5835555
0000f0 81 dc f6 bd fd d8 08 bd 7f 5d 87 3c 8e a0 2c bf
       -0.120537765 -0.03341006 0.016524075 -0.67432487
000100 d5 2c 33 3f c5 37 e7 3d cd f8 9e 3e 20 52 32 bf
       0.69990283 0.11289934 0.31049195 -0.6965656
000110 d1 5c 04 bf 66 20 cd 3d 69 ec b3 bd 7a 2e c1 3c
       -0.51704127 0.10015945 -0.08785326 0.023581732
000120 db d0 ad 3e e3 83 06 bf 85 52 a1 3b f2 d0 c0 3e
       0.33948407 -0.52544993 0.004923167 0.37659413
000130 cd b2 37 be 4a 7e d6 be 31 8d ad 3e 5b 39 f2 3e
       -0.17939301 -0.41893226 0.33896783 0.47309384
000140 2e ea f4 be 73 e7 55 3d 1c aa 13 3f 7e d3 11 3e
       -0.47834915 0.05222268 0.5768144 0.14240834
000150 94 3d 21 3f fb 9b 02 be 4a fa e2 be e0 02 f4 bd
       0.62984586 -0.12754814 -0.4433158 -0.11914611
000160 4e 24 54 be 47 4c a6 3c 0f 85 db 3c ee 27 b5 be
       -0.20716974 0.020300044 0.026796846 -0.35382026
000170 4a 6b 84 3e 67 59 06 be f8 3c d8 be b6 af 23 be
       0.25863105 -0.13120042 -0.42234015 -0.15984997
000180 c0 cd b0 3d 16 74 82 3d a4 0a 63 be ce 17 e5 bd
       0.08632994 0.06369798 -0.22172028 -0.11186181
000190 44 19 8c be 4d 69 95 3d e2 df 0b 3d 54 84 99 be
       -0.27363026 0.07295475 0.03414906 -0.2998377
0001a0 23 7e 34 bc 6e 66 b2 bb f4 16 b4 be 28 da 1c bf
       -0.011016401 -0.0054443395 -0.35173762 -0.6127038
0001b0 aa 21 9d bd 98 eb d3 3c be f6 1a 3d bc a1 86 bd
       -0.076724365 0.025869176 0.037832968 -0.06573817
0001c0 48 e6 03 3d 3d d9 c1 be 79 30 99 bd 16 ae 46 bd
       0.032202035 -0.37861052 -0.074799486 -0.048505865
0001d0 2a cd cf be 6c 57 22 3e 72 0e 9c 3d eb 7e 5a be
       -0.40586215 0.15853661 0.07619943 -0.21337478
0001e0 1e 3f 79 bd 4c c3 d3 bc b1 4b 1b bf ae 75 08 bf
       -0.06085121 -0.02584996 -0.6066237 -0.53304565
0001f0 1d 90 40 3e 8e d6 58 3d 35 f7 27 bf 30 1c 2c be
       0.18804975 0.05293899 -0.65611583 -0.16807628
000200 04 2e 0b 3f 0b 69 64 3d 37 6b ad 3d d0 88 e1 3d
       0.5436709 0.05576424 0.08467715 0.11012423
000210 f9 69 db be f4 1a a7 3e 00 3b 8c 3d 11 2b ca 3c
       -0.42854288 0.3263775 0.06847191 0.024678739
000220 88 9a 5b be ed a3 e9 3d 6c 55 26 3e 11 f8 fc bd
       -0.21445668 0.114082195 0.16243523 -0.123520024
000230 23 ed 11 3e da f7 e2 bc 00 03 fc 3d e4 8c c6 3a
       0.14250617 -0.027706075 0.1230526 0.001514819
000240 c7 d1 64 be 25 85 43 3e cd f8 2d 3e bc c3 81 3d
       -0.22345649 0.1909376 0.16989441 0.063361615
000250 73 99 0b 3c 44 57 99 bc 6c da d4 3c d4 20 2e bd
       0.008520472 -0.01871837 0.025983058 -0.042511776
000260 4e 80 78 bb 03 a4 92 be 42 00 9b 3d 40 cf 5a be
       -0.0037918272 -0.28640756 0.075684085 -0.21368122
000270 30 15 36 bd ab ce 3a 3d bc 1e 1e bd b5 7a b8 bd
       -0.0444538 0.04560725 -0.03860353 -0.090077795
000280 58 ae 60 be 0b bd 48 bd d5 ca b6 bd 88 5f 53 be
       -0.21941507 -0.04900841 -0.08925406 -0.20641911
000290 cb c8 4d bc ec e2 e3 bb bf b4 9e bd 5d 7d 68 be
       -0.01256008 -0.0069545414 -0.07749318 -0.22704072
0002a0 a2 bd 46 bd 65 99 06 3d f9 81 aa bd 59 e1 eb be
       -0.04852069 0.032861132 -0.083255716 -0.46070364
0002b0 1d b8 23 3e ae 58 07 bf 28 96 02 bf 97 f3 c6 bc
       0.15988202 -0.5286969 -0.5101037 -0.024286075
0002c0 ba 47 2d 3d 35 58 87 3e d0 c4 1a 3e 0d 18 62 3e
       0.042304732 0.26434484 0.1511414 0.22079487
0002d0 71 df 9d 3e 53 ba e0 3d 31 c7 61 bb e7 e9 d0 bd
       0.30834535 0.109730385 -0.0034451003 -0.10200863
0002e0 8c 06 1a 3e 99 42 fb bd 93 d6 40 bd 90 53 65 3d
       0.1504156 -0.12268562 -0.047079634 0.055987895
0002f0 fb 78 10 3d 11 78 4e 3e cd 80 08 bd 2b 23 56 bc
       0.035271626 0.20162989 -0.03332596 -0.013069908
000300 5b dd c4 3d a6 ab 3c 3e 2f b6 b6 bd 7d e7 3a be
       0.09612533 0.18424854 -0.089214675 -0.18252368
000310 03 1a 12 be fa 35 02 3e 75 9c 7c bd 7b 60 3c bd
       -0.14267735 0.12715903 -0.061672647 -0.04599045
000320 06 0c 35 be 49 49 24 be ca a4 3f be 39 26 80 3e
       -0.17680368 -0.16043581 -0.18715206 0.25029162
000330 45 39 d7 bd 26 dc a8 be d3 f5 f9 3b 76 d5 5a be
       -0.1050897 -0.3298046 0.0076281815 -0.21370491
000340 69 e9 a3 be a1 34 87 be b9 84 93 3e 22 f9 dd bc
       -0.32014015 -0.2640734 0.28812197 -0.027096335
000350 50 69 74 3e 78 72 7d bf 23 35 db 3e 93 ce ef 3c
       0.23868299 -0.9900279 0.42813978 0.029273307
000360 cf d9 9d bd a0 f9 aa bd 26 e4 ee bc 37 a4 14 3e
       -0.07707559 -0.083483934 -0.029161524 0.14515768
000370 11 44 a1 bd e6 8b 82 3e 48 ba 5d bf 17 26 48 3d
       -0.07874311 0.2549736 -0.8661237 0.04886445
000380 d4 09 99 bd 6a 87 3a 3e 00 4d 21 bd e8 71 32 bd
       -0.07472578 0.18215719 -0.039380074 -0.04356566
000390 40 d7 89 be eb 23 79 be 82 f2 35 be a8 f9 c8 3e
       -0.26922035 -0.24330108 -0.1776829 0.39252973
0003a0 12 42 30 3e 5e 5f 28 3d dc 7e ea 39 b8 54 5a be
       0.17212704 0.041106574 0.00044726476 -0.2132138
0003b0 77 0a 5e be 35 ae 9d bc 7c 4f ec bd 00 a1 9b be
       -0.2168368 -0.019248107 -0.11538598 -0.3039627
0003c0 e5 ea 98 be 44 97 40 be cb 81 4a be 91 c6 2b be
       -0.2986671 -0.18807703 -0.19776075 -0.16774966
0003d0 34 0e 01 be b4 b7 d9 be 2f 98 05 be f0 9a 0a 3e
       -0.12603074 -0.42522967 -0.13046335 0.13535666
0003e0 45 7b 92 bd 69 aa 35 3e 9b 36 3e bd 6d 4e 8b be
       -0.07152418 0.17740788 -0.046438795 -0.27208272
0003f0 0a 8a b0 be e7 82 d6 bd 67 1f 1c 3d 37 a3 b4 be
       -0.34480315 -0.104741864 0.038115885 -0.35280773

actor.0.bias f4 [64]
000000 31 02 6c 3d 64 8b 8f 3e 08 cb bb 3d 71 59 0f be
       0.057619277 0.28036034 0.091695845 -0.13998963
000010 15 91 18 3d aa ea 6e bd 10 48 fb 3d 3d e7 7f bc
       0.037247736 -0.05832926 0.12269604 -0.015619096
000020 40 49 64 bd 80 39 aa 3d f6 02 c8 be a9 77 49 3e
       -0.05573392 0.083117485 -0.3906476 0.19674553
000030 df 11 92 be 08 7e 65 be a9 84 5d 3d f6 e9 c5 bc
       -0.2852926 -0.22411358 0.054081593 -0.024159413
000040 d9 30 62 3b 92 e9 6f bd 2c da a6 be c5 b1 ea bd
       0.0034513979 -0.05857236 -0.32588327 -0.11459688
000050 d4 83 c6 be 89 3b 14 bc d8 28 25 be de e1 58 be
       -0.38772452 -0.009047397 -0.16128862 -0.21179911
000060 1d 11 31 be 7e 02 82 3d d0 9c 0a be dc f8 8b bd
       -0.17291684 0.063481316 -0.13536382 -0.068345755
000070 5d 92 00 3d f2 d9 a3 be e7 80 97 3e a1 80 23 3d
       0.031389583 -0.32002217 0.29590532 0.039917592
000080 57 3e f2 bc e0 9c a2 3d 8c 4f 8b be e7 66 3f 3d
       -0.029570742 0.07940078 -0.27209127 0.046728995
000090 1a 17 0e 3e c0 c4 8d be b7 f2 28 be 50 cd b2 be
       0.13876 -0.2768917 -0.16498838 -0.34922266
0000a0 e3 27 d9 bd f9 27 88 be 4e 0c e6 bc 70 5f cc bd
       -0.10603311 -0.26592997 -0.02808204 -0.09979141
0000b0 be 47 ff bc 86 37 da 3d 9e 2a db 3d a2 3a 16 be
       -0.031162139 0.106551215 0.10701488 -0.14670804
0000c0 12 2f 1f be cf 94 41 3d 4a d6 87 3d bb f9 0d be
       -0.155453 0.047261056 0.06632669 -0.13864796
0000d0 dc dd e6 bd 26 ff 2f be 3e 53 85 bd 73 a5 bd b8
       -0.11272785 -0.17187175 -0.06510018 -9.0430396e-05
0000e0 e8 5e a8 3e 2a 52 05 bd e8 43 31 3d 24 9e db be
       0.32884908 -0.03254906 0.04327765 -0.4289409
0000f0 77 e4 b2 be cd f2 87 3d b7 75 49 be 63 e8 13 be
       -0.3493993 0.066381074 -0.19673811 -0.14444117

actor.2.weight f4 [64, 64]
000000 a9 77 80 3d 8a 78 79 bd 81 5a 4b bd 58 9a 94 3d
       0.06272823 -0.06090597 -0.049646858 0.07256001
000010 32 60 09 3d 45 8a 06 bc 4a c2 70 3d 13 34 c6 3d
       0.033539005 -0.008211677 0.05877904 0.09677901
000020 bb 2c ed bd 06 3f 1b 3d bd e9 26 3d f9 87 95 3c
       -0.11580797 0.0379019 0.040750254 0.018253313
000030 0a 9c 70 3d 6e 91 d9 bd 2f 8f b9 3e aa 51 73 be
       0.05874256 -0.10623442 0.36242053 -0.23761621
000040 7e d8 3a bd 9d 3e 40 3e 11 45 88 bc f0 58 cd bc
       -0.04561662 0.18773885 -0.016634496 -0.025066823
000050 80 86 5e 3d 10 f6 c4 bd 52 f9 5c be 0f 14 38 3d
       0.054327488 -0.09617245 -0.21579483 0.044941004
000060 98 34 eb 3d 61 d4 7e bc d0 88 cf 3d 6f 72 08 3e
       0.11484641 -0.015553565 0.10133517 0.13324903
000070 40 65 0b 3e fe ab c9 bd ee 3e ae 3d e9 fd 29 3e
       0.13612843 -0.09847258 0.08508097 0.16600765
000080 46 3b f5 3d 40 23 f3 3d 70 37 02 be 2e f0 2b 3d
       0.11974196 0.11871958 -0.1271646 0.0419771
000090 a8 ad df bd 33 d9 fd 3b f0 26 d7 3d 99 81 42 3d
       -0.10921794 0.0077468394 0.105054736 0.047486875
0000a0 aa e1 6c 3c e9 ff a6 bd c1 d7 07 be 11 fa 3d bd
       0.014458099 -0.0815428 -0.13265897 -0.04638106
0000b0 b0 23 86 3d d6 09 4e be 00 d4 20 3e ca c7 93 3d
       0.065497756 -0.2012094 0.15705872 0.07215841
0000c0 b4 24 30 bd 82 c4 0f 3c af 5d ab 3c ba da 06 be
       -0.043003753 0.008774878 0.020918695 -0.13169375
0000d0 8a 1f b4 3d 10 c0 0e be 4c d6 00 3d 92 33 73 3e
       0.08795078 -0.13940454 0.03145437 0.23750141
0000e0 ca 7f 7d bd 6b c4 ca 3d 78 2e d3 bd 8e d8 5e bd
       -0.061889447 0.09900745 -0.103115976 -0.05440574
0000f0 a7 a7 eb 3c 28 16 af 3d 70 28 07 be 65 e9 6a bd
       0.028766466 0.08549148 -0.1319902 -0.05735149
000100 96 19 9c be 34 b2 64 be 79 ce 9b 3d 47 3f c4 bd
       -0.3048827 -0.22333604 0.07607741 -0.09582382
000110 eb 8b b6 bc 2b 3c 60 3e 1a bc bd 3d 38 63 ba bd
       -0.022283515 0.21897952 0.09264393 -0.09100956
000120 12 40 21 be 6c 62 a8 be a5 f2 72 3d b3 21 94 3a
       -0.15747097 -0.3288759 0.059313435 0.0011301547
000130 e2 d4 7c bd bb f0 1a 3d fa 66 9e be bb 7d ad bd
       -0.06172646 0.037827235 -0.3093794 -0.08471247
000140 3c 5c a7 3c 2e db 6b 3e c1 4e 51 3e b2 20 90 3c
       0.020429723 0.23032829 0.20440198 0.017593715
000150 a3 de 98 3b f2 62 ee bc e5 f8 d3 3d 40 ff a0 3b
       0.0046652122 -0.029099915 0.10350207 0.0049132407
000160 fd 8f 53 ba 9b c7 d1 3c f7 18 32 be 90 1c c5 3d
       -0.0008070467 0.025607875 -0.17392336 0.096245885
000170 fe c6 13 3e 0f 97 1a 3e 13 ec 8b bd 11 eb a9 3d
       0.14431378 0.15096687 -0.06832137 0.082967885
000180 2b a1 13 3e 46 8a 03 be ad f0 fc bb bb a7 cc 3c
       0.1441695 -0.12845716 -0.0077191205 0.024982324
000190 8e f9 0e be 16 f3 43 3e 0b f1 1a 3e 06 40 72 3d
       -0.13962385 0.19135699 0.15131013 0.05914309
0001a0 5e 66 20 3e 94 0f 1c 3e 4e 25 b0 3d e3 61 49 3e
       0.1566405 0.15240318 0.08600865 0.19666247
0001b0 49 fb d9 be 99 93 af bd 81 c0 1c bf db 63 b0 3d
       -0.42574528 -0.08573074 -0.6123124 0.08612796
0001c0 91 f6 19 3e 4f 02 41 bd eb e1 f1 3b 20 d6 b0 3c
       0.15035464 -0.047121342 0.007381668 0.021586478
0001d0 fb dc 2f bd a2 06 9c 3d d0 47 82 bd 56 07 ac be
       -0.042935353 0.076184526 -0.063613534 -0.33599347
0001e0 cc 79 26 3e f4 e6 35 3d e1 4f aa bd de 80 5e 3d
       0.162574 0.044409707 -0.08316017 0.054322116
0001f0 1d 45 9e bd c2 e3 ae 3e 9e 91 d5 be 6b e6 e2 3d
       -0.07728026 0.3415814 -0.4171266 0.11079105
000200 48 28 ea 3c 38 86 44 bc 2f 92 68 bd c3 cc 1f 3e
       0.02858366 -0.011994891 -0.056780037 0.15605454
000210 0f 5f b8 3d 71 28 de 3d 08 32 dd 3d 4a 0e 08 be
       0.09002506 0.10847557 0.10800558 -0.13286701
000220 a5 cc 41 3d 5b 82 09 3e 33 a9 63 be 27 f4 1a 3e
       0.047314305 0.13428633 -0.22232513 0.15132199
000230 cf 64 9b bc bc f4 e6 bc e2 71 85 3d 29 8a c3 3c
       -0.018968968 -0.02819287 0.06515862 0.02386959
000240 41 85 5b 3d 5c 59 23 bd ab 17 1c 3d df f6 24 3e
       0.053593878 -0.03988014 0.03810851 0.16109799
000250 9a 9d 26 3b 11 94 f5 bd 6f 31 82 3d 4d ec 0e be
       0.0025423528 -0.11991132 0.06357085 -0.13957329
000260 8b af ba bd ca 84 07 38 6c 60 b3 3c a3 7b 12 bf
       -0.091155134 3.2310178e-05 0.021896563 -0.57219905
000270 e3 18 be 3b 83 53 3a bd 55 b5 b1 be ca 05 79 3c
       0.0058013066 -0.0454898 -0.34708658 0.015199134
000280 2d b5 34 be 39 47 96 3c 37 ad 30 3e 39 50 f6 bc
       -0.17647238 0.018344508 0.17253576 -0.03006755
000290 e4 f3 e9 3c 42 26 69 3d b8 bd 75 bd 88 c6 34 3d
       0.028558679 0.05692125 -0.059995383 0.044134647
0002a0 b4 15 52 bd 6f 3e 3f 3d 5f ea 20 bc b1 c1 99 3d
       -0.05129023 0.0466904 -0.009821503 0.07507647
0002b0 4f ec bf bd 7d d8 14 be 82 33 56 be 16 21 53 be
       -0.09371244 -0.14535709 -0.20918086 -0.2061809
0002c0 a1 d7 e1 3d 6d d5 54 bd 32 15 22 3e 9e 6f 8f be
       0.11027456 -0.05196135 0.15828398 -0.28014845
0002d0 51 be 2d bd af 84 65 3d a9 0c d9 bd 8d ac 38 be
       -0.042417828 0.05603474 -0.10598118 -0.18034573
0002e0 19 56 2d 3e ba 27 f7 3d 6f 3f 39 3d c4 c7 3e be
       0.16927375 0.12068124 0.04522651 -0.18630892
0002f0 63 21 c2 bc ee 91 90 3c 5b 30 41 be 8e de bb 3d
       -0.02369756 0.01764771 -0.18866102 0.09173308
000300 82 86 d9 3c 18 3c cf bd 38 91 ce bd 43 ee 9c 3d
       0.026553396 -0.10118884 -0.10086292 0.07662632
000310 6a 7f 07 3d 01 9a fe 3d c3 c9 36 3d 3c f7 c0 bd
       0.033080496 0.12431718 0.04462601 -0.09422156
000320 6f d3 a5 3c f8 ef 98 3d b1 52 de 3d 3a ab 01 bd
       0.020242421 0.074676454 0.10855616 -0.031657435
000330 9c 56 ba bc 10 95 a9 bd 86 bc 57 3e bd 23 01 be
       -0.022746377 -0.082803845 0.2106801 -0.1261129
000340 77 4a 3e 3d 3a da 04 3c 36 20 89 3d 3e 99 95 3b
       0.046457734 0.00810867 0.06695597 0.004565387
000350 59 59 f2 bd 2a 28 a5 bd d2 16 93 3d 95 4e 9c bd
       -0.11833448 -0.08064301 0.07182087 -0.07632176
000360 a4 bf 9a 3d f4 66 07 bd df 56 33 3e 1e 0f ed 3d
       0.07556084 -0.033057168 0.17513607 0.11575149
000370 bb c9 27 bd fd 53 62 3c 68 ac 20 be 3a f7 b9 bd
       -0.04096387 0.01381397 -0.15690768 -0.09080358
000380 da fb aa 3d 54 4c bf bc af ee 76 bd 4c a0 1b 3e
       0.08348818 -0.023351826 -0.06028622 0.15197867
000390 72 30 08 be 73 74 d4 3d 79 e5 23 3e 6c eb 04 3d
       -0.1329973 0.103737734 0.16005506 0.03245108
0003a0 0a 15 b5 bd bf 4f 15 be 69 ba 24 3d 41 c2 bc 3d
       -0.088419035 -0.14581202 0.040216837 0.092167385
0003b0 08 7c fb 3d 56 5f b5 3c 23 bd f6 3c 3a 3b 4b 3e
       0.122795165 0.022140186 0.030119484 0.19846812
0003c0 ec 27 b0 3c 78 e1 7c bd 8a c4 c1 bd 87 83 20 3e
       0.021503411 -0.06173846 -0.09461315 0.15675174
0003d0 e6 c2 15 bd 07 cb 06 3e de b6 c4 bd 9a 80 63 3e
       -0.036562823 0.13163386 -0.09605192 0.22217026
0003e0 3e d2 8b be 44 5a ea bd 80 fa 01 3e ff 19 51 bd
       -0.2730884 -0.11442998 0.12693214 -0.051050182
0003f0 b9 24 c9 3d d3 2f ff 3c 02 7c 0c bd dd fc 3a bc
       0.098214574 0.031150734 -0.03429795 -0.011412826

actor.2.bias f4 [64]
000000 88 ba c7 bd 87 8b e7 3d ae 8f 9c 3d 02 78 0c 3e
       -0.09752375 0.113059096 0.07644592 0.13717654
000010 56 64 d1 3b 8c 26 c4 3c 10 e7 80 bd f8 f0 7a 3e
       0.006390135 0.023944162 -0.06294072 0.24505985
000020 0f 99 94 bd de 64 cd bd 31 68 ae 3e 04 a8 aa bd
       -0.07255756 -0.100290045 0.34063867 -0.08332828
000030 a0 1d 65 3d d4 10 92 be ed 39 72 3d b9 3d 84 3e
       0.055936456 -0.28528464 0.059137274 0.2582834
000040 4b 2f 67 bc 4c e7 a6 be bf 8f 0f bc 2c 3e 53 be
       -0.014110397 -0.3259834 -0.008762299 -0.20629185
000050 69 94 89 3d cc 24 3e bd 3e e4 4f be 20 31 09 bd
       0.0671776 -0.04642181 -0.20301911 -0.033494115
000060 8c 52 1a 3d af 49 7c 3e 6d c9 a2 3d 0e 70 ea 3d
       0.03767638 0.24637483 0.07948575 0.11447154
000070 ec b6 03 bd 5f ac d0 bd 34 da e9 3d 4b f1 6e 3d
       -0.03215687 -0.10189127 0.11418572 0.058335584
000080 46 74 81 be ee c9 df bd 30 8d a9 bd c8 dd 4c be
       -0.25284022 -0.10927187 -0.082788825 -0.20006478
000090 54 c6 34 bd 6a 3c 19 be da 6c 8f bc 57 74 66 3d
       -0.044134453 -0.14964452 -0.01750796 0.056263294
0000a0 f9 27 02 3e 10 7f 8a be bd 0d b6 3b 91 4d d4 3c
       0.12710561 -0.27050066 0.005555837 0.025915893
0000b0 bb 02 03 be d1 ba 24 be 4e 84 f0 bd e4 5e d8 bd
       -0.1279401 -0.1608689 -0.11743985 -0.10564974
0000c0 a7 35 85 3d 49 05 ab 3e 3d c7 89 bd b2 23 1d be
       0.06504374 0.3340247 -0.06727455 -0.15345648
0000d0 bf 20 47 3e 52 07 19 3d 06 01 c4 3d c1 77 8c be
       0.19446085 0.037360497 0.09570508 -0.27435115
0000e0 6d 0d 0d 3e b0 44 8b 3d f7 25 1b bd c0 a9 c9 bd
       0.13774653 0.068002105 -0.037878003 -0.0984683
0000f0 57 e7 a5 3c 14 23 f6 bc fc 17 3c be 49 8e 4c 3e
       0.020251913 -0.030046023 -0.18368524 0.19976152

actor.4.weight f4 [6, 64]
000000 ab e6 3d be 99 33 0b be ae d4 94 b9 a8 71 49 be
       -0.18545024 -0.13593902 -0.00028387218 -0.19672263
000010 c4 19 3f bd 47 22 34 3d a0 9a 00 be 92 5a a2 3d
       -0.04665543 0.043978002 -0.12558985 0.07927431
000020 a1 25 79 3d 82 7b 89 bd 94 85 e6 bd dc 23 0d 3d
       0.0608269 -0.0671301 -0.11255947 0.034458026
000030 8c 51 b0 3d 6d e6 5f 3d 4f 9b cf bd f9 ba da bc
       0.08609304 0.05466311 -0.10137045 -0.026700484
000040 d6 5c fe 3d 24 ca f0 3d f5 4b bd 3d fd d3 e8 3d
       0.12420051 0.11757305 0.09243003 0.113685586
000050 4c 60 e1 3a a4 0c f7 bd 86 aa 84 3d 95 cf 1f 3e
       0.0017194836 -0.12062958 0.06477837 0.1560653
000060 8f 8d 20 3e 10 6a 0f bd e3 7e 8b 3d fd a0 8a bd
       0.15679 -0.03501326 0.06811311 -0.06768987
000070 32 7d ca bc 45 6c d6 bd 72 d9 b7 3c d2 56 00 bd
       -0.0247179 -0.104698695 0.022442553 -0.0313328
000080 f3 3f 7d 3d 35 df 19 3e 45 ec 37 bd e3 77 03 3d
       0.061828565 0.15026553 -0.04490306 0.032096755
000090 46 06 0f be fd 43 0d 3c 62 de a8 bd 8d ab 70 3e
       -0.13967237 0.008622167 -0.08245541 0.23502941
0000a0 b9 4a 93 3d 7d 75 92 3d 71 af fc 3d c6 14 b7 3d
       0.071919866 0.07151315 0.1233815 0.08939509
0000b0 17 f4 4b 3e e0 57 b8 3d 47 84 03 b9 9d c7 7b 3c
       0.19917332 0.09001136 -0.0001254241 0.015367416
0000c0 46 05 2b 3d f0 48 43 bb 68 37 d4 bd ac 5b 1f bb
       0.041753076 -0.0029798113 -0.103621304 -0.0024316115
0000d0 9b 2c 8d bd 3e f9 86 bd de 57 34 be 91 08 07 bd
       -0.068932734 -0.06590508 -0.17611644 -0.032967154
0000e0 e5 a6 ce 3d 64 43 0b be f9 7b 4d 3d 3a 99 23 bd
       0.10090426 -0.13599926 0.050167058 -0.03994105
0000f0 0e 14 4b bd 54 24 d7 3c 00 28 71 3e 23 fb 10 be
       -0.049579673 0.02626244 0.23550415 -0.14158301
000100 75 49 e7 3c a0 2f ec 3d f0 36 6b be 6e 1b b9 bd
       0.02823327 0.11532521 -0.22970176 -0.09038435
000110 8c 22 80 ba ba 08 8c bd 56 1b 6c 3d 5f 69 46 bd
       -0.0009775921 -0.06837602 0.057643257 -0.048440333
000120 e4 03 12 3e d9 50 15 bd f4 e3 93 3d 50 ef bd 3c
       0.14259297 -0.036454055 0.07221213 0.023185402
000130 5a d0 2c be b4 ea 24 bc bf a6 85 3d f8 a9 c7 3b
       -0.16876355 -0.010065723 0.06525945 0.00609326
000140 d5 fe ad 3d 2e 0d d5 bc dd cd 9c 3d 7a 04 9a bd
       0.08495871 -0.026007261 0.07656453 -0.07520385
000150 0a de 27 bd ea c9 03 3e e1 0f 76 bd 37 31 06 be
       -0.040983237 0.12869993 -0.060073737 -0.13104711
000160 bd b6 65 3d 5b 3f 24 3d 07 95 8b 3d 61 23 9c bc
       0.056082476 0.040099483 0.06815534 -0.019059839
000170 25 3c 06 be 40 99 29 bd 57 47 0c be 99 bc 42 3c
       -0.13108881 -0.041405916 -0.13699089 0.0118857855
000180 80 6f 62 3d 58 f9 be bb 71 45 08 3e 70 4e a4 3a
       0.055282116 -0.005828064 0.1330774 0.0012535583
000190 73 1e 44 bd 5c 47 3b bd a9 9a 91 bd c2 08 d4 3d
       -0.0478806 -0.04572235 -0.07109577 0.10353233
0001a0 bd 25 4e 3e b3 25 cc bd c0 5e 81 be 95 45 8a 3d
       0.20131584 -0.09968128 -0.252676 0.06751553
0001b0 42 12 8d 3d 65 e3 0b 3e e9 99 d5 3d cd c5 45 bc
       0.06888248 0.13660963 0.10429747 -0.012071085
0001c0 ff 86 05 3e bf e7 d9 3c 68 e7 5d 3d fd c0 07 3e
       0.13039778 0.026599763 0.054175764 0.13257213
0001d0 71 32 ba bc 66 ec 28 bb ae 57 0c 3d 70 70 03 bd
       -0.02272913 -0.002577567 0.034263305 -0.03208965
0001e0 ed 80 5f bd 21 16 9a 3d 06 52 ac bd 15 7c ee bd
       -0.054566313 0.07523752 -0.08414082 -0.116447605
0001f0 08 e8 bb 3d d8 5d 6a 3d f7 5e 8c bd a1 8c 0d 3d
       0.09175116 0.057218403 -0.068540506 0.034557942
000200 bd 0e 9b 3c b8 a2 7e 3d d7 1f 68 bd cf be 0a 3d
       0.018927926 0.0621669 -0.05667099 0.033873376
000210 6b 3b 25 3d 56 1f 0e 3d ef 5e 53 3b 07 fe 3a 3e
       0.04033987 0.034697853 0.003225263 0.18260966
000220 eb 5e 80 be fa 4f af 3d 68 47 f1 3d 6e 91 7a be
       -0.25072417 0.08560176 0.11781198 -0.2446954
000230 12 bb e4 bd ef 41 42 be dd 12 da 3c 1c d0 f5 3d
       -0.11168493 -0.18970464 0.026620323 0.12002584
000240 9b d7 50 bd 98 69 33 be d9 3b b3 3d 7b 94 25 be
       -0.050986867 -0.1752075 0.087516494 -0.16169922
000250 e8 76 a9 3d 1e 62 94 bd 11 69 00 be 11 b5 8b bd
       0.08274633 -0.07245277 -0.1254008 -0.06821645
000260 25 7a a5 bd f8 d3 02 3e 86 f4 c0 3d f1 35 99 3d
       -0.08079938 0.12776172 0.09421639 0.07480992
000270 9e 07 79 be 9a 10 39 bd be c1 d8 3d 49 58 c9 3d
       -0.24319312 -0.045181848 0.105838284 0.09831292
000280 fd 9d 97 bc 6c 54 38 be 09 0f df 3c 27 0d 2b be
       -0.018507952 -0.18000954 0.027228849 -0.16704236
000290 2b cc d8 bc fc 08 b4 bb bf 17 38 3c e1 8f bf bd
       -0.026464542 -0.005494235 0.01123613 -0.093536146
0002a0 ff bd 3c 3b 12 53 35 be 3b 8f 65 3b bf d0 c0 3d
       0.002879977 -0.1770747 0.0035028 0.09414815
0002b0 f7 06 71 3d 91 82 b3 bc 15 5f 54 bd 2c ea 8b bd
       0.058844533 -0.021912845 -0.05184849 -0.06831774
0002c0 84 4d 0b 3e e9 75 05 3e 4c 3d 00 be f7 65 df bd
       0.13603789 0.1303326 -0.12523383 -0.1090812
0002d0 8a 20 dd 3d 5c 44 a0 3d b4 6a 73 3c 39 d6 31 be
       0.10797222 0.078255385 0.014856983 -0.17366876
0002e0 3c 01 02 3e 28 5c a3 3d 07 7f 8f 3c ca 22 6d bd
       0.12695783 0.07976562 0.017516626 -0.057894506
0002f0 e9 27 9b bd ba 95 82 3d 27 38 03 be b7 d4 44 3d
       -0.07575972 0.06376214 -0.12814389 0.048054423
000300 da 5a 07 be 03 fb 84 3e 0e 45 92 bd 59 79 a6 3d
       -0.13218251 0.25972757 -0.071420774 0.08128614
000310 7d 3b 82 bd 3e 7f 93 3d 4d f5 bf bd 31 0c aa bd
       -0.06359003 0.07202004 -0.09372959 -0.083031066
000320 f9 10 1e 3e 6e 0d ad bd 62 c8 86 3d 73 d9 5a 3e
       0.15436162 -0.08449827 0.06581189 0.21372013
000330 a9 ea e3 3d 2b 85 2e be c8 ae 9d 3d 2b 03 bf 3d
       0.11128742 -0.17042987 0.076993525 0.09326776
000340 f0 08 3e bd eb 40 24 be 62 5f 01 be 30 fa 20 be
       -0.046395242 -0.16040389 -0.12634042 -0.15720439
000350 c1 fa f0 bd 95 b5 d3 3d 05 22 4a bd 7e c7 c7 bd
       -0.117665775 0.103373684 -0.04934885 -0.09754847
000360 98 84 90 bc 48 42 00 bd 71 8c aa bd b8 06 c4 3d
       -0.01764135 -0.03131321 -0.08327568 0.09571594
000370 6b f8 9e 3d ad dc 84 3b 43 36 12 3e df 22 24 bd
       0.07762226 0.004054627 0.14278512 -0.04007232
000380 cf 71 15 be ee dd 0a 3c 44 77 9f bd 03 db a4 3d
       -0.14594196 0.008475764 -0.0778642 0.08049586
000390 5e d2 ac bd 13 ec bb bc 3d e4 8d 3a 27 b9 7c 3e
       -0.08438562 -0.022939717 0.0010825467 0.24680005
0003a0 9d 1f 3c 3d 27 e4 08 3d d7 13 87 3e 5e e4 cb bd
       0.045928586 0.033420708 0.26382324 -0.09955667
0003b0 5a b0 90 3d 74 02 20 be 18 e6 65 be fd b0 80 3e
       0.070648864 -0.15625936 -0.22451055 0.2513503
0003c0 1f b3 ba bc 9b ad 8d 3d 3e d4 34 bc 40 67 96 be
       -0.02279049 0.06917878 -0.011036931 -0.29375648
0003d0 e4 c6 62 bd d4 94 9a 3c 47 0b 36 3d 36 6a e9 bd
       -0.055365458 0.018869795 0.04444435 -0.11397211
0003e0 41 f6 44 3e 15 ef 89 bc 15 e3 84 bc 0d 8c 96 bd
       0.19234563 -0.016837636 -0.016221562 -0.07350931
0003f0 8a b2 51 bd e1 10 63 bd 3e 3b 3a bd c1 fb 21 bd
       -0.05119566 -0.05543602 -0.045466654 -0.03954673

actor.4.bias f4 [6]
000000 e7 85 15 be dd 58 c6 3c da 20 c6 3d 55 e4 35 3e
       -0.14601861 0.024212295 0.09674235 0.17762883
000010 e3 79 6f 3d da 8b 94 3d
       0.05846585 0.07253237

critic.0.weight f4 [64, 43]
000000 b7 42 e5 3e 60 9f 05 bf f0 6d f3 be 71 13 23 be
       0.44777462 -0.5219631 -0.47544813 -0.15925385
000010 b7 25 27 3e 64 86 d6 3e fd d9 db bd 7f 84 a1 bd
       0.16322981 0.41899407 -0.10734937 -0.078866
000020 98 5c 98 bc c2 c7 50 3d 9d 3b 49 3d 56 70 54 bc
       -0.01859884 0.050971754 0.049129117 -0.012966236
000030 77 bd 7b 3e fd 2a e3 3b 12 a9 00 be 77 ca 9a 3c
       0.24583994 0.006932615 -0.12564495 0.01889537
000040 16 a0 ae bc 7f 46 c7 3d b6 64 38 ba ea 1c 3e 3d
       -0.02131657 0.09730243 -0.000703405 0.046414293
000050 a6 82 a1 3e b3 61 34 3f 0f e8 55 be 1e 16 f5 bd
       0.3154499 0.7046158 -0.20889305 -0.11967109
000060 79 8a 03 bf ba 7e 04 3e e5 fb 89 be 9b 2a 8c be
       -0.5138317 0.12938967 -0.26949993 -0.27376255
000070 15 e0 31 3d 4a 62 0a be 4f 98 aa 3f f5 63 3f 3d
       0.043426592 -0.13514057 1.3327731 0.046726186
000080 72 7e 34 3e e5 fc 86 be 9e 0d f9 3d f1 7a c0 be
       0.1762636 -0.26364818 0.121608004 -0.37593797
000090 f2 6b a7 be 76 78 90 3f 06 6d da 3d 07 64 ba 3d
       -0.32699543 1.1286762 0.10665326 0.0910111
0000a0 0d 1d 28 be d0 53 b8 3e 67 9a d4 3e 9c 10 ca 3e
       -0.16417332 0.36001444 0.4152405 0.39465797
0000b0 85 5b e6 be 0b 4a d5 be 69 e0 0f be db 8c 51 3e
       -0.449917 -0.41658053 -0.1405045 0.20463888
0000c0 ff f1 30 be 96 8e e0 bd 61 02 03 3e 69 65 da 3d
       -0.17279814 -0.10964696 0.12793876 0.10663874
0000d0 c6 d0 9c bd 43 ee 11 bd 77 b7 3d 3a ce f3 2f 3e
       -0.07657008 -0.035627615 0.0007237116 0.17182848
0000e0 d4 e5 8b be 4c 71 c2 be 22 91 0f be 9d 8f 37 3e
       -0.27323782 -0.37977064 -0.14020208 0.17925878
0000f0 09 3a 01 3d e5 b8 37 bd e3 d5 35 bd f1 df 2d 3f
       0.031549487 -0.044854064 -0.04439343 0.6791983
000100 b2 d1 94 3e b0 82 12 bf 24 8a 02 bf b2 27 c8 be
       0.29066235 -0.57230663 -0.50992036 -0.39092785
000110 34 ae 54 3f 1e 69 d6 be 6b 93 84 be 54 d1 53 be
       0.8307831 -0.41877073 -0.2589372 -0.20685321
000120 8e b0 69 be a0 51 e6 3f 88 45 a8 be 3a 1d 37 bf
       -0.22821257 1.799366 -0.32865548 -0.7152897
000130 2f 5c f3 be 54 52 12 3f 78 c4 b5 be 72 c3 68 be
       -0.47531268 0.5715687 -0.35501456 -0.22730806
000140 06 32 dd 3f 29 16 fa be 4b 15 5f bf 61 46 f9 be
       1.7280891 -0.48845032 -0.87141865 -0.48686507
000150 a3 14 c5 3e 16 ef e5 3d 59 53 78 3e 79 09 e4 be
       0.38492307 0.11227243 0.24250545 -0.44538477
000160 a8 69 29 be ae 54 92 bd 00 2d d4 3d ec d7 a4 3e
       -0.16544211 -0.071450576 0.103601456 0.32195985
000170 8a 6f 0f 3d 23 7d 12 be df 41 f6 3c 17 89 87 3d
       0.03501848 -0.14305548 0.030060707 0.06617945
000180 11 00 9a 3c 82 78 21 bd f5 35 9b bb 5c cc bd 3d
       0.01879886 -0.039421566 -0.004736657 0.09267494
000190 b3 12 7f 3c e9 aa 17 be 75 47 a2 bd 69 3d 0d 3d
       0.015568423 -0.14811291 -0.079237856 0.034482393
0001a0 f2 64 c2 3b ba 2b 8c 3b c0 67 78 be fe 2e 36 3f
       0.005932444 0.0042776735 -0.24258327 0.71165454
0001b0 16 90 30 3e f8 b5 c2 bd e7 92 22 3e 62 a6 67 be
       0.17242464 -0.09507364 0.15876351 -0.22622064
0001c0 a6 83 82 3e e3 d5 20 3e 90 a4 3b 3e c1 87 09 3d
       0.25491065 0.15706591 0.18324494 0.03357673
0001d0 33 e8 21 c0 00 11 5a 40 82 4d ec bf 53 f2 90 bd
       -2.5297973 3.4072876 -1.8461154 -0.0707747
0001e0 d1 6b ce be 07 6b 1b bd 0b 44 65 bc dd a5 1f c0
       -0.40316632 -0.037943866 -0.0139932735 -2.4944985
0001f0 73 09 5a 40 b5 e6 fa bf 00 1d 28 3e 59 42 5d 3d
       3.4068267 -1.9601656 0.16417313 0.054018352
000200 82 74 c5 3d 58 30 6d 3c cd 6f 93 be e4 a0 27 bd
       0.09641363 0.014476858 -0.28796235 -0.04092492
000210 65 2d 6b 3e 89 ad 26 3c 5a ef 09 be c9 e0 b3 bd
       0.22966535 0.01017321 -0.13470212 -0.08783109
000220 2f c8 bb 38 98 c8 39 3e ba b9 68 3c 31 57 b4 bd
       8.954142e-05 0.18142927 0.014204437 -0.08805693
000230 19 16 c7 3c 46 73 f4 bd 96 2e e5 3b a4 75 ed 3d
       0.02430253 -0.11936049 0.006994079 0.11594704
000240 66 0f 80 3e c9 b6 10 3e 17 cb f4 bd 47 b6 f7 3b
       0.25011748 0.14132227 -0.11952799 0.007559571
000250 37 cb 03 bc 35 1a 96 bf f9 68 9b 3f 71 08 1e 3e
       -0.008044056 -1.1726748 1.214141 0.15432908
000260 fa 0d 13 3e 43 f3 16 bf f8 bf 6a 3f a1 bf bf 3e
       0.143608 -0.5896494 0.9169917 0.3745089
000270 e3 7b 14 be 52 2c fa 3e a2 01 72 3e 26 3d f7 bc
       -0.14500384 0.4886194 0.23633435 -0.030180525
000280 88 6b 2a bf 4f e7 1e bf 42 69 04 3e dd 5e b3 be
       -0.6657033 -0.620717 0.12930778 -0.35033312
000290 0a 16 39 3e e6 a3 2a be 64 ab 07 be e4 eb 1d bf
       0.18074813 -0.16664085 -0.13248974 -0.61688066
0002a0 10 30 4b bf 33 8a 1d 3f b9 d6 28 bf 47 28 a9 be
       -0.7937021 0.61539 -0.6595264 -0.33038542
0002b0 ca c3 89 3e 39 9d d0 bd 34 57 55 3c 08 c5 e3 3d
       0.26907188 -0.10186238 0.013021279 0.11121565
0002c0 80 77 1e be ad 1b 06 3e 48 97 f6 ba be 41 3d 3e
       -0.15475273 0.13096495 -0.0018813396 0.1848211
0002d0 a0 38 81 3d 41 bd 5a bc 83 b3 e3 3c 7c aa 1e bd
       0.063096285 -0.013350786 0.027795559 -0.038736805
0002e0 ac 29 1d 3e ce f2 09 be c9 d6 95 bd f5 44 21 be
       0.15347928 -0.13471529 -0.07316358 -0.15748961
0002f0 b6 fd ff bd 77 cd 4a 3e 9f 9f 07 bd 11 b1 2b bc
       -0.124995634 0.19804941 -0.03311121 -0.010479228
000300 f5 e7 aa bd a7 2f 72 be 4c 70 8c be 87 e3 08 be
       -0.083450235 -0.2365099 -0.27429426 -0.13368045
000310 85 22 a9 3e f7 7c c6 3e b3 36 5e 3c a1 fd 8c 3d
       0.3303415 0.38767216 0.013562846 0.068843134
000320 8a d9 f9 bc 6e bb 68 be 64 16 20 bf 0c 40 63 be
       -0.030499239 -0.22727749 -0.62534165 -0.221924
000330 2a 69 19 bf b0 e2 6b be c1 30 06 3c fd c2 21 be
       -0.5992609 -0.23035693 0.008190335 -0.15797038
000340 f2 2b a1 bb b7 8a f1 be 97 84 9e be bc c2 24 bf
       -0.004918569 -0.47176144 -0.30960533 -0.6435964
000350 ba 8f db bd 3f 41 aa be 5b 61 78 be 0d 7a aa 3d
       -0.10720773 -0.33252904 -0.24255888 0.083240606
000360 a1 96 95 bc c9 b8 aa bd 13 ce 80 bd af 6c 26 bd
       -0.018260302 -0.08336026 -0.062893055 -0.040630993
000370 d8 d9 8a bd 51 eb 83 3c ba da f5 bc a6 51 1c bd
       -0.06779832 0.016103419 -0.030011524 -0.038163804
000380 26 e5 ed 3c 82 58 08 3d dc 78 cc bc 42 41 a9 bd
       0.02903993 0.033287533 -0.024959974 -0.082644
000390 4a 01 d0 3c 1b 4e ef ba b5 4e ea bd 1d 9b 16 be
       0.02539124 -0.001825753 -0.114407934 -0.14707609
0003a0 c0 c1 38 3d b9 38 c9 bb d0 26 3c ba 83 61 e6 3e
       0.04510665 -0.006140795 -0.00071774144 0.4499627
0003b0 85 93 a0 3f 18 48 73 bf 82 ae ec bc 3f 1f a3 bf
       1.2545019 -0.9503188 -0.028891806 -1.274391
0003c0 41 97 14 40 27 09 d1 bd 29 e7 e7 be 4d 11 bb bd
       2.3217318 -0.10206824 -0.4529355 -0.09134159
0003d0 c5 5e a4 bd 76 7e 0a 3e 19 6b 44 3e ad 04 b3 3e
       -0.08025888 0.13524804 0.1918148 0.34964505
0003e0 4b e4 4f 3e 5e 77 27 3e 99 bb c3 3e 08 c7 6a bd
       0.2030193 0.16354129 0.38229063 -0.057318717
0003f0 f9 18 69 3e 52 cd bc 3e c3 aa 83 3e 5a 75 74 be
       0.22763433 0.36875397 0.25716218 -0.23872891

critic.0.bias f4 [64]
000000 26 8d 9b bd 63 b3 69 be 0c 88 38 3e 25 47 e0 3e
       -0.07595281 -0.22822337 0.18020648 0.4380428
000010 ad 25 2f be 48 36 8d bd 77 6e 9c 3b 1d d0 01 be
       -0.17104216 -0.06895119 0.0047739106 -0.12677045
000020 93 65 22 3e 3a a7 32 be c1 f5 b7 3d 1d a3 f4 be
       0.1585906 -0.17446604 0.08982421 -0.47780696
000030 19 78 d1 3d 14 1f c9 3d 5b 26 9a be 63 94 b8 3e
       0.10227985 0.09820381 -0.30107388 0.3605071
000040 e2 41 ec be 0e 9f ce bd f4 84 d4 3e 28 3e 2b bd
       -0.46144015 -0.10088931 0.41507685 -0.041807324
000050 a6 f3 b5 be 5e 0c 42 be 6b 8f 86 3e 48 9b 37 be
       -0.35537452 -0.1895003 0.26281294 -0.17930329
000060 3c e5 80 3e e3 3e 7f bd c8 86 bb be fd 8a 00 3c
       0.25174892 -0.062315833 -0.36626267 0.007845637
000070 f5 64 19 3e 07 2a 54 3e 2e 81 00 3f d8 c6 0b be
       0.14979918 0.20719157 0.5019711 -0.13650072
000080 da 12 0b be 10 25 45 3e b0 0e 10 3d 50 b9 ae be
       -0.1358141 0.1925242 0.035170257 -0.34125757
000090 70 95 8d bd c0 b4 d5 3d 23 9e 78 3e 52 15 89 3e
       -0.069132686 0.10434866 0.24279074 0.2677408
0000a0 b6 d0 c5 3e 20 3a 81 3d 59 35 5b bd 4f 4b ab bd
       0.38635796 0.063099146 -0.053517673 -0.08363973
0000b0 10 8a 6c bd 8b de 34 be 86 56 50 be 0e 1f 47 3e
       -0.057748854 -0.17663018 -0.20345506 0.1944544
0000c0 82 3b 82 3e 9d 4f 94 be e6 db f0 bd 52 44 b6 3d
       0.25436026 -0.2896699 -0.11760692 0.0889975
0000d0 56 0c 13 3d ef fb 71 3e 39 18 c9 3e 8e 6c 78 3c
       0.035900436 0.23631261 0.39276293 0.0151626
0000e0 65 9a e8 3d c5 5d 40 bd 50 6a a7 be a9 38 2f be
       0.113575734 -0.046964426 -0.32698298 -0.17111458
0000f0 91 46 2c be 93 d4 4c be b9 1a bd 3c 68 c8 c4 bd
       -0.16823794 -0.20002966 0.023084031 -0.09608537

critic.2.weight f4 [64, 64]
000000 02 31 af 3c 8f f6 29 3e 8a 19 3a 3c eb 16 e8 bd
       0.021385673 0.16597961 0.011358628 -0.11332496
000010 64 1d 4d bc 71 fb dc bc fd 3f 2d 3d 23 3c 96 bd
       -0.012519214 -0.026975365 0.042297352 -0.07335689
000020 bd a3 7e be 22 af 30 bd cd ac 3f be 59 40 23 bd
       -0.24867149 -0.04313577 -0.18718262 -0.03985629
000030 97 8f f8 bc 67 83 94 3d 65 f2 ed 3d bc 64 65 3d
       -0.030341906 0.072516255 0.11618499 0.05600427
000040 5e 68 05 3d ce 3f 7e 3d 57 17 d9 3d 6c 33 69 3d
       0.032570235 0.062072568 0.10600155 0.056933805
000050 a6 84 16 3e 1d 1a 02 3d 16 85 38 be 82 00 10 3d
       0.14699039 0.031763185 -0.18019518 0.035156734
000060 13 b7 25 be cd 02 4a bd 45 76 80 3e a7 e4 c9 bd
       -0.16183119 -0.049319077 0.25090232 -0.09858065
000070 30 4f 68 bd 3a 53 43 3c 4e a4 7a 3d 01 60 64 bd
       -0.056716144 0.011921698 0.06119185 -0.05575562
000080 e0 da 21 bc 96 c7 3a 3b 69 2b f3 bd ea 9b db 3d
       -0.009878844 0.002850031 -0.11873514 0.107230976
000090 cc 6b a8 3c 6c 13 37 3d 44 58 90 bc aa 33 9c bd
       0.020559214 0.044696257 -0.017620213 -0.07627042
0000a0 00 4e 17 be 52 49 ac bd 8b 35 d5 3d 17 1e 05 3e
       -0.14775848 -0.08412422 0.10410603 0.1299976
0000b0 a6 5a c3 bc 8f cf 19 bc a8 91 98 bd 2b 28 f1 bd
       -0.023846935 -0.009387865 -0.07449657 -0.117752396
0000c0 2b 82 69 bd ac 8d 19 bd 53 a3 9c 3d 81 30 2a be
       -0.057008903 -0.037488624 0.07648339 -0.16620065
0000d0 bd 2d b7 bd 8c 6c 83 3d 7b 1f a6 3d 3b c3 41 bd
       -0.08944271 0.06417188 0.08111473 -0.047305327
0000e0 5c 27 97 bd 15 66 5b bd c9 db 25 3c 0a a6 28 ba
       -0.07380554 -0.05356415 0.010123202 -0.0006433433
0000f0 4e 87 96 3d 29 93 80 bd e5 c7 40 bd 4c bb e4 bd
       0.07350026 -0.062780686 -0.047065634 -0.111685365
000100 51 33 6e bd b2 25 d6 bd 2d 8f f3 3c 31 b2 72 be
       -0.058154408 -0.104564086 0.029731357 -0.23700787
000110 d1 16 74 bd 68 bc 0b be c4 c9 a2 3d 41 3a 49 bd
       -0.059592072 -0.1364609 0.0794864 -0.04912782
000120 0f 43 4c 3e 53 6a dd bc 3d 44 9c 3d fd e0 aa ba
       0.19947456 -0.027028238 0.07630203 -0.0013037022
000130 e3 b0 1d be c5 d5 c5 3d d7 19 ed bd 24 e1 7e bd
       -0.15399508 0.09659914 -0.11577194 -0.06222643
000140 2a 52 a2 3d ce d6 81 bd 2c 25 b1 bd 5d 88 7c 3d
       0.07925828 -0.06339799 -0.08649668 0.061653484
000150 00 37 83 bd 59 2c 43 bd 99 2f f2 bd fd f0 a0 bd
       -0.06406975 -0.047649715 -0.11825485 -0.07858465
000160 30 88 36 bd 8a 97 66 be 8e 35 1c be 0a 2b 87 3d
       -0.044563472 -0.22518745 -0.15254804 0.06600006
000170 2e 81 3e bd 80 a5 1b bc 97 59 0d 3d ca 72 2d 3e
       -0.046509914 -0.0094999075 0.034509268 0.1693832
000180 e1 25 a2 3d 19 6f cf 3b c6 62 86 3b 73 d2 85 bd
       0.07917381 0.0063303825 0.00410113 -0.06534281
000190 af 74 11 be 4e 62 7a be 9c 80 1c 3d 65 fb 8b be
       -0.14204668 -0.24451563 0.03820859 -0.27340236
0001a0 52 15 59 be bd d3 e7 3c b9 41 0d be cb bc a7 bd
       -0.2119954 0.028299207 -0.13794602 -0.08190306
0001b0 3b 75 88 bd 9e b4 e7 b8 13 73 22 be 4c 2b 79 be
       -0.06662985 -0.00011048581 -0.1586421 -0.24332923
0001c0 15 38 e5 bd c0 df 78 bd 8f c4 1b 3d d2 6b 84 3c
       -0.111923374 -0.06076026 0.03802925 0.016164694
0001d0 56 6c 10 bd 72 fc ab 3d 7d 1c fe bd 66 46 c3 be
       -0.035259567 0.083977595 -0.124077775 -0.38139647
0001e0 1c 39 54 3a 0c c4 49 3d 2b 25 b0 3d 68 52 9d bc
       0.0008095668 0.04925923 0.08600839 -0.019204333
0001f0 76 69 17 3d b7 46 97 bd 6c 50 fd bd d8 cb 26 3d
       0.03696581 -0.07386535 -0.12368855 0.040721744
000200 3d ad 10 be 81 bc 23 be 36 d8 13 be 6e 9c 7d bd
       -0.14128585 -0.15989877 -0.14437947 -0.06191676
000210 5c f6 15 3d 72 ed 08 3d 1b 2d 3c bd 74 65 09 3c
       0.0366119 0.03342957 -0.045941453 0.008386005
000220 b9 fc 3b 3e 5a 0d 69 bd 63 44 1e 3e 9d 8a 8f 3d
       0.18358125 -0.0568975 0.15455775 0.0700886
000230 2f 61 47 bd f8 4b c0 3d 80 5e 04 3c 42 5c 9d bd
       -0.048676666 0.0938949 0.008079171 -0.076836124
000240 b3 f3 d1 3d fc e7 4e 3d 1b 1a 87 bc 1f 94 7d bc
       0.1025156 0.050514206 -0.01649194 -0.015477209
000250 1c f7 cc bc 5b 94 f5 3d b7 dd 6e bc 7c 5e 31 3d
       -0.025020175 0.11991187 -0.014579228 0.043302998
000260 39 38 16 bd 40 93 9e bc 58 53 41 be df 82 c5 ba
       -0.03667471 -0.019357324 -0.1887945 -0.001506891
000270 a6 4e 9d 3d a5 af be bd 9f 3d c2 3d 4f 21 87 3d
       0.076810166 -0.09310845 0.094844095 0.0659815
000280 8b c8 83 3d cb 3a c7 3d da b7 48 3b 4c 60 b6 bd
       0.06434735 0.09728011 0.0030627162 -0.08905086
000290 33 9a 77 3d 86 f0 ef bd 82 96 f8 bd d1 b4 eb 3c
       0.06044979 -0.11715798 -0.12138082 0.028772743
0002a0 23 eb d7 bd 54 6f 4c bb 73 13 04 3c 37 cb cb 3c
       -0.10542896 -0.0031194286 0.008061278 0.024877174
0002b0 7f d3 97 bd 94 38 f5 bc ca 76 6b 3d 79 f8 e3 bd
       -0.074133866 -0.029934205 0.057486333 -0.11131377
0002c0 59 ad 43 3d 2c a9 40 bc d0 31 aa bc c3 bb b5 bd
       0.04777274 -0.011759084 -0.020775706 -0.08873703
0002d0 27 de 67 bd fd a3 73 3d a6 24 03 be 17 25 01 bd
       -0.056608345 0.059482563 -0.12806949 -0.031529512
0002e0 ad d8 e1 bc 43 e5 af 3d 4b 7f 82 bc e5 cf e5 3d
       -0.02756914 0.0858865 -0.015929839 0.11221293
0002f0 26 1c dd 3d 7a 09 0c 3e 5e 6f 99 bd f4 45 89 bd
       0.107963845 0.1367549 -0.07491945 -0.067027956
000300 b1 5b d8 bd 96 a4 c8 bd 87 71 e6 bd b3 c1 c2 bc
       -0.10564364 -0.09797017 -0.11252122 -0.023774004
000310 02 0e 88 3c 80 ba 08 3e 24 02 ab bd 3a a7 5a be
       0.016608242 0.13352394 -0.08350018 -0.21352854
000320 af 2a 92 3d 69 cf 73 3d 10 8d b8 3d 89 ac 4f 3d
       0.071370475 0.059523974 0.090112805 0.05070165
000330 80 78 dc 3d 4b 53 dd bd 41 5c a8 bc ee 41 61 bd
       0.10765171 -0.108069025 -0.020551803 -0.054994516
000340 cd 81 7f bd d2 db da bd 0b c7 7c bd a3 8a 3e bc
       -0.062379647 -0.10686459 -0.06171326 -0.011629733
000350 93 43 29 3e fc 7c 30 be f2 f1 e8 bc 53 8b 69 be
       0.16529684 -0.17235178 -0.028435681 -0.22807054
000360 95 e3 b4 bc dd 30 06 be 54 ac 50 3e e7 eb ce bd
       -0.022081176 -0.13104577 0.20378238 -0.101035886
000370 d0 aa 85 3d 9b 2b 18 be d4 d4 34 b9 da b1 24 be
       0.065267205 -0.14860384 -0.00017245422 -0.1608347
000380 c7 02 18 3d 17 e8 43 3d bf 25 cf bd 41 5e fa ba
       0.037112024 0.04782876 -0.10114621 -0.0019101576
000390 db 61 22 bd 34 ba 1a bd 11 4d c1 bd b0 4d cb 3d
       -0.039644103 -0.037775233 -0.094385274 0.09926927
0003a0 b1 fe 4c be 29 46 8a bd c5 cd 47 3d 64 23 4c 3d
       -0.20019032 -0.06751663 0.04878022 0.04983844
0003b0 83 a0 6e bd 41 a6 8e bd ad 74 6e bd 9b 70 ba 3c
       -0.058258545 -0.06965304 -0.05821674 0.022758773
0003c0 0e 84 bb bd 4e 7d 6c bd c6 60 92 bd cb b4 48 bd
       -0.09156047 -0.057736687 -0.07147364 -0.049000543
0003d0 da 78 46 3c b1 7e 81 bd ef 07 47 3d c4 d3 1b bf
       0.012113774 -0.063229926 0.04859155 -0.60870004
0003e0 d8 ce 23 bc 7b 43 c2 bd bf 51 9a 3d bd 1a b7 bd
       -0.009998046 -0.09485527 0.07535123 -0.08940647
0003f0 f9 1b 6b be de 40 b6 bc 42 49 97 3c 9d 41 8b bb
       -0.2295989 -0.022247728 0.01846755 -0.004249765

critic.2.bias f4 [64]
000000 69 e2 28 3c 5d b7 0d be 19 ee 2a be b4 7b 44 bd
       0.010307887 -0.13839479 -0.1669239 -0.047969535
000010 e7 ec 4e 3d 80 48 5a 3d 87 84 16 be 7b ba 01 be
       0.050518896 0.053291798 -0.14698993 -0.12668793
000020 2a c8 37 3c 60 5a 3a 3e 3d 7f 86 bc a9 e6 ab 3d
       0.011217156 0.18198538 -0.016418094 0.08393604
000030 34 fc b8 bc ba 30 fc bd 42 03 86 3d 8c c9 3a be
       -0.022581197 -0.12313981 0.0654359 -0.18240947
000040 90 3d ea bd 9a 18 b4 3d 99 c6 a7 bd 62 6a 22 3e
       -0.11437523 0.08793755 -0.08192176 0.15860894
000050 d6 b0 fe bd 9e 49 25 bd 31 13 45 be a4 55 8d bd
       -0.124360725 -0.04035341 -0.19245602 -0.069011
000060 12 bc f9 3d c2 f1 0d 3d 5d 19 7f bd 38 a0 76 3e
       0.12194075 0.034654386 -0.062280048 0.24084556
000070 54 16 90 3d 2b 75 8d be 3e bc 7e be 12 cc 52 3d
       0.07035509 -0.27628455 -0.24876496 0.051464148
000080 a6 44 b5 3d 8e a4 8b bd 82 0f de 3d bb bc a5 3c
       0.08850984 -0.06818496 0.10842802 0.020231595
000090 b3 b0 01 be 40 07 ae 3b c5 fc 08 bd c9 65 cb bc
       -0.12665062 0.005310923 -0.033444185 -0.024828808
0000a0 36 ea 98 bd 97 ea c9 bd 9d 94 fa 3d 30 74 7c 3d
       -0.07466547 -0.098591976 0.12235377 0.061634243
0000b0 b4 4f 57 bd ce 3d e3 3b fa 37 9e bd 2f b9 a3 3c
       -0.052566245 0.006934858 -0.077255204 0.019985763
0000c0 d8 ed b5 be 14 24 cf 3c c2 c0 b1 be 1a bc 52 bd
       -0.35533023 0.025285758 -0.34717375 -0.05144892
0000d0 aa 77 12 3c b7 90 ad 3c 53 78 01 be 43 14 19 3c
       0.008939663 0.02118717 -0.12643556 0.00934321
0000e0 63 c9 c8 bd ce 25 d9 bc ea 44 40 be d8 03 44 3c
       -0.098040365 -0.026507284 -0.18776289 0.011963807
0000f0 58 dc 13 3d 57 90 2e bd ca c8 5d bc 59 58 a1 ba
       0.036098808 -0.042618122 -0.013536641 -0.0012309655

critic.4.weight f4 [1, 64]
000000 9c b1 b8 3b 7f da 92 3d c6 f1 39 3d b2 75 87 3d
       0.005636407 0.07170581 0.04539659 0.066142455
000010 ed ed ce 3d af 63 97 bd c1 67 0d 3e 8b c3 eb 3c
       0.101039745 -0.0739206 0.1380911 0.028779766
000020 8f e1 86 3d dd 48 f5 3d 84 23 45 3b df 81 8f 3d
       0.06585991 0.11976788 0.0030080983 0.07007193
000030 e7 28 53 bc 42 3f 25 3d db 6c ec 3c 65 e7 bb 3d
       -0.01288817 0.04034353 0.0288605 0.091749944
000040 d7 e7 d3 bd 48 62 8a bd e2 a7 c8 3d 9a b7 09 3e
       -0.10346954 -0.06757027 0.09797646 0.13448945
000050 d5 10 3b 3d 72 b6 3c be 78 83 35 3d 98 7d 92 3b
       0.04567035 -0.18428972 0.04431483 0.0044705383
000060 b2 83 55 bd f3 96 93 3d 91 43 76 bb 73 fc fa 3d
       -0.052127548 0.07206526 -0.0037576894 0.12255182
000070 65 55 18 be fd c7 32 be 76 2d 8f 3d 0d 95 b5 bd
       -0.14876325 -0.17459102 0.06991093 -0.0886632
000080 59 69 ab be e8 bd ef bd 37 ae ac be bd c6 98 bd
       -0.3347881 -0.117061436 -0.33726665 -0.07459781
000090 c9 da de 3d 40 60 a0 3d a6 8d e3 3c 0b 4b 6c 3d
       0.10881574 0.07830858 0.027777504 0.057688754
0000a0 1e f5 21 3d 65 13 e1 3d 8a 9f 9a bd 79 b5 f6 3d
       0.039540403 0.10990027 -0.07549961 0.12046332
0000b0 f6 4b c9 3d 49 e0 26 bd 41 70 ef bc 13 7a f0 3d
       0.098289415 -0.04074124 -0.029228332 0.11742034
0000c0 27 5a f2 3d cc ff 4d 3d ef 50 de 3d f3 44 0e 3e
       0.118336014 0.050292775 0.108552806 0.1389349
0000d0 93 3e 04 be ff ff 15 bf d1 fb 49 bd 03 28 78 bd
       -0.12914495 -0.58593744 -0.049312416 -0.060585033
0000e0 8c 1d 29 bf 12 0c c9 3d 33 11 28 3c 93 ab ab 3d
       -0.6606071 0.09816755 0.010258007 0.083823346
0000f0 6d 68 4b 3d a7 fa 90 3d 36 3e 07 3e fa 83 65 bd
       0.049660135 0.07079058 0.13207325 -0.056034066

exp_avg f4 [6]
000000 e0 ea 0d b9 dc 66 34 ba 4c 3f b0 b7 28 9c ac b8
       -0.00013534306 -0.00068817823 -2.101031e-05 -8.2306855e-05
000010 26 ce 01 b9 dc 58 0a b7
       -0.00012379195 -8.24613e-06

exp_avg_sq f4 [6]
000000 8f 6c e0 37 6f d1 c4 38 2a 05 0f 38 fb a0 b2 37
       2.6753432e-05 9.385018e-05 3.4098666e-05 2.1294216e-05
000010 b2 23 80 37 e6 80 11 35
       1.5275411e-05 5.420428e-07
