2026-01-29_07-44-49_Fase2_Empuje_V1/model_1000.pt (torch, 189045 bytes, 36 tensors)

std f4 [6]
000000 a1 57 01 3e 4a 2f 88 3d 62 01 d7 3d ba bc 0a 3e
       0.12631084 0.06649645 0.104983106 0.13548556
000010 e4 90 1e 3e bd d7 75 3f
       0.15484959 0.96032315

actor.0.weight f4 [64, 43]
000000 e6 a8 81 bc 28 a1 99 3e 22 45 d4 bc 2a f3 07 bc
       -0.015827607 0.30005765 -0.025911871 -0.008297721
000010 b1 4e 7a be 56 ba a8 be fd 26 de 3c 1d 39 49 be
       -0.24444081 -0.32954663 0.0271182 -0.19650693
000020 1c bd b8 3d 4d 73 2d bc 06 d0 04 3c 00 56 85 3d
       0.09020445 -0.010586572 0.008106237 0.06510544
000030 8d 73 29 3e cb b9 3b 3e 01 82 29 3d 29 a4 29 be
       0.16547985 0.18332593 0.041383747 -0.16566528
000040 d2 60 f4 bd 52 25 84 be 48 77 29 bd c9 29 fb b5
       -0.119325295 -0.25809723 -0.04137352 -1.8713118e-06
000050 aa 19 2d 3f fc bf b7 3e 47 76 cc bd 86 7f c2 bd
       0.67617285 0.3588866 -0.09983497 -0.094969794
000060 0f 9e f1 be 9e 14 7e 3c f6 5c f8 bd d3 a6 65 be
       -0.47190902 0.015507845 -0.12127106 -0.2242692
000070 20 e4 c9 bb 8f 4d 78 be 42 7a b4 3e fd ba 4c 3e
       -0.006161228 -0.24248336 0.35249525 0.19993205
000080 e0 ee 0b 3f 88 4f fe be 09 85 32 3e 67 62 65 3e
       0.5466137 -0.49670053 0.17433561 0.22400819
000090 01 82 94 3e 7a 0c ad 3e 43 3a b1 3e 7b f6 c2 3e
       0.29005435 0.3379858 0.34614763 0.38078675
0000a0 7f 57 8c be 76 a1 09 3d dd 23 ad 3e 12 06 a5 3c
       -0.27410504 0.033601247 0.33816424 0.020144496
0000b0 74 aa 7d 3e 09 e0 b6 3e 5a c3 05 3f df df 05 bf
       0.24772054 0.357178 0.5225121 -0.52294725
0000c0 63 b0 8d bd 38 a0 d4 3c 96 81 2f bf a0 e1 7e bd
       -0.06918409 0.025955305 -0.6855711 -0.06222689
0000d0 56 cd fe bd dc 45 0b 3e 45 4b 5e 3c 0e d3 44 3e
       -0.124415085 0.13600868 0.01356775 0.19221136
0000e0 52 92 a5 bd 3d ed 1c 3d e1 1b b0 3e c7 6f 14 bf
       -0.08084549 0.038312186 0.3439627 -0.5798306
0000f0 0d d9 f4 bd 4b 97 02 bd 04 f5 94 3c c2 09 2b bf
       -0.11955462 -0.031882565 0.018183239 -0.66811764
000100 4c d6 32 3f 21 34 f7 3d e3 11 a0 3e 91 d4 31 bf
       0.6985824 0.1207049 0.31263646 -0.69464976
000110 e6 82 05 bf 07 53 d0 3d 06 eb b1 bd 61 0c 07 3d
       -0.5215286 0.10172086 -0.08687405 0.03297079
000120 48 a7 ae 3e d2 50 05 bf b5 38 57 3b 25 44 c7 3e
       0.34112 -0.52076447 0.0032840197 0.38919178
000130 71 a8 34 be 40 38 d4 be 9b 56 af 3e 8e 5c f1 3e
       -0.1764238 -0.41449165 0.34245762 0.47140926
000140 22 84 f2 be a6 30 4f 3d ba e3 16 3f 2b 43 22 3e
       -0.47366434 0.050583504 0.58941233 0.15845935
000150 53 0b 22 3f 42 d1 00 be 54 30 e4 be 4a 13 ec bd
       0.6329853 -0.12579826 -0.4456812 -0.115271166
000160 35 ac 52 be 09 3c a2 3c 10 df eb 3c 12 b7 b5 be
       -0.20573504 0.019804018 0.028792888 -0.35491234
000170 4d 64 88 3e 90 e3 05 be 89 ed dc be dc f4 22 be
       0.26639023 -0.1307509 -0.43149975 -0.15913719
000180 e4 27 d6 3d 6b b6 75 3d 18 4b 65 be 07 f8 dc bd
       0.10456827 0.05998842 -0.22391927 -0.10789495
000190 89 79 8b be eb 1a 97 3d a5 40 16 3d 89 9a 99 be
       -0.2724116 0.07378181 0.036682744 -0.30000713
0001a0 42 21 31 bc 81 f1 05 bb e2 04 b4 be 0f a5 1c bf
       -0.010811152 -0.0020438137 -0.35159975 -0.6118936
0001b0 00 80 94 bd e0 99 e1 3c 33 19 21 3d 39 9a 8c bd
       -0.072509766 0.027539194 0.039330672 -0.06865353
0001c0 eb 0a 0b 3d aa 2d c1 be 60 36 8f bd 90 90 3f bd
       0.03394596 -0.3773015 -0.06992793 -0.046768725
0001d0 32 d1 d0 be f2 f4 33 3e 87 a3 87 3d 1c 51 59 be
       -0.40784603 0.17573908 0.06622987 -0.21222347
0001e0 cb 72 6c bd 41 f8 d3 bc 31 b4 1b bf cf f7 08 bf
       -0.057726663 -0.025875213 -0.60821825 -0.53503126
0001f0 a3 2d 52 3e cc 00 30 3d 7b 51 21 bf 3a 5e 2d be
       0.20525222 0.04296951 -0.63014954 -0.16930476
000200 6f 6a 0b 3f d8 db 61 3d d5 7a b6 3d e0 11 df 3d
       0.5445928 0.0551413 0.08910147 0.10892081
000210 ff fc da be 2e 97 a6 3e 6e 82 90 3d c0 b3 f5 3c
       -0.42771146 0.32537216 0.070561275 0.029992938
000220 c2 30 5d be d2 84 cc 3d 01 e9 23 3e 68 bc fc bd
       -0.21600631 0.09986271 0.16006853 -0.12340623
000230 43 a4 17 3e 96 94 e2 bc 52 73 01 3e e3 5c a1 3a
       0.14808755 -0.027658742 0.12641647 0.0012311008
000240 08 1f 68 be fa ee 42 3e 70 e5 33 3e d8 7c 84 3d
       -0.22668087 0.19036475 0.17567992 0.064691246
000250 6c 6f 13 3c 80 bb 9d bc 4e 7a 94 3c f9 87 30 bd
       0.008998733 -0.019254446 0.018124726 -0.043098424
000260 52 4d d1 bb 2c 3a 91 be bc 68 97 3d b4 4d 5a be
       -0.006387391 -0.28364694 0.07393023 -0.21318704
000270 2d 0f 37 bd fd 75 33 3d c2 8e 1d bd 4b 49 ca bd
       -0.044692207 0.043813694 -0.038466223 -0.09877261
000280 a0 12 61 be d1 30 4f bd 10 83 ba bd a0 9a 53 be
       -0.21979761 -0.050583664 -0.091070294 -0.20664454
000290 29 50 82 bc 40 10 44 bc 55 83 b0 bd a5 e1 68 be
       -0.015907364 -0.011966765 -0.086187996 -0.22742327
0002a0 68 31 4d bd ff ba cd 3c fd 10 a7 bd 13 8b ec be
       -0.050095946 0.02511358 -0.08157537 -0.46199855
0002b0 78 84 24 3e 4e 25 08 bf f1 f9 02 bf cf 38 d4 bc
       0.16066158 -0.5318192 -0.5116263 -0.025905995
0002c0 bf 7a 27 3d 52 a0 8a 3e ab 82 18 3e 27 15 5c 3e
       0.040888544 0.2707544 0.14893596 0.21492444
0002d0 22 f8 9d 3e 98 f1 e5 3d 08 c1 4f ba 67 ce c3 bd
       0.30853373 0.11227721 -0.0007925187 -0.095608525
0002e0 ff 5a 1a 3e eb 5c 03 be 5d 9e 43 bd e8 56 5c 3d
       0.15073775 -0.12828414 -0.04775845 0.053793818
0002f0 be 0b 11 3d 1e 7d 57 3e 0d 97 04 bd d2 f2 61 bc
       0.03541159 0.21043822 -0.032370616 -0.013790803
000300 69 7a c0 3d f6 21 44 3e 08 99 b1 bd ce 7f 3a be
       0.09398348 0.1915358 -0.086717665 -0.18212816
000310 6e 33 11 be f3 ee f3 3d 45 35 73 bd c5 1d 31 bd
       -0.14179775 0.1191081 -0.059376974 -0.04324128
000320 22 64 35 be 7c 1f 22 be 86 3d 3f be 73 96 72 3e
       -0.17713979 -0.15832323 -0.18675813 0.23690204
000330 e5 95 d4 bd 9a 3c a9 be 80 38 81 3b 21 8d 59 be
       -0.103801526 -0.33054048 0.003943503 -0.21245243
000340 bb 4d a5 be 03 01 87 be b6 a9 8c 3e fd 6b d3 bc
       -0.32285866 -0.2636796 0.2747323 -0.025808329
000350 e2 e5 6d 3e 53 cf 7b bf 17 f5 da 3e ef 1c f6 3c
       0.23232225 -0.98363227 0.42765114 0.030043093
000360 18 87 9c bd 57 10 af bd 8f 50 ef bc a2 72 13 3e
       -0.076429546 -0.085480385 -0.029213218 0.14399198
000370 a5 c7 92 bd 03 bf 7a 3e ef 21 5b bf fa fa 60 3d
       -0.071669854 0.24486928 -0.85598654 0.05492685
000380 f2 5b a4 bd d5 d9 42 3e 14 3d 26 bd 5a 99 34 bd
       -0.0802535 0.19028409 -0.040585592 -0.04409156
000390 26 9b 89 be f4 3b 7a be e7 22 36 be 49 8b c9 3e
       -0.2687618 -0.24436933 -0.17786752 0.3936408
0003a0 a4 15 38 3e 11 a0 26 3d f1 20 a5 38 ec 7e 5c be
       0.17977005 0.040679995 7.873949e-05 -0.21532792
0003b0 1a d3 66 be 58 74 8f bc ee 83 f0 bd f4 c8 9b be
       -0.22541466 -0.017511532 -0.117439136 -0.30426753
0003c0 ec d6 9c be da a4 41 be d7 32 4d be 03 27 2d be
       -0.30632722 -0.18910542 -0.20038925 -0.16909413
0003d0 21 3d 02 be b1 fe d8 be 1c ef e6 bd 67 eb 08 3e
       -0.12718631 -0.42381814 -0.11276075 0.13371049
0003e0 5f a6 92 bd 6e 64 35 3e 77 35 3c bd e1 b6 8b be
       -0.07160639 0.17714092 -0.045949426 -0.27287963
0003f0 07 d1 af be b2 41 b2 bd 2f 61 15 3d f5 9e b3 be
       -0.34339163 -0.08703937 0.036469635 -0.35082212

actor.0.bias f4 [64]
000000 fd de 75 3d ea 61 90 3e 72 5a bf 3d 5d 35 0f be
       0.06002711 0.28199703 0.09343423 -0.139852
000010 58 37 21 3d c0 a6 73 bd 85 19 f7 3d af bf 76 bc
       0.03935942 -0.059485197 0.12065414 -0.015060349
000020 31 c3 62 bd 1c 24 ac 3d 3a fa c6 be 46 4e 47 3e
       -0.05536193 0.08405325 -0.38862783 0.19463453
000030 26 80 92 be b6 db 64 be cb a5 59 3d 62 06 bf bc
       -0.28613394 -0.22349438 0.053136628 -0.023318473
000040 54 da 2d 3b d3 51 66 bd 31 b8 a4 be 0b 2c ed bd
       0.0026527839 -0.056230377 -0.32171777 -0.11580666
000050 c4 4d c7 be 59 10 db bb fa 58 2d be 9c 63 53 be
       -0.38926518 -0.0066852984 -0.16928473 -0.20643467
000060 67 e7 2f be 9c a7 86 3d 7c e4 0a be ab 84 8b bd
       -0.17178117 0.06574938 -0.13563722 -0.06812414
000070 99 c3 f7 3c d5 50 a3 be bd c9 97 3e 12 f5 1c 3d
       0.030244635 -0.31897607 0.29646102 0.038319655
000080 55 a9 fc bc bc f4 a5 3d e1 e2 8c be bb 5f 42 3d
       -0.030842463 0.0810332 -0.27516845 0.047454577
000090 ff 90 0f 3e 33 f0 8c be 8d d3 29 be b1 d2 b0 be
       0.14020155 -0.27527007 -0.16584606 -0.34535745
0000a0 18 81 e5 bd 04 c8 87 be df ad f1 bc f0 fd d3 bd
       -0.11206263 -0.26519787 -0.029501854 -0.10351169
0000b0 66 4a fd bc e4 98 d5 3d be 24 db 3d 26 85 16 be
       -0.030919265 0.10429552 0.107003674 -0.1469923
0000c0 7a 7b 23 be 40 62 48 3d 68 27 83 3d d2 ea 0b be
       -0.15965071 0.048921824 0.064040005 -0.13663796
0000d0 16 b0 e7 bd c2 93 2b be 1b 3a 81 bd a9 29 5e 3a
       -0.113128826 -0.16755584 -0.06309911 0.0008474836
0000e0 cb e4 a7 3e 3d bc 09 bd b1 18 35 3d ea 1b dc be
       0.32791743 -0.033626784 0.044213 -0.42990047
0000f0 cf 42 b0 be ab 81 85 3d 9a 2d 49 be 88 f4 15 be
       -0.3442597 0.06518873 -0.19646302 -0.14644063

actor.2.weight f4 [64, 64]
000000 8c c9 7e 3d a5 10 76 bd 21 e4 5a bd 95 52 96 3d
       0.06220393 -0.060074467 -0.053440217 0.0733997
000010 12 4a 10 3d e1 c0 df bb ce 86 73 3d 25 da c2 3d
       0.03522689 -0.006828413 0.05945473 0.09514264
000020 78 8c e6 bd 11 c6 1d 3d 6a 3b 2d 3d 7c 60 87 3c
       -0.11257261 0.03851897 0.04229299 0.0165255
000030 97 b8 72 3d 26 02 d4 bd 7a 07 bb 3e ad 78 76 be
       0.05925807 -0.10351972 0.36529142 -0.24069472
000040 92 e7 30 bd 4a 18 3f 3e 2e 27 8e bc 4f 7b c2 bc
       -0.043189593 0.1866161 -0.017352667 -0.023740439
000050 fc 44 5e 3d ff 52 c6 bd d2 8f 57 be d6 8c 45 3d
       0.054265007 -0.09683799 -0.21050957 0.048230015
000060 1e 97 ec 3d 21 a6 62 bc fc 43 c9 3d e2 6e 06 3e
       0.11552261 -0.0138335535 0.0982742 0.13128236
000070 3d 95 0b 3e 6e 82 c9 bd 9e 03 ac 3d 64 cc 2a 3e
       0.13631149 -0.098393306 0.083991274 0.16679531
000080 80 37 f3 3d 52 b5 f6 3d 18 62 02 be 45 7d 25 3d
       0.1187582 0.12046303 -0.12732732 0.04040267
000090 de 0b e3 bd a0 2c 10 3c 96 07 cf 3d aa 20 41 3d
       -0.11086248 0.008799702 0.10108869 0.04715029
0000a0 2e 88 6c 3c be 8a 9a bd d7 15 09 be ec a7 48 bd
       0.014436765 -0.07545994 -0.13387237 -0.048988268
0000b0 8d 72 85 3d b3 40 4e be d8 d0 1f 3e e7 42 89 3d
       0.065159895 -0.20141868 0.15607011 0.06702214
0000c0 43 da 1b bd 93 ab 40 3c 5e d7 c2 3c c3 ae 08 be
       -0.038049947 0.0117596565 0.023784336 -0.13347916
0000d0 80 65 b7 3d 17 81 10 be 06 6d 04 3d b1 7b 73 3e
       0.089549065 -0.14111744 0.032330535 0.23777653
0000e0 41 8f 73 bd 0b 34 cf 3d 0d df cd bd 9b 9f 61 bd
       -0.05946279 0.10117348 -0.10052309 -0.055083852
0000f0 f7 b4 f2 3c f0 d5 b7 3d e9 23 08 be 5c 6a 58 bd
       0.029627306 0.08976352 -0.13294949 -0.052835807
000100 2d 96 99 be ae be 63 be 50 a9 ae 3d 06 2c c1 bd
       -0.29997388 -0.22240707 0.085283875 -0.09432225
000110 45 0d 8c bc b2 b5 59 3e 02 6c b9 3d 5c 54 ad bd
       -0.017096171 0.21260718 0.09053804 -0.08463356
000120 98 9f 14 be d3 77 a2 be 29 e9 6f 3d 03 2a 39 3a
       -0.14514005 -0.31732044 0.05857197 0.000706345
000130 98 cd 78 bd 0c 05 16 3d 5d 4a 9c be f6 f4 bb bd
       -0.060742944 0.036625907 -0.30525485 -0.09177582
000140 89 49 96 3c d1 eb 69 3e 13 c3 4b 3e 48 8f 97 3c
       0.018345611 0.22843863 0.19898634 0.018500939
000150 ca 22 b1 3b f5 8b c3 bc 09 ab db 3d 6d 96 2a 3b
       0.0054057585 -0.023870448 0.10725982 0.0026029602
000160 6c 77 27 ba 94 bf ec 3c cc ae 2f be 4b 89 c2 3d
       -0.00063883397 0.028899945 -0.17156523 0.09498843
000170 3e 02 18 3e d6 52 1b 3e 98 aa 94 bd e7 56 af 3d
       0.14844605 0.15168318 -0.07259101 0.08561497
000180 9c d2 1b 3e 1f 93 03 be 29 46 b3 bb 26 89 1c 3d
       0.1521706 -0.12849091 -0.00547101 0.038216732
000190 75 fb 10 be 47 43 3e 3e 73 dd 1a 3e f5 2a 78 3d
       -0.14158423 0.18580352 0.15123539 0.060587842
0001a0 4d 76 1e 3e 66 6b 20 3e c7 7f a6 3d a0 aa 44 3e
       0.15474816 0.15665969 0.0812984 0.19205713
0001b0 0c 9f d9 be 58 d5 ac bd e4 d0 1b bf 36 41 b4 3d
       -0.42504156 -0.084391296 -0.60865617 0.088015005
0001c0 5c 6d 19 3e e8 4f 2a bd 7e 66 d1 3b cf 78 98 3c
       0.14983124 -0.04158011 0.006390392 0.018612294
0001d0 23 37 2e bd ca 01 b3 3d 8f f4 83 bd 06 7f ae be
       -0.04253305 0.087405756 -0.0644313 -0.34081286
0001e0 aa d8 29 3e 7b 0c 2e 3d 15 d8 a1 bd 31 fd 72 3d
       0.16586557 0.04249237 -0.079025425 0.059323493
0001f0 e7 41 a5 bd 4f 15 af 3e 96 f4 dc be e9 ce ee 3d
       -0.080692105 0.34195945 -0.43155354 0.11660559
000200 c9 de 15 3d 0a 4d 1a bc 69 fb 5d bd cb 95 1f 3e
       0.036589418 -0.009417782 -0.05419484 0.15584485
000210 58 71 b4 3d 03 5e dc 3d 50 73 e2 3d 44 53 04 be
       0.08810681 0.10760119 0.1105715 -0.12922388
000220 6c 6f 4d 3d d2 ef 0d 3e fb 65 5d be a5 f6 1b 3e
       0.05015509 0.13861015 -0.21620934 0.15230806
000230 1e 3e 9b bc 2b e2 e0 bc 2d dc 80 3d 8a 7b d8 3c
       -0.018950518 -0.027451595 0.06291995 0.026426096
000240 f7 d5 4f 3d 2e 62 16 bd 75 aa 1f 3d 95 9f 23 3e
       0.050741162 -0.036714725 0.03898092 0.15978844
000250 f9 9f 8d 3b 3a 3d f0 bd 4c 7b 85 3d ff 81 10 be
       0.0043220487 -0.11730428 0.06517658 -0.1411209
000260 a4 57 b8 bd 96 42 94 b9 3e 85 a9 3c e3 0e 11 bf
       -0.09001091 -0.0002827837 0.020693418 -0.5666334
000270 13 b5 d9 3b 0a c5 34 bd ba 48 b1 be 2d 88 8d 3c
       0.0066439 -0.044133224 -0.34625798 0.017276848
000280 0a 13 3b be bb 5d 83 3c 0d 98 26 3e 87 35 fd bc
       -0.18268982 0.016035905 0.1626894 -0.030909313
000290 9e f8 08 3d 9b 7a 71 3d a0 6f 61 bd ad f0 3c 3d
       0.033440225 0.058954816 -0.055038095 0.046127964
0002a0 a0 90 58 bd f6 19 51 3d d4 fa 2b bc c0 cd a8 3d
       -0.0528723 0.05105015 -0.010496814 0.08242369
0002b0 fb 4d af bd 72 b0 0e be c4 fe 53 be 92 62 4f be
       -0.085597955 -0.13934496 -0.20702654 -0.20252445
0002c0 2f d3 e3 3d a5 49 46 bd 1d 93 21 3e 9c 16 8e be
       0.111242644 -0.048410077 0.15778776 -0.27751625
0002d0 67 35 2e bd ba a5 7a 3d 21 0f d9 bd 6d b1 35 be
       -0.042531397 0.061193205 -0.10598589 -0.17743464
0002e0 3e 82 2c 3e 13 5d f7 3d 2e 76 60 3d ad 08 3c be
       0.16846558 0.120782994 0.054800205 -0.18362685
0002f0 2b a7 be bc 9f 37 87 3c 21 83 33 be 26 c2 c1 3d
       -0.023273071 0.016506014 -0.1753049 0.09460859
000300 68 02 e0 3c 3d 4f cd bd 5c 0c d1 bd 22 d8 98 3d
       0.027344897 -0.10024879 -0.102074355 0.07463099
000310 f0 26 08 3d 4e 77 f9 3d 75 24 37 3d c3 46 c0 bd
       0.03324026 0.12180959 0.044712503 -0.09388497
000320 b6 86 a6 3c e3 3c 9a 3d 45 73 e0 3d 41 26 0c bd
       0.020327907 0.075311445 0.10959486 -0.03421617
000330 f6 bc cc bc f4 2e ad bd 8e 62 58 3e cf 79 fc bd
       -0.024992447 -0.08456221 0.21131346 -0.12327921
000340 e8 71 4a 3d 4c ff c1 3b 4a ab 86 3d ad 66 92 3b
       0.049425036 0.0059203263 0.065756395 0.0044678063
000350 b7 76 f1 bd 0b da 9f bd 98 00 91 3d 21 ee 9a bd
       -0.11790221 -0.0780526 0.070801914 -0.07564951
000360 49 a7 97 3d 61 2d 05 bd 13 ed 33 3e cb e4 ec 3d
       0.07404954 -0.03251398 0.17570905 0.11567076
000370 7f 67 31 bd df 7d 36 3c 51 d8 1f be 08 e5 bd bd
       -0.043311592 0.011138408 -0.15609862 -0.092722
000380 f3 87 a9 3d 48 f7 c2 bc 12 56 76 bd ce bb 20 3e
       0.082778834 -0.023799554 -0.060140677 0.15696642
000390 44 20 07 be 94 bb d4 3d 54 44 21 3e 56 60 05 3d
       -0.13195902 0.1038734 0.15748721 0.032562576
0003a0 01 86 b4 bd aa 56 19 be 65 f4 1d 3d 9c 56 bb 3d
       -0.08814622 -0.14974466 0.03856315 0.09147379
0003b0 dc 71 fc 3d f5 b2 af 3c a5 1f 02 3d e3 86 48 3e
       0.123264045 0.021447638 0.03176846 0.19582705
0003c0 57 41 b9 3c 5a 94 87 bd 74 b6 c4 bd c5 7e 1f 3e
       0.022614164 -0.06620093 -0.09605113 0.15575702
0003d0 2a 99 14 bd 84 ba 04 3e eb 92 c6 bd e8 03 66 3e
       -0.03627888 0.12961775 -0.09695991 0.22462428
0003e0 98 f7 8c be 9b ba e8 bd 58 2f 00 3e dc 56 52 bd
       -0.2753265 -0.11363717 0.1251806 -0.051352367
0003f0 e8 ef c5 3d cd 28 d8 3c ef 39 0b bd 94 2e fc bb
       0.09664899 0.026386643 -0.033990797 -0.007695982

actor.2.bias f4 [64]
000000 e8 d4 c9 bd db f4 e2 3d 93 00 9c 3d b5 ae 0b 3e
       -0.09855062 0.11081859 0.07617297 0.13640864
000010 04 5a 80 3b 6f ab e0 3c 1f 3b 85 bd 12 02 7a 3e
       0.0039169807 0.027425496 -0.06505417 0.24414852
000020 ce 9c 92 bd 9d af d0 bd 9d 9d ae 3e b3 ca af bd
       -0.07158814 -0.101897456 0.34104624 -0.08583584
000030 d7 9b 62 3d 2c 58 8e be ce 13 7a 3d f4 31 83 3e
       0.0553244 -0.27801645 0.061054043 0.2562405
000040 a4 2f ce bb d6 3a 9f be 7e f0 11 bc a9 0b 4b be
       -0.0062923003 -0.31099576 -0.008907435 -0.19828667
000050 91 b0 8a 3d 9a 6c 3f bd 08 42 46 be 91 08 0b bd
       0.067719586 -0.04673443 -0.19361126 -0.033943716
000060 e2 42 15 3d 11 c6 7d 3e 54 22 a5 3d c0 df e6 3d
       0.036440738 0.24782588 0.08063188 0.11273146
000070 b8 33 11 bd 53 ca ca bd 4f 99 ee 3d f5 f2 68 3d
       -0.035449713 -0.099018715 0.11650335 0.056872327
000080 d3 f2 80 be 20 57 d1 bd 59 8b a9 bd 72 5b 4b be
       -0.2518526 -0.10221696 -0.082785316 -0.19859102
000090 f8 aa 32 bd 5d f3 15 be f9 7e 92 bc 0d b2 65 3d
       -0.04362008 -0.14643617 -0.01788281 0.056078006
0000a0 de 26 03 3e af 0c 8b be 58 4a b2 3b 73 89 d9 3c
       0.12807795 -0.27158114 0.0054409914 0.026554799
0000b0 e5 1d 04 be ac d7 23 be 5f 9c f6 bd 8f a5 ee bd
       -0.12902029 -0.16000241 -0.12041544 -0.116526715
0000c0 b8 98 87 3d de 78 ab 3e e6 55 8a bd 8c 0e 1b be
       0.06620926 0.33490652 -0.06754665 -0.15142268
0000d0 c9 6a 46 3e e5 2f 0e 3d b6 69 c5 3d 5d 5f 8d be
       0.19376673 0.034713645 0.096393034 -0.2761182
0000e0 95 ba 0d 3e c3 f9 8c 3d 92 b4 1a bd 1f f1 c7 bd
       0.13840707 0.06883576 -0.03776986 -0.09762787
0000f0 54 7f 94 3c 96 cd fd bc 8a b0 3d be 1e b7 4d 3e
       0.018127121 -0.03098182 -0.18524376 0.20089385

actor.4.weight f4 [6, 64]
000000 99 5e 3e be ed e2 0b be a7 6f a0 39 a4 df 48 be
       -0.18590774 -0.13660784 0.00030600766 -0.19616562
000010 63 15 43 bd 4f df 2d 3d bc e5 02 be 94 5f a2 3d
       -0.047627818 0.04244929 -0.12782949 0.07928386
000020 f5 3e 8b 3d 09 93 8a bd b4 a0 e9 bd 17 78 12 3d
       0.067991175 -0.06766326 -0.11407605 0.035759058
000030 ac 3e b3 3d ef 5c 5e 3d f7 7a d4 bd a5 bb fd bc
       0.08752188 0.054287847 -0.10375016 -0.030973265
000040 bc 29 fe 3d 8f 92 f0 3d 0f 00 b9 3d f3 b5 e7 3d
       0.12410304 0.11746704 0.09033214 0.11314001
000050 09 37 4e 3a 03 69 f6 bd 30 79 84 3d 50 ce 1f 3e
       0.0007866477 -0.12031748 0.06468427 0.15606046
000060 b7 60 23 3e a0 0c 10 bd 89 02 8b 3d 47 42 86 bd
       0.15954863 -0.03516829 0.06787593 -0.0655561
000070 70 4f c9 bc 1e d1 d5 bd 47 24 b5 3c a8 a3 02 bd
       -0.024574012 -0.104402766 0.022112025 -0.031894356
000080 c4 4a 79 3d 4d cb 19 3e 59 43 33 bd 44 68 0a 3d
       0.060862318 0.1501896 -0.0437654 0.03379084
000090 94 e8 11 be 23 2d 8b 3c eb e8 aa bd 07 04 76 3e
       -0.14248878 0.016989296 -0.08345207 0.24024974
0000a0 46 5a 9d 3d 8a fa 8d 3d b1 85 fd 3d ac 88 ba 3d
       0.07683234 0.06932552 0.12379015 0.09108099
0000b0 6f 5e 4c 3e 11 af ae 3d 5c 4d 66 ba ea f5 95 3c
       0.19957899 0.08529485 -0.0008785331 0.018305738
0000c0 4d 9f 2a 3d a0 0b 83 bb b4 81 d1 bd e6 86 66 bb
       0.041655827 -0.0039991885 -0.10229817 -0.003517562
0000d0 c0 8f 8f bd 66 26 8a bd 91 64 37 be 3b c0 08 bd
       -0.0700984 -0.06745605 -0.17909457 -0.03338645
0000e0 ba be ce 3d 40 c5 0b be a9 f1 52 3d 47 ee 21 bd
       0.10094972 -0.13649464 0.051499996 -0.03953388
0000f0 b2 b3 4c bd aa 0b d1 3c 8d 51 71 3e 30 69 12 be
       -0.04997606 0.025518257 0.23566265 -0.14297938
000100 d7 4e ee 3c b6 a0 ec 3d 6f 30 69 be 06 cd ba bd
       0.029090328 0.11554091 -0.22772382 -0.09121136
000110 95 a6 f6 ba 14 bc 89 bd 05 ee 70 3d c6 9c 41 bd
       -0.0018817956 -0.06725326 0.058820743 -0.04726865
000120 54 6e 11 3e f6 9d 13 bd 6f 2e 98 3d 92 1a c0 3c
       0.14202243 -0.036039315 0.074307315 0.02345017
000130 9e dd 2a be b2 cb 26 bc 28 ad 84 3d fa 89 d7 3b
       -0.16686103 -0.010180401 0.064783394 0.0065777274
000140 3c a1 ae 3d d8 a4 d5 bc ed 42 97 3d 3f d3 99 bd
       0.08526847 -0.02607958 0.07385812 -0.07510995
000150 92 a2 24 bd 2f 4f 03 3e ab 06 76 bd c5 06 06 be
       -0.0401941 0.12823175 -0.060064953 -0.1308852
000160 f9 10 76 3d cf 24 24 3d 4f ef 8b 3d d4 9a ab bc
       0.06007478 0.040074166 0.06832754 -0.020947851
000170 16 4d 06 be a7 e0 22 bd 23 7f 0b be 0d 90 42 3c
       -0.13115343 -0.039765026 -0.13622718 0.011875165
000180 04 b5 61 3d 6a f7 c3 bb 7d e0 07 3e 07 dc 9c 39
       0.05510427 -0.005980422 0.13269229 0.00029918572
000190 56 46 46 bd b7 78 40 bd 2b b6 96 bd 3e 4e d1 3d
       -0.04840692 -0.046990123 -0.073589645 0.10220002
0001a0 f5 41 4f 3e 3c 12 ce bd 6d 37 81 be f3 9a 8a 3d
       0.20240004 -0.10062072 -0.252376 0.067678355
0001b0 3f 6a 8e 3d fe 33 0e 3e 26 bd cd 3d d5 35 6d bc
       0.069538586 0.13887021 0.10045843 -0.014478167
0001c0 c9 9e 05 3e 04 1e e2 3c d0 e9 5a 3d 68 89 06 3e
       0.13048853 0.027602203 0.053445637 0.13138354
0001d0 e7 bd af bc 0f 69 6b bb 9c 2e 05 3d 3d d4 06 bd
       -0.021452857 -0.0035920774 0.032515153 -0.03291725
0001e0 32 45 60 bd 71 7a 99 3d 08 54 ae bd 60 e6 f0 bd
       -0.05475349 0.07494057 -0.085121214 -0.117626905
0001f0 31 93 bb 3d 57 53 68 3d 59 fc 8e bd 8a 19 0c 3d
       0.09158934 0.056720104 -0.06981725 0.034204043
000200 3b e7 9c 3c 24 89 76 3d 9c 15 6f bd 3d 76 04 3d
       0.019153228 0.06018938 -0.058370218 0.032339323
000210 ef 50 24 3d e8 1f 09 3d 7d 07 27 3b 08 0f 3b 3e
       0.040116247 0.033477694 0.002548664 0.18267453
000220 65 01 7d be 95 a4 b0 3d 16 36 f6 3d 09 4a 7c be
       -0.24707563 0.086251415 0.12022035 -0.24637617
000230 07 d8 e3 bd 82 f3 41 be 07 44 ed 3c 52 91 fa 3d
       -0.11125188 -0.18940547 0.028963102 0.12234749
000240 82 45 50 bd 2c 33 33 be a4 60 b4 3d 5e cf 25 be
       -0.050847538 -0.1749999 0.08807495 -0.16192386
000250 78 9d a9 3d 71 f2 8e bd 3d 2a 00 be 9c 78 8b bd
       0.08281988 -0.06979836 -0.12516113 -0.06810114
000260 62 f0 9f bd a6 4f 03 3e 2d 59 c4 3d 2d 98 9f 3d
       -0.07809521 0.12823352 0.095873214 0.07792697
000270 ca 8c 78 be fe 19 43 bd 4f 3b db 3d b9 ac c9 3d
       -0.24272457 -0.04763221 0.107046716 0.09847397
000280 79 1a a2 bc 36 2d 38 be c5 a1 e5 3c 83 29 2b be
       -0.019788014 -0.17985997 0.02803124 -0.16715054
000290 89 1c ec bc 8a 96 1e bc c8 ad 5e 3c 33 34 bd bd
       -0.0288222 -0.009679446 0.013591237 -0.09238472
0002a0 17 f1 03 3c a0 2c 34 be 91 73 dc 3b 7b cf c0 3d
       0.008053086 -0.17595148 0.006727644 0.09414574
0002b0 5e ea 84 3d fa 80 b6 bc eb 3c 59 bd 06 22 85 bd
       0.064900145 -0.022278298 -0.05303661 -0.0650063
0002c0 98 4f 0e 3e f0 32 07 3e 9b 5d fe bd 3e 8e e0 bd
       0.1389755 0.13203025 -0.124201976 -0.109646305
0002d0 a9 f1 dc 3d 63 07 a4 3d 33 78 87 3c 06 f4 30 be
       0.107882805 0.080092214 0.016536808 -0.17280588
0002e0 14 22 05 3e 8d 7b a3 3d 86 d8 9d 3c 59 02 6b bd
       0.13001281 0.0798255 0.019268285 -0.057375286
0002f0 d8 e5 9d bd bc 4a 83 3d 24 45 03 be 72 1d 45 3d
       -0.07709855 0.06410739 -0.12819344 0.048123784
000300 59 48 08 be 18 aa 83 3e d1 eb 8f bd 30 48 a2 3d
       -0.13308848 0.2571571 -0.070274 0.07923925
000310 0b cb 83 bd c7 cb 9c 3d 9e 83 c7 bd 38 d2 a1 bd
       -0.06435212 0.07656055 -0.09741901 -0.07901424
000320 23 89 1d 3e ef 82 ab bd dd 10 8f 3d e5 93 5a 3e
       0.15384345 -0.08374583 0.06985638 0.2134548
000330 30 b6 e7 3d de 6e 2f be 81 b7 a3 3d e2 47 c4 3d
       0.113140464 -0.17132136 0.07993985 0.09584023
000340 a4 9b 43 bd 2d 45 25 be b0 9e 0a be 66 2c 22 be
       -0.047755852 -0.1613967 -0.13537097 -0.15837249
000350 22 91 ec bd 7a ec d4 3d c1 80 4e bd 7b 6c c9 bd
       -0.115511194 0.10396667 -0.050415758 -0.09835144
000360 bf 37 4f bc f7 12 f4 bc ea 56 aa bd 25 07 c1 3d
       -0.012647568 -0.0297942 -0.08317359 0.09425191
000370 cc d6 9d 3d 7d 7c 82 3b cf 27 13 3e 70 da 23 bd
       0.07706985 0.0039821253 0.14370655 -0.04000324
000380 21 60 17 be 81 46 f1 3b d9 54 a3 bd e7 3d a3 3d
       -0.14782764 0.007363141 -0.07975168 0.07970791
000390 fc 15 af bd 25 67 01 bd d9 a0 95 bb 15 fe 78 3e
       -0.08549115 -0.031592507 -0.0045662937 0.24315675
0003a0 b2 4f 2f 3d ba 8a 06 3d e6 c1 87 3e fa 17 d1 bd
       0.042800613 0.032847144 0.2651512 -0.10209651
0003b0 57 22 92 3d 80 37 1f be d0 45 6e be d5 7f 7b 3e
       0.07135456 -0.15548515 -0.23268819 0.24560483
0003c0 7e 52 93 bc ba 0a 93 3d 3a 5f 48 bc 08 8e 96 be
       -0.017983671 0.0717978 -0.012229735 -0.29405236
0003d0 60 ee 60 bd 5b ce 8e 3c 12 f7 1e 3d c3 77 ec bd
       -0.054914832 0.017432382 0.038809843 -0.1154628
0003e0 df ec 49 3e e1 1f 8e bc 01 cf 9d bc 58 9c 94 bd
       0.19719265 -0.017349185 -0.019263746 -0.07256383
0003f0 31 04 5e bd ec 9f 68 bd 98 87 37 bd b3 fd 21 bd
       -0.054203216 -0.05679314 -0.044807047 -0.039548587

actor.4.bias f4 [6]
000000 a1 37 15 be d3 4c c7 3c 5c 79 c5 3d 74 c8 36 3e
       -0.14572002 0.024328625 0.09642288 0.17849904
000010 88 a4 6a 3d 82 79 7c 3d
       0.057285815 0.061639316

critic.0.weight f4 [64, 43]
000000 a6 3b e6 3e 35 fd f3 be 42 62 ec be a2 56 49 be
       0.44967383 -0.4765412 -0.46168715 -0.19661954
000010 f0 9d 25 3e e9 5d ce 3e 3f 25 b8 bd 4f 72 7a bd
       0.1617353 0.40306023 -0.08991479 -0.06114417
000020 35 a0 2e bd e3 a8 72 3c 4c b8 85 3d 60 3e 91 bc
       -0.042633254 0.014810774 0.065292925 -0.017729938
000030 d9 9d 80 3e b2 47 32 3d 25 d8 e5 bd 5a c3 f6 bc
       0.25120428 0.043525405 -0.11222867 -0.030122448
000040 f1 bf ae bc a3 8a 9b 3d 30 4d b3 bb c7 83 fb 3c
       -0.02133176 0.07594802 -0.005471848 0.030702485
000050 cf 7e c3 3e d7 1c 1e 3f 08 a2 95 be 74 3e fe bd
       0.38182685 0.61762756 -0.29225183 -0.12414256
000060 d0 33 0b bf 8b aa 49 3e 9c 02 a1 be 5f 0b a4 be
       -0.54375935 0.19693963 -0.31447303 -0.32039925
000070 f2 e6 43 bd db 91 34 be 74 99 b3 3f ee c1 a5 bb
       -0.04782767 -0.17633764 1.4031205 -0.0050585186
000080 52 89 2e 3e 29 3f 9c be 8c 6a 3a 3e b4 40 b4 be
       0.17044571 -0.30516937 0.18204707 -0.35205615
000090 f2 02 95 be 9b 79 99 3f c7 bd 60 3d cb 79 ae 3d
       -0.2910381 1.1990236 0.054868486 0.08519324
0000a0 16 22 45 be ad ee 75 3e 2a 32 c6 3e b3 9d c5 3e
       -0.19251284 0.24016829 0.38710147 0.38596877
0000b0 b1 f7 da be dc c0 c6 be de ef ea bd ad 23 2c 3e
       -0.427671 -0.38819015 -0.11471532 0.16810484
0000c0 10 0b 4d be 84 b8 f9 bd d8 27 27 3e 7a d9 ef 3d
       -0.20023751 -0.12193397 0.16323793 0.11711402
0000d0 84 61 10 be d2 37 ee bc 9e e4 32 3c 96 68 25 3e
       -0.140997 -0.029079352 0.010918764 0.16153178
0000e0 90 0c 82 be 97 1a b5 be 81 54 07 be 7b c4 13 3e
       -0.2540021 -0.3537185 -0.1321583 0.1443042
0000f0 69 76 aa 3b 02 f7 30 bd 97 e7 08 bc c9 bb 4d 3f
       0.005202104 -0.043204315 -0.008355997 0.8036466
000100 60 3c 45 3e 18 3f 2d bf 87 da fe be 1e 95 db be
       0.19261312 -0.676744 -0.49776098 -0.42887205
000110 06 ba 6d 3f e9 f1 f2 be 8f 9b a0 be e7 0b a1 be
       0.92861974 -0.47450188 -0.31368682 -0.31454393
000120 9e ed 8d be 35 f3 da 3f b2 f3 c6 be 60 3f 3f bf
       -0.2772035 1.7105471 -0.388578 -0.7470608
000130 b4 bc 09 bf 51 a2 22 3f b0 34 aa be b2 66 2e be
       -0.53803563 0.63528925 -0.33243322 -0.17031363
000140 9b d3 d1 3f 38 62 0c bf 71 37 67 bf e9 0c 08 bf
       1.6392702 -0.5483737 -0.9031897 -0.531447
000150 18 4e b6 3e 28 40 c7 3d 28 a7 8f 3e 86 6b ee be
       0.35606456 0.09729034 0.28057218 -0.4656641
000160 ee 2e 46 be b5 f0 6f bd 00 3d 07 3e ae ed b2 3e
       -0.1935384 -0.058579165 0.13206863 0.3494696
000170 24 97 23 3d 3a ac 1b be 41 72 d2 3c 6a c5 58 3d
       0.03993906 -0.15202418 0.025689246 0.052922644
000180 8f 58 81 3c a5 0c ce bc e0 ca db 3c f7 de 9a 3d
       0.015789298 -0.025152514 0.026830137 0.075620584
000190 14 5e 93 3b 1e 3f 13 be e9 c2 5a bd a0 c8 7a 3d
       0.004497299 -0.14379546 -0.053408537 0.061226487
0001a0 19 b7 84 bb a0 6c 45 bb c6 dc 50 be 8e da 19 3f
       -0.0040501473 -0.003012456 -0.20396718 0.60099113
0001b0 0a 8c 8b 3d 06 5e fa bd 32 5d 08 3e 51 b8 27 be
       0.0681382 -0.12224965 0.13316801 -0.16378905
0001c0 2d b0 56 3e 3c 6c d9 3d 2b 3d 70 3d db ca 1f bc
       0.20965643 0.10616347 0.058652084 -0.009752954
0001d0 1a 8e 27 c0 e4 b9 5d 40 90 47 f2 bf b2 d6 cc bd
       -2.6180482 3.4644709 -1.8928089 -0.100018874
0001e0 ba 63 bd be 53 16 28 bd f8 eb b1 bc c4 4b 25 c0
       -0.36990148 -0.041036915 -0.021718964 -2.5827494
0001f0 57 b2 5d 40 4a 70 00 c0 d5 55 29 3e 61 c1 de 3c
       3.46401 -2.0068536 0.16536649 0.02719182
000200 7d 00 b2 3d 8d b4 62 3d cd b5 a8 be 0a f2 8c bd
       0.086914994 0.055347968 -0.32951203 -0.06882103
000210 59 18 58 3e fa b4 1f 3d 8a 32 d1 bd 48 97 c3 bd
       0.21103038 0.038990952 -0.10214718 -0.09550339
000220 c4 a1 39 bb 72 c3 41 3e a8 93 de 3c 4d 6a cb bd
       -0.002832518 0.18922213 0.027170017 -0.09932385
000230 9f 32 40 3c 16 9e a7 bd d9 46 fc bc 9c fb bb 3d
       0.011730819 -0.081844494 -0.030795502 0.0917885
000240 e0 ae 73 3e 95 81 2d 3e 4d 3e b5 bd 59 21 fd 3b
       0.23797178 0.16943963 -0.088497736 0.0077249226
000250 e0 21 ae bb 84 c9 92 bf b4 0b 93 3f a5 66 7e 3d
       -0.005314097 -1.1467748 1.1487947 0.06210961
000260 8c e5 e1 3d ae e4 1d bf 43 64 7e 3f 8e 7f ad 3e
       0.11030111 -0.6167706 0.9937174 0.3388638
000270 d2 a9 3c be e3 cf c7 3e 6c be 4d 3e 11 69 b6 bd
       -0.18424156 0.39025792 0.20092171 -0.089067586
000280 c3 6f 26 bf e7 b3 30 bf 87 cb d7 3d 04 72 aa be
       -0.65014285 -0.6902451 0.10536867 -0.33290112
000290 4a da 25 3e bb 5c 3b be 3e f8 43 be 1f f0 19 bf
       0.16196552 -0.18297093 -0.19137666 -0.6013202
0002a0 a8 fc 5c bf af a4 25 3f 54 d0 29 bf ea e6 ac be
       -0.8632302 0.6470441 -0.6633351 -0.33769923
0002b0 28 3e 66 3e 64 90 9d bd 21 78 9b 3c 4c 97 ef 3d
       0.22484648 -0.07693556 0.01897818 0.116987795
0002c0 8f 49 17 be 6a d0 fe 3d d2 11 6d 3d 13 de bb 3d
       -0.14774154 0.124420956 0.057878323 0.09173217
0002d0 e0 56 b1 ba 26 84 5c 3d 38 8a 29 3d e6 d4 54 bd
       -0.0013529919 0.053836964 0.04139158 -0.05196085
0002e0 3f 1f e4 3d e7 bf e9 bd 10 6f 89 bd 3b 10 12 be
       0.11138772 -0.114135556 -0.067106366 -0.14264004
0002f0 55 11 f9 bd 53 18 43 3e ee c8 6e bd a8 13 44 bd
       -0.12161509 0.19052248 -0.05829709 -0.04787031
000300 b1 bb 59 be 83 ad b9 bd 19 52 c6 bd cd 19 e0 bd
       -0.21263005 -0.09066298 -0.09683628 -0.10942421
000310 5a 20 bb 3e 38 cc 61 3e 18 4c 9a 3d 9e b1 0e 3e
       0.3654812 0.2205056 0.07534045 0.13934943
000320 a4 64 19 3e 23 17 2d be 09 e4 1d bf a8 7f 46 be
       0.14979798 -0.16903357 -0.6167608 -0.19384634
000330 e1 b6 13 bf 04 87 16 be 45 8d 02 bd d0 59 eb bd
       -0.57700926 -0.14699942 -0.031873006 -0.1149174
000340 56 d7 db bc f2 25 ed be 68 24 90 be 72 10 1f bf
       -0.026836079 -0.46318012 -0.28152776 -0.6213447
000350 02 61 cc bd 95 8a 8d be da d1 7a be c4 9c 9b 3d
       -0.0997944 -0.27644792 -0.24494115 0.0759826
000360 e8 fe 98 bc 14 17 a7 bd ae 03 8f bd 94 0f 68 bd
       -0.018676236 -0.08158699 -0.06983124 -0.05665548
000370 d0 2d 86 bd 61 04 e1 3c f1 e1 53 bd e7 65 6a bd
       -0.06551707 0.027467908 -0.051729146 -0.057226088
000380 19 83 08 3d f5 a0 ee 3c 01 74 eb bb fe 2e ae bd
       0.03332815 0.029129485 -0.0071854596 -0.08505057
000390 77 f3 a3 3c cd 69 e8 ba f5 e9 fc bd eb d8 25 be
       0.020013554 -0.0017731726 -0.12349311 -0.16196029
0003a0 6d fb 47 3d 6c 17 82 3a 0b 3f a3 3a a8 74 ca 3e
       0.048823763 0.0009925193 0.0012454701 0.39542127
0003b0 55 00 ab 3f ef e3 66 bf 1e 4c d4 bc 08 41 a5 bf
       1.3359476 -0.9019155 -0.025915202 -1.2910471
0003c0 e9 74 14 40 db 2e c4 bd b0 1a e0 be 3d 85 a3 bc
       2.3196356 -0.095792495 -0.4377036 -0.019960994
0003d0 5e 4e 98 bd 93 ca 24 3e 8e f6 6d 3e 18 25 d3 3e
       -0.07436822 0.16092901 0.23238584 0.41239238
0003e0 48 f7 49 3e 40 c0 1f 3e 2a 33 c1 3e 25 dd 4b bd
       0.19723237 0.15600681 0.37734348 -0.049771447
0003f0 9c b2 81 3e fe 92 d1 3e 2e cb a3 3e 79 d4 80 be
       0.2533158 0.4093246 0.3199095 -0.25162104

critic.0.bias f4 [64]
000000 d9 85 f0 bd 92 3a 8e be c5 12 0c 3e 29 20 ce 3e
       -0.117442794 -0.2777906 0.13679035 0.4025891
000010 26 70 e4 bd c8 22 81 bd 1c ca a5 bc 3e 9e f0 bd
       -0.11154203 -0.06305462 -0.020237975 -0.11748932
000020 b4 20 38 3e 5e 20 22 be 2f 3c d7 3d 8c 46 ed be
       0.17981225 -0.1583266 0.10509526 -0.46342885
000030 d2 23 ee 3d 6f 89 9d 3d 07 ab a2 be 9f 7a b9 3e
       0.11627926 0.07692229 -0.31771109 0.36226365
000040 50 2d df be 62 b6 08 be 77 e4 c3 3e 4e d1 67 bd
       -0.43589258 -0.13350824 0.38260242 -0.056596093
000050 02 6c a5 be ee 41 38 be 42 58 8f 3e 0d 87 3e be
       -0.32308966 -0.179939 0.27997023 -0.18606205
000060 d5 39 64 3e 1f 20 6a bd e1 c6 c3 be a7 75 ff bc
       0.22287686 -0.05715954 -0.3823767 -0.03118403
000070 ed 3a 15 3e 38 51 34 3e 9f 95 06 3f 59 15 1a be
       0.1457326 0.17609107 0.52572054 -0.15047206
000080 06 11 17 be 24 a2 2a 3e 0e 02 2e 3d e4 58 b6 be
       -0.14752588 0.16663414 0.04248243 -0.35614693
000090 78 3e ec bd 17 35 99 3d 05 6e 5f 3e fa 7b 80 3e
       -0.115353525 0.07480829 0.21819313 0.25094587
0000a0 09 20 d3 3e 29 23 a0 3d a8 13 08 bd 14 2f 59 bd
       0.41235378 0.07819206 -0.03322187 -0.053023413
0000b0 4c 30 3a bd 22 30 40 be 47 df 5f be 97 ca 4f 3e
       -0.045456216 -0.18768361 -0.21862517 0.20292126
0000c0 70 4b 88 3e 58 1a b4 be 94 28 0d be fd 73 df 3d
       0.26620054 -0.3517635 -0.1378501 0.10910795
0000d0 6d 0c 08 3d 85 b7 6a 3e 01 1b bb 3e 7b 72 56 3c
       0.033214975 0.2292157 0.3654404 0.013088818
0000e0 9b 47 b2 3d 64 b8 16 bd 55 36 b4 be 7e ea 4a be
       0.08705064 -0.036796942 -0.35197702 -0.19816014
0000f0 c6 f2 3b be 29 ee 43 be 2f 13 3e 3d 1b 9e dd bd
       -0.1835433 -0.1913382 0.046405014 -0.10821172

critic.2.weight f4 [64, 64]
000000 0d 14 00 3d 07 a3 34 3e 52 2f 8f 3c e1 5f f5 bd
       0.031269122 0.17640315 0.017478619 -0.11981178
000010 ad 7e 15 bc 82 a9 9f bc a4 16 1e 3d 18 bf 9b bd
       -0.00912444 -0.019490007 0.03859581 -0.076048076
000020 7f 68 83 be 28 3a 32 bd 3d 4b 4e be b3 a0 0f bd
       -0.25665662 -0.043512493 -0.20145889 -0.035065364
000030 7e 7b 44 bd 8e fb 95 3d 68 b6 fa 3d a6 f1 81 3d
       -0.047969334 0.07323371 0.122418225 0.06344919
000040 6d 68 dc 3c e2 ad 90 3d d8 d3 d0 3d f1 66 84 3d
       0.026905263 0.070644155 0.10196656 0.06464947
000050 01 c8 11 3e 12 a8 02 3d 50 7d 49 be 77 cb 01 3d
       0.14236452 0.031898566 -0.19676709 0.03168818
000060 56 19 37 be 67 e1 80 bd e9 c4 78 3e 31 ed e4 bd
       -0.17880759 -0.06292992 0.24293865 -0.11178053
000070 a5 5f 7a bd 21 4d f2 3b 7f a9 34 3d 53 26 2c bd
       -0.06112637 0.0073944484 0.044106957 -0.042028736
000080 43 3f 60 ba d2 31 75 bc e0 dc f6 bd 43 10 cc 3d
       -0.00085543486 -0.014965491 -0.12053847 0.09964039
000090 94 77 42 3c 9b f7 17 3d 75 e2 fd bc af 95 a5 bd
       0.01186933 0.03710137 -0.030991772 -0.080851905
0000a0 66 7e 26 be 48 33 95 bd be a6 c6 3d 58 ee 07 3e
       -0.16259155 -0.07285172 0.09699772 0.13274515
0000b0 c9 a8 cf bc cc 54 4c bc 18 cd b2 bd 8e 2a 04 be
       -0.025349038 -0.012471389 -0.08730525 -0.12906858
0000c0 d9 98 5a bd 6d 2a e3 bc 23 f9 89 3d 87 d9 2a be
       -0.053368423 -0.027730191 0.06736972 -0.16684543
0000d0 e5 94 c7 bd 0e 53 52 3d f4 f1 9d 3d 6e 59 1c bd
       -0.09745196 0.05134874 0.077121645 -0.038171224
0000e0 17 22 b9 bd aa 18 80 bd ef 4d a4 3c d4 f5 3b 3c
       -0.09039705 -0.06254704 0.020056693 0.011472184
0000f0 95 e0 8b 3d 19 20 50 bd 99 83 88 bd 72 33 d2 bd
       0.06829945 -0.05081186 -0.06665725 -0.10263719
000100 c8 2d 9e bd e0 4b 05 be 92 48 d7 3c d0 51 58 be
       -0.07723576 -0.13017225 0.026279721 -0.21124959
000110 5f 6a 9c bd 2a 40 43 be 44 85 bc 3d 81 11 02 bd
       -0.07637476 -0.19067445 0.09205106 -0.031754974
000120 02 76 50 3e 48 15 a9 bc 17 c5 47 3d d6 73 f0 bc
       0.20357516 -0.02064003 0.048771944 -0.02935211
000130 29 5e 06 be d7 b8 04 3e 7f de 11 be 9c 51 8a bd
       -0.13121857 0.12961136 -0.14245032 -0.06753847
000140 4b a5 96 3d 1e 28 ae bd ef 0d 30 bd 86 0e 44 3d
       0.07355746 -0.085037455 -0.042982038 0.047865413
000150 55 16 73 bd b9 02 26 bd d9 02 a6 bd 66 f8 90 bd
       -0.05934747 -0.04052994 -0.08106012 -0.07078628
000160 a6 13 bd bc bb 65 61 be cb 32 19 be 4e 6c cb 3d
       -0.023080658 -0.22011463 -0.14960782 0.09932767
000170 3a 03 08 bd a7 85 6b 3c ae 03 87 3d ca b5 08 3e
       -0.033206202 0.014375127 0.06592499 0.13350597
000180 8f 01 5b 3d e6 c7 e3 3c 0d 90 e0 3c b6 bd 67 bd
       0.053468283 0.02780528 0.027412439 -0.056577407
000190 29 91 0d be 61 a7 6a be ed 93 83 3d 5c 8e 74 be
       -0.13824905 -0.22915412 0.06424699 -0.23882431
0001a0 ac fe 35 be 24 70 13 3b 6c 99 fc bd 4e 06 b7 bd
       -0.17772931 0.002249726 -0.123339504 -0.089367494
0001b0 cc d4 5b bd af aa 03 3c e5 cb 12 be f6 36 5b be
       -0.053669736 0.0080363 -0.14335592 -0.21407685
0001c0 6c aa e6 bd 3b c9 ad bd e4 1a 48 3d 88 a5 23 3d
       -0.11262974 -0.08485647 0.04885377 0.039952785
0001d0 db c5 84 bc 8c 5c e3 3d c7 28 bd bd 63 31 de be
       -0.016207626 0.11101636 -0.09236293 -0.43397054
0001e0 13 2e cb 3c 29 fa 44 3d a5 32 73 3d a0 6c 06 bd
       0.024802243 0.048090134 0.05937447 -0.032818437
0001f0 1b 4b 4b 3d fe a5 d9 bd 3d 7c cf bd 5a 51 75 3c
       0.049632173 -0.106273636 -0.101311184 0.014973009
000200 41 65 20 be af 79 37 be a6 90 1c be cf 7b 31 bd
       -0.15663625 -0.17917512 -0.15289554 -0.043330964
000210 aa 94 08 3d 38 16 4a 3a 64 a3 21 bd c1 49 72 3b
       0.033344902 0.00077089993 -0.039462462 0.003697023
000220 a0 a2 2c 3e 6b 30 97 bd a1 88 19 3e e5 20 67 3d
       0.16858912 -0.07382282 0.14993526 0.056427855
000230 55 83 10 bd df 19 b2 3d 67 12 1a 3b 22 7d b3 bd
       -0.035281498 0.08696341 0.0023509504 -0.087641016
000240 9b 47 c4 3d 2a bd 35 3d d6 d2 46 3d 5a 05 1d bc
       0.0958397 0.044369854 0.048540913 -0.009583795
000250 c2 ac 82 bc 23 56 d9 3d 21 bb 58 3c 98 24 09 3d
       -0.015951518 0.106121324 0.013228209 0.033482164
000260 2a e5 be bc 74 93 2f bc 05 12 3c be 4f 2f 82 3c
       -0.023302633 -0.010716308 -0.18366249 0.0158917
000270 54 e6 ae 3d 2f ef 89 bd ce d0 e0 3d 39 b0 32 3d
       0.08540025 -0.06735074 0.10977326 0.04362509
000280 0c 46 38 3d 59 66 de 3d 8f 5d 8f bb 72 2e b1 bd
       0.044988677 0.10859365 -0.0043751667 -0.08651437
000290 7e 16 89 3d 28 05 e8 bd 39 12 de bd dc 77 59 3d
       0.06693743 -0.113291085 -0.108433194 0.053092822
0002a0 6b 46 c4 bd 53 ee 0f bd 8b e9 89 3c 26 bd ac 3c
       -0.09583744 -0.035139393 0.016834995 0.021086287
0002b0 e4 ac b1 bd e3 36 31 bd 90 c6 92 3d e4 27 bc bd
       -0.086755544 -0.043265235 0.07166779 -0.09187296
0002c0 d5 2e 6c 3d 9b 4a fa bc 19 5c 19 bc 67 f2 c7 bd
       0.05766185 -0.030553153 -0.009360337 -0.097630315
0002d0 60 32 19 bd 3e 49 9e 3d f5 19 f8 bd 41 d1 87 bd
       -0.037401557 0.077288136 -0.12114326 -0.06631709
0002e0 95 45 3a bc 85 cf d1 3d 8e c4 0e bd f2 91 c9 3d
       -0.011369129 0.10244659 -0.034855418 0.0984229
0002f0 c4 14 f4 3d c0 97 f0 3d ae 04 7e bd 03 37 b7 bd
       0.11918023 0.11747694 -0.06201618 -0.089460395
000300 7b ae 02 be 01 64 fd bd 33 b6 f9 bd 95 8a 22 3b
       -0.12761872 -0.1237259 -0.12192955 0.002480184
000310 04 93 45 3c 9f 07 c9 3d 77 23 b8 bd 2e d9 74 be
       0.012058977 0.09815907 -0.089911394 -0.23910972
000320 62 f4 53 3d d6 f5 05 3d 56 77 b4 3d 3e b1 12 3d
       0.051746733 0.03270515 0.08811824 0.035813563
000330 4c 9e 01 3e e2 1e 03 be a9 50 a8 bc 62 ba 70 bd
       0.12658042 -0.1280475 -0.020546274 -0.0587715
000340 47 d9 90 bd 70 38 c0 bd 3f b8 bc 3c 73 ac 4d bc
       -0.07072692 -0.093857646 0.023037074 -0.012553322
000350 73 95 2f 3e ce 45 4c be be da 4f 3b 4a 77 82 be
       0.17146854 -0.19948503 0.0031716074 -0.25481635
000360 50 05 14 bb 5e a9 f1 bd e4 d5 63 3e 92 db 8f bd
       -0.0022586174 -0.11799882 0.22249562 -0.070243016
000370 fe 7e 86 3d c2 f1 ed bd f8 37 a1 3c 38 c2 40 be
       0.065671906 -0.11618377 0.019680008 -0.18824089
000380 b2 45 52 3c 8c 39 86 3d 8c 91 fc bd ed 82 9a 3b
       0.0128339995 0.06553945 -0.12332448 0.0047153146
000390 87 0e e1 bc bd 9d b3 bc 78 66 9c bd de ef 01 3e
       -0.027472747 -0.021925801 -0.07636732 0.12689158
0003a0 8e d8 3e be d5 fd d5 bd f5 e9 3c 3d 04 0f 29 3d
       -0.18637297 -0.10448805 0.046121556 0.041274086
0003b0 eb a9 ac bd ad 09 c7 bd 92 52 1f bd 11 a1 48 3d
       -0.08430847 -0.097186424 -0.038897105 0.04898173
0003c0 ce 06 9c bd 89 40 aa bd 4b 77 51 bd a1 b4 94 bd
       -0.076184854 -0.0831309 -0.051139157 -0.07261015
0003d0 d1 a4 fe 3c ed e7 1e bd 99 14 5b 3d 7d 8e 24 bf
       0.03108445 -0.0387954 0.05348644 -0.6427992
0003e0 af fd 8b 3c c1 6f 96 bd 95 0a 4f 3d 3f bf ea bd
       0.01708874 -0.07345534 0.0505472 -0.114622585
0003f0 2b 64 53 be 95 05 49 bd 00 46 15 3d f1 bb db bc
       -0.2064368 -0.04907759 0.03644371 -0.026823016

critic.2.bias f4 [64]
000000 5c 60 57 3a 91 35 e2 bd 9c c2 16 be 1e b3 b2 bc
       0.0008215958 -0.11045373 -0.14722675 -0.021813925
000010 df 5e 91 3d ad 20 b6 3c ac c8 01 be 12 dc fa bd
       0.07098173 0.022232378 -0.12674206 -0.12249006
000020 2e c7 16 3d e7 b1 4a 3e 96 67 ee bc 5c 7a d2 3d
       0.036811046 0.19794427 -0.029102128 0.102772444
000030 a6 37 25 bd 66 7d c9 bd 31 fc ae 3d 29 f8 28 be
       -0.040336274 -0.09838371 0.085441954 -0.16500916
000040 58 89 f3 bd 13 fe 4c 3d bf d3 8b bd 52 9a 3d 3e
       -0.118914306 0.05004699 -0.06827497 0.185159
000050 43 ae de bd df 6d 99 bd e4 6d 29 be 47 2b af bd
       -0.108730815 -0.074916594 -0.16545826 -0.085531764
000060 86 80 ae 3d 15 cc 7a 3d 36 71 a2 bd 3b fa 83 3e
       0.08520608 0.061229784 -0.079317495 0.25776848
000070 61 51 7b 3d 8e 0b 90 be 47 d3 61 be 3d 28 bc 3c
       0.061356906 -0.28133816 -0.22053252 0.022968406
000080 07 27 62 3d 29 7c af bd 3f 51 b6 3d 7e 07 6d bb
       0.055213 -0.085686035 0.08902215 -0.0036167796
000090 78 ea c5 bd 46 c3 b1 3c bc 36 aa bb e2 01 70 bb
       -0.09663862 0.021699559 -0.005194513 -0.0036622216
0000a0 40 6b 43 bd 04 4a 9d bd 64 26 ac 3d 6c 53 9b 3d
       -0.047709703 -0.07680133 0.0840576 0.07584271
0000b0 66 b0 09 bd 62 15 c8 bc 35 d3 dc bd 30 aa 2a 3d
       -0.033615492 -0.024424259 -0.10782472 0.04166621
0000c0 fb 04 ac be bc 3d 28 3d c8 c4 a7 be 0b b5 23 bc
       -0.3359755 0.0410745 -0.3276732 -0.0099918945
0000d0 14 4b db bc 4f 70 d5 3b 7e da 2a be 08 db d5 bc
       -0.026769198 0.0065136324 -0.1668491 -0.026105419
0000e0 1d 51 d0 bd 0c ea 5b bc 77 55 56 be 86 83 08 3d
       -0.10171721 -0.0134225 -0.2093104 0.033328556
0000f0 22 59 34 3d da 77 9f bc 35 72 9c 3b 69 31 44 bd
       0.044030316 -0.01946633 0.0047743567 -0.047898684

critic.4.weight f4 [1, 64]
000000 e7 66 aa bc d4 ec 42 3d 12 b4 1a 3d 62 6e b8 3d
       -0.02080102 0.04758914 0.037769385 0.09005429
000010 e0 8f 9b 3d 69 1d 09 bd d1 1b 14 3e c1 ce 65 ba
       0.07595801 -0.033475313 0.14463736 -0.00087664655
000020 57 9a 28 3d d9 13 be 3d 94 c7 c3 bc 37 c8 2a 3d
       0.041162815 0.092811294 -0.023898877 0.041694846
000030 ce 18 2b bd 6b 6c 5a 3c 39 7b 22 3d 18 a3 8a 3d
       -0.041771702 0.013331513 0.039668296 0.06769389
000040 b5 a3 0a be 52 05 7e bd 8e 98 96 3d 06 2d df 3d
       -0.13539012 -0.062016793 0.07353316 0.108972594
000050 e4 bf 16 3d b5 5a 54 be 86 a6 a2 3c ca b3 b4 bc
       0.036804095 -0.20737727 0.019854795 -0.022058386
000060 a0 4c af ba dd 32 3c 3d ce cb f9 bc 40 1e bb 3d
       -0.0013374276 0.045946945 -0.03049269 0.09136629
000070 f3 39 3a be c6 d3 5b be 49 e9 35 3d 02 b3 66 bd
       -0.18186168 -0.21467504 0.04441193 -0.05632306
000080 88 60 b1 be 41 10 21 be 52 14 bd be 0a 18 9b bd
       -0.3464396 -0.15728857 -0.36929566 -0.075729445
000090 be 3c ac 3d ff 8b 32 3d 76 d4 56 3c b2 70 98 3d
       0.08410023 0.043590542 0.013112178 0.0744337
0000a0 a1 95 68 3d 46 b7 ae 3d cd ca 20 bd 11 55 b6 3d
       0.056783322 0.085310504 -0.039255906 0.08902944
0000b0 e3 0e 81 3d 6c 73 20 bd b3 3b 01 bd 9e d8 c4 3d
       0.063016675 -0.039172575 -0.031551074 0.09611629
0000c0 9f fa 06 3e 6a e2 a3 b9 e3 9e a9 3d 4b 57 ec 3d
       0.13181542 -0.00031258474 0.08282258 0.11540087
0000d0 dd af 62 bd 9b c5 20 bf 52 1a dd ba 93 ed cd bc
       -0.055343498 -0.6280152 -0.0016868806 -0.025137698
0000e0 36 3b 32 bf 38 94 33 3d bf 68 8d bc 29 ec 6e 3d
       -0.696216 0.043842524 -0.01726186 0.05833069
0000f0 b3 37 6e b9 cd 36 39 3d e3 28 d7 3d a2 26 87 bd
       -0.00022718198 0.045218278 0.105058454 -0.065991655

exp_avg f4 [6]
000000 f8 d3 eb 39 f4 c0 67 ba ff 36 d8 b9 bc 81 ab 39
       0.00044980622 -0.0008840703 -0.00041239706 0.0003271232
000010 10 8c 35 3a 4f 31 0f b9
       0.0006925473 -0.00013655912

exp_avg_sq f4 [6]
000000 d3 eb 87 37 9b 69 78 38 32 c8 d2 37 80 01 70 37
       1.6203068e-05 5.922616e-05 2.5127174e-05 1.4305464e-05
000010 53 d5 3a 37 a4 7c 96 34
       1.1136132e-05 2.8030365e-07
