2026-01-29_07-44-49_Fase2_Empuje_V1/model_1850.pt (torch, 189045 bytes, 36 tensors)

std f4 [6]
00000000: af4a 273f 7310 353f 320c da3e 2b5d 9d3f
00000010: 5df9 8b3f c03d 7140
0.65348333 0.70728225 0.4258743 1.2294058 1.0935475 3.769394

actor.0.weight f4 [64, 43]
00000000: c578 233d 0302 9d3e 5714 61bd 8fc8 cf3c
00000010: 8cc2 a0be 7a31 cabe 4e76 14be 643a 72be
00000020: e2c1 863b 1330 313d 66c8 bfbb 9e25 ef3d
00000030: 665e 153e 5fb8 4f3e c5ac 383c 8092 27be
00000040: 73aa 34be d81f 24be 59c9 3dbd 48fa 313c
00000050: bcac 6d3f 3d9a 1c3f 1c57 5f3e 4958 17bd
00000060: da7a 11bf 2dd3 94be 49ad 33be cc84 85be
00000070: 0dd5 ce3d febe 90be efae ad3e 977c a4bb
00000080: 4808 bd3e 6211 00bf e462 dc3d 60ee 953e
00000090: 9268 643e 02bc a33e 2503 1c3e 4868 513e
000000a0: 45ae debe 3abe 89be 80d2 bb3e aed5 87bd
000000b0: 6e11 3b3e 827a a73e eb90 243f bf2d 24bf
000000c0: 6c4d 34be 4f64 383d 5124 1fbf 89b4 c4bd
000000d0: ff04 c5bd ddd6 6c3e 6667 ea3c b9d3 6b3d
000000e0: 5136 d2bd 3384 6e3b 1187 dd3e dbb8 22bf
000000f0: a6bb 2cbe 0f6e 6ebd adc7 1d3c 4503 45bf
00000100: 0852 813f 0ed3 0e3f b23a a53e 4b12 4dbf
00000110: cbd5 3bbf 805e 053d b928 9fbd 2ffd c23e
00000120: 0596 9e3e 267a d8bd 8223 39be 1a5b b63e
00000130: c6c4 cbbd 7bc8 c5be a8d1 963e 6162 2c3f
00000140: 4c7f 8fbd a148 e5bd a79b 123f b217 9e3d
00000150: cff8 163f 34df 2fbe b129 ccbe 7171 56be
00000160: bad8 99be e6d1 453d 18bd 59ba 1a3f 65be
00000170: 2891 8d3e ef2d 5cbd eecb 94be a46f 61be
00000180: 1b3b d7bc e3af 4d3d 6a9b 57be 0885 2fbe
00000190: bb18 c2be b0c9 9b3d 1c15 3abd 77b7 86be
000001a0: f1d5 d4bb eed6 6cbb e769 cdbe d84f fabe
000001b0: eb4f 433c 382b b6be d0bb 49bd 588a 9ebe
000001c0: 8371 8b3d c790 eabe a129 17be 664e d8bd
000001d0: 770e dabd 0398 8a3e 0cfa 0f3f 1df3 9bbe
000001e0: d1ab b0bb 9814 2fbe bb1f 0cbf 1c7c 85be
000001f0: f52a 983e 9b6e 073f d4d5 e7be 3aa2 8ebd
00000200: 0b1e ec3e 45aa ffbc 1964 e63c ec79 1f3e
00000210: 278d e3be 6582 aa3e feb9 8c38 dc62 973d
00000220: a9a6 88be b7e4 8e3e bfcb 2e3e 40cf b7bd
00000230: 29cf 6c3d a1f4 b3bd 89c7 4b3d 47e7 393d
00000240: 03cf 65be 56bd 543e 4563 233e 473b 883c
00000250: a7f5 1c3c bcd6 febd da19 c0be c56b 95be
00000260: a7e8 343e 4679 c0bd 2c93 383e eaba 59be
00000270: 1921 98bb f0c2 29be 8305 02bc b475 61bc
00000280: 39de 98bd dc38 903e 49dc babd 52e5 79bd
00000290: f117 c3bd 1fd3 ca3c 4464 33bc be04 b9bd
000002a0: 9144 933e 489d 4c3e ba85 91bd 273e 0cbf
000002b0: d6db 473e 57b3 0dbf ed25 0ebf 5845 67bc
000002c0: a08c 2a3d a118 e13e a1dd 353e edff af3e
000002d0: cd2d 903e a373 633c 4cc2 d3bd ef6e 01bd
000002e0: 0645 3c3e e180 a2bd 54bd 73bd a605 9c3d
000002f0: c3c8 663c 3606 313e 6308 0e3d d17c debc
00000300: aa70 c0bc 3e24 2f3f 91d7 123e 5f77 95be
00000310: 66a2 92be 4902 aabd 189b f3bc 173a c0bc
00000320: 5c37 55bd 7e90 23be 6f92 39be 571b a03e
00000330: 1608 2abe ffd0 b0be 8296 1fbd 1108 4abe
00000340: 4b5a a6be b7a7 85be 6747 ae3e 47aa b4bd
00000350: 5706 673e e261 8ebf 2453 8f3e dfee cabd
00000360: 9f6f b4bd f66d c7bd 4fd2 3ebd 55b7 553e
00000370: 6ef3 e5bd a8ec 8e3e de1f 4ebf c0bf f33c
00000380: 0172 1e3c d900 0d3d 56b1 5bbc 73ec 35be
00000390: c5ff 9cbe 8f86 86be f6e7 4dbe bdd5 e53e
000003a0: a177 5c3e 2e74 2c3d 8954 223c bc0a 48be
000003b0: 165d 35bf b1a3 003a ff86 be3e efef afbd
000003c0: 98d4 d1be 013e 8dbe 26d4 29be 9f25 42be
000003d0: 7b22 13be ed7e 0ebe 477a 0abe b84b 833e
000003e0: 5b74 4abd 513c 0d3e 6ed2 16be 9172 c2be
000003f0: c567 75bd 2d2d dfbd 073d 243e 756d 2dbf
0.039910097 0.30665597 -0.05495104 0.025364188 -0.31398427 -0.39490873 -0.14498255 -0.23655087
0.004112468 0.043258738 -0.005852747 0.11677097 0.14586791 0.20285176 0.01127166 -0.16364479
-0.17643146 -0.16027772 -0.0463346 0.010862894 0.92841697 0.6117285 0.21810573 -0.03694943
-0.5682808 -0.29067364 -0.17546572 -0.26077878 0.1009923 -0.28270715 0.33922526 -0.005019735
0.3692038 -0.50026524 0.107610494 0.29283428 0.22305515 0.31979376 0.15235575 0.20449936
-0.43492332 -0.26902944 0.36684036 -0.06632553 0.18268368 0.32710654 0.6428363 -0.64132303
-0.17607659 0.045017537 -0.6216479 -0.09604747 -0.096200936 0.23128839 0.028613757 0.05757496
-0.10264266 0.0036394715 0.4326711 -0.6356332 -0.16868457 -0.05821043 0.009630126 -0.76958114
1.0103159 0.55790794 0.32271343 -0.8010604 -0.733731 0.032560825 -0.07771439 0.3808379
0.3097383 -0.10570173 -0.18079951 0.3561638 -0.09949641 -0.38629517 0.2945683 0.67337614
-0.07006702 -0.111954935 0.57268757 0.07719363 0.589734 -0.17174989 -0.39875558 -0.20941712
-0.30048162 0.048295878 -0.000830607 -0.22387353 0.27649808 -0.053754743 -0.29061836 -0.22015244
-0.0262733 0.050216567 -0.2105538 -0.17140591 -0.37909493 0.07606828 -0.045430288 -0.26311848
-0.0064952304 -0.003613885 -0.4011986 -0.4888904 0.011920909 -0.35579848 -0.049251378 -0.30964923
0.0680876 -0.4581358 -0.14761974 -0.10561828 -0.1064729 0.270691 0.56240916 -0.30458918
-0.005391576 -0.170977 -0.54735917 -0.2607125 0.29720274 0.52903146 -0.45280325 -0.06964536
0.4611667 -0.03120912 0.028123902 0.15573853 -0.44443628 0.33302608 6.710364e-05 0.07391903
-0.26689652 0.2790887 0.1706991 -0.08975077 0.05781475 -0.08786894 0.04975084 0.04538658
-0.2244225 0.20775351 0.15955837 0.016629828 0.009580052 -0.12443301 -0.37519723 -0.29183784
0.17666875 -0.09398131 0.18024892 -0.21262708 -0.0046426174 -0.16578269 -0.007935884 -0.013760973
-0.074642606 0.2816838 -0.09124047 -0.061009713 -0.09526051 0.024758874 -0.010949198 -0.090341076
0.2876325 0.19981873 -0.071055844 -0.54782337 0.19517455 -0.55351776 -0.5552662 -0.014115654
0.041638017 0.43964103 0.17760326 0.34374943 0.28159943 0.01388255 -0.103397936 -0.031599935
0.18385705 -0.07934738 -0.05950673 0.07618265 0.014085951 0.17287526 0.034675967 -0.027159126
-0.023491222 0.68414676 0.14340045 -0.29192635 -0.28639525 -0.08301217 -0.02973704 -0.0234652
-0.052054748 -0.15973088 -0.18122266 0.3127086 -0.16604647 -0.3453445 -0.038961895 -0.1972964
-0.32490763 -0.2610452 0.3403885 -0.0882154 0.22561012 -1.1123621 0.2799312 -0.09908842
-0.088103525 -0.0973777 -0.046587285 0.20870717 -0.11228071 0.2791493 -0.80517375 0.02975452
0.009670735 0.034424637 -0.013408979 -0.1776598 -0.30663887 -0.26274535 -0.20108017 0.44889632
0.2153001 0.042102985 0.00990785 -0.19535345 -0.7084516 0.00049072044 0.3721237 -0.085906856
-0.4098251 -0.27586368 -0.16584834 -0.18959664 -0.14368622 -0.13915606 -0.13523208 0.25643706
-0.04942737 0.1379254 -0.1472871 -0.37978032 -0.059913415 -0.108972885 0.16038905 -0.67745143

actor.0.bias f4 [64]
00000000: 89ca a13c d753 803e db54 0d3d 95d0 dfbd
00000010: 88be 1b3d 34b7 9bbd aed1 033e ea87 993c
00000020: 55b8 19bd f453 e33d 03d5 b5be b1aa 543e
00000030: caa1 94be 0f9b 53be 321b 743d 5a3d 513c
00000040: b781 1abd 756b 59bd 59b3 b5be 5605 99bd
00000050: b80b f9be 9a67 a23d 5e33 3abe f8d8 57be
00000060: 7a22 69be cce1 c23d 590a 12be 4b6b f6bc
00000070: 6b44 483d 5a97 adbe 3d8e a13e 8947 ef3d
00000080: e79a b5bd e7c8 0e3e a1e7 6fbe c8c8 003d
00000090: 02a7 253e 1ece a5be 845c 0cbe 9b07 bfbe
000000a0: f283 02be d6c0 2cbe cc78 16bd 8d20 d4bd
000000b0: 4117 43bd 061f e33d 0d43 013e eae3 3fbe
000000c0: 8e68 54be 714b 013b 4526 a13d 49ff f2bd
000000d0: 95d4 02be d99e 25be c6e5 51bd 030b a03c
000000e0: 1d91 b13e c02c 083c 4117 083d 5366 d7be
000000f0: 6269 d2be 0b11 da3d 1d75 37be fdb9 13be
0.019749897 0.25063965 0.034504753 -0.10928456 0.0380235 -0.076033026 0.12872955 0.018741567
-0.03752931 0.11099997 -0.35514078 0.20768239 -0.29029685 -0.20664619 0.059596248 0.012770975
-0.037721362 -0.053080995 -0.35488394 -0.07471721 -0.48641753 0.07929917 -0.18183658 -0.21078861
-0.22767058 0.095157236 -0.1426176 -0.030080458 0.048893373 -0.33904535 0.31553832 0.11683566
-0.08867436 0.13943826 -0.23428203 0.03144148 0.1617699 -0.32383817 -0.13707167 -0.3731049
-0.12745646 -0.16870436 -0.036736295 -0.10357771 -0.0476296 0.110899016 0.12623234 -0.18739286
-0.2074301 0.0019728804 0.078686275 -0.11865098 -0.12776406 -0.16173877 -0.05124452 0.0195365
0.34681025 0.0083114505 0.0332253 -0.42070255 -0.41096026 0.10647782 -0.17915769 -0.14426418

actor.2.weight f4 [64, 64]
00000000: 6e18 103d c8ee dd3c 953d f2bc 961f 853d
00000010: 179c 4c3d 6eac a5ba 94df 783d 17aa bc3d
00000020: 4ea3 eebd 3dae c53c 6208 0b3d b833 75bd
00000030: 51e7 cb3d 9313 e4bd 7793 8a3e ea60 75be
00000040: ff39 28be bce7 5b3e 753b 03bc 21ca f33c
00000050: a4cb 783d b505 92bd 48f5 94be df2b 5d3d
00000060: 89ee c53d 2830 223d 569a be3c 57ec b63d
00000070: 10af 603e 2855 89bd 32bd 923d af76 1a3e
00000080: e609 e73d abcc 093e bfda f9bd 3043 423d
00000090: e4e6 06be 8432 4a3b 7bf6 a73e 753e 7e3d
000000a0: cd7a 55bc c4aa b0bd 4ded 5ebd b241 dabd
000000b0: 6596 ce3d 2385 56be e1b9 073e 91fc 023e
000000c0: 8bb7 87bd 4d6a 13bd 8647 39bc d073 19be
000000d0: 9d39 e93d d7d9 49be 8067 cd3c 574a 4f3e
000000e0: 5675 3e3c 9f5d d53c b80e 01be 3a45 b33b
000000f0: e047 fc3c c647 593e 683c ffbd 2f8d c2bd
00000100: 6b5f 5abe 5582 1cbe eaa8 1b3e 862d 99bd
00000110: a2a2 a03d e9e6 9b3e ece6 e13d 1c0a 1fbe
00000120: f347 febd f834 b5be 13ab 023d 0a08 ec3d
00000130: 76a8 31bd fbc3 e3bc a06a 8fbe 9096 20be
00000140: 0519 f03d 6f8d f33d d4e5 863e fa51 323d
00000150: a71c 5f3d e741 37bd 060b 2b3e 709e e43d
00000160: b3c0 1f3d 4bcf 383e fd09 bcbe ece9 a23d
00000170: f88e 753c 6f81 ca3d 1316 86bd c3e1 cc3d
00000180: 1a3c 2a3e 1489 28be 3676 723e d784 6dbd
00000190: 669a e4bd 2517 b83e b6f3 033d 4f88 ee3d
000001a0: a0b2 853e bd98 533e 4871 473c 3938 da3e
000001b0: 0579 bbbe 6f18 a3bc 0919 24bf e429 8fbd
000001c0: e2ac 6d3e cadd 5f3c ad7e 3f3e 148f 683c
000001d0: f318 ff3c 187c a83d 5b09 2ebd 89ff a8be
000001e0: add0 803e 643a b43d 9e23 e4bd c171 1b3e
000001f0: dd3d c5bd 9e58 8a3e 7cbd 06bf 77d4 313e
00000200: 8b99 1c3c e248 223d f402 a13c 2f23 fb3d
00000210: 98d4 3e3d f240 2c3d 2225 113e 5767 57be
00000220: 3810 913d 6559 ce3d 0d33 6abe 674d 013e
00000230: 441f 4abd 93d4 45bd 01c2 ee3d 3f03 ef3c
00000240: 326b 123c 0fa4 893b 5d12 39bd e1de 363e
00000250: 0d50 1a3c 20e9 30be 29f6 463d d17f 89be
00000260: 25ca 69bd 8157 a2bd ffd0 843c f7a3 44bf
00000270: 8c85 b63d e06f e5bc 6bc0 97be 0522 883d
00000280: 7961 21be dfc3 1e39 e7fb 6d3e 828a 88bc
00000290: f6f2 f1bc 3c15 a63c 182f f8bd 0b13 a03d
000002a0: 54e0 a03c 02b2 97bd c487 7dbd 05aa 32bd
000002b0: 6780 19bd 6d77 22be 3574 9dbe 6329 41be
000002c0: c28a 75bb cab7 91bd 7636 383e 64df acbe
000002d0: 918d a3bc a49d 43bb cd72 ffbd 4eef 00be
000002e0: 2b84 273e 4dee ce3d 4145 89bd cf5b 50be
000002f0: 1886 38bd 8143 e13c c7aa b1be ac8d cf3d
00000300: c2c8 4a3c 5164 123d 65d1 b0bd 69d8 8d3d
00000310: 6721 2e3d 97cc 333e ac4a 643d 6239 87bd
00000320: e774 073c 45bc 143d 2419 d93d 9f12 3cbd
00000330: 2821 5a3c 6181 01be 2d18 0e3e 730e e4bd
00000340: c2e0 93bc 856d 9e3c e3c1 323d 00f0 c23c
00000350: 5013 05be 02fb 96bd 669f c53c 8b9b 2bbd
00000360: a1bc 963d 6ef6 8f3d 444e d03d 9c6e d23d
00000370: 2295 813b dcf7 43bb 5cbb 38be d146 8ebd
00000380: d997 eb3d b347 5bbc 42f0 02bd d6bb e53d
00000390: 9b1c 22be f4d5 c93d d6c3 993e 957b 863d
000003a0: b8ca 85bd 8840 fbbd d364 9e3d 3547 973d
000003b0: 6e36 543e b35f f53c bfa0 573d 30c5 203e
000003c0: 4938 bc3c d515 fdbc 90cc eebd 754f 083e
000003d0: 4238 28bc 067e 183e e5f9 c4bd d2b5 543e
000003e0: 21a8 47be bacb d9bd 914b 063e 7445 c9bb
000003f0: 8c83 ea3d 0f43 a03d 6b1b dcbb 25c9 aabd
0.035179548 0.027091399 -0.02957038 0.06500165 0.049953546 -0.0012639889 0.060760096 0.092121296
-0.11652242 0.024130935 0.03394354 -0.059863776 0.099562295 -0.11136546 0.27065632 -0.23962751
-0.16428374 0.21475118 -0.008009781 0.029759469 0.06074108 -0.07129995 -0.29093385 0.053996917
0.096646376 0.039596707 0.023266952 0.08931797 0.21941781 -0.067056954 0.071649924 0.15084337
0.11281185 0.13456981 -0.12199926 0.047427356 -0.13174015 0.0030852864 0.32805237 0.062071282
-0.013029766 -0.08626321 -0.054425526 -0.10657062 0.10087279 -0.20949225 0.13254501 0.12791659
-0.06626805 -0.03599005 -0.011308556 -0.14985585 0.11387942 -0.19712006 0.025073767 0.20243202
0.011624655 0.026045619 -0.12603271 0.005470899 0.030795991 0.21218786 -0.124626935 -0.09499585
-0.21325462 -0.15284093 0.15201154 -0.07479386 0.0784352 0.30449608 0.11030373 -0.155312
-0.12416067 -0.35391974 0.03190143 0.11524971 -0.043373547 -0.027803412 -0.28011036 -0.15682435
0.11723522 0.11892211 0.2634722 0.04353521 0.054470684 -0.044740584 0.16703424 0.11163032
0.03900213 0.18047826 -0.3672637 0.07954773 0.0149877 0.09887969 -0.06547179 0.10003998
0.1662449 -0.16458541 0.23677906 -0.057988014 -0.11162262 0.35955158 0.032214843 0.116470926
0.26112843 0.20663734 0.012173004 0.4262102 -0.36615768 -0.019909112 -0.641007 -0.06990412
0.23210481 0.0136637185 0.18700667 0.014194269 0.031139826 0.08226794 -0.04248939 -0.33007458
0.25159207 0.088002 -0.11139606 0.15180112 -0.0963094 0.27020735 -0.5263288 0.17366205
0.009558092 0.039620288 0.019654728 0.1226257 0.046589464 0.042054124 0.14174321 -0.21035515
0.070831716 0.100756444 -0.22871037 0.12627183 -0.049346223 -0.04829843 0.11658097 0.029176353
0.00893669 0.0042004655 -0.04518353 0.17858459 0.0094185 -0.1727643 0.0485746 -0.2685533
-0.057077546 -0.07926846 0.016212938 -0.7681269 0.08912191 -0.028007448 -0.2963899 0.06647114
-0.15759839 0.00015141022 0.23240624 -0.016667608 -0.029534798 0.020273797 -0.121183574 0.07816132
0.019638218 -0.07406999 -0.061897054 -0.043619175 -0.03747597 -0.1586587 -0.3075272 -0.18863444
-0.003746674 -0.07115133 0.17989525 -0.33764184 -0.019964965 -0.00298486 -0.124730684 -0.12591287
0.16359012 0.10104046 -0.06702662 -0.20347522 -0.045049757 0.027498009 -0.34700605 0.10134444
0.012376966 0.0357402 -0.08633689 0.069260426 0.042512324 0.17558514 0.055735275 -0.06602742
0.008267618 0.03631236 0.10600498 -0.045916196 0.013313569 -0.1264701 0.1387641 -0.111355685
-0.018051509 0.019339332 0.043641936 0.023796082 -0.12995648 -0.07372095 0.024123859 -0.041896384
0.07360197 0.070294246 0.10171178 0.10275003 0.0039545456 -0.0029902374 -0.18040222 -0.06947101
0.11503572 -0.013383794 -0.03196741 0.112174675 -0.15831225 0.098552614 0.30032223 0.0656654
-0.06532806 -0.12268168 0.077340744 0.073866285 0.20723888 0.02995286 0.052643534 0.15700221
0.022976058 -0.0308942 -0.11660111 0.1331156 -0.010267319 0.14891824 -0.09617976 0.20772484
-0.1949773 -0.10634561 0.13114764 -0.0061423127 0.11450872 0.078252904 -0.0067171357 -0.083391465

actor.2.bias f4 [64]
00000000: 416d dfbd 33f5 ac3d 190d a63c 9fe6 083e
00000010: a71a 9a3c d6b4 953c e29c 32bd f1b1 823e
00000020: 92e2 cabd e68d f0bd 46d1 b43e 6020 ebbd
00000030: 3a48 d73b 53d3 6fbe fedf 563d 8c6e 6a3e
00000040: 4230 a63b 88c1 9ebe fe19 88bc cc05 fcbd
00000050: 07e2 5f3d 24b0 62bd 3f34 11be 8fff a9bc
00000060: 4f8a 10bc f0c9 963e ad54 bf3d 55ac eb3d
00000070: dfcd aabd 14df fbbd 17b0 ec3d d120 a53d
00000080: f13c 9bbe 8601 1ebe 3946 71bd c89d 65be
00000090: 683d c2bd 06db 07be cd1c 1cbd 10d0 053c
000000a0: 347a 063e 1fe9 a8be 19c7 bfbc 18c7 c63c
000000b0: 097c b7bd d657 30be 81ab 3dbe 72b4 46be
000000c0: 6ee9 6a3d 7a11 b13e dd73 91bd ec1f 3cbe
000000d0: c51d 633e 24e8 7c3d b468 c83d d4a1 99be
000000e0: c13b 1d3e 8e82 b73d e0df 48bd 4a8c f9bd
000000f0: eab9 473c 4b9e a4bc 78bf 3cbe 7395 5b3e
-0.109095104 0.084452055 0.020269917 0.13369225 0.018811537 0.018274706 -0.043606646 0.25526384
-0.09906496 -0.11745815 0.35315913 -0.114807844 0.0065698894 -0.23420458 0.05245971 0.22893733
0.0050716707 -0.31007028 -0.016613957 -0.12305793 0.054658916 -0.055343762 -0.14180087 -0.020751743
-0.008822038 0.2945094 0.093423225 0.11507479 -0.08340048 -0.12298408 0.11557024 0.080629
-0.30319932 -0.15430269 -0.05890486 -0.2242347 -0.094843686 -0.13267145 -0.038113404 0.008167282
0.13132554 -0.32990357 -0.023410367 0.024264857 -0.08959205 -0.17221007 -0.18522455 -0.19404772
0.057351522 0.34583646 -0.07102177 -0.18371552 0.22179325 0.061744824 0.097855955 -0.30006278
0.15354826 0.08960448 -0.04904163 -0.12184961 0.012190321 -0.020095011 -0.18432415 0.21443729

actor.4.weight f4 [6, 64]
00000000: 93f4 26be e5c2 e8bd eb02 b0bb 5f2f ffbd
00000010: f6f2 9dbd 5b91 703d 2241 01be 3900 333d
00000020: fa8a 573d 9f25 cbbd a544 3bbd 33c8 293d
00000030: ecce 833d fa09 533d 7a7c d2bd 1ba7 7bbd
00000040: 2dda 503e 2a3e 3a3e e72b ea3c 7c23 e13d
00000050: c6de 9f3c 78ce 3fbe 6506 853d 7c39 0d3e
00000060: 5957 073e 295d babb 7595 b33d 7d9f d6bd
00000070: 5255 f9bc 73fc 8abe fa94 9fbc ae84 30bc
00000080: acef fa3b 6f94 1e3e bbcf dfbc fdb0 563d
00000090: d563 93bc 7a19 f63c c332 83be cb26 693e
000000a0: 2385 a03d 3902 943d bd2a f23a 0290 65bd
000000b0: 9185 913e dd08 963d c30d b7bc 6938 643d
000000c0: 3bad 803d 2c34 57bb b4d6 d9bd dd16 143d
000000d0: 79da fabd 7fd2 61bd d659 73be 87f5 d7bc
000000e0: 606e b03d 7dee ddbd 85d5 de3b 36be 00be
000000f0: c368 91bd 9afc a93c 0fc7 843e dc77 edbd
00000100: 6f6d 593d 1a9e f83d d090 87be 921a 01bd
00000110: f3ad c83c c6c2 33bd 85d2 963d c5b9 35bd
00000120: 49f9 223e 8acf 8ebd 1de5 0b3e bbc1 a33c
00000130: 6b1d 32be 2dc8 3cbd 1f54 513d c950 aebc
00000140: b9b6 c33d e446 d5bc eaab 9b3d 450f a3bd
00000150: a594 29bd 59f1 d63d 68bf 8abd 8823 26be
00000160: d3a7 bbbc 00aa 8c3c dfbb 5c3d 4258 6bbc
00000170: 3429 12be afd9 22bd 4635 1cbe e6c3 313b
00000180: 7f49 9b3c b3b0 c6bc 8fad f23d d6b8 c5bc
00000190: 82fe 93bc 9ec5 90bd 62e9 d5bd 28fe 213d
000001a0: ac10 2d3e 136d b1bd 5277 96be 2545 bd3c
000001b0: 170c 073e 441c 0f3e 14b2 8e3d 5ff6 2cbc
000001c0: 61d6 113e d8ab 0c3d 45d1 4e3c 5a4c 103e
000001d0: 6579 973d 4ab2 373d 1c5f bf3d e4fe 10bd
000001e0: dfdf 46bd fdaf bb3d 441f 9cbd ecf5 12be
000001f0: 1a17 d33d 6b82 723c 0f41 3c3c 00ed 603d
00000200: 6d83 a3ba ec3c 323d 560d 95bd a5f4 5e3d
00000210: 8511 1b3d 6b1b 863c 3499 d2bb 9920 033e
00000220: d6d9 89be 8188 9b3d 2106 323d d0f7 8abe
00000230: 2440 18be bce7 6abe 1e60 9b3c f53e 423d
00000240: 3647 87bd 6d8b 29be ef3d be3d a1d7 3fbe
00000250: eb2b 923d fbbb 6bbd 9b04 1fbe 589b adbd
00000260: 7fea f7bd 8bf3 f33d ab1f 4d3d 72f3 7e3d
00000270: f613 8bbe c139 a7bd 526d b83d ecc9 ca3d
00000280: c761 4bbc c922 51be 9585 1f3b a508 40be
00000290: 565a a0bd d872 4d3c 4684 91bd 8d44 6ebd
000002a0: fa43 873c 1373 54be 4399 a5bc ad75 c73d
000002b0: a443 ac3b d38b 7ebd 7e3e babd 72a1 a3bd
000002c0: 8d6c 033e 3a55 da3d f66f f2bd 5742 bbbd
000002d0: c4ec 0f3e 9927 9f3d 122c 2a3c 366c 49be
000002e0: e29f f03d 11d1 d43d 904d a03c 84bd b9bc
000002f0: c7c7 57bc f891 553d 97f5 41be 125b 2d3d
00000300: e2ff 39bd 4d3f 543e 23eb ffbd 3dc1 703c
00000310: 9cd4 55bb f872 b43d 4fcc 74bc a6ff a9bd
00000320: 591b c73b e448 00be 0c88 223e ccb1 2f3e
00000330: cfae f73c 221f 3cbe 349c a7bd f57f ee3d
00000340: a766 813d 69cc 2fbe a32d 14be cce3 36be
00000350: 1535 00be 28f4 44bd 76ef a0bd 5d07 d7bd
00000360: 64ac 2fbe b0eb 2bbd f259 a0bd 8c04 083e
00000370: 37b0 793d e49a c73d 3ff3 c83d c799 36bd
00000380: ebfb c2bd 1268 443b 32be fbbd d687 f53d
00000390: 3d4d 333d bf48 d2bc 1643 813c b8f5 ac3e
000003a0: c84f 2e3e 2978 f8bc c181 393e 1802 8dbe
000003b0: dd6f 0b3d f627 10be 5114 57be 859b 9d3e
000003c0: 1b0f 9c3b 9253 d63d 77b1 1a3c 203b b2be
000003d0: 6176 5abd a637 923d 4af3 bf3d 29a2 12be
000003e0: cff9 3c3e 0a76 24bd 0789 f2bd 51a4 15be
000003f0: 6c09 e7bc 44f3 10be f193 e9bc 1cb6 3fbd
-0.16304235 -0.11365298 -0.0053714416 -0.12460207 -0.07712357 0.05873237 -0.12622502 0.043701384
0.052622773 -0.09919285 -0.04571976 0.04145069 0.064359516 0.051523186 -0.10277648 -0.06143866
0.20395727 0.18187776 0.028585387 0.10993096 0.019515406 -0.18731105 0.0649536 0.1379146
0.13216914 -0.005687375 0.08768741 -0.10479639 -0.030436192 -0.27145728 -0.019480217 -0.010773821
0.0076579656 0.1548631 -0.027320733 0.052414883 -0.01799194 0.030041445 -0.25624666 0.22768705
0.07837894 0.072269864 0.0018475872 -0.05604554 0.28422216 0.07325909 -0.02234543 0.05571786
0.06283041 -0.0032837493 -0.106366545 0.036154617 -0.122487016 -0.055132385 -0.23764738 -0.026362194
0.08614802 -0.10836504 0.006800356 -0.1257256 -0.0710006 0.020750333 0.2593312 -0.11595127
0.05308288 0.121395305 -0.2647767 -0.03151948 0.024497008 -0.043886922 0.07364372 -0.044366617
0.15915407 -0.06973179 0.13661619 0.019989839 -0.17394035 -0.04608934 0.051105615 -0.021278756
0.09556336 -0.02603478 0.076011494 -0.07961897 -0.041401524 0.10495252 -0.06774789 -0.16224492
-0.022907173 0.017170906 0.053890105 -0.014364304 -0.1427353 -0.03975838 -0.15254697 0.0027124821
0.018955944 -0.024254179 0.1184951 -0.024135988 -0.018065695 -0.070689425 -0.10444905 0.039549023
0.16900891 -0.086633824 -0.2938791 0.02310426 0.13188206 0.13975626 0.069675595 -0.010556786
0.14241935 0.03434357 0.012623136 0.14091626 0.07396201 0.044847764 0.093443125 -0.035399333
-0.048553344 0.091644265 -0.07623151 -0.14351624 0.10307141 0.014801602 0.011490121 0.05491352
-0.0012475081 0.04351513 -0.07277934 0.05443253 0.037858505 0.016370496 -0.0064269546 0.12805404
-0.26924008 0.075943954 0.043462876 -0.2714219 -0.14868218 -0.22939962 0.01896673 0.04742332
-0.06605379 -0.16557093 0.09289157 -0.187346 0.07137283 -0.05755232 -0.155291 -0.08476895
-0.121052735 0.119116865 0.05007903 0.062243886 -0.27163666 -0.081653126 0.09005226 0.09901795
-0.012413449 -0.20423426 0.0024341096 -0.18753298 -0.0782973 0.012539588 -0.07105307 -0.058170844
0.016511906 -0.20747022 -0.020214682 0.09739242 0.005257087 -0.062145066 -0.09093951 -0.079897776
0.12834378 0.10660787 -0.11837761 -0.09143513 0.14055163 0.077712245 0.010386484 -0.19670185
0.11749245 0.10391439 0.019568235 -0.022673376 -0.013170189 0.05214116 -0.18941341 0.04232318
-0.045410044 0.20727272 -0.12496021 0.014694509 -0.0032627946 0.08810991 -0.014941289 -0.08300714
0.006076258 -0.12527806 0.1587221 0.17157668 0.030234722 -0.18371251 -0.0818409 0.116454996
0.063184075 -0.1716782 -0.14470534 -0.17860335 -0.12520249 -0.048084408 -0.078581735 -0.10499451
-0.17155606 -0.041972816 -0.07829656 0.13282984 0.060959067 0.0974634 0.098120205 -0.044580247
-0.09520706 0.0029969257 -0.12292136 0.11988799 0.043774832 -0.025669454 0.01577906 0.3378122
0.17022622 -0.030330734 0.18115903 -0.2754066 0.034042228 -0.14077744 -0.21003844 0.30782714
0.004762543 0.104651585 0.009441725 -0.34810734 -0.05333555 0.0713952 0.093725756 -0.14319672
0.1845467 -0.040151633 -0.11842542 -0.14613463 -0.028202735 -0.14155298 -0.028512927 -0.046804532

actor.4.bias f4 [6]
00000000: f454 19be e987 203d c9a7 013e 2e3a 3f3e
00000010: 4328 d93d 296c f33c
-0.14973813 0.039192114 0.12661661 0.18674538 0.106033824 0.02971466

critic.0.weight f4 [64, 43]
00000000: 5bc5 bc3e 0704 74bf af53 72bf 1f2a 4f3d
00000010: 1e7e 123e 776f d43e a78b 84be 49f4 c4bd
00000020: bbe8 c4bc 6859 5abc fdf1 353d 4fef 8f3c
00000030: c02e 303e 26be f63c 4a78 3dbe 6f13 5dbc
00000040: b682 70bd 6c3d 58bc 1eeb 84bc e6b6 263b
00000050: ed15 813f 8de7 7c3e 873c abbe d8a1 3abe
00000060: d724 79bf 270c e8be ae79 37bf 9d13 92bf
00000070: c2f8 2bbf df30 82bf d41f 883f 7bcd 9ebd
00000080: b1de 82be 9b71 9abe 1653 193f 5aca 8fbe
00000090: bc8c d3be 5d39 5f3f ffc8 e6bc f194 b1be
000000a0: 5692 d5be 810d 19bf 33b1 ebbd cf4a 553e
000000b0: 8ab3 42bf 7eac 06bf b9b7 b8bd 19d3 103d
000000c0: 594c 423d dd1d 953d ff7a ef3d fb6c c53d
000000d0: aaec 713c 0b16 0cbd 236d 8dba ea1f 6fbd
000000e0: 95e1 94be 2f26 84be 3bf0 e9bc 6876 a33d
000000f0: 877f b7ba 6c0d 01bb f733 9339 30d9 833f
00000100: 4eea d73e b35d b6be 95d9 6ebf e83c 2ebf
00000110: 26bf a63d 41e5 aebe 4c17 f1be aa07 26bf
00000120: 2ffc 29bf b724 fe3f fd19 d63e fb86 0c3f
00000130: 34ac 77be 1f34 5b3f 27c5 5b3e a853 66be
00000140: b7cf f83f d716 753e 896f 963e d182 1bbe
00000150: c6d1 383e 8805 a33d 97a6 3c3f b8f4 cfbe
00000160: b33f 37be 54a0 933c b655 b73d 85ca 8f3e
00000170: 9432 c2bc c656 9ebd f0e6 72bd 1a22 bfbb
00000180: ba69 7f3c 6bbe 843a 492d f83d 3925 043e
00000190: 1d8f 33bd 8eea 03bd 076c 58bd 30e2 28bc
000001a0: fed8 3dba b68f a4ba bcb0 9abd 1ce6 1740
000001b0: f5c4 2a3f 812b e0be fd9b 83bb 870f e9be
000001c0: bdb9 163e 3922 be3e 3e1f 243f afb1 e4bd
000001d0: 5618 febf b060 2040 1dba 24bf c840 42be
000001e0: 8b9a 1bbe afff b8bd 46b1 e53c 3ede f9bf
000001f0: 2040 2040 85ec 41bf 15c0 23be 4b15 043e
00000200: c795 723d fc1c 273e 4fc2 86be 0eb0 c8bd
00000210: 55c8 ab3d 042d 9f3d b0c6 49bd adbe a33d
00000220: 4dac 383d 170b a63d c0d0 1aba 15be e7bc
00000230: c4c5 f1ba c559 42bd 9c0a 6cbd 6cc7 013d
00000240: d143 ba3d 1ba6 ff3d abf4 02ba 0366 ec3b
00000250: d5ac 8138 58bf 83bf 2c3b 7740 44f2 0b40
00000260: 3a1f a93f 3c53 8abf ba81 cf3d 009d 2c3e
00000270: 3326 ca3d 536c bf3f c966 483e 88f7 a73d
00000280: 6ce9 e3be 208f d33d 2d2c 23bd 1073 a9be
00000290: ec8c ab3d 2ac3 5c3b f93a c5bc 2cb7 cbbe
000002a0: 42b9 8ebd 6a76 d63e 0f40 60be dd9a dcbc
000002b0: 9925 0a3f aa75 b93c 05bc d23d 41bb 1c3e
000002c0: 344f 193e 9281 53bd 5bc2 cdbc 3842 c0bc
000002d0: 4878 123c 6755 013d b53f 4cbd 8164 1bbb
000002e0: ba00 1d3e 7b5a 853d 124d 86bc 6428 09be
000002f0: 3231 643e f886 d13b 9665 36ba 71c3 e3ba
00000300: a8b0 e3be dcf2 03c0 9e80 59c0 ceb9 293f
00000310: 3d5f 8b3f 01c5 df3f 1744 1c3e 6e2d 533e
00000320: b375 a2bf 0993 cb3c 0d5a 04bf d078 e93d
00000330: 682b 583d 4e6d f1bd 89ae 7fbe 02d0 f4bd
00000340: ac78 eb3d 6ead babe ad95 2c3d 2042 9f3c
00000350: ffae 243d a2c6 17bd b57c 55bd 6a14 a7bc
00000360: 0268 a33d f3b2 d4bc 0e02 f6bb 95dd 4a3b
00000370: 599c 92bc c6b5 023d 29c9 4abd b3a0 56bc
00000380: cde2 523b e3e6 113c 8a0d 00bb 2910 c2bd
00000390: f07a bf3d 5d92 163d 3308 dabc 086c 0dbd
000003a0: 343d 4b3b 7525 1cba 6035 12b9 fddf 173e
000003b0: be02 5f40 bff6 45c0 1a33 a5bf 42a2 aabf
000003c0: a247 0840 52ea 9e3e 649a debd c633 08c0
000003d0: af94 013e 3b93 a0be 5a66 ed3e 6449 913f
000003e0: 037a a43e 6be9 003e 311e a93e 44e0 04be
000003f0: a8fe 49be 3d43 1a3f b868 803f 648d 283d
0.3686932 -0.95318645 -0.9465894 0.05057728 0.14305922 0.4149129 -0.25887796 -0.09616906
-0.024036756 -0.01332698 0.04442023 0.017570166 0.17205334 0.030119967 -0.18502918 -0.013493403
-0.058718406 -0.013198238 -0.016225394 0.0025438606 1.0084816 0.24697705 -0.33444616 -0.18225801
-0.9732184 -0.45321772 -0.71670043 -1.1412235 -0.6717645 -1.0171164 1.0634713 -0.07754036
-0.25560525 -0.301648 0.59892404 -0.2808407 -0.4131831 0.87196904 -0.028172014 -0.34683946
-0.41713208 -0.5978623 -0.115084074 0.20829318 -0.76055205 -0.5260695 -0.09019417 0.03535757
0.047436092 0.072810866 0.116933815 0.09639927 0.014765898 -0.03420071 -0.0010789972 -0.058380045
-0.29078355 -0.25810382 -0.028556934 0.079815686 -0.0013999798 -0.0019691838 0.00028076742 1.0300655
0.42170948 -0.35618362 -0.93300754 -0.68061686 0.081419274 -0.34159282 -0.47088087 -0.64855444
-0.66400427 1.9854954 0.41816702 0.54893464 -0.24186784 0.85626405 0.21461926 -0.2249285
1.943839 0.23934494 0.2938197 -0.15186621 0.18048772 0.079600394 0.73691696 -0.40616393
-0.17895393 0.018020786 0.08951895 0.28084198 -0.023705758 -0.077313945 -0.05930227 -0.0058329226
0.015589172 0.001012755 0.121180125 0.12904824 -0.043837655 -0.03220611 -0.052837398 -0.010307834
-0.0007242112 -0.0012555036 -0.07553241 2.3734198 0.6670678 -0.4378319 -0.004016398 -0.4551966
0.14719291 0.37135485 0.6411017 -0.11166703 -1.9851177 2.5059013 -0.64346486 -0.18970025
-0.15195672 -0.09033143 0.028038632 -1.9520948 2.5039139 -0.75751525 -0.15991242 0.12898748
0.05922487 0.1631965 -0.2632012 -0.09799205 0.0838782 0.07772258 -0.04926175 0.07995353
0.045086194 0.08107584 -0.000590574 -0.02828888 -0.001844578 -0.047448892 -0.057627305 0.031684324
0.09094966 0.12482854 -0.0004995565 0.007214309 6.183392e-05 -1.0292768 3.8629866 2.1866617
1.3212655 -1.0806651 0.10132165 0.16856766 0.09870567 1.4954933 0.1957046 0.0820151
-0.44514024 0.10330033 -0.03983705 -0.33095598 0.08376488 0.0033685663 -0.024075972 -0.39788187
-0.06968929 0.41887218 -0.21899436 -0.026929313 0.5396362 0.022639114 0.10289768 0.15305807
0.1497162 -0.05163724 -0.02511709 -0.023469076 0.00893981 0.031575587 -0.049865443 -0.0023711028
0.15332308 0.065113984 -0.016394172 -0.13394314 0.22284392 0.0063942634 -0.00069578865 -0.0017376972
-0.44470716 -2.061698 -3.3984752 0.6629914 1.088844 1.7481996 0.15260349 0.20622799
-1.2692169 0.024850385 -0.51699907 0.11399996 0.05277577 -0.11788426 -0.24968924 -0.11953737
0.11497626 -0.3646044 0.04213493 0.01944071 0.04020595 -0.037054665 -0.052120883 -0.020395476
0.07978822 -0.025964236 -0.007507569 0.0030954827 -0.017896818 0.031911634 -0.049508248 -0.013099837
0.003217864 0.008905145 -0.001953932 -0.094757386 0.0934962 0.036760677 -0.026615238 -0.034526855
0.0031011822 -0.0005956509 -0.00013943529 0.14831538 3.4845424 -3.0931852 -1.290622 -1.3330767
2.1293721 0.31038147 -0.108692914 -2.12816 0.12654375 -0.31362328 0.4636715 1.1350522
0.32124338 0.12589042 0.33030847 -0.12976176 -0.1972605 0.6025885 1.0031958 0.041150466

critic.0.bias f4 [64]
00000000: 9625 78bf cf6d 2abf e9ee 0e3d 7771 cb3e
00000010: 59bb a73d e142 0d3e 73f7 8e3d 4c26 fbbb
00000020: a883 933e 0d3b ffbb 2464 873e 244a 5bbe
00000030: bc4a 03bd d942 a9bd d676 91be 4424 283f
00000040: 7299 84be e783 cdbe 40af a83e b57e 1c3d
00000050: a8e6 8cbe 3eec b7bd 0d57 023f f61e d3bd
00000060: 304a bc3d 9f06 0f3e e625 c0be 9c95 8a3e
00000070: 6ea1 563e ec04 3d3e 49a8 fe3e f811 70be
00000080: 3ce4 a8be 1837 a83e 2a43 a6be 2d5a dbbe
00000090: 2d8e febe 936e 223e 18a0 e33c 3d5f 583e
000000a0: 0a5c f23e dfa3 943e d90c 8c3d e9d9 863e
000000b0: 09db 7e3d 59b8 49be a9aa 32be 5cb7 883e
000000c0: ef31 1a3e 3fa2 c4be d236 b1bd 5a7c 443e
000000d0: 7bcb 23be 4fe2 3c3e 51a1 cf3e 8452 843e
000000e0: 572d 893d af2a 363e e9c4 01bf 52c1 11be
000000f0: 4b36 b5bd afbe 1ebf 7b4d d7bd 0562 3fbe
-0.9693235 -0.66573805 0.03489581 0.39735004 0.081900306 0.13795044 0.06980791 -0.0076644775
0.28811383 -0.007789022 0.2644359 -0.21415001 -0.032053694 -0.08264703 -0.28410977 0.65680337
-0.2589832 -0.40139696 0.32946205 0.038206775 -0.27519727 -0.089806065 0.5091408 -0.1030864
0.09193838 0.1396737 -0.37528914 0.27067268 0.20960018 0.18458909 0.49737766 -0.23444355
-0.3298663 0.32854533 -0.32473117 -0.42842236 -0.49717847 0.15862493 0.0277863 0.2113008
0.47335845 0.29031274 0.06838388 0.26338127 0.062220607 -0.1969923 -0.17447914 0.26702392
0.1505811 -0.38405034 -0.08653034 0.19188061 -0.1599559 0.18445705 0.40552762 0.25844204
0.06698101 0.1778972 -0.50691086 -0.14233902 -0.08848246 -0.6200971 -0.10512825 -0.18689735

critic.2.weight f4 [64, 64]
00000000: 40eb bd3c ecc8 9c3d 1729 4f3d cf78 a6bd
00000010: 1be3 23bc 7014 bfbd faf9 a03d 9ed4 0dbd
00000020: e44b b5be 9f57 2a3d 725d 8ebe e95e 6d3d
00000030: 0dc7 eabb 4f81 edbc c0b2 583d 4c13 483d
00000040: defd 033e e5e2 cebc f9b9 14bd 110a 4f3e
00000050: 29fe 2c3e 61eb c03d 7f4c 2b3d 9f5a a13d
00000060: 1bbf 68be c545 bbbd 78e3 713e 1248 cd3d
00000070: d8ef 50bd 13db 453d b434 39bd eb14 a1bd
00000080: 7c2f f3bc a55b a23d 1027 533c 3716 0a3e
00000090: c0d7 07bd 73fe 7f3e 71b7 0cbe 5b24 f7bd
000000a0: 23c0 123e 15ee 8ebd 374d 153e fd08 353e
000000b0: 90c1 103c 66ef 6f3d 4815 c4bd 581d dabd
000000c0: cd68 4fbd 3f4f 373a 38ab 843c c032 25be
000000d0: 2ac8 88be bb1f 0d3d e405 8a3e eacc 25be
000000e0: 69e9 64be 148a 843c ac4a 813d 0391 2cbe
000000f0: 9a01 c13d 8950 92bd 593f 08be 8927 44be
00000100: 21d5 8bbe 9cc0 8ebe 0547 aebd b637 3dbd
00000110: 76eb acbe 8ea3 55be e768 763e 7b00 863b
00000120: 6a6a dfbd 397c 9d3b 8061 70be 7397 1dbe
00000130: 11af 75bd 4697 673d 4d51 03be 4030 d8be
00000140: a612 22bf 215e f6bd 5e2a 2c3e ee96 043f
00000150: 73ff 0dbe c0cd bcbd fb64 1a3e 09ac 97bd
00000160: 4a8b 4ebc 01a6 f4bd bf46 19be 4d9c 833e
00000170: 4b6c a53d d4dc 4d3e 9fcc 353e 1bde 1cbe
00000180: 2d0b 82be 2f15 263e 67a3 01be 8f35 8bbd
00000190: 061b afbd 115c debd cde5 203e 0a5a 113d
000001a0: 09bb 06be a145 c83d 72db f9bd 6d29 debd
000001b0: 1fcc 043c cc12 1d3c f738 cfbd f8ca 3abe
000001c0: 2a78 94bd ae4f 13bc da61 0e3e 4377 383d
000001d0: bb7c 0f3d f8d7 d83b 9ffa fb3d a515 c7be
000001e0: 1245 d7bc df9f fb3d cbdc dfbc af51 0cbe
000001f0: faa3 cf3d 5452 90be 2f63 acbd 584c afbd
00000200: cd29 a2be 272d 96be 7486 a9be 3cb3 1abe
00000210: 961a 323d eed7 a3be e65e 76bd 312e 013d
00000220: a3f6 61be 62b6 13be 6c5f ccbe 2492 0d3e
00000230: 3d4d 08bd add3 bbbd 965b 653c 6eac 023d
00000240: fa8a a5bb 460f 0f3d 4770 49be 3cf2 d3bc
00000250: 2993 8f3d 0699 ce3d 3ecc 04be 584a 283e
00000260: 961c 9e3b eccd a6be 9775 123e 39be 5cbd
00000270: a0e1 40bd 4f01 90be 9676 053e ddc9 0f3c
00000280: a3f7 763d df3f 1d3e fcb9 0cbe 7e06 6f3d
00000290: ff0a 5f3d 925b b9be d6b9 c5bd 3701 86bd
000002a0: c22d c1be 5889 11bf 2b7e b1bd 2d04 22bc
000002b0: 2e4c 6fbe 5250 713c 1976 1b3e 4b2d f9bd
000002c0: 3a1a 9a3d 574e 423d 5cb3 f83d cb18 52be
000002d0: d388 d0be 6284 433e e86f c1be 13dd 97be
000002e0: 4c39 223e 37f1 00be 998d d0bd 689b 953d
000002f0: 6562 f63d b76a 293d 1da3 b4bd a3cd abbd
00000300: e90f 50be 0d58 2abe 2d00 46be 705f 0fbe
00000310: 7585 01bd ea29 1fbe 086b 39be 6cb4 a8be
00000320: 395c c3be f86e 0dbd 090a 97be 17bf bb3d
00000330: f55f 2f3e f804 77be 0449 533d 0604 0f3e
00000340: ec61 43be 8fac eeba c6f7 35be 5e41 663e
00000350: 2da2 553e 6c9c 58be 2828 873d b873 c5bc
00000360: 2304 4e3d 25f1 63be 7d73 da3e e3e7 09be
00000370: fe43 41be 24d8 84be 95b4 713d 25a2 3ebe
00000380: 5a39 903d 6af7 ce3d ba12 47be 3004 533d
00000390: fe8c c73c 1caa 15be 580a 49bd 96a4 133e
000003a0: 2d92 c7be 6361 0abf e827 18bd 80fd 94bd
000003b0: 9a39 3cbe 4ae7 da3c 2eec 953b 0ea6 e1bd
000003c0: 956c 8d3c 4a68 89bd 5329 efbc fbb2 54be
000003d0: ebca c4bd 5dd0 4f3d 2c66 37bd b361 59bf
000003e0: 19bd 143e 4869 fbbe dcde 93bc dc56 4bbe
000003f0: d4e3 79be 2026 8abd 8363 f33c bb5f 3dbd
0.023183465 0.0765551 0.050576296 -0.08128511 -0.010002877 -0.0933007 0.07860179 -0.034626596
-0.35409462 0.04158747 -0.27805668 0.05795184 -0.007164842 -0.028992323 0.052904844 0.048846528
0.12889811 -0.025254676 -0.03631017 0.20218684 0.1689383 0.09419895 0.041821 0.07878613
-0.22729151 -0.09144167 0.23621929 0.10023512 -0.051009983 0.04830463 -0.045216277 -0.07865318
-0.029685728 0.07927636 0.012887731 0.13485037 -0.03316474 0.24999408 -0.13741852 -0.12067481
0.14331107 -0.06979004 0.14580236 0.1767921 0.008835211 0.058577918 -0.095743716 -0.10650128
-0.050637055 0.00069927046 0.016194925 -0.16132641 -0.26715213 0.03445409 0.2695762 -0.1619145
-0.22354664 0.016179122 0.06313071 -0.16852193 0.094241336 -0.07144267 -0.13305415 -0.19155706
-0.27311042 -0.27881324 -0.0850964 -0.04619571 -0.33773392 -0.20863172 0.24063455 0.0040894127
-0.10908969 0.0048060683 -0.23474693 -0.15389805 -0.05998141 0.05654075 -0.12823983 -0.42224312
-0.63309705 -0.120296724 0.16813037 0.517928 -0.13866977 -0.09218931 0.15077583 -0.0740586
-0.012606451 -0.11945725 -0.14968394 0.25705186 0.08077296 0.2010377 0.17753838 -0.15319102
-0.2539915 0.16219018 -0.1265999 -0.06797325 -0.08550076 -0.10857404 0.15712662 0.03548626
-0.13157286 0.09778906 -0.12200059 -0.10847745 0.008105307 0.009587001 -0.10118287 -0.18241489
-0.07249482 -0.008991165 0.13904515 0.04503561 0.03503106 0.0066175424 0.123036616 -0.388837
-0.026278052 0.12286352 -0.027326962 -0.13703035 0.10138698 -0.2818781 -0.08417355 -0.08559483
-0.31672516 -0.29331324 -0.33110392 -0.15107435 0.043482386 -0.3200068 -0.060149096 0.031538192
-0.2206674 -0.14425042 -0.3991655 0.1382528 -0.033276785 -0.09171233 0.013998887 0.031902723
-0.0050519677 0.034926675 -0.19671737 -0.025872342 0.070104904 0.10087781 -0.12968537 0.1643461
0.004825185 -0.3257898 0.1430267 -0.053892348 -0.047090173 -0.28125998 0.13033518 0.008776155
0.06029476 0.15356396 -0.13742822 0.0583558 0.054453846 -0.36202675 -0.09654586 -0.065432005
-0.37730223 -0.56850195 -0.08666643 -0.009888691 -0.23368904 0.0147286225 0.1518177 -0.12166842
0.075245336 0.047437992 0.12143585 -0.2051727 -0.4072939 0.19093469 -0.3778069 -0.29660854
0.1584217 -0.12592016 -0.101832576 0.07305032 0.12030486 0.041361537 -0.08820174 -0.083888315
-0.20318569 -0.16635151 -0.19336005 -0.1400125 -0.031621415 -0.15543333 -0.18107235 -0.3295015
-0.38156298 -0.034529656 -0.29499844 0.09167307 0.17126448 -0.24122989 0.051583305 0.13966379
-0.19080323 -0.0018209385 -0.177703 0.22485873 0.20862646 -0.2115342 0.06599456 -0.02410303
0.050296914 -0.22259958 0.42666236 -0.13467364 -0.18873593 -0.25946152 0.059010107 -0.1861654
0.07042189 0.10105784 -0.19440737 0.051517665 0.024359223 -0.14615673 -0.04908213 0.14418253
-0.3897871 -0.5405485 -0.037147433 -0.07274914 -0.18381348 0.026721615 0.004575274 -0.110180005
0.01726369 -0.06709345 -0.02919451 -0.207714 -0.09609016 0.05073582 -0.044775173 -0.849147
0.1452526 -0.4910376 -0.018050604 -0.19857353 -0.24403316 -0.06745553 0.029710537 -0.046233874

critic.2.bias f4 [64]
00000000: 15f1 5d3b 2d1f 933d cbb9 2c3d fb55 9d3d
00000010: 68b3 703e f98d b9bc 156d 9cbd 1dad a13d
00000020: 088b c3be ccd0 c43e 4a54 1e3e 3b30 8b3e
00000030: 58ac 0cbe b2b1 e73d 1aba 893e 9368 983c
00000040: 58b8 62be 082d 533c 6787 69bd 2a19 bdbd
00000050: 7e74 c9bd a994 0fbe c6a3 e2bd b06b bf3d
00000060: f96a 533d 2710 403e 6de8 cabd 88f3 a43e
00000070: 12b7 2fbe 4dce c3be 7116 03bd d70c 3cbe
00000080: c7c3 95bb 57da 49be f971 b43d 28c7 1dbe
00000090: d2bc 823b dc08 1f3e c5e3 d63d 6ed6 123e
000000a0: f9b7 be3c 1921 013e b7df 733d 3a60 233e
000000b0: 3988 25bd 49f3 c4bd cd52 20be 6eb1 c43d
000000c0: 9c2c 21bd c4a7 90bc a3de 07be 6b11 a2bd
000000d0: b10f cbbc cf5d 84bd cdd8 42be 127b 4bbd
000000e0: 5964 bfbd 034c 273e 167f c63b 9437 403e
000000f0: 1fd6 4a3e 2dc7 c83d cdb6 8f3e 3712 12bd
0.003386562 0.07183681 0.042169373 0.07682415 0.23505938 -0.022650706 -0.07637993 0.07894347
-0.3819201 0.3844055 0.15461841 0.27185234 -0.13737619 0.113131896 0.26899797 0.018604552
-0.22140634 0.012889154 -0.057013895 -0.09233315 -0.09836672 -0.14021553 -0.110663936 0.09346712
0.05161569 0.18756162 -0.09907613 0.3221705 -0.1715968 -0.38243333 -0.032003824 -0.18364273
-0.0045704576 -0.19712196 0.08810801 -0.15408003 0.0039897943 0.15530723 0.10492662 0.14339611
0.023281084 0.12610282 0.059539523 0.15954676 -0.040413115 -0.096167155 -0.15656586 0.096041545
-0.039349183 -0.017658122 -0.13268523 -0.079134785 -0.024787756 -0.06463205 -0.19028015 -0.049677916
-0.09345312 0.1633759 0.0060576303 0.18771201 0.19808243 0.09803615 0.28069153 -0.035661902

critic.4.weight f4 [1, 64]
00000000: c9ad a8bd a5ec 523e bff6 913e ba94 9c3e
00000010: ba34 233f 13de 8fbe 6068 6b3e cc9b 853f
00000020: 7df5 9f3f 33ac 8a3e 54d0 453e 1ece 4b3e
00000030: e571 01be 6a8e 073f f920 ab3e 9290 c83e
00000040: 8d62 45bf 2a0b 6bbe 8a58 153e 78ea 893f
00000050: 66fa 003e a436 17bf 3fd6 113f 06fb 483e
00000060: 24d5 0bbe bf0f 203e 84a3 acbe 99ae 063e
00000070: 5dd2 9dbf 1233 27bf 6e03 293e 0be1 14bf
00000080: 4ac6 09bf a48d 26bf 1e2b aabf 9b23 75bf
00000090: d98d bd3e e1cd 4f3e e2d7 8f3e 1d0a 553e
000000a0: 6ed0 a8be bbfc e33e f912 71be aef0 873e
000000b0: db07 f33d ee6e 31be 2c12 31be e941 433e
000000c0: 2832 3d3f ade6 023f 4e8a 673e d78f 873f
000000d0: 2b85 23bf 60fe 72bf f291 dbbe bf02 67be
000000e0: 5589 a3bf 2f76 923e ad15 ef3d 7e83 893f
000000f0: df63 f13e b771 af3d a79c 3e3f 014a c6be
-0.08236272 0.20598085 0.28508565 0.3058222 0.6375233 -0.28099117 0.22989035 1.043817
1.2496792 0.27084503 0.19317752 0.19902846 -0.12641104 0.5295168 0.33423594 0.39172798
-0.771035 -0.22953478 0.14584556 1.0774679 0.1259552 -0.5906775 0.5696754 0.19627008
-0.13655525 0.15631007 -0.33718503 0.13152541 -1.2329823 -0.653123 0.16505215 -0.5815589
-0.5381819 -0.65059876 -1.3294408 -0.95757455 0.37022284 0.2029338 0.28094393 0.20804639
-0.3297152 0.44528756 -0.23542394 0.26550812 0.11866733 -0.17327473 -0.17292088 0.19068111
0.7390466 0.51133233 0.22611353 1.0590771 -0.63875073 -0.94919395 -0.42884785 -0.22559641
-1.2776285 0.28605792 0.11674056 1.0743253 0.47146508 0.08566611 0.7445778 -0.38728335

exp_avg f4 [6]
00000000: bfcc c837 ccbb f6b8 f6a7 8038 2e8d c5b8
00000010: e05a 92b7 ab0c 81b7
2.39372e-05 -0.00011765174 6.134801e-05 -9.419989e-05 -1.7446873e-05 -1.5383897e-05

exp_avg_sq f4 [6]
00000000: a0d6 0535 ca26 f834 bf4a 6a35 76e1 2034
00000010: 6a62 4434 ea52 ba32
4.985868e-07 4.6221822e-07 8.7280563e-07 1.4983183e-07 1.8289725e-07 2.1690955e-08

exp_avg f4 [64, 43]
00000000: 8c9f dd35 ec8f 84b5 289e beb6 05d2 10b6
00000010: e39d 83b6 8942 7c36 661c 2837 59b3 d3b6
00000020: 6535 1137 8291 1c36 8172 de36 af84 87b7
00000030: 2449 1637 7be1 61b5 2b6f 73b7 fe37 c535
00000040: af81 0bb7 a4e1 6fb7 a98c a639 410c 6838
00000050: db5a 0bb5 7aa9 4bb5 457c 4f34 dff7 8933
00000060: c173 0735 efb5 57b5 2616 bcb3 8e3e 88b4
00000070: 99af 23b5 0485 c8b2 c5fa 4436 7ced f236
00000080: 118f 4db5 164d 1232 eb18 bab5 fd0f 04b6
00000090: e4fd 6835 c7fa 4436 8b4f ef36 118f 4db5
000000a0: 6ceb 6bb2 9b4b ea36 4d05 6e34 be39 bfb6
000000b0: 0599 c236 5c17 ad37 192d d7b4 80e3 6037
000000c0: bc6b 4cb6 56b9 a037 d72a 02b7 360e 3336
000000d0: a9d0 9f37 e659 14b8 d27c 92b7 bf03 0a36
000000e0: 2887 4637 505f 3e38 43cf 1e37 e2e6 6f37
000000f0: 00a7 10b8 df86 07b9 3504 de38 68d5 80b5
00000100: 4061 bf33 6500 b835 0ceb 6432 52d8 5636
00000110: cd06 6ab4 b700 7234 ffdc 5c36 e4d2 9a35
00000120: 890e 8034 a09a 1d36 cab2 a736 e72b 9535
00000130: f494 ed36 2c84 5036 b3e8 9236 e1f5 1936
00000140: a19a 1d36 d8a1 c336 e72b 9535 d2da 0836
00000150: 0d8a 3037 3e4c a735 aa46 8036 1327 9fb5
00000160: 8c8b f2b6 2d7e fab4 49ef 63b6 cda7 4336
00000170: f2d9 36b7 4936 04b7 f1f4 4ab6 fddd 0638
00000180: d92c 0e38 2a70 a737 0b2f 2b36 b16f fab5
00000190: 7133 40b7 1888 5637 7ef1 7736 3093 4737
000001a0: 0274 5bb9 98cb 37b9 c347 2a34 036d 88b4
000001b0: b0f1 46b5 213c adb1 4cb5 64b5 1f12 4534
000001c0: 4e97 88b3 cb81 94b5 4599 15b5 6a6b 93b3
000001d0: c4eb 12b6 aacb e9b5 c2ec 0fb5 aad2 07b6
000001e0: 9245 c2b5 d4f6 cfb5 5729 f234 c4eb 12b6
000001f0: 9f5f dab5 c2ec 0fb5 2d6c 31b6 310e 27b6
00000200: 9588 97b5 ac05 7f35 b192 bcb5 430d 70b6
00000210: 720e 3f36 2d0f 14b5 2ea4 1e36 f6ca 10b7
00000220: f478 0736 1d6e 3833 08cf 7937 b860 51b7
00000230: 556e e537 b30f c833 548e e1b5 3d14 64b6
00000240: 873f 6137 a991 19b6 e506 1436 5163 1cb9
00000250: 974e b7b8 a342 4535 104a bcb3 f83f 8734
00000260: 0d25 f932 923c f6b4 f6a7 22b2 2132 b9b3
00000270: 1fc5 12b5 6f35 8234 50bb 75b3 973e 76b3
00000280: f03f 27b6 cd18 31b5 5631 dab5 38f9 ce34
00000290: d5ae 1cb3 067c ea33 023f 76b3 a762 1fb6
000002a0: cd18 31b5 fd27 26b6 020c f134 0c48 e2b5
000002b0: 3e0e e735 5868 dab4 e5c0 98b5 836d 52b5
000002c0: 4ca6 d9b4 b7a2 e9b5 b9f7 41b7 c296 94b6
000002d0: 7d4f 0336 bcc5 6736 8ff2 3f37 a0e4 b1b6
000002e0: 9e7b 7835 f76e 4fb6 e3d9 7db6 1be6 b5b5
000002f0: 8fe4 8534 132c c436 fc27 f5b7 9391 ac38
00000300: 1aa5 3834 dfc6 2fb5 1cf9 7db5 d03d b6b0
00000310: 3024 83b2 e00b 1435 7bc6 d3b2 a2d6 33b5
00000320: 01e0 d3b4 c414 dfb2 3600 41b5 b59e 09b6
00000330: 2bbc 92b4 d396 28b5 ce67 58b5 9167 8032
00000340: 7a08 0eb5 3200 41b5 d0a4 0ab6 2bbc 92b4
00000350: 169e 36b6 f332 8bb6 80af 9e35 70f5 1d35
00000360: 9077 02b6 3f59 f7b5 11ac 3a35 e8c3 0d36
00000370: 54d6 f336 119a ceb6 781b 1936 b1b6 e436
00000380: eef0 a837 9af6 6837 ffe1 8837 bf43 71b6
00000390: a104 a8b6 1967 9736 d7cc 8b37 07b2 3637
000003a0: 3120 4e37 4693 76b9 21b0 ad38 cc9f 3bb4
000003b0: 820e 3f34 f18c 50b5 f4d1 ad31 ab49 d8b4
000003c0: 17a3 5435 f014 eab2 f37f 72b4 0fb5 8432
000003d0: dfc2 beb2 eaa6 1933 0e97 8eb3 4796 b8b4
000003e0: 5c6e 3b35 839c 1736 b38b beb5 8d09 b335
000003f0: aaa6 1933 d865 f8b1 4796 b8b4 bf0b 8db6
1.6512217e-06 -9.876653e-07 -5.680853e-06 -2.157992e-06 -3.9224847e-06 3.7589655e-06 1.0020192e-05 -6.309169e-06
8.655105e-06 2.3330508e-06 6.6294456e-06 -1.615504e-05 8.957726e-06 -8.414715e-07 -1.4509812e-05 1.469394e-06
-8.31524e-06 -1.4298046e-05 0.00031766787 5.5324523e-05 -5.191375e-07 -7.5870014e-07 1.9323586e-07 6.424647e-08
5.0459863e-07 -8.035849e-07 -8.758461e-08 -2.5377489e-07 -6.097776e-07 -2.3343553e-08 2.9352243e-06 7.239809e-06
-7.657664e-07 8.515846e-09 -1.3865332e-06 -1.967884e-06 8.6796194e-07 2.9352248e-06 7.132015e-06 -7.657664e-07
-1.3732329e-08 6.982545e-06 2.2167406e-07 -5.6989657e-06 5.7994644e-06 2.0634085e-05 -4.0079684e-07 1.3404409e-05
-3.0461078e-06 1.915979e-05 -7.758578e-06 2.668135e-06 1.9051442e-05 -3.5369674e-05 -1.746268e-05 2.0565783e-06
1.1833188e-05 4.5388297e-05 9.465791e-06 1.4299267e-05 -3.4487806e-05 -0.00012924847 0.000105865685 -9.598853e-07
8.91182e-08 1.3709183e-06 1.332479e-08 3.20144e-06 -2.1795422e-07 2.2538266e-07 3.2911191e-06 1.1535271e-06
2.3852434e-07 2.3484827e-06 4.9978016e-06 1.1114142e-06 7.080491e-06 3.107135e-06 4.378229e-06 2.2941897e-06
2.348483e-06 5.830294e-06 1.1114142e-06 2.039295e-06 1.052256e-05 1.2464659e-06 3.8229236e-06 -1.1857795e-06
-7.2284074e-06 -4.6657934e-07 -3.3964918e-06 2.9154937e-06 -1.089879e-05 -7.880452e-06 -3.024292e-06 3.2154832e-05
3.3897206e-05 1.9960182e-05 2.5508368e-06 -1.8658958e-06 -1.1456069e-05 1.2787081e-05 3.6946435e-06 1.1895594e-05
-0.00020928684 -0.00017528085 1.585859e-07 -2.541129e-07 -7.411245e-07 -5.0417985e-09 -8.520044e-07 1.8353647e-07
-6.360516e-08 -1.1064634e-06 -5.572986e-07 -6.8647594e-08 -2.189293e-06 -1.7419127e-06 -5.361618e-07 -2.023919e-06
-1.4474374e-06 -1.5494538e-06 4.510609e-07 -2.189293e-06 -1.6270095e-06 -5.361618e-07 -2.6438022e-06 -2.48932e-06
-1.1290127e-06 9.5003156e-07 -1.4049784e-06 -3.5770506e-06 2.8469626e-06 -5.515638e-07 2.36394e-06 -8.630324e-06
2.0186972e-06 4.2940986e-08 1.488976e-05 -1.247989e-05 2.7350305e-05 9.3160814e-08 -1.6805229e-06 -3.3986428e-06
1.3425836e-05 -2.2883562e-06 2.2057732e-06 -0.00014914318 -8.7407585e-05 7.348519e-07 -8.767904e-08 2.5192253e-07
2.9004264e-08 -4.586514e-07 -9.467831e-09 -8.623852e-08 -5.467609e-07 2.4253265e-07 -5.7213867e-08 -5.7333263e-08
-2.4922156e-06 -6.597373e-07 -1.6256624e-06 3.855182e-07 -3.648059e-08 1.0919034e-07 -5.7333644e-08 -2.375027e-06
-6.597373e-07 -2.4759204e-06 4.4898485e-07 -1.685928e-06 1.7214986e-06 -4.0681584e-07 -1.1381022e-06 -7.8390457e-07
-4.0540397e-07 -1.7407209e-06 -1.1561374e-05 -4.4282942e-06 1.956679e-06 3.453678e-06 1.1440962e-05 -5.3016265e-06
9.2567086e-07 -3.0909994e-06 -3.7826765e-06 -1.355252e-06 2.493948e-07 5.846386e-06 -2.9224895e-05 8.2287144e-05
1.7196399e-07 -6.5481976e-07 -9.4612346e-07 -1.3259811e-09 -1.5266863e-08 5.5151577e-07 -2.4653891e-08 -6.699503e-07
-3.9464797e-07 -2.597006e-08 -7.189841e-07 -2.050697e-06 -2.733153e-07 -6.2804355e-07 -8.0617326e-07 1.4948258e-08
-5.291146e-07 -7.1898387e-07 -2.0659536e-06 -2.733153e-07 -2.7212131e-06 -4.148454e-06 1.1822995e-06 5.8844216e-07
-1.9441104e-06 -1.8428908e-06 6.954079e-07 2.112467e-06 7.2669154e-06 -6.157214e-06 2.2814766e-06 6.8161976e-06
2.0139352e-05 1.3885694e-05 1.6317701e-05 -3.5951232e-06 -5.007329e-06 4.512153e-06 1.6665477e-05 1.0889496e-05
1.2286052e-05 -0.00023515252 8.2820894e-05 -1.7473866e-07 1.7793539e-07 -7.7691135e-07 5.0588316e-09 -4.0286736e-07
7.921348e-07 -2.7250707e-08 -2.2584554e-07 1.5449158e-08 -2.2207528e-08 3.5774896e-08 -6.639867e-08 -3.4382012e-07
6.982352e-07 2.2591855e-06 -1.4196761e-06 1.3339319e-06 3.577467e-08 -7.2293282e-09 -3.4382012e-07 -4.203495e-06
