2026-01-29_07-44-49_Fase2_Empuje_V1/model_1750.pt (torch, 189045 bytes, 36 tensors)

std f4 [6]
00000000: e674 f43e 71bb 083f 46b3 bd3e 3ab9 7e3f
00000010: 29ca 703f 9c3f 4840
0.47745436 0.5341101 0.37050837 0.99501383 0.9405847 3.1288824

actor.0.weight f4 [64, 43]
00000000: 8b3b 143d bb6b 9d3e effb 8dbd 03d8 363d
00000010: 1b8d 97be b707 b4be 4e40 0dbe a5a0 70be
00000020: 20f2 4cbb e54f 843d 604e 4dbd 0145 c43d
00000030: 2d58 1a3e 42b8 553e 5cb4 b1bb 23f5 d9bd
00000040: df62 31be 0dbf 62be d355 1dbd 60c0 6c3c
00000050: 0c56 593f 5c4e 503f a2ca 613e 4284 4ebd
00000060: 5745 1abf 7c31 c5be a9af 24be fdec 7cbe
00000070: 963a 033d d962 8dbe f9d4 a13e 4cb2 343d
00000080: 52a2 c83e 167c 01bf 42a0 c03d e7c4 6d3e
00000090: a64e 8d3e bd0d 983e abaa 483e afc3 643e
000000a0: 549d d7be c1a8 78be 386e ac3e a5bc 69bd
000000b0: 19cd 513e fece a93e 9ae2 213f 7efc 1fbf
000000c0: 4218 39be a642 873d 8471 31bf dee7 debd
000000d0: 79c3 7abd bebb 423e b3fe 663c 1201 c73d
000000e0: ce83 bfbd 957f a53b 4965 f03e e71c 29bf
000000f0: b8d4 47be 8feb 17bd c099 ed3b 30d1 2cbf
00000100: ca75 8c3f c787 053f 3bd2 9e3e ed95 50bf
00000110: 33c1 57bf 30bb 363d b737 91bd 548d 913e
00000120: 8890 a23e c6be 5bbe 41b7 2bbe 6803 c13e
00000130: 22c1 e4bd 075f c0be 61e9 a13e ead2 173f
00000140: 4660 32be 7250 cbbd 979c 163f 099a 503d
00000150: 7278 193f 9ece 32be acb0 c5be 708a 48be
00000160: 6db7 8fbe fec8 0e3d 57a8 82bc 3796 91be
00000170: 2955 983e aee3 93bd ce3a b6be 2beb 30be
00000180: b4d2 f4ba 74a3 913d 2a99 29be 3a7a 26be
00000190: bdd2 b8be 1cc9 e83d 4d55 2fbd f10e 7bbe
000001a0: 0678 5cbc 38c8 c93a fa0d bfbe 2712 c2be
000001b0: 0816 bdbc 313b b4be 07ce b4bd cbca 73be
000001c0: 8dca 833d 624e e1be 943e febd 7fdf cbbd
000001d0: 635f 33be 544c 863e dc27 063f 7b67 a3be
000001e0: 7eba 39bd 2a45 00be 99d4 18bf 29cb a1be
000001f0: c839 953e 1054 fe3e 839c 02bf 26e7 86bd
00000200: f739 f03e 52c0 20bd 1c6e 2d3d cdf1 1a3e
00000210: 5237 eabe e17f a13e b642 053d 4b2b 4d3d
00000220: 529f 83be 9941 813e ec8f 013e 2977 79bd
00000230: 941c 863d 059e bdbd 8c0f 7c3d f231 383d
00000240: de43 7fbe 6a2e 493e 0f74 133e 3baf de3c
00000250: 8281 a13b 5b82 cdbd d74f dbbe 4665 30be
00000260: 5108 303e 9947 adbd 08e8 323e ac2d 59be
00000270: d068 2fbc 342c 73bd 019c 82bc 08cf ddbc
00000280: a590 d2bd 0fcf 8f3e 0a00 d9bd c9cd 88bd
00000290: 0ad6 c3bd a8fc d63c 437c a2bc e196 edbd
000002a0: 42b3 933e 32e7 403e 88f1 cebd 896a 04bf
000002b0: d83c 313e a54f 04bf 95a0 07bf aaa1 1ebd
000002c0: 9eb7 d53c 627d c43e b9c4 213e 33c0 a53e
000002d0: 9c0b a83e c50c 283d 5b69 c9bd a3bd efbc
000002e0: 84a2 0f3e e427 a0bd a0ff 48bd e685 223d
000002f0: dd8d 98bb 7470 5e3e e99c e43c 34d1 5fbc
00000300: 9217 cc3c c65d 103f 7008 533d 07bd 95be
00000310: c21a 80be 897e dfbb 0feb 00bd 3c51 0bbd
00000320: 0573 d1bd 8f6f 24be 928b 3dbe 2638 903e
00000330: f62a 12be 0292 a1be c857 36bc 8cd9 5cbe
00000340: b584 afbe f7cc 86be 9834 a13e 6af0 84bd
00000350: 1e00 453e c532 8abf fa92 983e 1b32 d5bd
00000360: 003e 93bd 0a07 a5bd 15a8 3bbd 008e 613e
00000370: e748 13be a4ba 833e 063c 5bbf d6e6 8a3d
00000380: 58db 80bc fc14 1a3d 6d4e b4bc d8e2 39be
00000390: bf73 96be 08e6 73be aaa0 69be 85ab ee3e
000003a0: 1ce8 393e e6f5 f63c 8247 e23a d250 4bbe
000003b0: 2c91 4cbf 85a5 52bc 2601 c03e 808d 69bd
000003c0: 28d2 a6be f256 86be f1b6 22be 74e3 1cbe
000003d0: d5ab 02be 641d 5fbe 30d3 18be 035a 713e
000003e0: b0fe 383c 87e0 143e 003f 8dbd 7d17 b3be
000003f0: 6883 0fbe d8c5 ffbd 5e51 0f3e db2f 2cbf
0.036189597 0.30746254 -0.06932818 0.0446396 -0.29599842 -0.35162136 -0.13794062 -0.23498781
-0.0031272247 0.06460551 -0.050123572 0.09583474 0.15072699 0.2087107 -0.005423112 -0.10642459
-0.17322873 -0.22143193 -0.038411926 0.014450163 0.8489692 0.81369567 0.22049955 -0.0504191
-0.60262054 -0.38514316 -0.16082634 -0.24699779 0.032038294 -0.27614477 0.31607798 0.04411535
0.3918634 -0.50579965 0.09405567 0.23219644 0.27599066 0.2969798 0.19596355 0.22340272
-0.4211222 -0.24283125 0.3367784 -0.05706467 0.20488395 0.33165735 0.6323639 -0.6249465
-0.1807566 0.06604509 -0.69313836 -0.10884069 -0.061221574 0.1901693 0.014098811 0.09717001
-0.093513116 0.0050506094 0.46952274 -0.66059726 -0.1951474 -0.03708988 0.0072509944 -0.67506695
1.0973446 0.52160305 0.31019768 -0.8147877 -0.84279174 0.04461211 -0.07090705 0.28428137
0.31750894 -0.21459493 -0.16769125 0.3769791 -0.1116965 -0.375725 0.31623366 0.59306204
-0.17419538 -0.09927453 0.5883269 0.05092815 0.5994941 -0.1746163 -0.38611352 -0.1958406
-0.2806963 0.03485965 -0.015949411 -0.28434917 0.29752472 -0.07221161 -0.3559174 -0.1727721
-0.0018678517 0.07111254 -0.16562334 -0.16257563 -0.3609828 0.113664836 -0.04280596 -0.24517418
-0.01345635 0.0015394753 -0.3731535 -0.37904474 -0.023081794 -0.3520141 -0.08828359 -0.23807828
0.06435118 -0.44005114 -0.124142796 -0.09954738 -0.17516856 0.2623011 0.5240457 -0.31914887
-0.04534387 -0.12526384 -0.596994 -0.3160031 0.29145646 0.4967351 -0.5102007 -0.06587057
0.46919224 -0.03924591 0.042341337 0.15131302 -0.4574533 0.31542876 0.032534324 0.050090116
-0.2570749 0.2524536 0.12652558 -0.060904656 0.065484196 -0.092586555 0.061538264 0.044969507
-0.24928233 0.19646612 0.14399742 0.027183166 0.0049287686 -0.10034629 -0.4283435 -0.17226133
0.17190672 -0.08460922 0.17471325 -0.21208829 -0.010706142 -0.059368327 -0.01594353 -0.02707626
-0.10281495 0.2808766 -0.105957106 -0.066798754 -0.09562309 0.026243523 -0.019834643 -0.116010435
0.288477 0.18838194 -0.10104662 -0.5172506 0.17308366 -0.5168403 -0.52979404 -0.038728394
0.026088532 0.3837691 0.157977 0.323732 0.32821357 0.041027803 -0.09834548 -0.02926523
0.14026839 -0.078201085 -0.049071908 0.039678477 -0.0046555833 0.21722585 0.027906852 -0.013660718
0.024913583 0.56393087 0.05152172 -0.2924578 -0.25020415 -0.006820504 -0.03147417 -0.034013018
-0.10227016 -0.16058181 -0.18510273 0.28167838 -0.14274201 -0.31556708 -0.011129327 -0.21567363
-0.34280935 -0.2632825 0.31485438 -0.06491168 0.19238326 -1.0796744 0.29799634 -0.104099475
-0.0718956 -0.08057983 -0.045814592 0.22026825 -0.14383279 0.25728333 -0.85638463 0.0678231
-0.015729591 0.03761767 -0.022010053 -0.1815294 -0.29385182 -0.23818219 -0.22815195 0.46615234
0.18154949 0.03014655 0.0017263743 -0.19855049 -0.79909015 -0.012856846 0.37500876 -0.05701971
-0.32582211 -0.2623821 -0.15890099 -0.15321141 -0.12760861 -0.21788555 -0.14924312 0.23569493
0.011291191 0.14538775 -0.06896782 -0.34978858 -0.14014971 -0.124889076 0.13995883 -0.6726052

actor.0.bias f4 [64]
00000000: f7c5 d73c f751 843e 2539 263d 0d50 f0bd
00000010: 2421 183d 3953 75bd a27f c63d 5ef3 953b
00000020: bbc0 29bd 5973 b73d 788b bdbe 394c 4e3e
00000030: e015 92be 7c07 5abe c33a 5b3d 1cde c53b
00000040: 7510 17bd e895 80bd 0849 b5be 770b 9dbd
00000050: 03d3 e3be d9e4 4e3d 8026 21be 36f7 39be
00000060: 9598 68be 897a c13d e17f 07be 15d8 1cbd
00000070: c981 f93c 7ba4 a7be a074 9e3e 3a21 cc3d
00000080: 51ac 95bd 9dca c73d f225 76be 51f0 fc3c
00000090: 5288 1c3e 6f3f 9ebe 2ae2 1bbe 96f4 bbbe
000000a0: 1b5f 03be 636d 76be 40d8 0cbd 85e4 b0bd
000000b0: 38ae 6fbd 2b75 c13d e0b6 f33d 2051 53be
000000c0: 4779 4dbe 3056 e93b bd55 a13d b257 e3bd
000000d0: 3a83 d5bd 7d37 2ebe e8de 36bd 8c7e 603c
000000e0: 566e ad3e 0185 113d 35e5 3d3d e23b d4be
000000f0: 9c14 c9be 79a5 d53d 4536 3cbe 98b7 26be
0.026339514 0.25843784 0.04058184 -0.117340185 0.03714098 -0.05989382 0.09692313 0.004576131
-0.041443568 0.08957548 -0.3702047 0.20146264 -0.28532314 -0.21291918 0.053522836 0.0060384404
-0.03688093 -0.06278592 -0.3540728 -0.07668202 -0.44496927 0.050511215 -0.15737343 -0.1816071
-0.22714455 0.094472 -0.13232376 -0.03829201 0.030457394 -0.32742676 0.30948353 0.09967275
-0.07308257 0.09755442 -0.24037912 0.03087631 0.15286377 -0.3090777 -0.15222993 -0.36710042
-0.12829249 -0.24065165 -0.03438592 -0.08637337 -0.058515757 0.09446176 0.11900115 -0.20636415
-0.20065795 0.00712087 0.078776814 -0.11100711 -0.1042542 -0.17013355 -0.044646174 0.013702046
0.33873242 0.035527233 0.046361167 -0.41451937 -0.39273536 0.10431952 -0.18380077 -0.16280973

actor.2.weight f4 [64, 64]
00000000: 4526 183d 4d2a 4b3c 7319 433c f03f 8b3d
00000010: 1fe9 173d 9d63 5bbb e45e 1e3d 1f1b c63d
00000020: 8d95 03be 91cb c83c f7b3 eb3c 0fd6 f6bc
00000030: 1e82 783d 2565 04be e826 933e dca3 8dbe
00000040: 8ece 0dbe a42a 4f3e 19f0 b8bb 0e9b b53c
00000050: 9db8 883d 0531 dcbd 0a56 89be 9281 043d
00000060: 75b0 d93d b175 ee3c bea5 773c 22d7 cc3d
00000070: 0109 323e f8b3 9bbd c951 8a3d c1c6 293e
00000080: 6d39 0c3e a8bd 083e 04a8 d6bd ee9f 4d3d
00000090: 38c7 00be 4a83 1a3c 1250 b93e 8e33 783d
000000a0: 6eb3 073b f0c4 a2bd f16f 9fbd b65e 90bd
000000b0: 8a00 ce3d 05fc 22be 181b 0e3e e9ab 133e
000000c0: bb63 71bd 0888 bcbc f7d8 963b a979 0ebe
000000d0: 4efa b13d 9316 06be 0821 0c3d b76d 3e3e
000000e0: 513d b4ba 8264 523d 1006 f8bd 22bc 103d
000000f0: 20a2 f33c ff7a 443e 373a f9bd fd34 aabd
00000100: c6e2 92be 9bef 6bbe 20c8 663d cb33 7ebd
00000110: ceb4 97bb 8884 a53e 2c6e b83d bc88 d4bd
00000120: 578f 27be ad33 c5be 4e6a 783c 6638 9d3b
00000130: b608 3bbd 046b 803c c0eb afbe 4238 f4bd
00000140: a3a8 033e f134 0c3e 3785 8a3e d941 173d
00000150: a64d 073d 80a9 b23c 42dc fa3d 2675 ab3d
00000160: 3b46 2dbb b163 563e 32b8 afbe a557 df3d
00000170: 6ba1 8fbc ebcd e43d c128 90bc 6b4e ce3d
00000180: 6117 093e 62b9 03be 05b7 8d3d d0d6 82bc
00000190: 72e2 d6bd 6bd0 b13e f1f5 f63c bf77 be3d
000001a0: d699 303e b706 433e 70ad b23d e692 ba3e
000001b0: fe04 e1be 6d71 d8bc 26eb 1fbf 4cd8 aebd
000001c0: 1ac3 453e ef2e 7bbc ea57 353e 7c6a ca3c
000001d0: 3ebe bc3c 0fc6 093d e396 18bc 5079 afbe
000001e0: dfbb 713e 2c8b f33c cef7 b1bd bdc4 203e
000001f0: 1683 bbbd 3f2b 8f3e 48fa b8be 20b5 2d3e
00000200: dbb1 833b 6de7 f43c aa1b 33bc 586c 1e3e
00000210: 8b09 af3d fe22 783b f629 de3d e03c 5dbe
00000220: 7a8d 9d3d 1b14 ce3d e516 82be 9a68 d23d
00000230: 9d0a 39bd 6bdb 01bd 071f e73d c3f5 833c
00000240: 9cfb d0bc d170 a8bc aa53 f6bc 4068 463e
00000250: a4c0 3cbc 93d9 14be 1d24 d83c 268d 80be
00000260: fc41 8abd f631 aebd 5b7f 643d 7482 3fbf
00000270: 4fcb cc3d 803e 11bc c6e5 adbe 78c4 243d
00000280: daff 1dbe 1b59 db3c ce19 4e3e ed2d 1bbd
00000290: 9997 64bc c503 2a3b 8e49 aebd fa17 db3c
000002a0: 12cc e4bc a3a2 43bd fc5d 34bd c7b0 d4bc
000002b0: 6f53 3cbd 638b 3cbe 627c 9dbe cf7e 5abe
000002c0: ea5a fdbc 4cf4 86bd 5e1f 3f3e c90b 9abe
000002d0: c6c7 12bd 96e1 c8bc 0dea a6bd d24a 07be
000002e0: 333c 2a3e 23c2 bb3d dcf3 a8bc b5da 55be
000002f0: 5342 f7bc 9b6b 373d b14c abbe c32d b53d
00000300: 46a3 993c 2962 973c da8a a0bd 11f8 a23d
00000310: 82e2 1e3d 4fd4 323e ad22 203d 1e5a 68bd
00000320: ec2f 3ebc 3082 663d 55f9 b73d 5813 3abd
00000330: 349f 17bc c999 02be 3f69 1e3e 05cc 13be
00000340: 387c c7bc 3956 71bc 2116 4f3d b920 863c
00000350: 7516 02be e1e1 d3bd 89c1 063d d0e5 8fbd
00000360: 4d9f a13d 90c3 9f3d ec56 c83d ada2 d43d
00000370: 6e31 003a b279 5b3c 4d3a 3abe b7fc 38bd
00000380: 5edf 193e 6ecc a0bb 42e5 c8bc 841b c03d
00000390: 3d3d 20be 16be c53d f325 9e3e 28e9 7c3d
000003a0: 4271 95bd 2c81 0abe ce74 b13d 60aa a23d
000003b0: 247c 4a3e 7a5b 903d 49e2 283d 53ba 213e
000003c0: ee78 973c 0a5c 91bc 16e5 b3bd 9fec 153e
000003d0: 8747 0cbd 6182 223e 2485 aebd 7a40 383e
000003e0: 5227 4abe 5427 e4bd a30c 0a3e 3c2c 623b
000003f0: 7345 e73d 573e cd3d 79c3 25bc a108 93bd
0.03714587 0.012400222 0.011907923 0.067993045 0.037087556 -0.0033476122 0.038664714 0.09673142
-0.12850018 0.02451113 0.028772337 -0.030131368 0.060670964 -0.12929209 0.2874062 -0.27664077
-0.13848326 0.2023111 -0.0056438562 0.022168662 0.06675837 -0.10751537 -0.26823455 0.03235013
0.1062936 0.029108854 0.0151152 0.10001971 0.17386247 -0.07602686 0.067538805 0.16579725
0.13693781 0.13353598 -0.10481265 0.05020135 -0.12575996 0.009430716 0.361939 0.06059604
0.0020706314 -0.07947719 -0.07785023 -0.07049315 0.100586966 -0.1591645 0.13877523 0.14421047
-0.058933 -0.023014084 0.004603501 -0.13913597 0.0869032 -0.13094549 0.03421119 0.1859654
-0.0013751184 0.051365383 -0.12110531 0.035335667 0.029740393 0.19187544 -0.12169307 -0.08310888
-0.2868864 -0.23040621 0.056343198 -0.062061112 -0.004629708 0.32327676 0.090053886 -0.103776425
-0.16363274 -0.38515988 0.015162064 0.004797983 -0.045662604 0.015676029 -0.3435955 -0.11924793
0.12857299 0.1369207 0.2705476 0.03692803 0.033033036 0.02180934 0.12249042 0.08371954
-0.0026439566 0.20936467 -0.34320217 0.10905389 -0.017533025 0.11172088 -0.017597558 0.10073551
0.13387825 -0.12863687 0.06919674 -0.015971571 -0.1049241 0.34729323 0.03014657 0.093001835
0.17246184 0.1904553 0.08724487 0.364402 -0.4394912 -0.026421273 -0.62468183 -0.08537349
0.19312707 -0.015331014 0.17709318 0.024708979 0.023039933 0.03363615 -0.009313318 -0.34272242
0.23606823 0.029729448 -0.08689843 0.1570005 -0.09155862 0.27962682 -0.3612845 0.16963625
0.0040190048 0.029895509 -0.010931889 0.15471017 0.08546742 0.0037862654 0.10847847 -0.21605253
0.07693 0.100624286 -0.25408092 0.102738574 -0.045176137 -0.031703394 0.11285215 0.0161084
-0.025510602 -0.020561608 -0.030069191 0.19375706 -0.0115205385 -0.14536123 0.026384408 -0.25107688
-0.06750867 -0.08505623 0.05578552 -0.7480843 0.099997155 -0.008864999 -0.33964366 0.04022643
-0.15429631 0.026775887 0.20127031 -0.037885595 -0.013952159 0.0025942188 -0.08510123 0.026744831
-0.02792934 -0.047762524 -0.044034943 -0.0259632 -0.045978006 -0.18412547 -0.3075896 -0.21337436
-0.03092714 -0.06589565 0.1866431 -0.30087116 -0.03583505 -0.02452163 -0.081501104 -0.13212135
0.16624527 0.09167888 -0.020624094 -0.20884211 -0.030182993 0.044780355 -0.33456948 0.08846619
0.018754613 0.018479424 -0.07838984 0.07957471 0.038790233 0.17463802 0.03909557 -0.056726567
-0.011608105 0.0562765 0.08983103 -0.045428604 -0.009254266 -0.12753977 0.15469836 -0.14433296
-0.024351224 -0.01473003 0.050558213 0.016373025 -0.12703879 -0.10345817 0.032899413 -0.07026255
0.07891712 0.078009725 0.09782204 0.103825904 0.0004890178 0.013395714 -0.18186302 -0.045162883
0.15026614 -0.0049071824 -0.024523381 0.09380248 -0.1564836 0.09655397 0.30888328 0.061745793
-0.07296993 -0.13525838 0.08664857 0.07942653 0.19773918 0.07048698 0.041231427 0.15793733
0.018490281 -0.017744083 -0.08783929 0.14641045 -0.0342479 0.15870048 -0.08521488 0.17993346
-0.19741562 -0.11140314 0.13481383 0.003451123 0.11292543 0.10021656 -0.010117405 -0.0717938

actor.2.bias f4 [64]
00000000: 5105 e3bd bad1 d33d ca99 2a3d cdf8 093e
00000010: d68c ce3b e4aa bc3c 0693 43bd e683 823e
00000020: e34e c0bd 3229 ecbd ff9c b03e e9be c0bd
00000030: 3a43 193d 38a3 80be e119 603d 4049 7c3e
00000040: 280f fb3b ef5a 98be f9ed 79bb b4da 32be
00000050: e1c6 803d c8a8 4ebd c518 11be 9d8c 92bc
00000060: 6371 353c 51c2 8f3e 87b6 bc3d 82e1 003e
00000070: b12c 47bd b199 00be c96b d13d bcf4 983d
00000080: 24d9 94be 150f 0dbe 5ed5 89bd 5016 6abe
00000090: 50af 8fbd 153c 01be ca3f 28bd ce9c b73c
000000a0: 7da8 023e 039d 99be 4276 18bd 669a a93c
000000b0: 1b6b c7bd 503c 23be 96ef 1bbe 0453 1fbe
000000c0: 4348 8e3d ad9a af3e bae5 b4bd 09f1 2fbe
000000d0: 0d77 533e 8cba 533d 56e3 b83d 48e8 9bbe
000000e0: f1cc 183e c0e5 a43d 4917 5cbd 519e eebd
000000f0: b336 8d3b 7ed9 02bd 8541 37be 2092 563e
-0.110849984 0.103427365 0.04165057 0.13473816 0.00630341 0.023030706 -0.047747634 0.25491256
-0.093900464 -0.11531295 0.3449478 -0.09411413 0.037417628 -0.25124526 0.05471218 0.24637318
0.007661719 -0.29756877 -0.0038136228 -0.17466241 0.06287933 -0.05045393 -0.14169605 -0.017889315
0.011074397 0.2807794 0.09214502 0.12586024 -0.048626605 -0.12558629 0.102256365 0.074685544
-0.29071915 -0.13775285 -0.0673015 -0.22860074 -0.0701586 -0.12620576 -0.04107646 0.022413637
0.12759586 -0.30002603 -0.037222154 0.020703506 -0.097372256 -0.15940976 -0.15228114 -0.15559012
0.069473766 0.34297696 -0.08832879 -0.17181791 0.20650883 0.051691577 0.09027736 -0.30450654
0.14921929 0.08051634 -0.053733144 -0.1165129 0.004309499 -0.031945698 -0.17896087 0.2095418

actor.4.weight f4 [6, 64]
00000000: 46db 1abe fb8f f4bd faf5 2e3c 2174 17be
00000010: 5a19 86bd 861a 583d b91a d5bd a2e7 4e3d
00000020: 8487 903d e498 d9bd a5db 06bc e8a6 303d
00000030: 76b0 973d 9a6b 423d 1d7c b5bd 5d15 2fbd
00000040: 9663 4c3e f8e0 3b3e be46 373d 7684 ec3d
00000050: c4bd 853b 05af 25be 4c7a 873d 6a5c 133e
00000060: 6ac0 1d3e b7dd 7bbc 9ca7 b83d 0ffa babd
00000070: dace eabc f672 5fbe 1209 54bb d7e4 b9bc
00000080: 2b3b b83c 590b 1d3e ed26 08bd 5adc 423d
00000090: 53c9 34bd 4996 573c 4144 88be 7cbd 593e
000000a0: 5b9f cc3d 21eb 9a3d dc1c a83c 47c0 8bbd
000000b0: 8c85 9b3e 2ba3 a63d e27d 1bbd 1cd3 103d
000000c0: d3dd 633d 256f eebb 1658 ebbd b906 323d
000000d0: 0665 eebd 2b41 76bd ac58 75be 6948 bdbc
000000e0: 7171 ab3d 30e1 05be c9ba b33c ea18 dfbd
000000f0: 3f63 b5bd b665 533c acac 833e eff7 f3bd
00000100: f7b0 913d 6059 e93d 2066 80be d6ae 3ebd
00000110: 4491 8c3c d5aa 41bd a0e3 a03d 7931 b4bc
00000120: 5eb9 123e e981 5ebd 43b2 e43d f5b6 013d
00000130: 5394 2abe 0518 fdbc 8216 4c3d e8eb 16bc
00000140: 592c f33d 034b abbc 8871 af3d 56a7 a1bd
00000150: e3ad 29bd 0caf f03d 538f 82bd 859b 18be
00000160: e5f9 013c 055e a93c 6e36 7f3d c496 81bc
00000170: 83d0 08be bb14 44bd 8139 26be 799f dd3b
00000180: 7476 d83c eae3 79bc d3a7 d93d 55d1 50bc
00000190: 32eb e7bb afd4 56bd 8311 d7bd 29cf 523d
000001a0: 1d95 253e 0e4e a9bd 8bcc 91be 2d34 9f3c
000001b0: 2d46 e23d ec34 da3d ba98 7b3d 10e8 6fbc
000001c0: af2f 073e 9c8b 383c 197e 793c 4b1e 013e
000001d0: 1a76 9b3d c1c1 013d 276f 093d 04bb 00bd
000001e0: 56c2 5cbd 6cf4 b03d 92da a8bd e867 14be
000001f0: e4ce 933d aabb 163d 0087 493c 262e 243d
00000200: 7981 8bbc 8a25 6c3d 4b5a 8fbd 4df0 383d
00000210: 55b3 613c 4a2c f33c 4255 8bbb ce6c 0e3e
00000220: c8c4 89be 00b0 a63d 5fc3 2e3d 34b5 84be
00000230: 8723 10be df1f 5dbe 9479 a53b a4a7 803d
00000240: e2b2 5fbd e162 21be b7c7 bd3d df0b 3bbe
00000250: 9022 943d 7c53 9cbd 475e 17be 92f2 abbd
00000260: 7976 01be bfdb 003e 14b9 8b3d e20d 653d
00000270: e096 87be 19de cabd e811 bf3d 79ea cb3d
00000280: 232a dcbb d9fe 4cbe ef17 823a fbc3 29be
00000290: aaee 9dbd b8f3 993c 1510 acbd 4ebe 88bd
000002a0: cbba 23bb 0790 4cbe 8e5a 9dbc d711 b73d
000002b0: bab0 9f3a 12d2 63bd 0188 9ebd 6831 94bd
000002c0: 454d 053e 74ce e23d 50be dabd 0dfe dabd
000002d0: 8091 f73d a53e af3d 20d3 21bb c547 47be
000002e0: 9b8f 033e 0654 bd3d ae65 903c 88ac 13bd
000002f0: 13ed 03bd dfc0 603d eaa2 4cbe 06bd 483d
00000300: 8433 9dbd a106 6b3e e8aa dbbd 85df d8bc
00000310: a7d0 3bbd ef7b c63d 5bfe c0bc 3afe 84bd
00000320: 48a1 423d 6df1 01be f165 da3d 58c8 543e
00000330: 0daf 633d a32c 32be f12f f4bc 8703 f73d
00000340: 60e0 2b3d 0eb3 2fbe 3550 0fbe 5e3c 2bbe
00000350: bb0c eebd 3be0 ddbc f980 84bd fd35 04be
00000360: 6eee 50be 8cad 11bd cbd3 48bd 9a24 cf3d
00000370: 206f 7a3d 7945 c53d 1329 9c3d f0fb 02bd
00000380: a2a9 e1bd 28fc 04ba 5cb7 eebd 95eb 1f3e
00000390: 6f3c b5bc 3228 b7bc 49a3 09bd 11fa bb3e
000003a0: 5741 223e 6804 b0bc daeb 393e 27b4 65be
000003b0: 492d a63d 6ac9 e9bd 053c 6cbe f0f0 b53e
000003c0: 4e46 ecbb 73e5 db3d 63ce d63b 8935 a1be
000003d0: e853 0fbd 4d67 193d 7643 833d 5b5d 07be
000003e0: 8f08 373e de66 09bd 95dd 8abd b738 07be
000003f0: fa15 6f3c 511f e7bd b297 7abd d7d6 06bd
-0.15122709 -0.119415246 0.010678763 -0.14790393 -0.06547804 0.05275967 -0.104054876 0.05051387
0.070570976 -0.10624865 -0.008231078 0.043127924 0.07406704 0.047465898 -0.08861563 -0.042744983
0.19959864 0.18347538 0.0447452 0.115487024 0.0040814597 -0.16180046 0.06615123 0.14390722
0.15405431 -0.015372685 0.09016344 -0.09129726 -0.028663088 -0.21821198 -0.003235404 -0.022692127
0.022489151 0.1533636 -0.033240248 0.047573425 -0.04413731 0.013158389 -0.26614574 0.21263689
0.09991332 0.075643785 0.020521574 -0.06823783 0.30375326 0.081365906 -0.037961848 0.03535758
0.05563147 -0.007276433 -0.114914104 0.043463442 -0.116403624 -0.060120743 -0.23959607 -0.023105817
0.083712466 -0.13074183 0.021939652 -0.10893424 -0.0885682 0.012902668 0.25717676 -0.11912524
0.071138315 0.11394 -0.25077915 -0.046553455 0.017159112 -0.04728206 0.07855916 -0.021996247
0.14328524 -0.05432311 0.11166813 0.031668622 -0.16658144 -0.030895242 0.049826153 -0.009211518
0.11873693 -0.020909792 0.08566576 -0.07893245 -0.041425597 0.117521375 -0.06374993 -0.14903076
0.007933115 0.020674715 0.062307768 -0.015818961 -0.13360791 -0.047871333 -0.16232873 0.0067633954
0.02642367 -0.015252093 0.10627713 -0.012745221 -0.007077598 -0.052448925 -0.10501387 0.051467095
0.16170163 -0.08266841 -0.28476366 0.019434059 0.11048541 0.10654625 0.06142495 -0.01464273
0.13201784 0.011263754 0.015227818 0.12609212 0.075908855 0.03167892 0.03355327 -0.031428352
-0.05389627 0.0864037 -0.08244814 -0.14492762 0.07217196 0.036800064 0.012300253 0.040083073
-0.01702951 0.057652988 -0.06999644 0.045151044 0.013775666 0.029684205 -0.004252107 0.13908693
-0.26907945 0.08139038 0.04266679 -0.25919497 -0.14076053 -0.21594189 0.0050498936 0.06281975
-0.054613955 -0.15760376 0.09266608 -0.18266247 0.07233155 -0.07633111 -0.14782058 -0.08395876
-0.1264285 0.12583826 0.0682241 0.055921443 -0.26482296 -0.09905643 0.09329587 0.099568315
-0.0067188903 -0.20019092 0.0009925346 -0.16578667 -0.07711537 0.018792972 -0.08401505 -0.06676923
-0.0024983163 -0.19976817 -0.019208219 0.089389496 0.0012183406 -0.05562026 -0.077407844 -0.07235986
0.13017757 0.11074534 -0.106808305 -0.106929876 0.12088299 0.0855687 -0.002469249 -0.19460972
0.1284775 0.09244542 0.01762661 -0.03605321 -0.032208513 0.054871436 -0.19984022 0.04900839
-0.076758415 0.22951747 -0.10725957 -0.02647377 -0.045853283 0.09691607 -0.023558786 -0.06493802
0.04751709 -0.12689753 0.10663975 0.2077955 0.055586863 -0.1739984 -0.029808016 0.1206122
0.041962028 -0.17158148 -0.1399544 -0.16722247 -0.11623522 -0.02708446 -0.06469912 -0.1291122
-0.20403454 -0.035565898 -0.049030107 0.10114403 0.061141133 0.096323915 0.07625022 -0.031978548
-0.11018683 -0.00050729746 -0.11656067 0.15617211 -0.022123544 -0.022358034 -0.033602986 0.36714223
0.15845238 -0.021486476 0.18156376 -0.22432004 0.08114106 -0.1141537 -0.2306977 0.35535383
-0.0072105294 0.10737123 0.006555365 -0.31486157 -0.03499213 0.03745203 0.064093515 -0.13219206
0.17874359 -0.033545367 -0.06780545 -0.13205229 0.014592642 -0.1128527 -0.061179824 -0.03291973

actor.4.bias f4 [6]
00000000: fdce 19be 5da9 fa3c a90d f33d afbd 423e
00000010: 6de6 ab3d c335 4c3d
-0.15020366 0.030598337 0.1186784 0.19017671 0.083935596 0.04985596

critic.0.weight f4 [64, 43]
00000000: 4b44 033f c6d2 68bf fc69 5dbf 713a 01be
00000010: 8912 9f3d 8f22 e13e cbd1 42be 9f81 bbbd
00000020: 68d9 4ebc 6d92 dabd 7333 1e3d 703c c9bb
00000030: eb33 723e 5bb9 a03c d0d5 a0be cbca 053d
00000040: 16da c8bd b99e ce3d 64df f3bb 99cf 17bb
00000050: b3c4 403f 31fc d33e 98fb 38bd 448c acbd
00000060: 5926 5ebf 6a5e d8be ceaa 14bf 7d0f 4fbf
00000070: 3294 8bbe 3df0 39bf 0c12 893f 3dfc 90bd
00000080: 899e bcbe 642e 5dbe 8c50 983e b757 bfbe
00000090: a757 2bbf 246c 603f 3427 b1bc 1551 ebbe
000000a0: 0007 05bf 40c7 f8bd effb b8bd 7439 833e
000000b0: ea2f 31bf 67e5 03bf cd51 c4bd f577 683c
000000c0: 7b53 983d b387 993d a4d4 f63d 734c ac3d
000000d0: 6d2f 553c 50c6 04bd b23e 7abb 09cc 02bd
000000e0: de19 b7be fd00 bfbe 4150 36bd 4fb5 be3d
000000f0: 60df 023c 48ef 3d3b 4ed0 4dbb dbed 493f
00000100: 67c2 ae3e c1a0 84be e610 62bf 3b8b 1abf
00000110: 006d 453e 2151 afbe 25ca d8be ffd2 d4be
00000120: f761 0ebf 56c1 0240 16e2 bc3e 2456 4d3e
00000130: 136a 65be f753 333f a217 733e b4b0 0a3c
00000140: 96c5 ff3f 99a2 4d3e 1ff4 19bc 3d0c 4ebe
00000150: b934 883e 2f2c 18bd a836 3a3f 6b6f d6be
00000160: f643 36be f9d0 763d ce3d fe3b b62e 883e
00000170: ad6f a3bd 7015 82bd 4d9c 02bd bdc9 d53a
00000180: 3658 133d 0c59 233b 66c1 253e 8155 db3d
00000190: 41b3 3fbd 9c09 07bd e87b b4bd fb5a 43bc
000001a0: e738 3839 f4bb 363a 56a4 a6bd 59b1 0840
000001b0: 9e28 113f 1211 6fbe 962f a63c 9042 91be
000001c0: a693 2e3e aecc b73e 194b 283f b016 86bd
000001d0: 8866 02c0 89a8 1e40 41ee 6abf 8770 a6be
000001e0: 2d17 a6be 54a5 92bd 1638 2b3e 5146 00c0
000001f0: 53a3 1e40 5d10 84bf a1dc 11be ba91 a63d
00000200: ae3b 473d 4c5e 3d3e cec1 88be 7385 ccbd
00000210: c6af a03d 9600 bd3d c16b 24bd 6eb7 7a3d
00000220: 5738 133d 9071 d93d a483 cd3a 4171 3dbd
00000230: 72a7 b33a 717c 04bd 12d1 3bbd 2dec 2d3d
00000240: c4b1 be3d 0bb9 143e 1b33 36bc bdf8 203c
00000250: eb4a 80bb 8162 82bf 0407 4e40 7e61 f33f
00000260: 87a3 793f 4594 90bf 4a20 6c3e 99d8 4c3e
00000270: 4fad f7bc fae2 ba3f 3efd 3d3e 23db ab3d
00000280: 23e9 06bf e505 953e 39e7 0abd ef68 9dbe
00000290: 37bb c93d b46a 573d 6434 b3bc 1626 f6be
000002a0: 02cf f13d d77d f93e e374 5fbe 6d62 01be
000002b0: 5133 1c3f f9b7 193d f9a0 f63d 30e1 283e
000002c0: b185 233e 51ef 3dbd 03b6 18bd 3004 8bbc
000002d0: 1a7c acbc 9f3f 153d 3535 37bd b10d 5dbb
000002e0: 144c 5f3e e473 ab3d e71d 93ba f382 24be
000002f0: f898 673e 40e5 b03b f96e 23bb 309f d1b8
00000300: 879c fbbe 8ced f8bf dd3c 40c0 cf24 3a3f
00000310: 0e45 873f fddb d13f d055 023e 4658 3f3e
00000320: 9fc6 9bbf 08a0 4d3c e137 1abf 7433 923d
00000330: deff fdbd 548f d1bd ed69 a8be 2198 1fbe
00000340: 4515 043e 90e6 e3be 6b0a edbb cc0e 1fbe
00000350: 787d fbbd ede8 55bd 989c 7abd d070 a83b
00000360: 7378 993d cb55 55bc f601 0cbc 2ac5 1f3c
00000370: 4e11 3cbd eeae 453d 5a1d 7cbd e7cf 93bc
00000380: 1361 15bb 3bd7 733c d27a ee3a 8004 d0bd
00000390: dd39 b93d d5ed 273d 9a64 30bd 8aad 26bd
000003a0: 8059 3ebb a4db d9ba 7d47 bab8 a5b1 e43d
000003b0: f4cd 3c40 293c 2cc0 8bea 94bf 1a22 b0bf
000003c0: fda7 0540 081a 8c3e e1ae 45be 2381 ffbf
000003d0: b35c fa3d 12fa 84be 9e3b b93e 7ddd 853f
000003e0: 81d5 a23e 8242 d03d 1331 af3e 0d39 03be
000003f0: 8407 16be 39c7 023f 6d03 6c3f 35ea e9bc
0.5127608 -0.90946615 -0.86489844 -0.1261995 0.07767207 0.4397168 -0.19025342 -0.09155583
-0.012625076 -0.1067246 0.038623285 -0.006141238 0.23652618 0.019619634 -0.31413126 0.0326641
-0.098072216 0.10088868 -0.0074424017 -0.002316451 0.7530014 0.41403344 -0.045161813 -0.08425191
-0.86777264 -0.42259532 -0.5807313 -0.8088301 -0.27261502 -0.726322 1.0708632 -0.07079361
-0.36839703 -0.21599728 0.29748952 -0.3737161 -0.6693062 0.8766501 -0.021625139 -0.45960298
-0.51963806 -0.12147379 -0.090324275 0.2562977 -0.69213736 -0.51521915 -0.09585915 0.014188756
0.07437798 0.07496586 0.12052277 0.08413019 0.0130117955 -0.032415688 -0.0038184342 -0.031932864
-0.35761923 -0.37305441 -0.04451013 0.093119256 0.007987827 0.0028981734 -0.0031404677 0.78878564
0.34132692 -0.25903895 -0.88307035 -0.603687 0.19279861 -0.34241584 -0.42341724 -0.41567227
-0.5561823 2.0430503 0.3689124 0.20052391 -0.22403745 0.70049995 0.23739484 0.008464981
1.9982173 0.20081557 -0.009396582 -0.20121856 0.26602724 -0.03715151 0.7273965 -0.4188188
-0.17799363 0.060257886 0.0077588325 0.26598138 -0.07980285 -0.06351745 -0.03188734 0.0016310733
0.035972796 0.0024924902 0.16187057 0.10709668 -0.04680181 -0.03296815 -0.08812696 -0.011923547
0.00017568805 0.0006970756 -0.08136813 2.1358244 0.567026 -0.23346356 0.020286363 -0.28371096
0.17048511 0.35898346 0.6573959 -0.06547296 -2.037508 2.4790366 -0.91769797 -0.32507727
-0.32439557 -0.0716044 0.16720614 -2.0042918 2.4787185 -1.0317494 -0.1424432 0.08133264
0.0486409 0.18493003 -0.2671036 -0.09986391 0.07846026 0.092286274 -0.040141825 0.06121009
0.0359424 0.106173635 0.0015679491 -0.046250585 0.0013706519 -0.03234524 -0.04585368 0.042461563
0.0931125 0.14523713 -0.011120583 0.009824929 -0.003915181 -1.0186311 3.2191782 1.9014127
0.9751515 -1.1295248 0.23059192 0.200045 -0.030234007 1.4600518 0.18553635 0.083914064
-0.5269949 0.2910606 -0.033911917 -0.3074412 0.098501615 0.052591994 -0.021875568 -0.48075932
0.11807062 0.4872882 -0.21821932 -0.12635203 0.610158 0.037528966 0.12042422 0.16492152
0.15968968 -0.046370808 -0.037282955 -0.01696977 -0.02105527 0.036437627 -0.044728477 -0.0033730085
0.21806365 0.08371714 -0.0011224122 -0.16065578 0.22616947 0.0053984225 -0.002493797 -9.9955476e-05
-0.49142858 -1.9447494 -3.0037148 0.72712415 1.0567949 1.639526 0.12728047 0.18686017
-1.2169989 0.012550361 -0.60241514 0.0713872 -0.124023184 -0.10232416 -0.32893315 -0.15585376
0.12898739 -0.44511843 -0.007233908 -0.15532988 -0.12279791 -0.05222409 -0.061184496 0.0051404014
0.07493677 -0.013020943 -0.008545389 0.009751597 -0.04591494 0.04826253 -0.06155143 -0.018043472
-0.0022793456 0.014882858 0.0018194562 -0.10157108 0.0904424 0.0409983 -0.04306469 -0.040692843
-0.0029045045 -0.0016621244 -8.882487e-05 0.111666955 2.9500704 -2.691172 -1.1634077 -1.3760407
2.0883782 0.2736361 -0.19304992 -1.9961284 0.12224712 -0.25972039 0.36178297 1.0458218
0.31803516 0.10168935 0.34217128 -0.12814732 -0.14651304 0.5108524 0.9219273 -0.028554061

critic.0.bias f4 [64]
00000000: 362d 2cbf f6c6 0ebf bb21 a63d 843c c63e
00000010: 408a 8e3d d1dc 083e dbd8 8e3d de1f a5bc
00000020: 1a8b 873e 4217 7fbc afcb 813e 7dc9 7bbe
00000030: 3bc7 8dbd b649 a2bc 06d2 94be 0077 233f
00000040: 781a 84be a3cd b8be 57b2 ae3e b7c9 473c
00000050: afd0 a1be 5171 9fbd 3333 f53e 6e93 07be
00000060: 959e 4d3d 859a 0c3e cc57 cebe 11c5 563e
00000070: 73d5 423e aa2e 273e 912a f03e 15f2 54be
00000080: b67b 82be 98a8 843e 5576 a5bd ad5e d6be
00000090: 9794 efbe 749c 353e ed23 143d 38d6 593e
000000a0: c557 ff3e 500d 913e 30de 703d bdd6 603e
000000b0: 6795 7d3d 1d58 84be 56b0 54be 5ae4 753e
000000c0: b014 f13d 8146 b6be 277a 16be 6670 4d3e
000000d0: 8b5d f1bd 067b 203e 4235 ca3e a1fb 713e
000000e0: 6685 d03c 72ed 183e 4fb0 e8be 36c3 20be
000000f0: cca7 7abd 47b0 febe c185 b3bd 9f6f 3dbe
-0.67256486 -0.5577234 0.08111902 0.38718045 0.06959963 0.13365485 0.06974956 -0.020156797
0.26473314 -0.01556951 0.2535071 -0.2458858 -0.06922766 -0.019810539 -0.29066485 0.63853455
-0.25801444 -0.36094388 0.34120438 0.012194089 -0.31604525 -0.07785285 0.47890624 -0.13239834
0.050200064 0.1373082 -0.4030136 0.20973612 0.19026737 0.16326395 0.46907476 -0.20795472
-0.2548501 0.25909877 -0.08079211 -0.41869107 -0.46793053 0.17735463 0.036167074 0.21273124
0.4987165 0.2833047 0.058805645 0.21956916 0.06191006 -0.25848475 -0.20770392 0.2401289
0.11771524 -0.35600665 -0.14695035 0.20062408 -0.1178542 0.1567193 0.39493757 0.23631145
0.025454234 0.14934328 -0.45447013 -0.15699467 -0.06119518 -0.49743864 -0.08765746 -0.18499611

critic.2.weight f4 [64, 64]
00000000: 3e23 a63c a992 cd3d c6ef ed3d a0d4 dabd
00000010: baa7 06bc c531 e1bd 956e 033d 3873 88bd
00000020: 4c4e c1be f5d0 353d c707 96be cd00 5e3c
00000030: 107d b0bd 7d3e 68bc 90c6 b53c d020 b73d
00000040: dac7 2c3e 4e35 03bd 907c a7bd 4621 203e
00000050: beca 383e 05c8 b63d cc59 8bbc 064a b53d
00000060: 4a62 88be 1bd5 0abe 69f5 803e a189 d93c
00000070: 3276 a6bd df81 6dbc 4aad 17be 2431 78bd
00000080: 2630 c2bb 418f 413d 7014 b23c c032 133e
00000090: 8046 02bd 8175 613e 485a 6cbe d8d3 2cbe
000000a0: 9aeb b23d a4f5 97bd 0b8e 143e 1700 293e
000000b0: 1952 4abb b550 e23c d849 f3bd f73e fabd
000000c0: f73c d1bd f8e9 963b 4031 95ba 8970 10be
000000d0: 3283 a2be ed11 103d 19b0 593e 83cf 54be
000000e0: 9af8 72be 103b 04bd 95b3 a43d b912 11be
000000f0: 7573 bc3d 1923 a5bd 91f1 03be 78ba 5cbe
00000100: 9945 5ebe 54ed 72be bc42 ccbd d0e6 b8bd
00000110: 7cb7 9fbe 9254 6fbe 7b8f 593e ff82 f6bb
00000120: af61 00be eb6b ca3b 643f 2cbe cb33 14be
00000130: 58f1 84bd d8b2 b83d de13 e6bd 044a b5be
00000140: 4079 f6be 635f b2bd e3b6 fc3d b8ea ef3e
00000150: 414e fabd fb29 b4bd 849d 843d df32 69bd
00000160: 86f0 b0bc 8233 23be b707 07be 20ad 723e
00000170: 2b3c 653d 7190 3d3e 0f8f 2d3e 31ac babd
00000180: 676b 61be e811 1c3e fc67 b4bd 2f55 58bd
00000190: 14d4 71bd bd31 04be c126 1d3e ad76 0ebb
000001a0: 627c 49be 4035 b13c 3f4f b8bd 6a0f 09be
000001b0: e850 0cbb 1242 beba ae8d 9bbd e84a 61be
000001c0: 37ba 87bd aa1a 9cbd c73c 053e a7a3 173d
000001d0: 53b8 e33b 3139 243d 9504 3a3d 472f d8be
000001e0: 92ef 933b 3bb6 d33d 6372 1bbc bc9f 15be
000001f0: 975a b63d d45a 83be f126 67bd db31 49bd
00000200: 570b 90be 27d4 92be 6cd9 a1be 94a0 07be
00000210: 209b 983d 0655 b2be f2e8 77bd c385 273d
00000220: 96ce 49be 9420 f3bd 1954 adbe a5fb 123e
00000230: 110d debc 01cf 86bd 6953 583c 4db6 4d3d
00000240: 6391 e93c bbb7 323d 6472 63be 49fd 3abd
00000250: e0fc 6b3d c6ce d93d 2101 2ebe 9212 2a3e
00000260: 201d 8fbb f715 a4be d100 f53d 8ca4 24bd
00000270: 7e2a 5cbd 81b0 90be 0314 0a3e 094d ae3c
00000280: 9f74 853d 4d0d 1c3e 9a9a e3bd 6858 763d
00000290: 9ed8 813d 2890 a5be 5685 b8bd 3be3 a6bd
000002a0: 05e3 9abe dfaf 02bf 1e62 8abd a166 7dbc
000002b0: 8288 32be f981 913c 7d03 0e3e b856 fcbd
000002c0: 9c1e ae3d 90db 633d f95d 993d 9f0c 23be
000002d0: 52dc c8be 4a84 313e 8dd5 b0be 0335 5fbe
000002e0: 3240 213e 5eff 04be 4c8d 9bbd 137e 683d
000002f0: 54d7 fb3d 3310 553d 51a2 97bd 1fdb 9fbd
00000300: a562 4abe 4295 3abe a400 42be 7321 c2bd
00000310: 7672 49bd c304 08be 3d4a f7bd ce1c 96be
00000320: 180d b0be 95c1 8fbc db12 90be 6e5d a23d
00000330: f37f 253e 7063 7cbe b896 ce3c ef44 b33d
00000340: 20b2 5cbe 99eb 16bd 3b88 21be 65c1 8d3e
00000350: b245 6c3e 108e 5bbe c915 af3d 9b19 b4bc
00000360: ff9d 103d 5dba 66be bf47 d93e 6b24 cbbd
00000370: eb6d 22be 95c8 77be 773c 7d3d 39ae 63be
00000380: 915d b4bc c356 e93d b99d 4abe 3b48 783d
00000390: 8eac 0d3c 9097 1cbe 73bb 55bd 4df2 1b3e
000003a0: 6a72 c1be 1211 00bf 009d 3dbd 9ef6 e8bb
000003b0: 907d 0ebe a2ae 2e3d 3e3a 523b 8b4e d4bd
000003c0: dade 27bc 4834 c7bd 80a2 77bc 0ab4 3dbe
000003d0: 868e 85bd d28f 873c f3c2 55bc 84bb 55bf
000003e0: edb4 283e 5e41 f1be 9776 27bc ca25 41be
000003f0: 0f3d 5abe cd44 8fbd 1972 4f3d 8196 81bd
0.020280477 0.10037739 0.11617999 -0.10685086 -0.0082187 -0.10995821 0.03208788 -0.06662601
-0.37755048 0.04438873 -0.2930281 0.013549996 -0.08617604 -0.014175055 0.022189409 0.08941805
0.16873112 -0.032033257 -0.08178055 0.15637693 0.1804609 0.089248694 -0.017010592 0.088520095
-0.2663749 -0.13557856 0.25187233 0.026554884 -0.08128013 -0.014496296 -0.14812198 -0.06059374
-0.00592615 0.04725576 0.021738261 0.14374828 -0.031805515 0.2201748 -0.23081315 -0.16877687
0.08736344 -0.07419899 0.1450731 0.1650394 -0.0030871688 0.027626375 -0.11879319 -0.12219041
-0.10216706 0.004605528 -0.0011382475 -0.14105429 -0.3174072 0.035173345 0.21258582 -0.20782284
-0.23727646 -0.03228289 0.08042065 -0.14167298 0.09201709 -0.08063335 -0.12885119 -0.21555507
-0.21706237 -0.23723346 -0.09973666 -0.09028399 -0.31194675 -0.23372105 0.2124614 -0.00752294
-0.12537263 0.0061774156 -0.16821057 -0.14472882 -0.06491345 0.09018487 -0.11234258 -0.35408032
-0.4813938 -0.087096 0.123395704 0.46858764 -0.12221957 -0.0879707 0.06475356 -0.05693328
-0.021599066 -0.15937617 -0.13186537 0.23698854 0.055965584 0.18512131 0.16949104 -0.09114874
-0.22013627 0.15241206 -0.08808896 -0.052815612 -0.059040144 -0.12909599 0.15346815 -0.0021738217
-0.19676355 0.021631837 -0.0899949 -0.13384786 -0.0021410529 -0.001451554 -0.07595383 -0.2200123
-0.066273145 -0.07622273 0.13011466 0.037021305 0.0069494634 0.040093604 0.045414526 -0.4222357
0.004514643 0.10337492 -0.009487721 -0.14611715 0.089039974 -0.25655234 -0.05643362 -0.04911981
-0.28133652 -0.28677484 -0.31611192 -0.1324485 0.07451463 -0.34830493 -0.06052489 0.04089905
-0.19707713 -0.11871448 -0.33853224 0.14353807 -0.02710584 -0.065824516 0.01320348 0.050222684
0.028511709 0.04363225 -0.22211605 -0.045651708 0.057614207 0.10635142 -0.16992618 0.16608647
-0.0043674856 -0.32048008 0.11963046 -0.040195987 -0.05375146 -0.28259662 0.13484196 0.021276968
0.06516384 0.15239449 -0.11113472 0.060142905 0.063401446 -0.32336545 -0.09009807 -0.081488095
-0.30251327 -0.5104961 -0.067569956 -0.015466363 -0.17434886 0.017762171 0.13868518 -0.12321228
0.08501932 0.055629313 0.07488627 -0.15922783 -0.3923059 0.1733562 -0.34537926 -0.21797566
0.15747145 -0.1298804 -0.075953096 0.05676086 0.1229693 0.052017402 -0.07404006 -0.07805466
-0.19764192 -0.18221 -0.18945557 -0.09479036 -0.049181424 -0.13283066 -0.12074707 -0.2931885
-0.3438499 -0.017548362 -0.28139386 0.079279765 0.1616209 -0.24647307 0.025218353 0.087533824
-0.21552324 -0.036845777 -0.15774624 0.2768661 0.23073462 -0.21440911 0.08549077 -0.021984866
0.035306927 -0.2253203 0.4243755 -0.099190556 -0.15862243 -0.2419761 0.061825242 -0.2223443
-0.022017272 0.113935016 -0.19786729 0.06061576 0.008647097 -0.15292192 -0.05218072 0.15229149
-0.37782604 -0.5002605 -0.046292305 -0.007109477 -0.13915086 0.04264701 0.0032078172 -0.103665434
-0.010246003 -0.09726769 -0.015114427 -0.1852571 -0.06521325 0.016548071 -0.013046968 -0.8348925
0.16475268 -0.47120184 -0.010221145 -0.18862072 -0.21312355 -0.069955446 0.05064592 -0.063275345

critic.2.bias f4 [64]
00000000: 1db6 e53b 4b0d 673c 1676 ba3b 4f55 8f3d
00000010: 2458 543e dba3 82bc d04f cebd 397c 463d
00000020: ec4f 92be 7925 a33e a4d6 c73d 95e9 5d3e
00000030: 0dd7 e0bd 3325 803d bd15 5b3e edcd 7abc
00000040: eedd 56be 2606 9f3c 7015 70bd 08ac 8dbd
00000050: 1db2 fdbd 535e babd 40bd 1cbe 860f 143d
00000060: c2f0 8e3d 5dc3 163e 306e 9ebd 500e 923e
00000070: dee5 1dbe 3ece c1be 8c5c a9bd 86f4 27be
00000080: 87e1 933c 4a28 3fbe f196 c83d a3e5 08be
00000090: 3286 b8bb cd6e dd3d 6429 c33d ed8c b13d
000000a0: 9d85 013d 03cc 913d 3a2e a43d f7f6 b03d
000000b0: cfee 01bd cd32 a6bd 4244 10be 8b55 853d
000000c0: 669d 9cbd 9e5a 663d ed1e 2bbe 09c4 b4bd
000000d0: 5804 59bc d040 82bd 7cdf 3fbe 8660 22bd
000000e0: f537 91bd f6ec e73d 0de2 43bd 493f 143e
000000f0: d734 2a3e edae 7a3d 21fc 6a3e fcee b2bc
0.007010235 0.01410229 0.0056903465 0.06998693 0.20736748 -0.015947273 -0.10073817 0.04845831
-0.285766 0.31864527 0.09757736 0.21671136 -0.10978518 0.06257095 0.21395011 -0.015307886
-0.20983097 0.019412111 -0.058614194 -0.06917578 -0.12387488 -0.09100022 -0.15306568 0.036147617
0.06979515 0.14722963 -0.0773586 0.28526545 -0.15419719 -0.37852663 -0.08269605 -0.16401872
0.018051876 -0.18667713 0.09794415 -0.1336885 -0.0056312317 0.10812149 0.09529379 0.086694576
0.031621564 0.0711899 0.080166295 0.08640855 -0.031721886 -0.08115158 -0.14088538 0.06510457
-0.07647209 0.056238763 -0.16711016 -0.08826453 -0.013245665 -0.06360018 -0.18737596 -0.039642833
-0.07090751 0.113244936 -0.047823 0.14477266 0.1662172 0.06120198 0.22947742 -0.021842472

critic.4.weight f4 [1, 64]
00000000: d309 bcbd b29c 2b3e d934 783e d713 853e
00000010: 07c9 123f 4d17 7abe df94 6c3e 4852 7c3f
00000020: 81f7 433f 672d 673e eca8 193e a45d 2a3e
00000030: e497 ebbd fd40 fa3e c239 913e 2865 b83e
00000040: 09c7 29bf 3ccc 4abe d832 f23d c6ff 823f
00000050: 4572 bf3d 2d67 04bf 0534 0a3f 7168 0e3e
00000060: 603d eabd 32b9 ed3d b27b 9cbe 5c54 df3d
00000070: d587 96bf 9d97 13bf b201 113e d0c1 f4be
00000080: 6cda fdbe 7ecd 0fbf ab27 9fbf b9e0 56bf
00000090: bc6b b23e e074 323e 6445 733e 86d9 2c3e
000000a0: 85b2 91be 39d6 c83e d8a0 51be c9fc 2d3e
000000b0: a9d4 dd3d 3ec5 10be 2dd1 14be df12 1a3e
000000c0: e208 2e3f 30f1 7d3e 41cb 533e 67dc 733f
000000d0: 50fc 19bf c3a4 67bf be97 cabe 7f0b 4abe
000000e0: b30f 9bbf 83bc 763e 41fe b23d a2c8 7f3f
000000f0: c7a7 cd3e 23e2 863d 49cd 343f c6ea b1be
-0.09181561 0.16758993 0.2423891 0.259917 0.57337993 -0.24422951 0.23103665 0.9856305
0.76549536 0.22575913 0.15005845 0.16637284 -0.1150358 0.48877707 0.28364378 0.36014676
-0.6631933 -0.19804472 0.11826104 1.0234306 0.09347967 -0.51719934 0.53985626 0.13907029
-0.114374876 0.11607589 -0.30563122 0.10904762 -1.1760203 -0.5765322 0.14160803 -0.47804117
-0.49580705 -0.5617293 -1.2433981 -0.8393665 0.3484782 0.17427397 0.23756939 0.16879854
-0.28456512 0.3922594 -0.20471513 0.16990961 0.10831577 -0.14137742 -0.14532919 0.15046261
0.67982304 0.24799037 0.20683004 0.9525818 -0.60150623 -0.9048578 -0.39568895 -0.19730948
-1.2114166 0.24095349 0.08739901 0.99915516 0.40167066 0.06586101 0.7062574 -0.3474943

exp_avg f4 [6]
00000000: 18a2 8637 ddc5 7039 61ee b139 d6be 61b9
00000010: 7e0c bf38 ad8a cdb6
1.6049526e-05 0.00022961893 0.00033937677 -0.00021528764 9.1099166e-05 -6.12562e-06

exp_avg_sq f4 [6]
00000000: 97e3 2035 ed12 e234 20dc a435 9e71 2834
00000010: 726b 1a34 f186 6d32
5.993583e-07 4.210955e-07 1.2283017e-06 1.5687553e-07 1.4381456e-07 1.3825898e-08

exp_avg f4 [64, 43]
00000000: 464b 7836 34d7 de36 26c3 cf37 6887 3037
00000010: d88e d237 d5c9 9fb7 fb8e 7a38 548b 9837
00000020: f7c1 7436 8c6d 19b6 b039 a438 9469 9037
00000030: c4da 8137 e847 5837 1aab 4238 a065 0238
00000040: f779 8838 ab8e 24b8 9bf3 eab9 e78b 00b9
00000050: 57a2 2ab5 934b 2035 7b3d 01b6 dd29 2934
00000060: c29e 6e36 20c4 c235 1218 1434 4b67 8b36
00000070: 98c6 feb4 1fa0 9e34 f3b6 ef35 edda 2c37
00000080: 9f70 af35 244c 0237 2fea 9cb6 fdde 4c37
00000090: 7066 a8b5 f3b6 ef35 0bdb 2c37 9f70 af35
000000a0: 0802 7cb6 e9da 5537 75fa 1fb6 3f82 c137
000000b0: 6fce 48b6 ea54 f4b7 66a9 de33 3472 6b36
000000c0: 27b3 8b37 ac43 e3b5 ec79 9bb6 147d 82b7
000000d0: 50a6 fe38 2c1b 9338 f42a 38b9 a05b 1438
000000e0: 5401 d4b5 e66c 90b8 3983 0037 cf2b c837
000000f0: aeca ccb7 079e 5c39 1c9b 2bb9 9c9b 9c35
00000100: c66c 09b3 8ca8 69b6 2b5f 3133 12a6 2fb6
00000110: 0907 bcb5 3fbc 96b4 68cb 31b6 a8c9 a3b6
00000120: 6783 80b4 aa6d 9834 ee1a 5437 f82f a936
00000130: 9531 27b7 2af7 87b6 29c3 26b6 a579 1eb6
00000140: aa6d 9834 081b 5437 f82f a936 185b 2eb7
00000150: 4a3b aeb6 9359 05b7 2ae1 b136 6b16 28b6
00000160: e0ed 1535 3811 b7b6 5331 28b6 e6ae ac36
00000170: 674e b6b7 1b2e 2f37 8a66 c8b7 a661 8a37
00000180: 5156 1e37 2ca7 5538 867b c736 4518 fdb6
00000190: c21e 78b6 203a cdb6 0bd5 9fb6 563c ec37
000001a0: ab45 1038 498a 67b8 e0c3 0db3 cb81 9cb3
000001b0: 0095 63b6 6b45 16b3 4ece 2ab5 0c92 ee35
000001c0: becc d3b2 061a 3eb5 4a7c d8b5 b200 80b3
000001d0: 9f6e 5db6 790d a3b6 7462 2634 cf69 6cb6
000001e0: 8aa2 c1b5 9649 57b6 35f2 cb35 9f6e 5db6
000001f0: 2f0c a3b6 7462 2634 e1cb d2b6 029f 20b7
00000200: 47df 6ab6 e425 4a36 0885 70b6 9d7c a5b7
00000210: 1d60 95b6 4530 0fb7 9044 5437 1326 e1b7
00000220: 0c79 07b7 77f1 aeb7 a25a 1937 58c1 6a36
00000230: 94e8 a3b8 affd 11b6 87f2 0eb7 904c 27b8
00000240: 5837 e2b6 ac48 ceb7 17bb 37b7 512c 8c39
00000250: 38bf 92b9 d377 6235 9c09 4a35 7abe ad35
00000260: 871b 2733 c73d 3fb6 19e7 ebb5 d027 79b4
00000270: bea0 0cb6 f6ec f7b4 ce4d 4fb4 1597 37b5
00000280: 7399 01b7 11a5 1e35 902c a7b6 2794 3334
00000290: 3246 cfb6 5965 f5b5 1597 37b5 1099 01b7
000002a0: 11a5 1e35 6d7f e236 50e2 a0b6 afd9 ab35
000002b0: 91ce 00b7 008e 3d36 dca3 8737 9009 3db7
000002c0: cf55 a4b4 a2f0 9f36 d08a 34b7 6427 e0b6
000002d0: becd cf36 8cb0 9637 e97e b3b7 791f 1a38
000002e0: 3106 81b7 b4b8 44b5 f643 0a38 8dd6 dcb7
000002f0: 7474 27b7 fe4e 3b38 8b8e b639 2492 b4b9
00000300: 1dc3 00b6 b9ed 50b4 e349 5c35 5e4a acb2
00000310: 90fe 3136 15db 2035 c67a 4c34 aeef 2436
00000320: 8489 be35 ffe0 3634 a9cb eeb4 8e8e 2135
00000330: 730f 1fb4 7336 1cb4 055b cbb5 2e84 ecb4
00000340: ef15 a335 a9cb eeb4 327f 2135 730f 1fb4
00000350: 7d0a 19b6 e3b4 06b6 1f4e cdb5 da6d da36
00000360: 3f6e dfb6 a31b a6b7 ca57 0d36 5158 04b7
00000370: 5864 4737 ae6c b6b8 a08b d4b7 1dd2 b437
00000380: 521e 3738 cdb6 7c38 bd43 73b8 3a99 deb5
00000390: 3dc6 13b8 fdb3 b5b7 5e0d aa36 faea 20b7
000003a0: 20ab b236 9f5e b138 8673 cfb7 f592 ac34
000003b0: fcd8 11b5 ded4 3fb5 c8ad f933 fcc9 d4b5
000003c0: a228 a9b5 f0d9 9cb4 c20c 0fb6 9563 04b6
000003d0: 48d5 3cb4 ad6e 38b2 dace 8eb6 39a1 1eb5
000003e0: 1bf4 11b7 f4b2 1936 f16e 0bb7 e3fa 34b6
000003f0: ad6e 38b2 9cc9 8eb6 39a1 1eb5 8b90 e9b6
3.6998695e-06 6.6411685e-06 2.4767196e-05 1.0521944e-05 2.5100468e-05 -1.9048262e-05 5.9737806e-05 1.8184692e-05
3.6471736e-06 -2.2862541e-06 7.8308745e-05 1.7215301e-05 1.5479869e-05 1.2891345e-05 4.6412555e-05 3.108906e-05
6.507703e-05 -3.9233517e-05 -0.00044813458 -0.00012259149 -6.356617e-07 5.971462e-07 -1.9258284e-06 1.5754581e-07
3.5557173e-06 1.4511206e-06 1.3792331e-07 4.1545477e-06 -4.7455683e-07 2.9546297e-07 1.7860133e-06 1.03029715e-05
1.3071293e-06 7.766332e-06 -4.676425e-06 1.2211266e-05 -1.2546789e-06 1.7860133e-06 1.0302999e-05 1.3071293e-06
-3.7552109e-06 1.2746758e-05 -2.3838631e-06 2.3068043e-05 -2.9922483e-06 -2.9126608e-05 1.0368494e-07 3.5084204e-06
1.6653516e-05 -1.6932513e-06 -4.6335535e-06 -1.5555452e-05 0.00012142642 7.0145674e-05 -0.00017563609 3.5371282e-05
-1.5795617e-06 -6.886739e-05 7.659947e-06 2.3862258e-05 -2.4413075e-05 0.00021039705 -0.00016365614 1.1668194e-06
-3.1996727e-08 -3.4817813e-06 4.129758e-08 -2.6173698e-06 -1.4009139e-06 -2.8076644e-07 -2.6493453e-06 -4.8812544e-06
-2.3937466e-07 2.8391997e-07 1.2642455e-05 5.042177e-06 -9.96552e-06 -4.052087e-06 -2.4849526e-06 -2.361464e-06
2.8391997e-07 1.2642478e-05 5.042177e-06 -1.0392418e-05 -5.1925063e-06 -7.948273e-06 5.3012236e-06 -2.5047e-06
5.585298e-07 -5.4558295e-06 -2.5062661e-06 5.1463603e-06 -2.17326e-05 1.0441548e-05 -2.3889606e-05 1.6496353e-05
9.437631e-06 5.093885e-05 5.945042e-06 -7.542813e-06 -3.6972783e-06 -6.1162427e-06 -4.7633707e-06 2.8161488e-05
3.439716e-05 -5.520348e-05 -3.3007268e-08 -7.287925e-08 -3.3912365e-06 -3.4987732e-08 -6.363015e-07 1.7774887e-06
-2.4656739e-08 -7.0818385e-07 -1.6129427e-06 -5.960591e-08 -3.2995956e-06 -4.859347e-06 1.5495772e-07 -3.522833e-06
-1.4426926e-06 -3.208033e-06 1.519517e-06 -3.2995956e-06 -4.859197e-06 1.5495772e-07 -6.2822223e-06 -9.573765e-06
-3.4998682e-06 3.01224e-06 -3.5840221e-06 -1.972756e-05 -4.451735e-06 -8.534703e-06 1.2652148e-05 -2.683982e-05
-8.0748105e-06 -2.0854857e-05 9.140613e-06 3.4981258e-06 -7.815767e-05 -2.1754347e-06 -8.520327e-06 -3.9887207e-05
-6.7417677e-06 -2.4590954e-05 -1.095121e-05 0.000267359 -0.0002798976 8.436593e-07 7.526485e-07 1.294494e-06
3.8907753e-08 -2.8497177e-06 -1.7576123e-06 -2.3204416e-07 -2.095519e-06 -4.6179747e-07 -1.9306682e-07 -6.8392666e-07
-7.724727e-06 5.909979e-07 -4.9821756e-06 1.6724572e-07 -6.1772525e-06 -1.8283419e-06 -6.8392666e-07 -7.724637e-06
5.909979e-07 6.750159e-06 -4.794718e-06 1.2803847e-06 -7.6774895e-06 2.824585e-06 1.6169557e-05 -1.1267504e-05
-3.0609814e-07 4.7665826e-06 -1.0761156e-05 -6.680306e-06 6.1930323e-06 1.7963604e-05 -2.139756e-05 3.6745772e-05
-1.5380881e-05 -7.328447e-07 3.2965057e-05 -2.6325952e-05 -9.9810895e-06 4.465784e-05 0.00034819948 -0.0003444116
-1.9187057e-06 -1.9457993e-07 8.2063906e-07 -2.0057254e-08 2.652323e-06 5.992345e-07 1.9043645e-07 2.4577416e-06
1.4196125e-06 1.7031924e-07 -4.4479137e-07 6.018462e-07 -1.481365e-07 -1.454844e-07 -1.5151169e-06 -4.40546e-07
1.215083e-06 -4.4479137e-07 6.016227e-07 -1.481365e-07 -2.2804882e-06 -2.0072846e-06 -1.5296426e-06 6.5096947e-06
-6.658752e-06 -1.9801611e-05 2.1061737e-06 -7.888376e-06 1.1884687e-05 -8.6986794e-05 -2.5337387e-05 2.1555514e-05
4.3658838e-05 6.025173e-05 -5.79988e-05 -1.6584884e-06 -3.5232155e-05 -2.1660695e-05 5.067951e-06 -9.591453e-06
5.324735e-06 8.457642e-05 -2.4730118e-05 3.2144422e-07 -5.4332463e-07 -7.146281e-07 1.1626577e-07 -1.5854016e-06
-1.2603307e-06 -2.9215835e-07 -2.1316087e-06 -1.9727497e-06 -1.7586456e-07 -1.0735374e-08 -4.2560105e-06 -5.9094197e-07
-8.699509e-06 2.290294e-06 -8.310876e-06 -2.6968125e-06 -1.0735374e-08 -4.2554e-06 -5.9094197e-07 -6.960768e-06
