2026-01-29_07-44-49_Fase2_Empuje_V1/model_1950.pt (torch, 189045 bytes, 36 tensors)

std f4 [6]
000000 99 d0 53 3f 63 4c 66 3f 14 8c f3 3e 3e 78 b9 3f
       0.8274017 0.89960307 0.4756781 1.448982
000010 77 26 a2 3f 6c 4e 86 40
       1.2667989 4.197073

actor.0.weight f4 [64, 43]
000000 c8 ba da 3c bb 34 a0 3e 06 1f 19 bd b9 db 82 3c
       0.026700392 0.3129023 -0.037383102 0.015973913
000010 58 01 9e be 5e 92 d0 be 9c ac 15 be be b4 4d be
       -0.308604 -0.4073667 -0.14616627 -0.20088479
000020 9f ff d6 3b 97 8f 62 3d 17 8d 56 bc 3b cc e5 3d
       0.006561234 0.05531272 -0.013095162 0.112205945
000030 ec 61 0b 3e 9a 7f 5c 3e b5 97 d2 3c b3 69 2c be
       0.13611573 0.21533051 0.025707105 -0.16837196
000040 2b b3 25 be 33 57 22 be 4c 90 65 bd b4 12 3e 3c
       -0.16181628 -0.15853576 -0.056045815 0.011601139
000050 22 8d 7a 3f 64 70 fa 3e c7 49 62 3e 91 22 97 bc
       0.978716 0.48913872 0.22098456 -0.0184491
000060 57 95 0b bf a6 3d 5f be b7 49 40 be 93 bf 88 be
       -0.5452475 -0.21800861 -0.1877812 -0.2670866
000070 db 83 22 3e d7 a7 90 be 6e 83 a7 3e 7e a4 c9 bc
       0.15870611 -0.28253052 0.3271746 -0.024614569
000080 3a ad 9d 3e 20 d7 03 bf 38 be fe 3d 6e a0 b5 3e
       0.30796224 -0.5150013 0.12438625 0.3547396
000090 25 db 1b 3e 58 ab 9d 3e 1e f1 07 3e cd 08 15 3e
       0.15220316 0.30794787 0.13275573 0.14554138
0000a0 05 ba e6 be 0f 5a 80 be 01 c4 93 3e a9 2a 91 bd
       -0.45063797 -0.2506871 0.28860477 -0.07088215
0000b0 fb 5c 2e 3e d1 49 9f 3e ae 37 25 3f 94 e9 28 bf
       0.17027657 0.31111005 0.64538085 -0.6598141
0000c0 c4 31 34 be 29 16 06 3d 0c 5c 1e bf 4e fe fc bd
       -0.17597109 0.032735977 -0.618592 -0.12353192
0000d0 e0 28 cb bd dc 12 4c 3e 31 32 0e 3d 08 df aa 3d
       -0.09919906 0.1992907 0.034715835 0.08343321
0000e0 7f 7c f0 bd ab b9 87 bb 51 fa d5 3e 6c fb 24 bf
       -0.11742496 -0.0041420064 0.4179254 -0.6444614
0000f0 25 a2 2a be bc 2b 58 bd 42 b8 b2 3b ba 1d 45 bf
       -0.16663416 -0.052776083 0.005454094 -0.76998484
000100 57 26 7d 3f 64 cd 13 3f 33 ec d2 3e ad f3 51 bf
       0.98886627 0.57735276 0.4119583 -0.82012445
000110 28 75 36 bf b0 b7 34 bc 2d 91 cd bd 6e 0b d5 3e
       -0.71272516 -0.011030123 -0.10037456 0.41610283
000120 b3 5e 94 3e 26 b4 04 be a8 e1 61 be 54 c3 a4 3e
       0.289785 -0.12959346 -0.22058737 0.32180274
000130 89 43 e4 bd 10 17 cd be e5 b6 99 3e d5 35 1f 3f
       -0.11145694 -0.40056658 0.3002235 0.62191516
000140 6f 4d c1 bd 1d 3a 1b be f5 45 0a 3f 77 ca c4 3d
       -0.094385974 -0.15158887 0.54012996 0.096089296
000150 73 a1 0f 3f 58 0b 36 be 60 cf c8 be 5f 86 5f be
       0.56105727 -0.17777765 -0.39220715 -0.21828602
000160 7f f1 9e be 34 99 8e 3d 31 10 ce 3b 5c fc 49 be
       -0.31043622 0.06962815 0.0062885513 -0.19725174
000170 8c 88 8e 3e 96 67 75 bd 33 31 8d be ff b8 79 be
       0.27838552 -0.05991324 -0.275766 -0.24386977
000180 24 68 0a bc 95 a1 54 3d b3 d4 65 be e4 c0 3b be
       -0.008447681 0.05191191 -0.2244442 -0.183353
000190 2c af c0 be d2 5a 93 3d 4b 59 1c bd 3b 59 86 be
       -0.37633646 0.07195057 -0.038171094 -0.26239952
0001a0 82 12 a6 3b 36 2d 9d bb 2b 0c d5 be 71 fd 14 bf
       0.0050681243 -0.0047966493 -0.41610846 -0.5819922
0001b0 68 68 00 3d 5e a9 c1 be 1a 93 21 bd 85 89 ac be
       0.03134957 -0.3782453 -0.039446928 -0.3369867
0001c0 8b 45 93 3d 65 f2 f6 be 04 72 15 be 5a ca e8 bd
       0.07190999 -0.48231807 -0.14594275 -0.113667205
0001d0 2a 0f 4f bd 03 10 94 3e 49 4c 15 3f c6 76 9e be
       -0.05055157 0.28918466 0.58319527 -0.30949992
0001e0 96 9d 33 bb 36 b5 37 be 97 6c 02 bf 40 c9 53 be
       -0.002740716 -0.1794022 -0.50946945 -0.2068224
0001f0 3f f6 a1 3e c0 6a 0c 3f 09 5e e5 be 60 62 8e bd
       0.31633183 0.5485039 -0.44798306 -0.06952357
000200 9c fa e7 3e d0 7a a6 3c f3 ea 00 3d 48 7d 14 3e
       0.45308387 0.020322233 0.031474065 0.14500916
000210 ad f9 fd be c7 1c a8 3e cd b6 8a bc 8a a4 b4 3d
       -0.4960455 0.32834455 -0.01693287 0.08820446
000220 1f e1 88 be 47 8b 87 3e ca a3 45 3e 00 2f 9e bd
       -0.26734254 0.26473448 0.19300762 -0.07723808
000230 35 03 84 3d 7c 2b 01 bd c1 14 3c 3d f5 fb 29 3d
       0.06445924 -0.03153561 0.04591823 0.04150005
000240 80 0f 82 be 69 4b 56 3e de 1d 2a 3e 8b cd 34 3c
       -0.2540245 0.20927204 0.16612956 0.011035333
000250 a7 a3 c9 3c c3 55 05 be 58 88 8b be 78 1b cc be
       0.024614168 -0.13020997 -0.2725246 -0.39864707
000260 26 28 34 3e 86 08 02 be c7 01 55 3e dc a9 59 be
       0.1759344 -0.12698564 0.20801459 -0.21256202
000270 17 60 04 bc b4 39 83 be 10 5f 53 bc 93 c1 e1 bc
       -0.00807955 -0.25629961 -0.012901083 -0.027558124
000280 df f8 9f bd fe 27 a2 3e b8 fe d6 bd 9d 7e 06 be
       -0.0781114 0.31671137 -0.104978025 -0.13134237
000290 5a c7 03 be 91 59 14 3b 86 34 c9 bc 17 ce ba bd
       -0.12869015 0.0022636394 -0.024561178 -0.0912134
0002a0 6d 9c a3 3e 78 6d 52 3e fa 19 80 bd 4a 7d 08 bf
       0.3195528 0.20549572 -0.06254955 -0.53316176
0002b0 b2 1d 6a 3e 79 3e 19 bf c8 43 14 bf fd 95 a1 bb
       0.2286289 -0.5986095 -0.57915926 -0.00493121
0002c0 44 b2 ba 3c 81 b0 f6 3e b7 0e 05 3e 9f 96 9e 3e
       0.022790082 0.48181537 0.12993895 0.3097429
0002d0 94 23 99 3e 3d 07 1a 3d f6 60 ac bd 89 64 8d bc
       0.29909956 0.03760456 -0.08416931 -0.017259853
0002e0 bc 60 49 3e 13 ab dd bd 28 54 97 bd c8 c8 cc 3d
       0.19665807 -0.108236454 -0.073890984 0.099992335
0002f0 42 25 94 3c 5f ce 2e 3e a1 bf d4 3c 0a 9b 4d bc
       0.018084172 0.17070912 0.025970282 -0.012549171
000300 07 bf e4 bc 82 19 27 3f ff 30 1a 3e 5e 1d 9e be
       -0.02792312 0.65273297 0.15057753 -0.3088178
000310 86 5e 9b be 14 24 90 bd 58 57 47 bd 49 3f 3d bd
       -0.30345553 -0.07038131 -0.048667282 -0.04620293
000320 21 87 0d bd 9c 5a 3b be 93 35 4d be 64 cf 91 3e
       -0.034552697 -0.18296283 -0.20039968 0.2847854
000330 01 f3 39 be 58 ba b4 be 49 9d 82 bd 28 e6 3a be
       -0.18159105 -0.3529842 -0.06377656 -0.1825186
000340 9a f1 8f be b9 91 8f be a8 9a 9e 3e 12 80 d4 bd
       -0.28114015 -0.28040865 0.30977368 -0.1037599
000350 83 ea 50 3e eb aa 91 bf b5 2e a0 3e 15 1e 7f bd
       0.20401959 -1.1380285 0.31285635 -0.062284548
000360 82 5f d4 bd 1e ff e2 bd 50 92 b3 bd 1a bf 3c 3e
       -0.10369779 -0.11083816 -0.08768141 0.18432274
000370 d3 5a d9 bd ad 35 8a 3e 4a cd 4e bf 51 81 b1 bc
       -0.106130265 0.26994076 -0.80781996 -0.021668108
000380 61 4c 11 3d 02 2a 62 3d 60 ba b0 bc 6e 3b 05 be
       0.03547323 0.055215843 -0.021573246 -0.13010952
000390 cd 90 ac be 60 76 8d be ac 51 5e be bb da df 3e
       -0.33704224 -0.27629375 -0.21710843 0.43721566
0003a0 87 1f 5b 3e d1 47 22 3d 50 cb 34 3c 11 69 37 be
       0.21398745 0.03961927 0.011034802 -0.17911173
0003b0 5b c0 32 bf c8 4b 0f bd 0c 6c d4 3e 74 02 e9 bd
       -0.6982476 -0.03498438 0.41488683 -0.11377421
0003c0 3f 3c d2 be c8 38 9c be 28 4a 3f be 57 e0 6a be
       -0.4106159 -0.3051207 -0.18680632 -0.22937141
0003d0 0c a5 27 be 69 1e 29 be 6f 9e 3b be f2 ec 70 3e
       -0.16371554 -0.16515507 -0.18322156 0.23527887
0003e0 62 9f 7d bd 6a 4c bc 3d 52 55 2d be e7 15 b8 be
       -0.061919577 0.09194262 -0.16927078 -0.3595421
0003f0 50 0e ad bd 11 01 1f be e9 97 0e 3e 7d 79 35 bf
       -0.084499955 -0.1552775 0.13925137 -0.708885

actor.0.bias f4 [64]
000000 0d 48 a3 3c 3a 20 6c 3e ef 60 d8 3c 1e 12 ea bd
       0.019931817 0.23059168 0.026413409 -0.11429237
000010 26 c9 6d 3c 58 f4 c4 bd 46 2f 29 3e 37 1e d9 3c
       0.01451329 -0.09616917 0.1652194 0.026503665
000020 53 12 6b bd 05 eb 07 3e b2 63 ba be b4 ec 5d 3e
       -0.057390522 0.13273247 -0.36404186 0.21672326
000030 45 f3 92 be f9 39 5b be bd ab 65 3d e2 96 69 3c
       -0.28701225 -0.21408834 0.056071986 0.014257165
000040 05 6b 0e bd 3d 5d 3c bd 09 c5 bd be a0 61 be bd
       -0.03477003 -0.045987356 -0.37064388 -0.09295964
000050 c9 b4 02 bf 10 a3 b7 3d 1a 7c 22 be c9 fa 5b be
       -0.51057106 0.089666486 -0.15867653 -0.21482386
000060 4d 09 71 be 99 ba e9 3d 17 78 18 be 3d 97 7a bc
       -0.23538704 0.11412544 -0.1488956 -0.015294847
000070 df 26 5e 3d a2 8d ad be 93 d2 aa 3e 8a f4 02 3e
       0.05423629 -0.3389712 0.3336378 0.12788597
000080 9b da c6 bd 2d 7e 15 3e 01 9e 6d be 8b 0f ce 3c
       -0.097096644 0.14598913 -0.23204805 0.025153896
000090 1b 4b 2f 3e 6a 9d b4 be a6 62 f0 bd 12 a4 be be
       0.17118494 -0.35276347 -0.11737566 -0.3723455
0000a0 41 8c 0b be d4 a8 16 be 56 a4 0c bd 03 44 d5 bd
       -0.13627721 -0.1471284 -0.03433641 -0.10413363
0000b0 42 7d 4c bd 00 05 05 3e e8 82 0d 3e e5 31 41 be
       -0.049924143 0.12990189 0.13819468 -0.1886669
0000c0 c6 e9 7e be 37 eb fa bc 81 f6 a4 3d 41 8e 08 be
       -0.24893865 -0.030629737 0.080548294 -0.13335516
0000d0 62 42 09 be 7c b4 1c be e7 f1 48 bd 27 ff 1b 3d
       -0.1340423 -0.15303224 -0.04905882 0.03808513
0000e0 69 bc b7 3e e7 00 3a 3c ae 2a 9a 3c f4 5a d6 be
       0.35885933 0.011352754 0.01881918 -0.41866267
0000f0 3c 7a e7 be ea 09 d2 3d 3c 6c 2c be 97 69 0a be
       -0.45210445 0.10255797 -0.16838163 -0.13516842

actor.2.weight f4 [64, 64]
000000 47 83 2d 3d 6f ca 28 3d 97 ac 31 bd 3c cf 7a 3d
       0.042361524 0.04120868 -0.043377485 0.06123279
000010 69 86 03 3d c4 2f 3d 3c d7 ba 83 3d 4a d4 c4 3d
       0.032110605 0.011547033 0.06432121 0.096108034
000020 4a 65 f4 bd cd 84 87 3c 0b 97 14 3d d1 4b 7b bd
       -0.11933382 0.016542817 0.03627686 -0.0613516
000030 96 3c b9 3d 1f ed 04 be 77 10 88 3e 3b 7f 74 be
       0.09044759 -0.1298108 0.26575062 -0.2387666
000040 64 ef 22 be 16 5c 53 3e 4c 55 6e bc 88 d9 40 3d
       -0.15911633 0.20640597 -0.014546704 0.047082454
000050 b5 c6 6e 3d 95 10 8b bd d8 57 a1 be 70 09 42 3d
       0.05829497 -0.06790272 -0.31512332 0.04737228
000060 98 e8 cc 3d b7 70 23 3d b4 80 01 3d 50 ab b8 3d
       0.10005301 0.039902415 0.03161688 0.0901705
000070 38 57 73 3e 0e 5e 98 bd 00 1c ae 3d 30 18 29 3e
       0.2376374 -0.074398145 0.08501434 0.16513133
000080 72 ce e2 3d 69 f7 12 3e 75 34 05 be 67 b0 f0 3c
       0.110745326 0.14352192 -0.13008292 0.02938099
000090 5d 45 00 be 32 7c 07 bc 1d 54 a4 3e 63 a2 8a 3d
       -0.1252646 -0.008269357 0.32095423 0.06769254
0000a0 d6 32 fe bb 43 87 ea bd ce 0c 61 bd d2 b3 d6 bd
       -0.007757525 -0.114515804 -0.054943852 -0.10483517
0000b0 d8 04 bd 3d 2c 0c 78 be 69 ee f1 3d 00 d5 f1 3d
       0.092294395 -0.24223393 0.11813051 0.11808205
0000c0 0d a8 9c bd 2a 00 9d bc 9d 65 5f bc 5f 77 2b be
       -0.07649241 -0.019165117 -0.013635066 -0.16744755
0000d0 e0 5d eb 3d 70 25 53 be 63 ae ef 3c 62 ee 5a 3e
       0.114925146 -0.2061975 0.029257959 0.21379998
0000e0 88 08 cd 3c 98 36 f3 3c b0 17 0d be 3f 97 0c bc
       0.025028482 0.029689118 -0.13778567 -0.008580982
0000f0 29 5a ef 3c b4 6c 58 3e 78 18 fb bd 89 45 fa bd
       0.029217796 0.21135217 -0.122605264 -0.12220294
000100 f0 13 55 be bd a8 13 be 1f 85 2e 3e dd 03 7a bd
       -0.20808387 -0.14419837 0.17042969 -0.06103884
000110 a9 c5 ec 3d 20 a5 89 3e bd 7f eb 3d b0 f2 38 be
       0.11561138 0.26883793 0.114989735 -0.18061328
000120 dd 2c e1 bd 65 7b c4 be b1 ab b5 3c c5 0f 0a 3e
       -0.10994885 -0.38375393 0.022176595 0.13482578
000130 1b 6b fb bc 04 5d a0 3c 31 b3 86 be e8 c6 34 be
       -0.03069072 0.019575603 -0.26308587 -0.17654002
000140 da d8 e1 3d 7f 9a f9 3d 64 93 84 3e 7d 66 e7 3c
       0.11027689 0.12187671 0.258937 0.028247112
000150 a3 ec ab 3d 2d 34 48 bd cc 98 35 3e 2a dc e1 3d
       0.08394744 -0.048877884 0.17734069 0.11028321
000160 3f 4f 1b 3c 26 b5 30 3e b2 5e cb be 87 e7 1e 3d
       0.009479343 0.17256603 -0.39720684 0.03879502
000170 7a 51 4a 3d 93 04 cb 3d 0b f0 b0 bd 4b 2b a7 3d
       0.04939411 0.09912982 -0.086395346 0.08162554
000180 8e e5 37 3e 1a ab 31 be b0 05 89 3e de db 91 bd
       0.17958662 -0.17350426 0.26762152 -0.071220145
000190 1c 60 0c be b1 5d bc 3e f4 6c ea 3c 49 1e 02 3e
       -0.13708538 0.3679023 0.028616406 0.12706865
0001a0 be dc 84 3e 6d 18 79 3e 2e c1 d0 3a 5b cf e0 3e
       0.25949663 0.24325724 0.0015926713 0.439082
0001b0 18 d8 ab be 8a c9 f8 bc c1 28 24 bf 1e 8a 29 bd
       -0.33563304 -0.030369539 -0.64124686 -0.041391484
0001c0 91 f7 7b 3e 6c 37 03 3c 27 1d 2f 3e 43 40 88 3c
       0.24606158 0.008008819 0.17100964 0.016632205
0001d0 c1 6f 3a 3d 9f 2a aa 3d ee 3a 83 bd 6a b6 a5 be
       0.045516733 0.083089106 -0.06407724 -0.32365733
0001e0 8c 2a 8d 3e 76 26 30 3d 49 bf d7 bd a1 c4 1d 3e
       0.27571523 0.04300543 -0.105345316 0.15407039
0001f0 f9 85 dc bd 83 c9 8d 3e 8b 54 0c bf dd 1f 2b 3e
       -0.10767741 0.27692804 -0.548165 0.16711374
000200 71 11 bc 3c 49 d6 83 3d 46 05 8c 3d 63 f7 d3 3d
       0.022957535 0.06437356 0.06836943 0.1034992
000210 ce 3d 5d 3d c4 cb 29 3d 92 79 35 3e 8f 2c 2d be
       0.05401402 0.04145409 0.17722157 -0.16911529
000220 c4 27 7d 3d 6f 93 d7 3d 5d 85 66 be a9 83 19 3e
       0.0618055 0.105261676 -0.22511812 0.1499163
000230 d1 27 15 bd 68 6c 9c bd 71 e7 06 3e 6d 69 92 3c
       -0.036414925 -0.07637864 0.13174225 0.017872537
000240 46 94 63 3d 26 c7 f4 bc 3b b0 49 bd 46 d3 25 3e
       0.055561326 -0.029880118 -0.049240332 0.16193876
000250 89 02 d0 3c c5 e4 40 be 07 56 41 3d a5 9c 72 be
       0.025391834 -0.18837269 0.047201183 -0.23692568
000260 fd 60 7b bd 41 b0 8c bd e8 83 a0 bb df 47 3f bf
       -0.061371792 -0.06869555 -0.004898537 -0.7471904
000270 78 75 85 3d 9f c1 ce bd 47 74 87 be e0 24 d0 3d
       0.06516546 -0.10095524 -0.264559 0.10163283
000280 d9 76 f2 bd c5 da 47 bc 8b 0a 8b 3e a4 8a af bc
       -0.11839075 -0.012198155 0.2715648 -0.021428414
000290 b2 05 cb bc c2 41 1e 3d 91 61 b6 bd 38 72 d2 3d
       -0.02478299 0.03863693 -0.08905328 0.10275692
0002a0 02 4d 4a 3d bc 53 cd bd 82 ac a3 bd 1c 4a 73 bc
       0.049389847 -0.10025737 -0.07991888 -0.014849212
0002b0 d4 8d 64 bd 0d ad 13 be a9 bb 94 be 72 1e 4d be
       -0.05579932 -0.14421482 -0.29049423 -0.20031145
0002c0 4f 3d a2 3c 31 e7 91 bd 71 5b 5b 3e 22 ec bd be
       0.019804625 -0.071241744 0.21421601 -0.37094218
0002d0 d9 06 08 bd 86 e3 bc 3b 40 39 39 be f2 5c 02 be
       -0.033209655 0.0057644276 -0.18088245 -0.12730768
0002e0 51 a6 27 3e 9d b1 f2 3d 9e 5e 09 be e7 ae 4f be
       0.16372038 0.11850283 -0.13415 -0.20281564
0002f0 f0 6f 68 bd 3e 36 b4 bb 4f 94 b9 be fc a7 06 3e
       -0.056747377 -0.0054996302 -0.36245963 0.13150018
000300 f5 db dc 3b d2 79 fb 3c f9 94 b2 bd 29 10 8c 3d
       0.006740088 0.030697737 -0.087198205 0.0683902
000310 c3 bf 0d 3d ca 47 23 3e 92 67 a1 3d 7c de a8 bd
       0.034606706 0.15945354 0.078810826 -0.082455605
000320 d0 66 23 3c ac f8 0c 3d ed 48 c7 3d 23 10 37 bd
       0.009973243 0.03441684 0.09730706 -0.044693124
000330 99 32 bc 3c 9c d8 03 be 39 e9 20 3e 89 5c 01 be
       0.022973346 -0.12875599 0.15713967 -0.12632956
000340 9c 9f ad bc 0f d4 92 3c f0 fc 22 3d 1d 78 1d 3d
       -0.021194272 0.017923383 0.039792 0.038444627
000350 97 17 06 be 74 e3 c1 bd 6c 43 bb 3c 50 33 2e bd
       -0.13094936 -0.09467211 0.022859298 -0.042529404
000360 aa 97 90 3d 2a e3 8c 3d 64 0c a4 3d 95 76 bb 3d
       0.070601776 0.068792656 0.08010176 0.09153477
000370 9a d4 ee b9 81 b9 09 bc 7a 3e 3d be 53 a1 94 bd
       -0.00045553298 -0.008406044 -0.18480864 -0.07257333
000380 8e 7b bc 3d b9 20 a5 bc c6 2c de bc 77 30 dd 3d
       0.09203254 -0.020157205 -0.027120959 0.108002596
000390 86 f7 31 be f6 3e dc 3d c9 83 9e 3e 8d 59 8f 3d
       -0.17379579 0.10754196 0.3095992 0.06999502
0003a0 f6 d5 6c bd 5b 84 fd bd 9b b9 a4 3d fc ea 97 3d
       -0.057821237 -0.123787604 0.08043214 0.074178666
0003b0 4f 33 49 3e 79 a2 a4 3c ec 79 51 3d 0f 86 17 3e
       0.19648479 0.020097004 0.051141664 0.14797233
0003c0 28 0c f0 3c 5f 0b b3 bc 2e 61 05 be 0b 1e 06 3e
       0.029302672 -0.021856008 -0.13025352 0.13097398
0003d0 73 0f 2d bb 19 e4 25 3e 50 51 ea bd 7d 4f 4e 3e
       -0.0026406914 0.16200294 -0.114412904 0.2014751
0003e0 e2 a2 3b be 41 2e ef bd 73 de ed 3d 63 24 94 bc
       -0.18323854 -0.11678744 0.116146944 -0.018083757
0003f0 57 e6 ed 3d b9 2e 9d 3d bd 15 30 bc 1c 1f 3c bd
       0.116161995 0.07674927 -0.01074737 -0.045928106

actor.2.bias f4 [64]
000000 6b a5 cf bd 0d 84 85 3d b8 ce 30 3c cb 54 0c 3e
       -0.10138973 0.06519327 0.010791473 0.13704221
000010 71 5e 0b 3d ed e9 07 3d bd f6 31 bd 63 c2 8a 3e
       0.034025613 0.033182073 -0.0434482 0.2710143
000020 ee 77 d6 bd 5d fc d0 bd 8a 9d bd 3e 19 91 06 be
       -0.104720935 -0.102043845 0.37034255 -0.13141288
000030 c1 1e 1f ba 08 80 80 be bf a2 57 3d 8b 35 6b 3e
       -0.00060699513 -0.2509768 0.05264544 0.22969644
000040 17 e8 30 3c 8f ef a0 be ef 44 8d bc fa 83 f6 bd
       0.010797522 -0.3143277 -0.017244784 -0.12036891
000050 b8 85 66 3d c2 74 83 bd bd 4e 0b be 54 98 da bc
       0.056279868 -0.06418754 -0.13604255 -0.026683964
000060 59 b1 3e bc 41 20 9e 3e b7 ed ce 3d 27 fd 09 3e
       -0.011638963 0.30883983 0.10103934 0.13475476
000070 17 87 05 be 40 74 22 be 1f e9 fa 3d 10 0a c1 3d
       -0.13039814 -0.15864658 0.122514956 0.094257474
000080 6a 36 88 be a2 ed 30 be 05 82 6d bd 50 44 77 be
       -0.26604015 -0.1727815 -0.057985324 -0.24147153
000090 11 45 c5 bd 3b 82 07 be ba 4f 2f bd cd 7b 06 bc
       -0.09632314 -0.13233273 -0.042800643 -0.008208227
0000a0 c6 cd 0f 3e 40 32 b1 be 41 2f f9 bc 96 5c e8 3c
       0.1404334 -0.3460865 -0.03041804 0.02836446
0000b0 ce 62 c2 bd 1e 2b 33 be 3e ac 4d be 46 af 45 be
       -0.09491502 -0.17496917 -0.20085236 -0.19305143
0000c0 eb 87 82 3d 8a a0 b6 3e 61 77 99 bd fe e7 4d be
       0.063735805 0.35669357 -0.07493473 -0.20108029
0000d0 29 3b 6f 3e c4 76 97 3d 55 ce c9 3d c3 b0 9e be
       0.23362412 0.073956996 0.09853808 -0.30994233
0000e0 40 1e 2c 3e 6a 4c d0 3d 6b 5d 55 bd 51 8c e4 bd
       0.16808414 0.10170825 -0.052091043 -0.11159576
0000f0 6c 17 5e 3c ed f3 96 bb a0 2d 41 be 5b 04 58 3e
       0.013555389 -0.004606715 -0.18865061 0.21095411

actor.4.weight f4 [6, 64]
000000 7a 74 2d be 7e e5 00 be 63 c9 d9 bb 0c 54 e9 bd
       -0.16938964 -0.12587544 -0.0066463216 -0.11392984
000010 a0 58 ab bd e4 3d 8b 3d e9 ec fd bd cb d5 4a 3d
       -0.08366513 0.06798914 -0.12398703 0.049520295
000020 87 13 62 3d 41 7d d8 bd 7e 26 6b bd 1a 29 17 3d
       0.055194404 -0.10570765 -0.057409756 0.036904432
000030 7f 19 80 3d 41 1c 52 3d fe a1 d0 bd d1 02 90 bd
       0.06254863 0.051296476 -0.101871476 -0.07031787
000040 96 6d 4a 3e 64 c6 3e 3e c1 c4 2e 3d 33 07 e2 3d
       0.19768366 0.18630368 0.042668108 0.110365294
000050 b3 6d d3 3c c3 8a 3d be 62 68 85 3d 57 f8 17 3e
       0.025809145 -0.18509965 0.0651405 0.14840828
000060 e3 7d 1b 3e 86 53 10 3b 1e 4d 9d 3d 1b 94 cb bd
       0.1518474 0.002202244 0.076807246 -0.09940358
000070 12 c2 17 bd f0 54 8b be 5d d9 30 bc a3 85 f1 b9
       -0.037050314 -0.2721324 -0.010794011 -0.0004606667
000080 ad af a7 bb cf f5 1d 3e ca 5c e1 bc da 1a 43 3d
       -0.0051173777 0.154258 -0.027510066 0.04763303
000090 b3 72 87 bc f0 97 2d 3d 7d c4 87 be 31 e2 74 3e
       -0.016534185 0.042381227 -0.26517096 0.2391441
0000a0 dd 37 b0 3d b7 bc 8f 3d c8 bc 5e 3c a1 90 5a bd
       0.08604405 0.070184164 0.013594814 -0.053360585
0000b0 16 17 9d 3e a7 c9 b0 3d 23 d8 00 bc 21 b8 8d 3d
       0.30681676 0.08632212 -0.007864031 0.069198854
0000c0 f9 ff 76 3d 22 23 9d bb ff 79 cc bd b9 88 eb 3c
       0.06030271 -0.004795448 -0.099842064 0.028751718
0000d0 d8 6e 12 be e4 a1 76 bd 4e 00 84 be c7 87 0b bd
       -0.14300096 -0.060212985 -0.25781482 -0.034065034
0000e0 03 4a c8 3d 75 b3 c5 bd 6f d3 d1 3a eb d4 17 be
       0.097797416 -0.09653369 0.0016008447 -0.14827316
0000f0 02 c3 9d bd 31 73 dd 3c 0e f4 8f 3e f8 1f f6 bd
       -0.077032104 0.027032467 0.28115886 -0.12017816
000100 be f1 a4 3d 33 22 e4 3d 4c 6c 88 be a6 79 07 bd
       0.08053921 0.111393355 -0.26645124 -0.033074997
000110 2a 84 80 3c 48 60 51 bd 5e 3d e2 3d 14 f4 75 bd
       0.01568802 -0.05111721 0.11046861 -0.060047224
000120 b0 bd 28 3e 1c 70 98 bd a1 ee 0e 3e 8c 79 80 3c
       0.1647861 -0.07443258 0.13958217 0.015682958
000130 1d c4 2d be aa c5 40 bd 80 2a 5c 3d dd 87 3c bc
       -0.16969343 -0.047063507 0.05375147 -0.011507002
000140 7c 4a b8 3d 33 89 dc bc 44 9e 9c 3d cd 23 9e bd
       0.08998582 -0.02692089 0.07647374 -0.07721672
000150 24 26 33 bd 5d c4 f7 3d af b4 72 bd fa 06 21 be
       -0.043737546 0.12098 -0.059254345 -0.15725318
000160 f1 8e cd bc f7 f1 54 3c c2 94 ec 3c d2 14 28 bc
       -0.025092574 0.012997142 0.028879527 -0.01025887
000170 18 d5 0b be df 0f 69 3b d1 32 0a be 1d 51 1b bb
       -0.13655508 0.0035562438 -0.13495947 -0.002369947
000180 d3 fa 34 3c 5f 63 95 bc 97 ac 06 3e b1 c4 03 bc
       0.011046129 -0.01823586 0.13151775 -0.0080425
000190 fe 25 b5 bc 2e e4 bd bd 46 c3 d8 bd 48 09 38 3d
       -0.022112843 -0.092720374 -0.105841205 0.044930726
0001a0 6d c9 51 3e e8 1a aa bd 88 8d 8a be 8d fc 0b 3d
       0.20486994 -0.08305913 -0.27061105 0.034176398
0001b0 0b c4 0c 3e 5f 06 21 3e 65 14 bb 3d 2b f6 59 bc
       0.1374666 0.15725087 0.09134749 -0.01330332
0001c0 44 90 0e 3e 6b f9 56 3d ef 4b c8 3c 5f bb 19 3e
       0.1392222 0.052483957 0.02445027 0.15012883
0001d0 1a df 20 3d 5a 07 12 3d 44 4d fe 3d 0e 21 f5 bc
       0.039275266 0.035651542 0.12417081 -0.029922988
0001e0 3a 87 7c bd 9e db e4 3d 3e 06 bf bd a5 8b 23 be
       -0.0616524 0.11174701 -0.093273625 -0.15971239
0001f0 e7 81 09 3e 5a 87 a0 3c 83 31 d0 b8 59 9f 85 3d
       0.1342846 0.01959579 -9.927435e-05 0.06524534
000200 fc e1 84 bb 7f 3c 15 3d aa b3 a0 bd 30 a7 54 3d
       -0.0040552597 0.036434647 -0.07846768 0.051917255
000210 f6 79 60 3c 45 c1 4f 3c 8c d7 d3 bb 6e 61 fa 3d
       0.013700953 0.012680356 -0.006464904 0.122256145
000220 ef 43 8c be 27 af 9a 3d fa c9 78 3d 15 39 8d be
       -0.2739558 0.07552939 0.060739495 -0.27582613
000230 c5 1a 29 be a4 fa 6d be 3d 90 e0 3c 23 39 1d 3d
       -0.16514118 -0.23240143 0.027412528 0.038384568
000240 29 15 8b bd de cf 2c be 64 d3 c1 3d 3e 25 40 be
       -0.06791145 -0.1687617 0.09464148 -0.18764207
000250 39 91 83 3d c5 4b 58 bd 5b 4a 20 be 38 58 b0 bd
       0.064241834 -0.052806634 -0.15653364 -0.086105764
000260 20 b3 f6 bd 52 a3 f9 3d eb e4 3e 3d a5 d9 67 3d
       -0.12045884 0.12189354 0.046605032 0.056604046
000270 d5 5e 92 be c1 1e ce bd 02 00 bd 3d 75 80 c6 3d
       -0.28587976 -0.100644596 0.09228517 0.0969247
000280 e8 3a f5 bc dd cd 55 be 00 96 f0 39 cd 8c 45 be
       -0.029935315 -0.20879312 0.00045888126 -0.19291992
000290 61 70 90 bd 99 d6 94 3c 5b 1d 7f bd 92 52 65 bd
       -0.070526846 0.018168734 -0.062283855 -0.05598695
0002a0 c8 bc fc 3c 5d be 62 be b1 fb 0a bc 84 7f c7 3d
       0.030851737 -0.2214293 -0.0084828595 0.097411186
0002b0 48 4f 81 3c c3 77 95 bd 57 33 a9 bd 87 84 9a bd
       0.015784875 -0.07298233 -0.082617454 -0.07544809
0002c0 ce 6b 00 3e 72 91 d3 3d a0 11 ef bd 52 7f af bd
       0.12541124 0.10330476 -0.116732836 -0.08569206
0002d0 48 4d f9 3d 94 a6 8c 3d 23 3b 65 3b f7 21 57 be
       0.12172943 0.0686771 0.0034977875 -0.2100905
0002e0 13 a2 eb 3d c3 7f cf 3d c9 24 b7 3c a0 27 80 bc
       0.115055226 0.101317905 0.022356408 -0.015643895
0002f0 a0 13 0a bc f3 80 51 3d 2a f4 28 be 38 c4 35 3d
       -0.0084275305 0.051148366 -0.16499391 0.044376582
000300 ae 6a 80 bd f3 ff 5b 3e 72 98 1f be e3 dd ae 3c
       -0.062703475 0.21484356 -0.15585497 0.021346038
000310 61 19 86 bc 9a f1 d0 3d 1d d4 89 bd 8c 85 c3 bd
       -0.016369523 0.10202332 -0.067299105 -0.095469564
000320 77 16 3a 3c ab b2 f7 bd 41 05 16 3e af 30 39 3e
       0.011357895 -0.12094625 0.14650442 0.18084978
000330 69 d9 1a 3b 16 d9 31 be d0 17 c4 bd 58 cf ec 3d
       0.0023628122 -0.17367968 -0.095748544 0.11562985
000340 2c fa 97 3d b6 ae 3f be b5 12 1b be f4 96 3e be
       0.074207634 -0.1871899 -0.15143855 -0.18612272
000350 d9 16 e7 bd a5 13 4d bd 18 42 a8 bd 12 31 6a bd
       -0.11283655 -0.050067563 -0.082157314 -0.057175703
000360 25 ef 3c be bf 4c 2d bd 5a f7 9b bd 62 f1 21 3e
       -0.18450601 -0.04230952 -0.07615538 0.15814736
000370 70 60 78 3d 33 93 07 3e 94 f7 0e 3e 6e 35 26 bd
       0.060638845 0.13239746 0.13961631 -0.0405783
000380 03 1e d6 bd fd 31 30 3c b6 80 06 be c2 8e 07 3e
       -0.10454943 0.010754106 -0.13135037 0.13238052
000390 79 c6 24 3d c5 74 d6 bc f0 33 1b 3d 42 e7 b2 3e
       0.04022834 -0.026178727 0.03789133 0.3494206
0003a0 ce 48 2d 3e 05 27 2a bd 9c 3a 69 3e 1f 77 8f be
       0.16922304 -0.04154112 0.22776264 -0.2802057
0003b0 66 ac 00 3d 92 04 1a be ec a5 58 be a3 5d a7 3e
       0.031414412 -0.15040806 -0.21157044 0.32688627
0003c0 46 bd b0 3b 9e 37 b2 3d 00 df 5a 3c ab f7 c0 be
       0.005393657 0.087020144 0.013358831 -0.37688956
0003d0 c1 ea 82 bd 00 bb c6 3d 29 01 68 3d d6 3e 18 be
       -0.06392432 0.09703636 0.05664173 -0.1486772
0003e0 fd df 45 3e 9c 3a 18 bd 42 bc 08 be e6 07 02 be
       0.19323726 -0.03716527 -0.13353065 -0.12698326
0003f0 29 cd 18 bd a7 2e 14 be 0a 12 8b bc fa 7a 25 bd
       -0.03730503 -0.14470921 -0.016976375 -0.040400483

actor.4.bias f4 [6]
000000 2f ea 12 be 89 6a 08 3d 70 cb 11 3e 67 f3 40 3e
       -0.14347146 0.033304725 0.14237761 0.1884285
000010 b6 6c ed 3d 7f bb a3 3c
       0.115930006 0.019986866

critic.0.weight f4 [64, 43]
000000 3e fc 9a 3e a6 69 83 bf d8 f9 7a bf cd 12 97 3d
       0.3027057 -1.0266616 -0.9803748 0.07376633
000010 0c 82 22 3e 99 c6 ea 3e a7 5a 51 be 80 a4 ae bd
       0.15869921 0.45854643 -0.20444737 -0.0852747
000020 57 53 36 bb 45 35 7b 3c 54 5a 0f 3c ef 65 03 bc
       -0.002782067 0.015332525 0.008749563 -0.008019908
000030 ab 43 17 3e b0 9d b5 3c 1a be 0e be 82 91 52 bd
       0.14771907 0.022169918 -0.13939705 -0.0514083
000040 79 a3 b9 bd b3 ce 5f 3c 28 26 06 bb 46 88 7f bb
       -0.09064383 0.013660121 -0.002046952 -0.0038991137
000050 e2 36 6f 3f 5c f9 19 3e 4a f4 f1 be ed 6b 03 be
       0.9344312 0.1503653 -0.4725669 -0.12834139
000060 2f 67 78 bf 57 c5 e7 be 1d 3c 47 bf 62 b6 96 bf
       -0.97032446 -0.45267746 -0.778261 -1.1774409
000070 57 24 4a bf bc db 85 bf e3 c7 7d 3f 5c 49 0a be
       -0.789617 -1.0457683 0.9913313 -0.13504547
000080 4c c6 a1 be 3f 3f 86 be de 4f f3 3e b5 47 87 be
       -0.315966 -0.26220128 0.4752187 -0.26421896
000090 76 77 cb be 2a 04 50 3f 00 1a a2 bd 58 7b d0 be
       -0.3973958 0.81256354 -0.07915115 -0.40719104
0000a0 83 9d 09 be a7 34 17 bf 25 2b ed bd 2d 83 40 3e
       -0.13438992 -0.59064716 -0.11580495 0.1880004
0000b0 95 a2 4f bf 17 7f 0b bf b1 c5 f1 bd a3 89 ac 3b
       -0.81107455 -0.544908 -0.11805285 0.005265431
0000c0 6b 79 b1 3b 3d ff 69 3d 1a 7f 06 3e 93 42 c0 3d
       0.0054160855 0.05712818 0.13134423 0.09387698
0000d0 cc 9a e4 3c b1 1a ba bc 22 30 1e bc 48 d1 f4 bd
       0.027905844 -0.022717806 -0.00965503 -0.1195398
0000e0 56 8d 5a be 7f 9b 2d be 07 f9 8e bd 82 4b 3e 3d
       -0.21342978 -0.16953848 -0.06981092 0.04645873
0000f0 f2 e2 75 3c 84 b9 b2 bb cd 08 96 3b 57 fd 85 3f
       0.015007721 -0.005454244 0.004578686 1.0467938
000100 c6 f4 f0 3e da 94 d2 be 59 d4 83 bf e3 8a 36 bf
       0.47061747 -0.4112919 -1.0299178 -0.71305674
000110 57 44 dd bb db 17 b0 be 7a 25 fa be df 40 44 bf
       -0.0067525315 -0.343932 -0.48856717 -0.76661485
000120 de b5 34 bf d9 33 fa 3f 60 5a d6 3e 3c 8f 40 3f
       -0.7059001 1.9547073 0.41865826 0.7521856
000130 fc f0 8b be bf 35 4d 3f 2d 26 4f 3e ad b4 b4 be
       -0.27332294 0.80160135 0.20229407 -0.35294095
000140 63 d0 f4 3f f3 07 75 3e 9c 50 fd 3e 22 c2 07 be
       1.9126095 0.23928814 0.49475563 -0.1325765
000150 c9 ce 10 3e c6 52 99 3d e4 3d 3e 3f 49 77 df be
       0.14141382 0.07486491 0.7431319 -0.43645695
000160 0c 81 4f be 32 f8 e6 3b 2b 90 dc 3d 5b 28 8a 3e
       -0.20264071 0.00704863 0.10769685 0.26983914
000170 cb 42 2f bd 14 2c b3 bd 75 ad 78 bd 3d c2 fb bb
       -0.042788308 -0.087486416 -0.060712297 -0.007683067
000180 4a 26 82 3c 35 6f b6 3a ce 19 b9 3d 4b f1 fb 3d
       0.015887398 0.001391864 0.09038125 0.12301882
000190 70 5d 32 bd 66 e4 f7 bc 93 fc 61 bd 35 c9 7d bb
       -0.04354614 -0.030260276 -0.055172514 -0.0038724665
0001a0 e2 1d bc bb a8 92 71 3b bb f9 19 be e3 7e 21 40
       -0.005740867 0.0036861096 -0.15036671 2.5233696
0001b0 25 f8 2e 3f d2 03 02 bf 32 38 8d bc 27 0e 0d bf
       0.6834739 -0.5078708 -0.01723871 -0.5509972
0001c0 ec 54 04 3e db 84 c5 3e e5 ba 19 3f 45 15 10 be
       0.1292302 0.38577923 0.60050803 -0.14070614
0001d0 c2 4c ff bf ce fd 1f 40 38 76 13 bf 60 e8 24 be
       -1.99453 2.499866 -0.5760226 -0.16104269
0001e0 4f 16 48 be a7 7b a9 bd 12 37 82 bd 36 15 fb bf
       -0.1953976 -0.08275538 -0.0635816 -1.9615848
0001f0 af d5 1f 40 a0 a8 30 bf b6 ee 1e be 6a bc 00 3e
       2.4974172 -0.690073 -0.15520748 0.12571874
000200 30 80 42 3d 7a fa 14 3e 71 9f 88 be 13 41 c7 bd
       0.04748553 0.14548674 -0.26684144 -0.09729209
000210 d3 92 c6 3d cf db 90 3d 32 b7 7e bd 0b 8a a2 3d
       0.09695973 0.07073175 -0.062186427 0.07936486
000220 83 17 50 3d aa 5a ad 3d 1d 48 ac ba 3e 7e 0f bd
       0.050803673 0.084645584 -0.001314405 -0.035032503
000230 02 6e 46 3b 0a e4 73 bd 76 b8 25 bd b4 37 91 3c
       0.0030277972 -0.059543647 -0.04045912 0.017726757
000240 37 ba c3 3d c0 90 d6 3d 97 9d 34 bc 1e e1 d9 3b
       0.09557002 0.104768276 -0.0110239005 0.0066491505
000250 72 ce 56 b9 96 a6 86 bf f7 06 84 40 6a 8f 0f 40
       -0.00020485537 -1.0519588 4.12585 2.2431283
000260 5e 10 ce 3f a3 01 83 bf 00 be a8 3d 7e e8 06 3e
       1.6098745 -1.0234874 0.082393646 0.13174626
000270 73 12 4a 3e 92 0c c2 3f 5e 5d 54 3e 93 38 90 3d
       0.197336 1.5160086 0.20738742 0.07042041
000280 7c a2 e0 be 8e d8 a0 3d c4 f8 5c bd 84 0d ab be
       -0.43873966 0.078538045 -0.05394818 -0.3340875
000290 93 3d 94 3d 43 54 ce bc 8a a0 12 bd c2 79 c8 be
       0.07238307 -0.025186663 -0.035797633 -0.39155394
0002a0 d4 6f c1 bd ca 01 ca 3e 0b dc 4e be 25 e3 0f bc
       -0.09445158 0.3945449 -0.20201127 -0.008782183
0002b0 78 4a 02 3f 9f 02 a1 3c 91 7c c3 3d 80 26 2c 3e
       0.5089488 0.01965457 0.095452435 0.16811562
0002c0 b5 cc 23 3e e2 27 54 bd 83 71 49 bc bf 80 d2 bc
       0.15996058 -0.051795848 -0.01229513 -0.025696157
0002d0 23 af a9 3c 29 db c3 3c cb 8d 60 bd e1 c1 e2 3a
       0.020713395 0.023908215 -0.054822724 0.0017300212
0002e0 5d a4 01 3e ff 0f 93 3d 00 72 13 bd 5c 94 ac bd
       0.12660356 0.071807854 -0.03599739 -0.08426735
0002f0 c9 1e 65 3e 4e b3 d1 bb 78 70 d8 ba e2 de 86 ba
       0.22375025 -0.0063995486 -0.001651301 -0.0010289813
000300 c6 22 eb be 70 68 0c c0 c0 92 65 c0 91 b5 14 3f
       -0.45924968 -2.1938744 -3.587082 0.5808955
000310 3a 67 8e 3f cc 2a e7 3f 19 be 33 3e 90 d7 5f 3e
       1.1125252 1.8059936 0.17552985 0.21859574
000320 51 ee a2 bf a9 16 0b 3d 2a 90 0d bf 0a 3b ed 3d
       -1.2728978 0.033957157 -0.552981 0.115835264
000330 90 94 9b 3d 88 e6 c7 bd ad 79 51 be 62 5d c2 bd
       0.075966954 -0.09760767 -0.20456572 -0.094904676
000340 6d 6c 01 3e ee 10 cd be b1 dc 30 3d 9e 97 2e 3d
       0.12639017 -0.4005198 0.043179218 0.042625062
000350 42 8e 6a 3d 42 0d 33 bd 6f 0d c1 bc 7d af a0 bc
       0.057264574 -0.043713816 -0.023565976 -0.01961493
000360 e3 30 9c 3d da 4f 12 bd f2 37 2a bb da 08 41 bb
       0.07626512 -0.035720684 -0.0025973287 -0.0029454739
000370 8f e5 44 bc 16 3a 9c 3c 66 15 50 bd ee 7a 3a bc
       -0.012017622 0.019070666 -0.050801657 -0.011381848
000380 ec 49 a3 3b 8c 0c 28 3c ca 5f d4 ba ec 91 8c bd
       0.0049831774 0.010256898 -0.0016202864 -0.0686377
000390 a6 d9 a2 3d 92 73 06 3d 1c 81 9b bc a4 d4 e6 bc
       0.079516694 0.03282506 -0.018982463 -0.028177567
0003a0 8d 28 0c 3b 9e ef 51 3a 73 2b 1d 3a 60 e5 3d 3e
       0.0021386475 0.0008008423 0.0005995549 0.18544531
0003b0 37 55 6b 40 2e 42 50 c0 7c 40 c2 bf ef 82 a3 bf
       3.677076 -3.2540393 -1.5175929 -1.2774333
0003c0 01 71 09 40 44 31 b1 3e 56 7b 1f bd 89 f4 0b c0
       2.1475222 0.346079 -0.03893598 -2.1868002
0003d0 bf ab f9 3d 92 20 a2 be e8 c0 01 3f f8 6c 94 3f
       0.12190961 -0.31665474 0.50684977 1.1595755
0003e0 f2 92 a6 3e 4e f7 e6 3d ac 4d ab 3e 8a 9e d3 bd
       0.32533985 0.112776384 0.33457696 -0.10332973
0003f0 ea a1 4c be 8c 55 25 3f 31 8c 83 3f 7d 2e 32 3d
       -0.1998364 0.6458366 1.0277158 0.043501366

critic.0.bias f4 [64]
000000 25 8c 7f bf f9 2a 35 bf 14 6f bf 3b 48 6d d1 3e
       -0.9982322 -0.70768696 0.005842099 0.40903687
000010 68 63 ba 3d 46 84 08 3e 3a 55 ac 3d 43 9e ab ba
       0.091009915 0.13331708 0.08414693 -0.001309343
000020 c6 d7 95 3e df e7 bd bb 2c 60 84 3e eb d5 49 be
       0.29266185 -0.0057954635 0.25854623 -0.1971051
000030 50 25 05 bd f8 e4 24 be e1 aa 8c be b9 79 26 3f
       -0.032506287 -0.1610297 -0.2747412 0.65029484
000040 e8 fd 87 be 41 12 ce be ef 90 a7 3e 2a 08 65 3d
       -0.26560903 -0.40248302 0.32727763 0.05591599
000050 e3 59 85 be dc 49 b0 bd fe 6b 03 3f f4 8e 99 bd
       -0.2604514 -0.086078376 0.5133666 -0.07497969
000060 e1 6d 0a 3e 3d f4 0e 3e 3c 6b b0 be fa e2 9a 3e
       0.13518478 0.13960357 -0.34456813 0.30251294
000070 97 77 6a 3e 2a b6 3f 3e c7 fe 01 3f 7a e9 86 be
       0.22897182 0.18721834 0.50779384 -0.26350003
000080 bf fa bc be 3f 96 c8 3e f4 4c f7 be 88 69 db be
       -0.36910054 0.3917713 -0.48300898 -0.4285395
000090 16 01 09 bf db 20 10 3e 0d 97 19 3c 0e cb 50 3e
       -0.5351728 0.14075033 0.009374392 0.20389959
0000a0 d0 c1 e4 3e 79 27 95 3e cf f7 86 3d 4c d1 8f 3e
       0.44679117 0.29131678 0.065902345 0.28089368
0000b0 77 8e 1c 3c 3c e4 0d be fb 12 0d be 07 ea 8d 3e
       0.009555451 -0.13856596 -0.13776772 0.2771761
0000c0 cb ba 0f 3e 1e 1f c6 be 71 48 3d bd 8f 75 64 3e
       0.140361 -0.38695616 -0.046211664 0.2231047
0000d0 82 f1 43 be f8 3a 54 3e a0 e4 d2 3e 19 60 84 3e
       -0.19135097 0.2072562 0.41190052 0.25854567
0000e0 92 74 bb 3d 2b 95 34 3e 4e fc 0a bf 60 6b 1f be
       0.091530934 0.17635028 -0.54291236 -0.15568304
0000f0 30 2e a6 bd 08 c2 23 bf 57 59 c8 bd fb 71 52 be
       -0.08114278 -0.63967943 -0.09782665 -0.20551293

critic.2.weight f4 [64, 64]
000000 84 90 f5 3c a1 bb 76 3d 6a 19 d2 3c 12 ea 47 bd
       0.029976137 0.06023753 0.025646884 -0.04880721
000010 61 b0 58 bc e4 2c e3 bd 26 9b c5 3d 3e 72 d7 bc
       -0.013225646 -0.110925466 0.09648733 -0.026299592
000020 83 a9 b1 be c4 fe 06 3d d3 6e 81 be 4a a8 48 3d
       -0.3469964 0.032957807 -0.25279865 0.048988618
000030 96 d8 a7 bc b3 73 ef bc a3 1d ae 3c c9 fd 42 3d
       -0.020489018 -0.029229974 0.021254366 0.04760531
000040 b2 be e5 3d 9e 84 e0 3b ce 9a 89 bb 99 aa 70 3e
       0.11218013 0.0068517467 -0.0041993624 0.23502578
000050 8b 15 18 3e 45 b9 8c 3d 41 a6 9b 3d de bc ad 3d
       0.14851968 0.06871275 0.0760007 0.08483289
000060 14 8f 67 be 28 29 8f bd e3 78 6a 3e 50 a2 f0 3d
       -0.22613174 -0.06990272 0.22897677 0.11749709
000070 43 59 d1 bc d4 f2 c6 3d 08 a5 db bc f6 c9 c6 bd
       -0.025555259 0.097142845 -0.026812091 -0.0970649
000080 47 1b 43 bd d4 25 b1 3d 4c b0 69 3c 5b cd 00 3e
       -0.047633436 0.08649793 0.014263224 0.12578337
000090 2d 14 01 bd 0c ad 81 3e f5 b7 12 be d6 7d 98 bd
       -0.03151338 0.25327337 -0.14327987 -0.07445876
0000a0 ce 3c 3a 3e 9e 27 74 bd bd 28 04 3e ac 99 45 3e
       0.18187258 -0.059608094 0.12906165 0.19296902
0000b0 88 14 da 3c 53 3c 8a 3d d7 0e c6 bd ea 4a f6 bd
       0.026621118 0.06749787 -0.09670799 -0.120260075
0000c0 15 fd 6f bd 1a 30 5e bc b9 36 dc 3c 59 4c 36 be
       -0.058590967 -0.013561273 0.026881563 -0.17802562
0000d0 47 a0 68 be 92 75 a3 3c 59 09 8d 3e 13 b7 fb bd
       -0.22717391 0.019953523 0.27546194 -0.12290778
0000e0 6f b7 4a be 1a 52 05 3d eb 1b 51 3d 15 1d 5c be
       -0.19796537 0.032549 0.051052015 -0.21495469
0000f0 dc 6c ce 3d 39 d4 a9 bd 1b a6 f0 bd 6b b5 6b be
       0.10079357 -0.082924314 -0.11750432 -0.23018424
000100 00 21 9a be c6 d2 96 be b0 36 ca bd 2a 7f ea bc
       -0.30103302 -0.29457682 -0.09873712 -0.02862509
000110 45 b5 b1 be 0a 6f 3f be 2b 88 7d 3e e0 48 1b 3c
       -0.3470861 -0.18694702 0.24758975 0.009477824
000120 44 de ca bd cb 5b 36 bb 1e 92 84 be dd b6 29 be
       -0.09905675 -0.002782571 -0.2589273 -0.16573663
000130 ac 16 4d bd 97 1e 2b 3d 4b 77 0c be 49 4d f0 be
       -0.05007045 0.04177722 -0.13717382 -0.46933964
000140 0f 5f 2f bf ef f2 28 be c6 2c 3c 3e 4a 29 03 3f
       -0.6850442 -0.16498922 0.18376455 0.5123488
000150 96 59 18 be 14 43 b0 bd 60 5b 3e 3e 22 46 c9 bd
       -0.14877924 -0.08606544 0.18589544 -0.0982783
000160 05 86 18 bc 32 44 c4 bd 77 78 29 be e7 96 88 3e
       -0.0093092965 -0.0958332 -0.1654986 0.2667763
000170 e8 1b a6 3d e3 a8 52 3e 9e c5 2e 3e 40 b1 16 be
       0.081107914 0.20572238 0.17067572 -0.14716053
000180 52 c4 87 be 50 8a 29 3e 96 5f 19 be 6c 42 ab bd
       -0.26516968 0.16556668 -0.1497787 -0.08362278
000190 b3 c8 9b bd a1 e9 aa bd a9 b1 24 3e e9 40 46 3d
       -0.0760664 -0.083453424 0.16083397 0.048401747
0001a0 d0 10 bf bd b3 ee 0d 3e 86 5b 0c be 6e 06 e2 bd
       -0.093293786 0.13860588 -0.13706788 -0.110363826
0001b0 f1 15 56 3c 06 4a e6 3b 1b 62 f7 bd 9c ef 21 be
       0.013066755 0.0070278673 -0.12079259 -0.1581406
0001c0 79 88 93 bd c4 aa 1d 3c be 25 02 3e 33 33 52 3d
       -0.072037645 0.009623233 0.1270971 0.05131836
0001d0 59 88 94 3d 63 3c fb 38 d5 90 22 3e 1c 6a bf be
       0.07252569 0.000119798606 0.15875562 -0.37385643
0001e0 0a 3a 53 bd 72 e4 06 3e b2 41 0e bd 93 86 0c be
       -0.051569022 0.13173082 -0.03473062 -0.13723211
0001f0 5a f8 b9 3d f1 94 92 be db c3 be bd fb 81 a7 bd
       0.090805724 -0.28629258 -0.093147 -0.08179089
000200 d3 d6 af be 55 1a 91 be ad 2d a8 be 98 16 26 be
       -0.34343585 -0.28340402 -0.32847348 -0.16219556
000210 b2 15 49 3c 70 fb 9e be 3f d2 35 bd c1 6b f0 3c
       0.012273239 -0.31051207 -0.04438996 0.029348256
000220 3d 6b 69 be 96 da 1d be 35 61 f0 be c6 1a 01 3e
       -0.22794814 -0.15415415 -0.46949163 0.1260787
000230 6e 7b f4 bc 44 5e e2 bd 2b 9a 3a 3b bb 5c ab bc
       -0.029844012 -0.11053136 0.002847324 -0.02091824
000240 80 bd 21 bd f5 1a c6 3c ee 71 3a be 98 8f 28 bd
       -0.039487362 0.024182776 -0.18207523 -0.041152567
000250 61 23 82 3d 1d e2 00 3e c3 21 00 be bf 91 1d 3e
       0.06354404 0.12586255 -0.12512879 0.15387629
000260 32 28 8d 3b 9e 1f a8 be 41 b7 12 3e 17 34 45 bd
       0.00430777 -0.32836622 0.14327718 -0.04814538
000270 0b 70 4a bd 75 9d 8d be 0b c7 e3 3d 83 8c fc ba
       -0.04942326 -0.27659193 0.11121949 -0.001926795
000280 ae ca 48 3d f6 ea 1d 3e df e9 28 be d7 68 4f 3d
       0.049021415 0.15421662 -0.16495465 0.050637092
000290 88 d5 8b 3d ac 8a c4 be e6 7a e1 bd 7f f3 75 bd
       0.06827837 -0.38387048 -0.11009769 -0.06004667
0002a0 20 ee d5 be e6 75 15 bf e8 34 b0 bd f5 fb d0 bc
       -0.41783237 -0.58383024 -0.08603841 -0.025510767
0002b0 d3 ac 80 be 4a b5 11 3c a4 7c 18 3e d0 81 10 be
       -0.25131854 0.00889332 0.14891297 -0.1411202
0002c0 19 2a 81 3d ba 39 3c 3d c6 bc 0a 3e 78 f4 61 be
       0.063068576 0.04595349 0.13548574 -0.22065914
0002d0 97 ff da be 84 65 46 3e 5e d5 bb be d2 ba b6 be
       -0.42773125 0.19374663 -0.36686224 -0.35689408
0002e0 89 03 1c 3e 17 bf 0c be 56 c1 e7 bd de 22 82 3d
       0.15235724 -0.1374477 -0.11316173 0.06354307
0002f0 3f 2e e4 3d 31 19 0b 3d c4 d6 d6 bd 86 1c a0 bd
       0.11141633 0.03395957 -0.10490182 -0.078179404
000300 f5 15 53 be c1 bb 14 be 8a 1c 5a be b8 8c 09 be
       -0.20613845 -0.14524747 -0.2129995 -0.13432586
000310 26 19 8c bd ec bb 30 be 18 60 3e be 6a 53 a0 be
       -0.06840734 -0.17259187 -0.18591344 -0.3131364
000320 1c d5 e3 be fe cd 8f bd 0a 07 a9 be 15 ee a0 3d
       -0.44498527 -0.07021712 -0.33013183 0.078579105
000330 3e 05 3b 3e e8 46 79 be af f0 64 3d 30 99 be 3d
       0.18263718 -0.24343455 0.055893596 0.09306562
000340 5d 11 6c be 5d eb e7 bc 87 9a 2b be 2f 76 36 3e
       -0.23053499 -0.028310472 -0.16758166 0.17818521
000350 07 02 2c 3e ec bb 0d be 84 27 49 3d 84 a2 be bc
       0.16797648 -0.13841218 0.04910995 -0.023270853
000360 97 60 5b 3d fe b2 63 be 05 c2 d8 3e 2d 5f 07 be
       0.053558912 -0.22236249 0.42335525 -0.132199
000370 65 96 35 be 6a 61 76 be ed 4e 14 3d c9 05 14 be
       -0.17733152 -0.24060598 0.036208082 -0.14455332
000380 61 c0 ce 3d 93 f5 ca 3d 7b 75 46 be 2e 87 1e 3d
       0.10095287 0.09910121 -0.19380753 0.038703136
000390 25 a4 99 3d 12 7b 0f be bf 94 65 bd 76 1a 19 3e
       0.07502011 -0.14011791 -0.05605006 0.149515
0003a0 07 cd c2 be 57 74 0b bf b9 95 a1 bc 77 b7 cb bd
       -0.38047048 -0.54474396 -0.019724714 -0.099471025
0003b0 69 4f 42 be 6b 61 02 3d c5 d1 83 39 a3 a4 0a be
       -0.18975605 0.031831186 0.00025142558 -0.13539366
0003c0 91 3a f8 3b e8 ed 66 bd 00 6f 08 bd ef 3b 66 be
       0.007575341 -0.05637923 -0.033308983 -0.224838
0003d0 89 4c bc bd 86 f8 a3 3d d6 88 3e bd 79 47 5b bf
       -0.091942854 0.080063865 -0.046517216 -0.85655934
0003e0 9d 83 0c 3e 9f d4 f3 be ef 48 fb bc 18 b1 5e be
       0.13722081 -0.47623155 -0.030674426 -0.21747243
0003f0 ab 06 8d be 99 f7 8c bd 4e 07 84 bb 40 ca dd bc
       -0.2754415 -0.06883163 -0.004029191 -0.02707398

critic.2.bias f4 [64]
000000 8e 92 99 bb 59 b0 cc 3d 4a a5 82 3d cb e4 a1 3d
       -0.00468666 0.09994573 0.06379183 0.07904967
000010 27 e3 7f 3e dc 65 12 bd 05 c4 6a bd b3 d7 b7 3d
       0.24988995 -0.035741672 -0.057315845 0.08976688
000020 9b ec cd be 2e 1a d4 3e c0 b1 3a 3e de ae 9a 3e
       -0.40219578 0.41426224 0.18231869 0.30211538
000030 8f 47 39 be 26 a5 12 3e 47 50 98 3e 46 da 22 3d
       -0.18093704 0.14320812 0.29748747 0.039758943
000040 df b4 6c be e1 d5 dd 3b 8b af 50 bc 3f 59 e8 bd
       -0.23115872 0.006769881 -0.012737165 -0.11345147
000050 41 51 a9 bd f4 8c 3d be 67 55 bd bd 3c f6 f2 3d
       -0.08267451 -0.185108 -0.09244805 0.11863372
000060 c3 ab 09 3d f8 c7 46 3e 4d 4b e5 bd d0 c0 b0 3e
       0.03361107 0.1941222 -0.11196003 0.34522104
000070 d3 16 3e be a7 ed c2 be 45 75 14 bb 9a 65 48 be
       -0.18563394 -0.3807194 -0.0022652906 -0.19570008
000080 7f 12 81 bc d8 21 4a be 7e 29 95 3d b0 56 30 be
       -0.01575589 -0.19739473 0.07283305 -0.17220569
000090 e2 c2 12 3c d5 49 39 3e de 97 fa 3d d4 f6 30 3e
       0.0089575965 0.18094571 0.122359976 0.17281657
0000a0 83 da 17 3c 4d 9a 1e 3e f9 9e 35 3d 35 81 38 3e
       0.009268406 0.15488549 0.04434106 0.18018039
0000b0 de 7a df bc f3 b2 cb bd 2a f0 29 be a5 32 03 3e
       -0.027280267 -0.09946241 -0.16595522 0.12812288
0000c0 53 e5 86 bc cd 57 bf bd 62 45 d3 bd b1 e4 98 bd
       -0.016466772 -0.093429185 -0.10315968 -0.074654944
0000d0 17 1d 2e bd 71 3e 79 bd 75 38 45 be a1 50 78 bd
       -0.04250821 -0.060850564 -0.19259818 -0.06062377
0000e0 3f 0b e6 bd 2b 20 48 3e f0 87 11 3d 42 40 57 3e
       -0.11232614 0.19543521 0.03553003 0.21020606
0000f0 eb 49 4f 3e a6 58 e0 3d 66 5f a0 3e 40 63 5e bd
       0.20243041 0.10954408 0.31322783 -0.05429387

critic.4.weight f4 [1, 64]
000000 6a 81 af bd 47 0b 62 3e b6 b5 9a 3e 5d 49 9d 3e
       -0.08569606 0.22074614 0.3021676 0.30720034
000010 e8 5b 2c 3f f0 db 96 be 9c fc 75 3e bf e9 88 3f
       0.6732774 -0.29464674 0.24022144 1.0696334
000020 bd 12 a8 3f c4 18 94 3e 4e c6 56 3e 65 d0 59 3e
       1.3130718 0.28925145 0.20974085 0.21270902
000030 dd bc cf bd 5b c7 0d 3f 0c e2 b3 3e c2 db ca 3e
       -0.10143445 0.5538232 0.35133398 0.39620787
000040 86 b3 51 bf 13 36 72 be b0 f9 1b 3e b2 64 85 3f
       -0.81914556 -0.2365344 0.15231967 1.0421355
000050 43 4c 1f 3e e5 26 1f bf f5 03 13 3f 87 22 67 3e
       0.15556435 -0.62168723 0.5742791 0.22571765
000060 1f a1 0c be cd 91 42 3e d1 f1 b7 be 41 3c 11 3e
       -0.13733338 0.19000931 -0.3592668 0.14183141
000070 80 84 9f bf 28 1c 33 bf 80 72 31 3e 9d 47 1e bf
       -1.2462311 -0.6996484 0.17328835 -0.61828023
000080 ec cb 0c bf 02 18 32 bf 83 e2 ab bf 50 43 7e bf
       -0.5499866 -0.69567883 -1.3428501 -0.9932146
000090 97 e5 bd 3e 40 2c 60 3e cb 12 8f 3e 36 32 64 3e
       0.37089226 0.2189188 0.27944025 0.22284779
0000a0 7e 1e b3 be 92 fb f2 3e 18 b5 73 be 7c 64 95 3e
       -0.349842 0.47457558 -0.2379955 0.29178226
0000b0 73 21 05 3e eb 81 52 be 62 39 37 be fe 68 62 3e
       0.13001041 -0.20557372 -0.17892984 0.22110364
0000c0 0f a8 45 3f 55 10 3c 3f fc ff 6c 3e ff 13 8a 3f
       0.7720956 0.7346242 0.23144525 1.0787352
0000d0 38 48 27 bf fe 5b 75 bf af 7b dc be 62 8e 73 be
       -0.6534457 -0.95843494 -0.43063113 -0.23784783
0000e0 62 d9 a5 bf 37 55 a0 3e ca a3 03 3e cb 03 8d 3f
       -1.2956965 0.31315014 0.1285545 1.1016783
0000f0 82 52 05 3f 6f ed c2 3d 56 d9 44 3f 61 e8 cd be
       0.5207902 0.09517943 0.7689413 -0.40216354

exp_avg f4 [6]
000000 8e 23 f5 b8 5a 47 89 b9 5c c1 69 39 d8 07 87 39
       -0.00011689133 -0.00026183837 0.00022292644 0.0002575505
000010 a2 01 39 38 04 80 6d b8
       4.4108958e-05 -5.6624427e-05

exp_avg_sq f4 [6]
000000 53 ff 05 35 f8 6b 06 35 df 3d e7 35 cd d3 6b 34
       4.9917907e-07 5.0076005e-07 1.7228848e-06 2.1963133e-07
000010 d1 01 9c 34 ed 7e 1a 33
       2.9058586e-07 3.5971357e-08
