2026-01-29_07-44-49_Fase2_Empuje_V1/model_1450.pt (torch, 189045 bytes, 36 tensors)

std f4 [6]
00000000: 5448 553e af10 423e a7ea 043e 034b d53e
00000010: 0cb1 f83e 93c7 d13f
0.20828372 0.18951677 0.12980138 0.41658792 0.48572576 1.638903

actor.0.weight f4 [64, 43]
00000000: 3b29 073c 850f 8d3e 5b96 8bbd 7c25 023d
00000010: 8c27 7fbe 597f a7be 857f 8b38 629f 6cbe
00000020: cffa 883d 58da 153d d0b9 04bd d04e a53d
00000030: 8d59 3f3e 66e4 203e 3cf6 3abb db61 06be
00000040: 4068 febd 46fe 84be 43ce 1bbd d492 0dbb
00000050: 9aa4 3a3f 87fa 393e 3258 bdbd a510 a5bd
00000060: 80a1 d8be aaad 91bd 9785 26be a96e 81be
00000070: edbb 3ebd 9776 8fbe d52b 853e 1425 dc3d
00000080: c7da de3e ecb1 0ebf 7064 c43d 2d15 293e
00000090: aa6e 763e 6fe4 7a3e b127 823e dbf2 893e
000000a0: c28c c7be 5532 fdbc 6666 b23e 6562 92bb
000000b0: fca5 1b3e c368 893e 20be 253f e894 0fbf
000000c0: 66cb f6bd 7453 df3d 6e8e 3fbf a666 aebd
000000d0: 1714 ebbd 2c31 5c3d 2c3d e33c cb59 353e
000000e0: 845a 2abe 0731 60bd 1e48 f23e acda 22bf
000000f0: e8f9 1dbe e2cd 0ebd 217d 823c 556e 22bf
00000100: 05b2 263f d140 373e 67c0 6f3e d638 41bf
00000110: 2bd4 2cbf 409f fe3c bd09 18be 6395 4ebb
00000120: 2171 883e 3138 babe e0ed 26bd 2a72 cf3e
00000130: daa1 57be 3f3c aebe 3d63 943e 730e b73e
00000140: b45d a2be 2205 c03b 6afa 1a3f dd6f f63d
00000150: 1f27 303f 37ba 93bd f3f0 cfbe d6a8 12be
00000160: 95af 6abe 4d5a 2c3d b33b fb3b c4db b0be
00000170: e6c4 a73e ad4e 8abd 8137 c1be df7e 49be
00000180: 7aba 143d b26c 603d d712 33be f32b f2bd
00000190: 588e 96be ecde f23d 5f03 7fbc a75b 98be
000001a0: a766 f7bb 041b 86bb 1628 c5be d289 c7be
000001b0: 9c87 9abd 3d95 9dbe 6342 60bd 4b21 08be
000001c0: 2275 893d a715 c9be e13f ecbd 5123 75bd
000001d0: aead 98be 668a 6e3e 93a3 e63e e7e3 7cbe
000001e0: 7755 a3bd 2ab3 79bd 1421 00bf 7adf d9be
000001f0: 7a45 853e d0ba da3e b956 19bf 1ceb 6ebd
00000200: 268d 053f 28e6 923c fb8e b83d 2895 183e
00000210: a672 e7be a3b6 ab3e e8f6 6d3d 357a e93c
00000220: 1725 3fbe f7c4 013e cee9 dc3d 32b1 85bd
00000230: d787 c13d 3452 57bd 5f15 f83d 6587 273d
00000240: 1c50 81be 5616 553e a93f 0b3e 53b4 683d
00000250: 2765 74bb 9b5e 9fbd 93da 17be 0480 88bc
00000260: 3021 e63d 20a1 32be ffa0 0f3d 737a 42be
00000270: be2b 1cbc a622 793d b297 d0bb 47f3 1dbd
00000280: 36b7 26be 0da9 703e 8710 c6bd 654e 6abd
00000290: e7aa 6abd 0b1d 483b 227b d0bc abae 2dbe
000002a0: e728 713e 3b8c bb3d 04ee edbd 2a25 e7be
000002b0: eaa0 353e db2d 0cbf 5a55 06bf ab49 7e3b
000002c0: 81e7 c73c 1fde 8b3e d9b5 1a3e 3a67 883e
000002d0: 8c7f a33e 4f84 db3d f102 bdbc 3f02 a7bd
000002e0: 83d0 233e 4d8d 00be 6a72 7bbd 3262 913d
000002f0: fe49 3e3c 6a31 393e 36bf c4bc 3a77 36bc
00000300: e49a c63d 7d51 3d3e 1307 b1bd f003 5abe
00000310: 7a3f 1abe 583c ba3d ea7a 94bd 9e32 71bd
00000320: e711 48be da49 31be 991d 85be 8294 9c3e
00000330: 9c0f 87be afc2 afbe a41c 713c afde 60be
00000340: 99b9 a0be 8181 acbe 2a67 b03e dd41 3ebe
00000350: 1075 803e 5eed 81bf 0f73 c93e c488 f3bc
00000360: e03e 85bd 4435 aebd 2f46 dfbc 9ae4 593e
00000370: 7c0c 03be c41e ad3e bc1b 5cbf 9946 183d
00000380: 1f4b a8bd 32a6 dd3d 6ad0 a7bc e868 c6bd
00000390: ddd6 8bbe ddb4 7abe 217f 4bbe b674 e83e
000003a0: 36e4 0f3e 35b2 1d3d 62c5 dfba eab1 57be
000003b0: 8d56 d2be 0bec 253d d74e 6c3e c70d 4ebe
000003c0: a6ce d2be 0726 5fbe 5740 38be 4205 0ebe
000003d0: fb45 fbbd 7e65 8cbe 99de 36be a397 333e
000003e0: 0788 66bd 73fa 5c3e f065 2ebd 8cd0 c8be
000003f0: 4670 46be cde2 1bbe 0109 a03d c7eb d7be
0.008249576 0.27550903 -0.068157874 0.03177403 -0.2491743 -0.32714346 6.651789e-05 -0.23107675
0.06688463 0.036585182 -0.032403767 0.08071673 0.18686505 0.15712127 -0.0028528115 -0.13123266
-0.12422228 -0.25975245 -0.038038503 -0.002160241 0.7290741 0.18161975 -0.092453375 -0.08059815
-0.42310715 -0.07113202 -0.16261898 -0.2527974 -0.04656594 -0.28020164 0.26010004 0.107492596
0.4352629 -0.5574024 0.095894694 0.16511984 0.24065652 0.24501203 0.25420907 0.26943097
-0.38974577 -0.03090779 0.3484375 -0.004467296 0.15200037 0.2683774 0.6474323 -0.5608659
-0.12050514 0.10904589 -0.74826705 -0.085156724 -0.11478441 0.05375783 0.02773913 0.17710035
-0.16636091 -0.054734256 0.47320646 -0.63614917 -0.15427363 -0.034864314 0.015928807 -0.63449603
0.65115386 0.17895819 0.2341324 -0.7547735 -0.6751124 0.031081796 -0.14847465 -0.0031522147
0.2664881 -0.36370996 -0.0407542 0.40516788 -0.21057835 -0.3403034 0.28981963 0.3575321
-0.31712115 0.005859987 0.6053835 0.12033055 0.68809694 -0.07213252 -0.40613517 -0.14322218
-0.22918542 0.042078305 0.007667029 -0.34542668 0.3276741 -0.067532875 -0.3773766 -0.19677304
0.03631065 0.05479116 -0.17487656 -0.11824789 -0.29405475 0.11858925 -0.015564769 -0.29757425
-0.007550079 -0.004092576 -0.38507146 -0.38972336 -0.07545397 -0.30777922 -0.05475081 -0.1329395
0.067117944 -0.39274332 -0.115356214 -0.059848133 -0.29820007 0.23294982 0.45046672 -0.24696313
-0.079752855 -0.06096188 -0.50050473 -0.42553312 0.2602957 0.42720652 -0.59897953 -0.058329687
0.521685 0.017932013 0.09011646 0.14900649 -0.45204657 0.33537778 0.058096796 0.028500656
-0.18666492 0.12672792 0.10786782 -0.06527938 0.094497375 -0.05256863 0.12113451 0.040900607
-0.2525643 0.20809302 0.13598503 0.056812596 -0.0037291737 -0.077817164 -0.14829473 -0.016662605
0.11236799 -0.17444277 0.035065647 -0.18992023 -0.009531913 0.06082406 -0.0063657397 -0.038562085
-0.16280827 0.23501988 -0.09671121 -0.05720367 -0.05729189 0.003053489 -0.02544934 -0.16961162
0.2355076 0.09157606 -0.116176635 -0.4514554 0.17737165 -0.5475747 -0.52473986 0.0038801234
0.024402382 0.27317902 0.15108432 0.26641256 0.31933248 0.10718595 -0.023072692 -0.08154725
0.1599751 -0.12553902 -0.06138841 0.070988074 0.011614321 0.18085256 -0.024016958 -0.011136824
0.09697512 0.18488117 -0.086439274 -0.21290565 -0.15063277 0.09093541 -0.072500065 -0.058886163
-0.19538079 -0.17313328 -0.25999144 0.30582052 -0.26379097 -0.3432822 0.014716301 -0.21959947
-0.313916 -0.33692554 0.34453708 -0.18579812 0.25089312 -1.0150564 0.39345595 -0.0297283
-0.06506133 -0.08506253 -0.027255146 0.21278611 -0.12797731 0.33812535 -0.8597982 0.037176702
-0.08217453 0.10822715 -0.020485122 -0.09687978 -0.27312365 -0.24483056 -0.19872715 0.45401543
0.140519 0.03850003 -0.0017072374 -0.21063963 -0.41081658 0.04050831 0.2307695 -0.20122443
-0.41173285 -0.2179185 -0.17993294 -0.13869193 -0.12269207 -0.27421182 -0.17858352 0.17538314
-0.05628207 0.21579914 -0.042577684 -0.3922161 -0.19378766 -0.15223236 0.07814217 -0.4217207

actor.0.bias f4 [64]
00000000: 98a8 b63c dd52 543e ce93 a43d 48a6 dcbd
00000010: 5d04 c93c 6e3a 61bd 398f 9f3d 65fa 10bb
00000020: 7741 cdbd 047c d03d 7ddf cabe 7a89 423e
00000030: 350b 87be 9993 4fbe 60dc 5c3d c495 18bc
00000040: fb40 ff3a 5d24 c2bd 8bcc aabe 2d48 b3bd
00000050: 9bdd d9be 3fd1 973c 6377 2ebe 7008 50be
00000060: 5438 29be f639 a53d 1ee3 14be dc25 78bd
00000070: 6c22 9b3c 7e5b a2be 677b 9e3e d917 a23d
00000080: aebd 7fbd 514b ef3d a5bd 86be 1439 223c
00000090: 16fb 1a3e 3622 99be 14b6 17be 0809 b4be
000000a0: 1a7e fdbd e5f9 84be dac6 18bd 1954 c3bd
000000b0: f6d6 9dbd 70d8 a73d 3b6b f33d cb78 44be
000000c0: 9515 3abe c17f 3c3c 9b42 713d b41d ffbd
000000d0: 0931 0bbe 91c9 33be 4ae2 10bd 927e 413c
000000e0: f207 a53e b718 88bc c019 0b3d 5653 dabe
000000f0: 0a03 abbe 2b0a c13d b837 3cbe 73bc 2abe
0.022297189 0.20734735 0.08036004 -0.10773903 0.024538213 -0.054987364 0.077909894 -0.0022121903
-0.10022252 0.10179904 -0.39623633 0.18997756 -0.26375738 -0.20271148 0.053921103 -0.009313051
0.0019474322 -0.09479592 -0.3335918 -0.08754001 -0.42551884 0.018532394 -0.1703773 -0.20315719
-0.16525394 0.08067696 -0.14539763 -0.06058298 0.018937312 -0.31710428 0.30953524 0.07914705
-0.062436752 0.11684287 -0.26316562 0.009901304 0.15134844 -0.29908913 -0.14815551 -0.3516314
-0.123775676 -0.25971904 -0.037299015 -0.09537525 -0.07707016 0.08195579 0.11885687 -0.19186704
-0.18172295 0.011505068 0.05890141 -0.12456837 -0.13592924 -0.1755736 -0.035372056 0.011809962
0.32232624 -0.016613347 0.033960104 -0.42641705 -0.33400756 0.094257675 -0.1838063 -0.1667345

actor.2.weight f4 [64, 64]
00000000: 68de 3b3d 2590 03bd 412a 47bc 707f 923d
00000010: 4c0e 143d 7ce0 123d c788 5b3d cfd1 bb3d
00000020: a053 eebd ed58 0f3d 52ee 463d 1c41 bbbc
00000030: 4cc3 773d 0e26 e9bd ed77 a23e 23bd 81be
00000040: e3f9 c2bd 26af 323e b7a0 24bc 7ab5 053c
00000050: 9cb8 8d3d 7297 ffbd 0b46 5dbe cc79 153d
00000060: 03e1 ee3d ac50 293c a221 453d 63b5 d33d
00000070: f289 0a3e 832e 97bd 2ffc 893d 495f 2b3e
00000080: 2214 0d3e 89b7 fe3d 24d2 dbbd 0662 723d
00000090: f6d7 0bbe 927d 8d3c 1aef 843e 374a 8b3d
000000a0: 5b5f b63c dd41 8cbd ae20 d8bd 6660 1dbd
000000b0: 886a 9b3d 0b92 3abe c289 0a3e cdd8 c73d
000000c0: f059 39bd fc74 08bb 279b f33c 1372 11be
000000d0: 4662 c23d 0b43 17be efaa 3a3d 9567 613e
000000e0: a03f 7cbd 2189 873d 0690 06be 269e eb3c
000000f0: 9e7f fd3c 6289 263e ce05 09be 1419 9dbd
00000100: 51eb 9dbe 7556 3dbe 832c b63d 4190 c7bd
00000110: 2b6e 8a3c 3b99 633e f017 803d 029e f3bd
00000120: 9ad6 dabd 9993 eebe 17ab d43d 957d a8bc
00000130: 096f 70bd 1401 173d c158 99be dac1 2cbe
00000140: 8711 0ebc f497 853e d534 833e a5a2 4f3d
00000150: 889a 133d 0318 a4bc 67a4 113e 67af 193d
00000160: 0c9a 57bc e57b 533d 5b2f 63be b052 8c3d
00000170: 500e e83d d618 243e 9524 aabd f78f b23d
00000180: 36fb 153e 4b38 14be 4b9d 1d3b 0efd b43d
00000190: 3234 49be 6c8b 7a3e 83b2 0c3e aabb 9b3d
000001a0: ff56 383e 1674 073e eb44 c23d 8ea7 613e
000001b0: ec2a d7be 508b 9bbd 8c3a 28bf 857a c43d
000001c0: 90d1 173e 3ef1 75bc 9e09 5f3c ac51 9c3c
000001d0: 32cd acbc bb2e 873d 5569 88bd 94f2 a2be
000001e0: 2631 443e 1a9c e33c 15b5 87bd ade8 5a3d
000001f0: 2e1a b1bd 1a5f 9e3e 0712 12bf 2286 0c3e
00000200: 2429 8bbc 5351 04bd cff4 79bd d961 3d3e
00000210: 9675 673d 93a1 bb3d e28b 9c3d 9cd0 25be
00000220: b5bc bb3c 7300 043e 6a1b 7fbe 0ad0 043e
00000230: e992 1d3c 1be3 36bc 7e50 b03d 81c5 223d
00000240: 8a4b 683d eed9 69bd 0958 5bba b598 653e
00000250: ae92 8ebc 349b 04be f984 883c 7e74 2dbe
00000260: ffcf 19bd 564a bf3a cc4a 613c 3b8c 1fbf
00000270: dad3 c43c 93c9 81bc 8edb b3be f18d 13bc
00000280: 02e6 37be bd1d 573d e5a3 273e db50 d0bc
00000290: fe07 aa3c 8830 043d 4cfa 66bd ccaf 083d
000002a0: 24d7 7ebd 479b 853d e6cf d2bc 3dea 573d
000002b0: 2cd9 01be 5e8f 4bbe 525c 84be 8165 5dbe
000002c0: 3e89 9c3d d2b6 aabd 072c 353e c545 85be
000002d0: 2f86 4cbd a93a f23c 64b0 65bd 1c16 03be
000002e0: 2c3e 1d3e 07c0 db3d 6761 f23c 75af 44be
000002f0: 8c4e 413c 177f ad3c 9016 54be 4675 653d
00000300: 4130 88bb 991c cbbc a8a6 9bbd fb89 9b3d
00000310: 9a8c 233d d424 463e 52b7 373c 2a65 92bd
00000320: dd97 d63c b620 2f3d f344 e23d 8b40 99bd
00000330: 279a fabc 40da ddbd f394 433e 0ec9 24be
00000340: 965b a2bb 7f9d 1fbc a1d7 903d 5522 643c
00000350: 308e f0bd f38a f6bd 6a0b 923d ab5d abbd
00000360: f90b 9e3d c81c 973b b473 1c3e 7e8f ce3d
00000370: 9b34 13bd 5261 7a3c bb09 35be 7ec8 b0bd
00000380: 2a86 fb3d f9de 35bc b0bc 34bd 4cde 2d3e
00000390: f24e 26be 00e8 eb3d 2a79 8d3e 3510 773d
000003a0: 6251 a2bd f36f 05be 1399 733d c32a 9b3d
000003b0: 1fc9 183e f731 323d 2993 c13c 4aea 463e
000003c0: 3a10 e63c aade 77bd 81c7 97bd 572e 0d3e
000003d0: 082f dfbc 818d 143e 082f 9dbd ed6e 563e
000003e0: a9c9 97be 7506 29be 89f8 093e 8985 e6bc
000003f0: e5a4 e03d 0e46 aa3d 261d 17bd 9642 41bd
0.0458664 -0.03211989 -0.01215607 0.07153213 0.036146447 0.035858616 0.053597238 0.09170877
-0.11637044 0.034996916 0.048567124 -0.022858195 0.060488984 -0.113842115 0.3173212 -0.25339612
-0.09520318 0.17449626 -0.010048083 0.008160943 0.06919977 -0.12480058 -0.2160875 0.036493108
0.11664011 0.010334175 0.048127778 0.10337331 0.13529184 -0.07381918 0.06737553 0.16735567
0.13777211 0.1243735 -0.107334405 0.059175514 -0.13656601 0.01727179 0.2596367 0.06801265
0.022262266 -0.068485 -0.10553108 -0.03842201 0.075886786 -0.18219773 0.13529113 0.09758148
-0.045251787 -0.0020821681 0.029737068 -0.14203672 0.094914004 -0.14771669 0.04557317 0.2201217
-0.061584115 0.06617952 -0.13140878 0.028761934 0.030944642 0.16263345 -0.1338112 -0.07670799
-0.30843595 -0.18490012 0.08895209 -0.09744311 0.016898235 0.22226422 0.06254566 -0.11895372
-0.10685463 -0.46596983 0.10384195 -0.020567695 -0.05869964 0.036866263 -0.29950526 -0.16870824
-0.008671171 0.26092494 0.25626245 0.05069222 0.036036044 -0.02003098 0.14222871 0.037520792
-0.013159286 0.051631827 -0.22186033 0.06851709 0.11330855 0.16025099 -0.08307759 0.08718865
0.1464661 -0.14474599 0.0024050053 0.08837329 -0.19648817 0.24467248 0.13739972 0.076041535
0.18001936 0.13227877 0.09485801 0.22036573 -0.42024934 -0.07594931 -0.65714335 0.09593681
0.14826035 -0.01501113 0.013613133 0.019081913 -0.021093938 0.0660071 -0.066607155 -0.31825697
0.19159374 0.027784396 -0.066263355 0.053444553 -0.086475715 0.30931932 -0.5705876 0.13723043
-0.01698739 -0.03230412 -0.061024483 0.18494357 0.056508623 0.09161677 0.07643868 -0.1619286
0.022917131 0.12890796 -0.24912801 0.12969986 0.009617546 -0.011162545 0.08609103 0.039739136
0.056712665 -0.0570926 -0.0008367305 0.22421534 -0.017403927 -0.1294983 0.016664969 -0.1693897
-0.037551876 0.0014594297 0.013750743 -0.6232335 0.0240268 -0.015843188 -0.35128444 -0.009006009
-0.17958835 0.052518595 0.16371115 -0.02542918 0.020755764 0.032272846 -0.056391045 0.033370778
-0.062216893 0.065237574 -0.0257339 0.05271362 -0.12680501 -0.19878909 -0.25851685 -0.21620752
0.07643364 -0.083356515 0.17692576 -0.26029792 -0.049932655 0.029568987 -0.056076422 -0.12801403
0.15355748 0.10729986 0.02958746 -0.19207557 0.011798512 0.021178765 -0.20711732 0.056020044
-0.004156143 -0.02479391 -0.076001465 0.07594677 0.03992901 0.19349986 0.011213141 -0.07148202
0.02619546 0.042755805 0.11048307 -0.07483014 -0.030591084 -0.108326435 0.19099788 -0.16092321
-0.0049547656 -0.00974214 0.07072378 0.013924201 -0.1174587 -0.12038221 0.07131083 -0.08367475
0.07717127 0.0046115853 0.15278512 0.10085963 -0.03593884 0.015281992 -0.17679493 -0.08631991
0.12281449 -0.011100524 -0.04412526 0.16979331 -0.16241053 0.1151886 0.27631503 0.06031819
-0.07925679 -0.13030986 0.059472155 0.075765155 0.14920472 0.04350468 0.023629742 0.19425312
0.02808391 -0.060515083 -0.07411099 0.13787208 -0.027244106 0.14507104 -0.07674986 0.20940752
-0.29646042 -0.1650637 0.13473715 -0.028139846 0.10968951 0.08314143 -0.036893032 -0.047182642

actor.2.bias f4 [64]
00000000: 1562 d3bd c309 ac3d 258c a53d 1a5e 033e
00000010: 0a86 343c 0d6b b23c 365b 4bbd 7f72 7f3e
00000020: cb22 b2bd 2578 b8bd 3ff4 b33e d7b4 bebd
00000030: c2c3 4c3d 71bd 88be d4d9 643d bd8d 7b3e
00000040: 73cc b7bc b45f 97be 3f83 99bc 896a 59be
00000050: 353e 8c3d 5bbf 5abd b71b 73be 8940 4ebd
00000060: 6461 c43c 4d3b 873e d032 a83d 24e7 043e
00000070: d39b 0fbd 0fa9 04be 692c f03d 4511 873d
00000080: 32fb 8ebe 7ec0 17be 2d7b 9dbd 484c 65be
00000090: 0f10 56bd b6bd 0ebe 7a7e ed39 265c 7c3c
000000a0: f7bf fd3d 19aa 9abe ac4b 4dbc ce57 ab3c
000000b0: 357d b1bd 687d 1dbe a0d8 eebd 3e0a 21be
000000c0: 1fe8 9d3d 112f af3e 0543 8cbd 3adb 23be
000000d0: 8f59 4f3e ecc7 263d 7d8a df3d 654f 9cbe
000000e0: 93f6 0f3e a561 a63d cac9 f8bc 333f c6bd
000000f0: acd8 9f3c 7f1a 16bd 1881 3abe ff1d 553e
-0.10321442 0.084002994 0.08083371 0.12828866 0.0110182855 0.021779561 -0.049647532 0.2494602
-0.086980425 -0.09007291 0.35147282 -0.09311836 0.049991377 -0.26707032 0.0558718 0.24565788
-0.022436356 -0.29565203 -0.01873934 -0.21232046 0.068478025 -0.053405147 -0.23741041 -0.050354514
0.02397222 0.2641243 0.08212817 0.12978798 -0.035060715 -0.12955116 0.117272206 0.06595091
-0.27926022 -0.14819524 -0.076895095 -0.2239238 -0.05226141 -0.13939556 0.00045298395 0.015402829
0.1239013 -0.302079 -0.012530249 0.020915892 -0.086664595 -0.1537987 -0.11662412 -0.15726563
0.07710289 0.34215596 -0.068487205 -0.16001597 0.20249008 0.040718004 0.109150864 -0.30529323
0.14058904 0.08124093 -0.030369658 -0.09680023 0.019512497 -0.036646362 -0.18213308 0.20812224

actor.4.weight f4 [6, 64]
00000000: 08b4 3bbe 6369 ddbd ba48 373c 8cfe 55be
00000010: 0da5 45bd cb05 543d d528 94bd c034 8c3d
00000020: d63d 993d 8bb2 d3bd e7b8 e9bc eb54 353d
00000030: 4b98 c13d 23b3 813d dbd0 49bd d378 e7bc
00000040: a905 0a3e 2a88 1f3e 65ab 553d 9cd4 f93d
00000050: 1e76 f03b 57f2 debd 83a5 943d c16b 133e
00000060: c679 283e f341 bbbc 2d4b a53d 9067 8ebd
00000070: cc73 9abc c592 fbbd aece e03c 4171 f0bc
00000080: b641 4f3d 127b 223e 2edf 12bd 9da2 333d
00000090: 959f ddbd 9e4b 3ebc ac9a 2dbe fb64 403e
000000a0: 5404 d83d bec1 9c3d 5034 8c3d bf66 38bd
000000b0: a9e3 733e 9b40 c43d 0004 2bbd 06c4 423d
000000c0: 2ddc 1a3d be48 6cbb 1548 eebd b739 a33c
000000d0: b82e 18be 6208 a3bd c2f7 58be 3b9b b0bc
000000e0: a442 b73d 1191 1dbe 57b7 053d 3b2b 75bd
000000f0: 60d5 7ebd 4439 be3c bb9e 7e3e ec7c 04be
00000100: c559 453d e1ea fd3d 40d7 72be 983a bbbd
00000110: 3af5 0dbc 7712 7cbd 71a3 a93d 5074 8fbb
00000120: f836 173e 883a 7cbd 554c e63d 61ae 9e3c
00000130: 2440 29be ad18 75bc 5969 813d a701 333b
00000140: 921d af3d 3847 e2bc e914 853d c1e2 a2bd
00000150: 9895 2abd 9837 093e 45c6 83bd 9213 15be
00000160: 6806 f13c 8ebd ff3c a2a6 a43d 0c2f 68bc
00000170: 15b9 09be ee31 56bd 2796 0abe 2c81 b13a
00000180: 1ecf 613d 64ba 2ebc b149 e23d 9648 61bb
00000190: bed0 24bd aab0 a0bd cc56 babd 3583 b43d
000001a0: 70ee 543e ae74 c5bd 462d 82be f8da 70bc
000001b0: 7318 c33d 9894 003e fbe9 7d3d f109 34bc
000001c0: 378f 063e fdc5 cd3c 94a5 1f3d 2000 183e
000001d0: 097a dcbc a5e2 0abc fd0c 323d fe2b 0bbd
000001e0: ef5d 6cbd 25e5 803d 0397 b8bd a017 f5bd
000001f0: 380e a33d a412 1e3d fa64 7ebc 23e4 013d
00000200: 2b5e 473a 0557 833d a85d 7ebd f367 413d
00000210: a037 163d 3224 1c3d 821b febb 4948 143e
00000220: 0c1e 89be 5a15 af3d 5aec b03d 26ee 7fbe
00000230: b87e f7bd f9c6 4dbe 5fa3 853c f27a d03d
00000240: fc87 50bd 1b4c 2ebe be06 b23d dfcb 30be
00000250: dde9 9f3d c756 99bd ec70 0bbe 22b5 a8bd
00000260: c018 ebbd 5715 003e 09a5 a63d 1a08 873d
00000270: 67f9 81be 1e3e 29bd 7e31 be3d e1b1 bb3d
00000280: cb0e 32bc c104 43be 84c4 3d3c d53d 27be
00000290: 8e6e 0dbd 2555 0f3c 20ee cbbc 8b51 b4bd
000002a0: c02f 8a3c f369 41be 2dbf 52bc 730f b83d
000002b0: c407 0e3d ec43 1dbd dbe5 69bd 0bea 8dbd
000002c0: 0d23 0d3e 91da f03d 34a9 e0bd b26f e4bd
000002d0: bc1c d03d 83e3 a13d 613e d53c 592e 3abe
000002e0: d766 fc3d 2857 b13d cf62 c83c f504 82bd
000002f0: 9d72 39bd 478b 3b3d 1303 2dbe 6142 403d
00000300: 601e 98bd fc61 8c3e 1b79 e2bd 99a6 ba3d
00000310: ebad e7bc bc2c 963d 9f2c d83a 0d70 4fbd
00000320: d4f6 0d3e 5d9f debd 99e2 883d 5cca 4e3e
00000330: 3a75 d93d e793 30be 5708 9f3d 7d58 943d
00000340: df05 87bd 07e5 41be 8a66 10be a1fd 23be
00000350: c1e8 d9bd fb34 0b3e 1479 58bd 5dc3 02be
00000360: 5a1f cebd b6a7 debc 287f a4bd 0f74 e33d
00000370: a5ed 8e3d 5d40 c73d e8b2 d93d eafe ffbc
00000380: a2ad f5bd 4a21 ab3b b112 b8bd e2ff 093e
00000390: c134 87bd a6af 01bd 5cf4 c0bc 94b9 963e
000003a0: 461f ca3d bda8 aa3c dd01 6e3e db84 21be
000003b0: 580d 273d b98a fdbd 6244 72be 254a 883e
000003c0: 06e8 b0bc 79a9 aa3d 85de 8fbb e42e 94be
000003d0: 2821 65bd bbf8 643c ea30 f33d 9cb5 eabd
000003e0: 524e 393e ce85 27ba 7ae8 84bd f49a abbd
000003f0: 2d16 1abd 34b6 b1bd 6cb5 01be d92e 0bbd
-0.18330395 -0.108111165 0.011186773 -0.20897883 -0.048253108 0.051763337 -0.072343506 0.06845999
0.074824974 -0.10336789 -0.028530551 0.044270437 0.09452876 0.06332996 -0.049271446 -0.028255856
0.13478722 0.15579286 0.052165408 0.12198755 0.0073382994 -0.108860664 0.07258131 0.14396574
0.16452703 -0.022858595 0.08070979 -0.06953347 -0.018854044 -0.122838534 0.027442303 -0.029350879
0.050599776 0.1586726 -0.035857372 0.043856252 -0.108214535 -0.011614708 -0.16953534 0.18788521
0.105477005 0.07654141 0.06845915 -0.04501986 0.23817314 0.09582635 -0.04175186 0.047550224
0.037807632 -0.00360541 -0.11634842 0.019924982 -0.14861572 -0.07960583 -0.21188262 -0.021558395
0.089482576 -0.1538737 0.03264555 -0.05985568 -0.06221521 0.023220666 0.24865238 -0.12938279
0.048181314 0.12398315 -0.23714924 -0.09142035 -0.008664424 -0.061541047 0.08283127 -0.004377879
0.14767063 -0.061579257 0.11245028 0.01937026 -0.16528374 -0.014959496 0.063189216 0.0027314217
0.08550562 -0.02762185 0.06498129 -0.07953406 -0.04164657 0.13400114 -0.06434301 -0.14558247
0.029422 0.031218316 0.08039595 -0.014171373 -0.1344951 -0.05229371 -0.13533841 0.0013542525
0.055129163 -0.010664556 0.11049212 -0.003437554 -0.040238135 -0.07846196 -0.090985864 0.08814088
0.20794082 -0.096413955 -0.25425166 -0.014700644 0.09526148 0.12556684 0.06199072 -0.010988698
0.1314057 0.025118822 0.038976267 0.14843798 -0.02691366 -0.008476888 0.043469418 -0.0339775
-0.05770677 0.06293706 -0.09013178 -0.11967397 0.079616964 0.038591996 -0.015527004 0.03171171
0.00076052797 0.06413082 -0.062101036 0.047218274 0.036674142 0.038120456 -0.007754744 0.144807
-0.26780736 0.08548994 0.086388305 -0.2499319 -0.120847166 -0.20095433 0.016313253 0.101797
-0.050910935 -0.1702122 0.08692692 -0.1726527 0.07808278 -0.074872546 -0.13617295 -0.08237673
-0.1147933 0.1250814 0.08136947 0.06593342 -0.2538559 -0.041319005 0.09286784 0.09164787
-0.010867785 -0.19044782 0.0115824975 -0.16332181 -0.03452926 0.008748327 -0.02489382 -0.088046156
0.016868472 -0.18888073 -0.012862963 0.08987322 0.034675375 -0.038394853 -0.057103973 -0.06929406
0.13782902 0.11760438 -0.10969773 -0.11154117 0.10161731 0.079047225 0.026030721 -0.18181743
0.12324303 0.08659202 0.024461178 -0.06348602 -0.04527532 0.045787122 -0.16895704 0.046938304
-0.074276686 0.27418506 -0.11058255 0.09113807 -0.028281173 0.07332751 0.001649279 -0.05064397
0.13863689 -0.1087024 0.06683845 0.20194381 0.10618062 -0.1724392 0.077652626 0.0724344
-0.06592917 -0.18935023 -0.14101616 -0.1601472 -0.106400974 0.13594429 -0.052849844 -0.12769838
-0.100645736 -0.02717958 -0.08032066 0.11106121 0.06978921 0.09729073 0.10629827 -0.031249482
-0.119960085 0.005222474 -0.0898794 0.13476518 -0.06601859 -0.031661652 -0.02355402 0.2943846
0.09869246 0.020832414 0.23242898 -0.15773337 0.04078421 -0.12379975 -0.23658898 0.26619068
-0.021595012 0.083331056 -0.00439054 -0.28942025 -0.055939823 0.013975318 0.11874564 -0.114604205
0.18096283 -0.0006390483 -0.06489654 -0.08379164 -0.037618805 -0.086773306 -0.12666863 -0.033980224

actor.4.bias f4 [6]
00000000: 0f6e 1ebe b2fb e93c 4bcd db3d 4afe 393e
00000010: 8e58 8b3d 8e08 ab3d
-0.15471672 0.0285624 0.10732516 0.1816341 0.06804 0.08351241

critic.0.weight f4 [64, 43]
00000000: ab74 f83e da17 16bf 8130 25bf a0c5 17be
00000010: 2f48 7b3e d3e7 ae3e 05ef a9be aaee 69be
00000020: 7df9 84be ba55 66bc 8add b1bd 391d 1bbc
00000030: 5707 2c3e 8fd0 293e 8753 cfbd 6c71 9d3d
00000040: 2611 603d f273 6d3c 9865 573b 9cff 73ba
00000050: 5198 c23e 6f30 873e 78cf 9fbe 85cf 803e
00000060: f69f 18bf 5be9 933d 065e 19bf 2db7 e7be
00000070: 9612 2f3d ab93 cbbe 97d4 a83f f354 f93d
00000080: bf1c 49bf c1e3 fdbd fdad b43e 07a8 5abe
00000090: 17b3 dfbe be96 8e3f 51d4 343e d4ef 5ebf
000000a0: f5d6 4ebf 67de 00be 079c a03d a16f bb3e
000000b0: 401c 0dbf a2d0 b6be 9452 c7be 29e8 0a3e
000000c0: 574f 233e 3843 54bc cc44 3e3e 8cca b63d
000000d0: 73ef 3f3d 8159 e7bc a201 9c3c 5c08 cf3d
000000e0: 12bb c8be 1120 8dbe 8c4d 9ebe 1e00 643e
000000f0: 3e48 98bd f35b 663c b5f6 bfba 63d7 3c3f
00000100: 1951 91bc 8293 e3be b0d8 9cbe 82be bfbe
00000110: f47d 253f 1650 06bf b944 96be 4cd8 92bd
00000120: e8a3 b0be 80a3 0e40 0055 8b3e 67be 11bf
00000130: 2992 9dbe 8513 3d3f ed33 5a3d fe35 04bb
00000140: 5c11 0a40 343d ea3d 6bb6 39bf caf2 2abf
00000150: de4e 883e 4486 a3be 80a2 d23e ff45 acbe
00000160: d8e6 13be ef9d 4cbd 3e7b 2fbe 2c76 c53e
00000170: e301 c23c 5cb7 db3b 0aba 643d e01b 30bc
00000180: 4e8c bc3d ad6f 8fbc 981b 073e 6fb7 0d3e
00000190: 06fd 2e3d 8890 18be df9c 9abe 6e5b 463c
000001a0: 9db4 be3c 1789 fdba 28ef c4bd cc12 b23f
000001b0: 4f2b e63e 71ba 7d3f 4fd0 5a3d d1ab e93c
000001c0: 0b86 8a3d 55e2 753e faff 413f ffb1 313c
000001d0: d06d 02c0 78d9 2340 6479 8cbf 9811 93be
000001e0: 2c5c 0abf 19fe fb3b d667 843e fa2c 00c0
000001f0: 2cda 2340 9712 9bbf 829d 913e 7897 3abd
00000200: 91a1 bcbc 316d a53c 925b 80be 99da 88bd
00000210: 3c51 373e 20f5 36ba 0707 c0bd af70 ae3c
00000220: ae6d 96bc d441 1e3e d60a 00bc fcdb 92bd
00000230: 30d2 ec3c 75d8 a8bd b259 b2bc 9285 e23d
00000240: a6b7 4a3e c3c8 1b3e e6ed 02be fd5a 51bc
00000250: 71b0 fe3b 8378 7fbf 8b54 c33f 74b5 f63e
00000260: 46eb 7b3f 3917 5bbf 0b5d 8a3f 8f26 543e
00000270: 7751 6fbe a3dc 753f e07a 453e 0172 9d3d
00000280: d6d2 10bf d41f 2abe 3bb8 39bd 7138 c6be
00000290: 3a60 1c3e cea7 88bd 6d60 d0bc 3e54 04bf
000002a0: 71a1 adbe 279f 303f 4b51 aebe 1552 8cbe
000002b0: 7b8c 413f 40ad 373d bb09 b83d 5bbf ac3c
000002c0: 8179 ed3d 9830 133e fe3e 32be dd84 8c3c
000002d0: 2967 89bd ea5c 883d b8ac 50bd ddda f6bc
000002e0: f7a1 ed3e 4dfd 823d cc09 47bc b193 95be
000002f0: 1dd8 0f3e 62af df3d ac8b cebc a7e7 683b
00000300: ee9b 1abf e690 70bf 8bd3 a7bf 2de7 b43e
00000310: 507e 673f 1957 823f 0212 253e 7c1a 643e
00000320: 7191 32bf a3b1 04bd b622 97bf d320 7dbe
00000330: bc5a 93be b65d 77bd 2068 30bf ea98 adbd
00000340: 1ec8 aa3e 1574 83bf f5f6 a9be cc0d aabe
00000350: 63ff 70be 2ee5 033d ca0a 7c3e 6e9b 4b3d
00000360: 798b 17bc e36f 7dbd 9fd2 debd 4d1f 473d
00000370: 8d10 af3c c2a7 ebbc 5b7e d0bc 97bc 75bd
00000380: b050 1e3d 7077 bf3c 6e3c bdbc c56b 86bd
00000390: c7a5 633d 1d34 1e3c 617c 12be badf c3bd
000003a0: 9a7a b33d 0d82 bdbb 48fd 04bb ae5a 513d
000003b0: a5aa e83f e62f a3bf c161 a1bf 1782 b5bf
000003c0: ae92 0040 ba31 3b3e 5be0 f6be d149 37bf
000003d0: 4a0c 453c d07a 6fbe 0746 143e 3f3a 0d3f
000003e0: 5420 913e 969a 59bd 13eb b53e 42fa 77bd
000003f0: 86da 10be 32c5 a43e 7c1a eb3e e19b babe
0.4852651 -0.58630145 -0.64527136 -0.14821482 0.24539255 0.34161243 -0.3319017 -0.2284495
-0.25971594 -0.014058525 -0.08684833 -0.009467416 0.16799675 0.16583465 -0.101233535 0.07687649
0.054703854 0.014492976 0.003286695 -0.0009307803 0.38006833 0.2640414 -0.31212974 0.25158325
-0.5961908 0.072222434 -0.59909093 -0.4525694 0.042742334 -0.397611 1.3189877 0.12174406
-0.7855949 -0.12396956 0.35288993 -0.2135316 -0.43691322 1.1139753 0.17659117 -0.870847
-0.8079675 -0.1258484 0.0784226 0.36608604 -0.5512123 -0.3570605 -0.3893019 0.13565125
0.15948234 -0.012955479 0.18580931 0.089253515 0.046859216 -0.028240921 0.019043747 0.10109016
-0.39205223 -0.27563527 -0.3091854 0.2226567 -0.07435654 0.014060008 -0.0014645668 0.73766154
-0.017738866 -0.44448477 -0.3063407 -0.37450033 0.64645314 -0.5246595 -0.29349306 -0.071701616
-0.3450005 2.2287292 0.27213287 -0.56931156 -0.30775574 0.7385791 0.053272177 -0.0020173783
2.1573095 0.11437455 -0.7254397 -0.66776717 0.2662267 -0.31938374 0.41139603 -0.33647153
-0.14443529 -0.049955305 -0.17136857 0.3856672 0.02368254 0.0067052078 0.055841483 -0.010748833
0.092064485 -0.017509306 0.1319412 0.13839506 0.04272177 -0.14898884 -0.30197808 0.0121067595
0.023279482 -0.0019343224 -0.09615928 1.3911986 0.44954917 0.9911261 0.053421315 0.028524311
0.06763848 0.2401212 0.75781214 0.01084566 -2.0379524 2.5601482 -1.0974545 -0.2872436
-0.54046893 0.007690203 0.2586047 -2.0027452 2.5601912 -1.2115048 0.2844048 -0.045554608
-0.02302626 0.020193668 -0.25069863 -0.06682319 0.17902082 -0.00069792755 -0.0937634 0.021293966
-0.018362846 0.15454799 -0.0078150835 -0.07170865 0.028908819 -0.08244411 -0.021771286 0.11060633
0.19796619 0.15213303 -0.12786064 -0.012778041 0.0077724983 -0.9979326 1.5260175 0.48185313
0.98405874 -0.8558231 1.0809644 0.20717834 -0.2337092 0.9603979 0.19285154 0.0768776
-0.5657171 -0.16613704 -0.04534171 -0.38714936 0.15271083 -0.06672631 -0.025436604 -0.51691043
-0.33912233 0.6899285 -0.34046397 -0.27406374 0.7560498 0.04484296 0.08986231 0.02108734
0.11595441 0.14374006 -0.17406842 0.017153198 -0.06709129 0.06658347 -0.050945967 -0.030133659
0.46412632 0.063959695 -0.012148332 -0.29214242 0.14047284 0.109221235 -0.025213085 0.0035538466
-0.6039418 -0.939711 -1.3111433 0.35332623 0.9042711 1.018283 0.1612015 0.22275728
-0.69753176 -0.03239597 -1.1807468 -0.24719553 -0.28780162 -0.060392104 -0.6890888 -0.08476432
0.33355802 -1.02698 -0.33196226 -0.3321365 -0.23534922 0.032200985 0.2461349 0.049708776
-0.0092495615 -0.06187428 -0.108800165 0.048613835 0.021370197 -0.028766517 -0.025450876 -0.059994306
0.03865117 0.023372382 -0.023100104 -0.06563524 0.05557802 0.009655979 -0.1430526 -0.09564157
0.08763619 -0.0057833255 -0.002029257 0.05111187 1.8177077 -1.2748992 -1.2607957 -1.4180325
2.0089526 0.18280688 -0.48218045 -0.7159701 0.012026856 -0.23386693 0.14479838 0.55167
0.28344977 -0.05312594 0.3553091 -0.0605414 -0.1414586 0.32181698 0.45918643 -0.3644705

critic.0.bias f4 [64]
00000000: fec0 aebe a746 b1be b642 213e 08fb c93e
00000010: 8eea c93c a9e5 bf3c 0c54 b73d aa00 b7bc
00000020: 98aa 493e 3cfa 2fbd c688 3e3e 1fb9 bcbe
00000030: aa2f febd cede b63d 4212 9ebe 50c6 063f
00000040: 47af a2be 5868 8abe aab6 b63e a60c 9abd
00000050: 1d5d d2be b9a4 ccbd 3477 ba3e d993 babd
00000060: 6cec 36bd e566 923d 0059 c0be aaae 9b3d
00000070: 937a 293e 19ba 123e 5a6a bd3e 7c48 2dbe
00000080: 5071 37be d23e 433e 6491 923d 3eab cabe
00000090: c235 cbbe 123a 143e e101 033d ac7a 573e
000000a0: ef1e df3e b53b 2f3e 57cc 3dbc b65b 653c
000000b0: 97b6 9b3c 6c1a 6abe fd08 56be 1d52 563e
000000c0: 65b6 e03d 55ee a4be 4678 1abe fe4f 463e
000000d0: 25eb f9bc ef9b 4a3e 3f17 ab3e 010b 083e
000000e0: 48e2 a63d c1c4 963d fb32 a9be 6a05 86be
000000f0: 6f34 9fbd 220c 43be 2b42 edbc 206e 39be
-0.34131616 -0.34624216 0.15748104 0.39449334 0.024647977 0.02342494 0.089515775 -0.022339184
0.19693983 -0.04296325 0.18606862 -0.36859986 -0.12411435 0.08929215 -0.30873305 0.5264635
-0.3177435 -0.27032733 0.35686237 -0.07521944 -0.41086665 -0.09992356 0.3641907 -0.09110231
-0.044659063 0.07148532 -0.37567902 0.07601674 0.16550665 0.14328803 0.36995202 -0.16922182
-0.17914319 0.19066933 0.07156637 -0.39583772 -0.3968945 0.14475277 0.031984214 0.2104289
0.43578288 0.1711262 -0.011584363 0.013998916 0.019007964 -0.22861642 -0.20901866 0.20929761
0.10972289 -0.32213083 -0.15084943 0.19366452 -0.030507633 0.19786046 0.33416173 0.13285448
0.081486285 0.073617466 -0.33046708 -0.26176006 -0.07773673 -0.19047597 -0.028962215 -0.18108416

critic.2.weight f4 [64, 64]
00000000: 3fe3 053d f885 2c3e 1308 443d b336 86bd
00000010: b08c c6bd 47b7 0dbe e46d 853d 22a5 15bd
00000020: cbb9 c7be feb3 253d bd91 95be 4393 81bb
00000030: 0693 d0bd 1927 1c3e 12c9 c23d 4c09 053e
00000040: eb21 ed3d 232c b63b f9c4 a33d dfe6 8f3d
00000050: e949 a93d b48e c63d b60c bbbd e9bc 953d
00000060: 78b1 7dbe 9fb1 68bd 8f4a 903e ed55 e8bd
00000070: c4e3 95bc fad2 c63c 11bf 5cbd a7dd 6abc
00000080: 8e16 483c dc53 febb 5359 5f3c 8f68 dd3d
00000090: 31a9 89bc 64ce f33d e700 eabd 25bc febd
000000a0: c7a1 0dbe 39e3 2bbe 2ada d03d 022b 493e
000000b0: 8cc7 8bbc 455f 193d 897d f2bd 142f ebbd
000000c0: 8a78 dcbd ec82 72bd eb83 c93d 0c11 d7bd
000000d0: 550d 58be 68df 883d 8d64 bc3d f094 4bbe
000000e0: f585 eebd d0fc 06bd 2147 1c3d 21e6 1e3c
000000f0: eae8 d83d 244e ecbd a5eb f4bd 4917 debd
00000100: 3847 24be 184a 50be 1940 f63b 043e 30be
00000110: 8b3a a0bd 25a6 22bd b500 df3d 6a5e 1cbd
00000120: 53af e73d 09a1 953c 544e e53d 7c98 8abd
00000130: 67a0 2bbe 1965 c43d 49fc 4abe 3f2f 61be
00000140: 705c fa3d 29be 35be 1309 8cbd 859a 5d3e
00000150: 2b6d fcbd 0aa5 7bbd bafe 1abd c724 80bd
00000160: 53bb 1abd 53f8 d6bd 4a9a 1cbe 8ebc 043e
00000170: 4d0b 81bc 11b3 d53d 0b34 ab3d e46e 1dbd
00000180: b22b 74bc 073e 043e b591 2dbc b463 61bd
00000190: 8579 2fbe a222 4cbe 6958 9e3d 4cc4 1ebe
000001a0: 6cfd a5bd 2dfe f63d 95c4 68bd 5c0b 1dbe
000001b0: 752a 833c c60d fbbb 6237 10bd cf07 fabd
000001c0: 2d0b 42be d6c2 46be 6f87 bd3d 91a5 103d
000001d0: e0f6 e0bc 1716 153e 3563 aabd 9799 2ebe
000001e0: 9a95 21bd d86a 203e b2f2 983d 555b 13be
000001f0: 4d44 633d 459d 49be f7f1 46bd ff0c 80bd
00000200: 001c 5abe ca8a 81be 9dd2 87be 80ef acbd
00000210: f2cb 133e 2844 17be 9b80 eabd d5b8 e83b
00000220: d392 02be 973b e8bd 11f0 43bd 5be9 f23d
00000230: b280 59bd d0df ca3b 61f7 ebbc 75d4 97bc
00000240: 099a ae3d 9808 fa3c e4a8 1ebe e6cf 21be
00000250: e396 fbbd e91e 843d bf17 09be c175 ed3c
00000260: db85 4abd 7f3b 2dbe b1d0 24be 05ec 27ba
00000270: db4a 84bc 3b94 6cbe de37 d53d 4a2f 5abd
00000280: b2bf 0b3d bf51 c73d e7a6 46bd 065b 1bbe
00000290: 185d 7a3c e199 35be 9b16 edbd 65be f4bd
000002a0: 2439 d0bd 7ea5 7ebe 9892 c43b 7404 13bc
000002b0: 0c40 ffbd eaf3 cf39 4e75 ac3d f872 e6bd
000002c0: e3b2 803d 4df7 003c 482e 57bc c48b 21be
000002d0: 2732 84be 3a42 a33d aea3 9abe 43f5 493d
000002e0: 94e2 033d e16d b93d 3e03 4dbd 4b4e 87bc
000002f0: 2dec 973d 6b4d b73d 7a36 a4bd febb 3abe
00000300: f683 22be 7440 32be 4785 88bd a2f5 16bd
00000310: 68c7 e03d 49a2 ab3d cc19 57be bd19 21be
00000320: eb54 1dbe b8ff acbc 3098 2bbb 6cc8 ad3d
00000330: 0757 073e 8b54 40be e949 a83b 8992 f73d
00000340: 12a3 c1bd a55b aabd 7caa 54be a0d8 e2bd
00000350: 670c ca3d 7723 72be 12c2 5fbc 148a 76be
00000360: 100c 8639 3fb2 3cbe 8528 453e c8c9 d3bd
00000370: 3708 2fbd 4ce9 73be f662 403d 2b05 8dbe
00000380: 6f43 8cbd 09da 8a3d 1316 febd 10dc 29be
00000390: a3d8 6dbc d18e 07be bbda 7cbd 0d4f 4f3d
000003a0: 5844 3fbe d72a 81be 1c6f 79bd 9082 653c
000003b0: 7de0 d1bd 9feb 223d b9ba 03bd 8bb9 923c
000003c0: a74e 0ebd 74a1 08be b4b9 debd 3bc6 e5bd
000003d0: 91ca acbd 99c2 14bd 2079 19bd 468c 09bf
000003e0: ad01 b83d d3e9 58be 1fc6 ee3c e0fd 2abe
000003f0: 3bbd 7ebe accb ebbd 5b11 213d 809c e9bd
0.032687422 0.1684798 0.047859263 -0.06553402 -0.09694803 -0.13839446 0.065151006 -0.036534436
-0.39008936 0.040454857 -0.29212752 -0.0039543225 -0.101842925 0.1524929 0.09511007 0.12991828
0.11578735 0.0055594607 0.07996554 0.07026457 0.0826605 0.09695187 -0.09133284 0.073114224
-0.2477473 -0.056810018 0.28181884 -0.11344514 -0.018297084 0.024270523 -0.053893153 -0.014335073
0.012212409 -0.0077614617 0.013632136 0.108109586 -0.01680431 0.119046 -0.11425953 -0.124382295
-0.13831244 -0.16785897 0.101978615 0.19645312 -0.017062925 0.03744437 -0.1184035 -0.11483589
-0.107651785 -0.059206888 0.098396145 -0.10501298 -0.21098836 0.06683236 0.09198866 -0.19881034
-0.11646644 -0.032955945 0.03815377 0.009698422 0.105913 -0.11538342 -0.11959008 -0.10844285
-0.16042793 -0.20340765 0.0075149653 -0.17211157 -0.07823666 -0.03970923 0.10888807 -0.038175978
0.11312737 0.018265264 0.111965805 -0.06767365 -0.16760407 0.09589595 -0.19822802 -0.21990679
0.12224662 -0.17748322 -0.06837668 0.21640976 -0.1232551 -0.06143669 -0.037840582 -0.06257015
-0.037776303 -0.10496583 -0.15293232 0.12962553 -0.015752459 0.10434545 0.08359536 -0.03843583
-0.014902996 0.12914287 -0.010593821 -0.055026725 -0.171362 -0.19935086 0.07731707 -0.15504569
-0.08104977 0.12060199 -0.0568281 -0.15336365 0.016011456 -0.007661554 -0.035209067 -0.122085206
-0.18949576 -0.19410262 0.092543475 0.035314146 -0.02746147 0.14559208 -0.083197035 -0.17050777
-0.03944931 0.15665758 0.074681655 -0.14390309 0.05548506 -0.196889 -0.0485706 -0.06252479
-0.21299744 -0.253012 -0.26527873 -0.084441185 0.14433268 -0.14772093 -0.11450311 0.007102112
-0.12751321 -0.11339491 -0.047836367 0.11860915 -0.05310125 0.0061912313 -0.028804483 -0.018533925
0.085254736 0.030521676 -0.15494114 -0.15801963 -0.12284639 0.06451208 -0.13387965 0.028986814
-0.04944406 -0.16917227 -0.16095234 -0.0006405714 -0.016148975 -0.2310342 0.104110464 -0.053267755
0.03411836 0.09732389 -0.048499014 -0.15171441 0.015280984 -0.17734481 -0.11576577 -0.119503774
-0.10167149 -0.24867818 0.0059989206 -0.00897323 -0.12463388 0.00039663847 0.084208116 -0.11252397
0.0628412 0.007871461 -0.013133593 -0.15775973 -0.25819513 0.07971616 -0.30203003 0.049306165
0.032198504 0.09054161 -0.05005192 -0.016516825 0.07418094 0.08950313 -0.08018203 -0.18235776
-0.15870652 -0.174074 -0.06666046 -0.036855347 0.10975534 0.08380563 -0.21005934 -0.15732475
-0.15364425 -0.02111803 -0.002618324 0.08485493 0.13216792 -0.1878225 0.005135764 0.12088496
-0.09454931 -0.08318261 -0.2076816 -0.11076474 0.09865647 -0.23646341 -0.01365711 -0.2407611
0.0002556746 -0.1842737 0.19253738 -0.10341221 -0.042732444 -0.23819464 0.046969377 -0.27543005
-0.068487994 0.06779868 -0.12406554 -0.16587853 -0.014516982 -0.13238074 -0.061732035 0.050612498
-0.18678415 -0.25227997 -0.060896978 0.014008179 -0.10247896 0.039775487 -0.032160494 0.01791074
-0.034742977 -0.1334284 -0.10875264 -0.1121945 -0.08437074 -0.036318395 -0.03746903 -0.53729665
0.08984695 -0.21182947 0.029147206 -0.16698408 -0.24876873 -0.11513457 0.039323192 -0.11406803

critic.2.bias f4 [64]
00000000: b852 c7ba 1749 28bd 72e2 9ebd f056 dc3c
00000010: bddb 0b3e 77f5 d0bb 128f e9bd 05cd 2ebd
00000020: ef24 853d 965e 993e e1eb a93d cc61 3d3e
00000030: 0006 d2bd 958e 3cbd f599 243e e34c efbd
00000040: a670 34be ebeb bf3c 69d0 c2bc 5b36 623e
00000050: f9b8 a6bd 4243 62bd a5c5 ffbd 9ef8 513d
00000060: ef94 2a3d bfab 173e 5726 c1bd 5d85 963e
00000070: 8913 a7bd 3634 a5be 5134 0cbe 3685 91bd
00000080: 5c66 843d 0056 1bbe 16b9 b03d 4724 acbd
00000090: c65e 80bd 8fcf 983d 1d27 433d 5aca 153d
000000a0: 97ed e2bc c663 96bc 380a af3d 57a5 033e
000000b0: c7be 68ba fe31 7ebd 9e84 ffbd eb16 a73d
000000c0: bb33 4abe 50c0 ec3d 481b 6bbe dfa8 04bc
000000d0: 349e 8fbd 1fb7 28bd 275a 48be fc1c 46bd
000000e0: e65a b8bd a35c 493d be20 acbc 826b 973d
000000f0: 9de1 b33d 772d e93c ff69 9a3d 6416 2ebd
-0.0015207147 -0.04108533 -0.07758035 0.026896924 0.13658042 -0.006376918 -0.114042416 -0.04267599
0.06501185 0.29954976 0.082969435 0.18494338 -0.10255051 -0.046034414 0.16074355 -0.11684587
-0.17621097 0.023427924 -0.023781018 0.22091047 -0.081407495 -0.055239923 -0.124888696 0.05126249
0.04164594 0.1481161 -0.09431141 0.29398623 -0.08158023 -0.32266396 -0.13691832 -0.07105486
0.06464836 -0.15169525 0.08629052 -0.08405357 -0.062680766 0.07461464 0.047644723 0.03656993
-0.027701182 -0.018358123 0.08546871 0.12856041 -0.00088785257 -0.062059395 -0.124764666 0.08158668
-0.19746296 0.11560118 -0.22959626 -0.008096903 -0.07012597 -0.041190263 -0.1956564 -0.048367485
-0.090017125 0.04916061 -0.021011706 0.07393552 0.08783267 0.028464062 0.075397484 -0.042501822

critic.4.weight f4 [1, 64]
00000000: 5092 a0bd 7f7d c73d d5e4 e83d 5391 da3d
00000010: 506c c33e 2ed2 0dbe d830 783e 5136 153f
00000020: f295 ca3d 95de 2f3e d734 3a3d 84a2 cf3d
00000030: b83a eabd 586b 843e 5fdb 0c3e 1ba2 833e
00000040: f86f eabe 2049 0abe 4aaf eb3d 0372 c13e
00000050: 4387 c73d 993d c0be b2db 5d3e 52fc da3d
00000060: 2f4c 09bd 908b 153e 52f7 37be 0bc0 263e
00000070: b5f9 2cbf 0343 00bf 5dce 9e3d 818d c5bd
00000080: 2708 edbe 1579 e3be 27d7 0ebf ebbf 34be
00000090: 5095 cc3e e479 d43d d849 1e3e 377c c83d
000000a0: bbbd adbd 4d3d 2f3e 4887 b0bd 0154 0b3e
000000b0: 6d19 063e c824 f3bd c454 e0bd 89ba e83d
000000c0: 7baa b73e 831e 4b3e 1f26 1b3e 8de3 953e
000000d0: 9430 bbbe 8cb1 57bf 41fa 3dbe 024f 35be
000000e0: b31e 6cbf 0c0a 293e d3a3 b03d 5514 c33e
000000f0: e5c4 123e 2d5c af3d 27ac c63e e86a 38be
-0.07840407 0.09740733 0.11371771 0.1067225 0.38168573 -0.13849708 0.24237382 0.58286005
0.09891881 0.17174752 0.04546055 0.10138419 -0.11436981 0.25863147 0.13755558 0.25709614
-0.4578855 -0.13504457 0.11508043 0.37782297 0.09742596 -0.37546995 0.21665838 0.106926575
-0.03351992 0.1460402 -0.17965439 0.16284196 -0.6756852 -0.5010225 0.077542044 -0.0964613
-0.46295282 -0.44428316 -0.55797046 -0.17651336 0.39957666 0.10374811 0.15457857 0.09789317
-0.08483454 0.17113228 -0.08619553 0.13606264 0.13095637 -0.1187225 -0.10953668 0.11363704
0.35872254 0.19835858 0.15151261 0.2927517 -0.365605 -0.8425529 -0.18552496 -0.1770592
-0.92234343 0.16507739 0.08624997 0.3810145 0.14332922 0.08562503 0.38803217 -0.18009531

exp_avg f4 [6]
00000000: 751e 6cba 1b08 9eb9 16f8 b03a 9f00 843a
00000010: 7a01 b5ba 0e72 33ba
-0.0009007224 -0.00030142147 0.001350167 0.0010070986 -0.0013809644 -0.00068453036

exp_avg_sq f4 [6]
00000000: ccdc 0937 0cbb 7237 b77e 0338 b5fc 1636
00000010: 46ec 0536 0dcc 7134
8.217245e-06 1.4467874e-05 3.1350846e-05 2.2498837e-06 1.9956074e-06 2.2519107e-07

exp_avg f4 [64, 43]
00000000: 158b 70b8 7028 52b7 bafd 1639 09c9 71b6
00000010: 8ba0 d137 6cb1 17b7 a7d4 3338 7a7f a638
00000020: 7ca1 1538 a315 21b9 9614 73b9 cf7a 94ba
00000030: 8f89 05b9 0f33 d437 0433 9c39 b432 2eb7
00000040: 8a6e f3b6 8b22 87b9 3df1 43b9 78fa 1c3a
00000050: 3362 88b7 0d0c 93b7 9a1e f9b7 1e6c 7eb4
00000060: ca71 0638 7189 a737 68cc bf35 b464 7337
00000070: 0a30 23b7 9ef6 9f35 f44e 8b37 92cd 4c38
00000080: 1443 db37 beef 8938 bb28 d936 377a 1d38
00000090: ccb8 7a38 f44e 8b37 38cd 4c38 1443 db37
000000a0: 31b3 ddb7 966b 4438 8467 02b8 41f0 0c38
000000b0: 9862 d8b7 eb48 0f39 5c67 3fb8 a67d f636
000000c0: d905 e037 6402 7db9 0b9e 2138 0f2b f6b8
000000d0: 9a0f 02b7 3370 62b9 501f 0a3a 8542 c9b7
000000e0: 1109 4537 6273 7839 263f 10b8 0ba4 88b7
000000f0: dafe 5039 cfdf efba 33bc 663b 91fa 92b7
00000100: 1ce2 24b6 5658 23b8 fdee 85b4 7c7b bb37
00000110: acb1 2038 93f4 d835 88bc a637 b2fc 30b5
00000120: 4f77 b735 c765 80b8 9c41 2038 a1f8 4a37
00000130: 3a2d 6238 4bf8 3bb8 2b3e 3838 dc51 be38
00000140: c765 80b8 a341 2038 a1f8 4a37 1503 b3b8
00000150: 3fe2 cf36 e84b ecb7 5caf 9938 9d79 7cb8
00000160: 8276 e7b8 5b9b f436 fb84 09b8 0d85 cd38
00000170: 9056 ef35 c1ea c7b7 8c54 4db9 7b18 dd39
00000180: 1838 a2b8 124a 1b38 63e2 1439 d04a ecb8
00000190: 45e4 88b9 48fa 8e38 d88b 8ab8 e16b 1239
000001a0: 9b7c 0cbb 794d a23b 3b80 cc37 614c 7fb7
000001b0: aca9 58b8 beb2 bfb4 b36c 1db7 4118 fd37
000001c0: 1fd9 ffb5 4f6f ceb7 3164 b4b7 1be0 17b6
000001d0: 2e85 a5b8 5f6a a8b6 95ac 5337 e301 8fb8
000001e0: 4862 3836 c871 0eb8 dc54 fe37 2e85 a5b8
000001f0: a969 a8b6 95ac 5337 cec1 2ab6 7dcc cc36
00000200: 45d1 8938 1b45 8d36 89f8 9235 4b4b 83b8
00000210: e337 8d38 a59b d337 0a21 b537 f4d1 7839
00000220: ca63 a5b7 3391 0338 c00b 49b9 1b88 6b39
00000230: c369 063a 4f6c ad38 25cb eab7 a96a fab8
00000240: 1fc2 d838 b2b9 d438 c778 3039 e169 0abb
00000250: 235e 0b39 60e4 3237 cc3b c136 5b18 9637
00000260: 2de6 6434 157f 8eb7 4ca7 1cb7 5640 4fb5
00000270: 780c 3cb7 6678 0f37 1ced 15b5 ea24 4137
00000280: 4ab1 9bb6 daf0 03b7 417c fbb7 e56d c637
00000290: 69e8 39b7 142a 22b7 ea24 4137 17b1 9bb6
000002a0: daf0 03b7 b196 6138 4961 2338 0f0e 8937
000002b0: 0a42 1738 4604 e536 6086 94b6 e3b0 a9b8
000002c0: b16d 80b7 5c98 7e37 edea 7338 0058 1839
000002d0: a36b 99b9 8bb5 a7b8 8acf 8eb8 9f47 e038
000002e0: 33ad aa38 9a45 a238 9f6e d6b8 6484 1ab9
000002f0: cb7b 49b8 8c80 ceb6 4897 823a fc93 1aba
00000300: 7b0b 2c37 62fb a0b6 d58c 90b7 be1d a9b1
00000310: d635 90b5 9224 0837 bfd6 95b4 7f12 c5b6
00000320: 3ee7 18b7 aa3f 98b4 4ba4 3cb6 70f8 51b7
00000330: 37a2 8f36 50c2 2e35 10a1 0fb7 2886 b0b7
00000340: 1c1b 26b7 4ba4 3cb6 c4fa 51b7 37a2 8f36
00000350: 1ca7 31b8 4f57 db37 3711 4537 f962 f238
00000360: 62c3 56b8 7753 9ab8 9b47 cfb7 82cc ceb7
00000370: d0fa 9f38 650e eab8 e7ff 0db8 8fcb 2fb9
00000380: f245 4d39 3b6a 49b8 9945 b2b6 48dc 4a39
00000390: 921b ceb8 f8c7 55b9 19c5 9cb5 f0cd 80b8
000003a0: 8537 0c39 edf6 27bb 42f1 0cbb 9be4 c4b5
000003b0: 9509 a036 c968 15b8 4de3 28b5 f351 b3b7
000003c0: e43a b837 03c3 05b5 3851 8bb7 5c6a 65b7
000003d0: d631 97b5 b6eb b8b7 4b5d 5cb7 5a16 b536
000003e0: 72cd 6db8 5ea6 c735 5bee 2bb8 1124 5a37
000003f0: b6eb b8b7 285d 5cb7 5a16 b536 4954 22b8
-5.734999e-05 -1.25263905e-05 0.00014399635 -3.6028816e-06 2.49895e-05 -9.041611e-06 4.2874974e-05 7.939241e-05
3.5674762e-05 -0.00015362217 -0.00023181955 -0.0011328104 -0.00012735113 2.5296145e-05 0.00029792648 -1.0383013e-05
-7.254833e-06 -0.00025774943 -0.00018686517 0.00059882505 -1.6258191e-05 -1.7529377e-05 -2.9697363e-05 -2.3694926e-07
3.2054064e-05 1.9971952e-05 1.4290099e-06 1.4507375e-05 -9.726742e-06 1.1918198e-06 1.6606857e-05 4.8828842e-05
2.613807e-05 6.5773245e-05 6.4718456e-06 3.754554e-05 5.977675e-05 1.6606857e-05 4.8828515e-05 2.613807e-05
-2.6428695e-05 4.683024e-05 -3.109082e-05 3.3602355e-05 -2.5795118e-05 0.00013664707 -4.563421e-05 7.3459987e-06
2.6705604e-05 -0.00024128851 3.853258e-05 -0.000117382144 -7.752236e-06 -0.00021594837 0.0005268948 -2.3992043e-05
1.1744226e-05 0.00023694106 -3.4391087e-05 -1.6288852e-05 0.00019931365 -0.0018300953 0.003520739 -1.7521235e-05
-2.4569517e-06 -3.8944498e-05 -2.4947067e-07 2.2349639e-05 3.8312442e-05 1.6164435e-06 1.9876534e-05 -6.593283e-07
1.3669286e-06 -6.122473e-05 3.8208076e-05 1.2098027e-05 5.392472e-05 -4.4815515e-05 4.3926917e-05 9.0751535e-05
-6.122473e-05 3.82081e-05 1.2098027e-05 -8.535959e-05 6.1954192e-06 -2.8168739e-05 7.328272e-05 -6.0194743e-05
-0.00011037012 7.2898524e-06 -3.2787193e-05 9.7999444e-05 1.7832081e-06 -2.3831964e-05 -0.0001958182 0.00042170644
-7.73521e-05 3.7023863e-05 0.00014198716 -0.00011267292 -0.00026110015 6.817706e-05 -6.606401e-05 0.00013963833
-0.0021436575 0.004953083 2.4378407e-05 -1.5216968e-05 -5.1656432e-05 -3.5706574e-07 -9.383238e-06 3.0171244e-05
-1.9062171e-06 -2.4608946e-05 -2.1504327e-05 -2.26312e-06 -7.89262e-05 -5.0191734e-06 1.2616762e-05 -6.819123e-05
2.7475344e-06 -3.3961405e-05 3.0318675e-05 -7.89262e-05 -5.0190906e-06 1.2616762e-05 -2.5444783e-06 6.1034793e-06
6.5716486e-05 4.2101724e-06 1.0950181e-06 -6.260591e-05 6.733814e-05 2.5225638e-05 2.1592266e-05 0.00023729337
-1.9716e-05 3.136806e-05 -0.00019173231 0.0002246205 0.0005127454 8.269457e-05 -2.798957e-05 -0.00011940796
0.000103358405 0.00010143536 0.00016829661 -0.0021120238 0.00013291142 1.06627995e-05 5.7588095e-06 1.7892735e-05
2.1317892e-07 -1.6986896e-05 -9.337276e-06 -7.720713e-07 -1.1208576e-05 8.551497e-06 -5.5851865e-07 1.1512291e-05
-4.639999e-06 -7.864286e-06 -2.9979392e-05 2.3654613e-05 -1.10809715e-05 -9.6657495e-06 1.1512291e-05 -4.639976e-06
-7.864286e-06 5.3784523e-05 3.8952832e-05 1.633822e-05 3.606271e-05 6.8252293e-06 -4.426387e-06 -8.091496e-05
-1.5309868e-05 1.5175054e-05 5.8154506e-05 0.00014528632 -0.0002926263 -7.9969956e-05 -6.809745e-05 0.00010694493
8.1384926e-05 7.737726e-05 -0.0001022492 -0.00014735904 -4.8037426e-05 -6.1542432e-06 0.0009963298 -0.0005896685
1.0254672e-05 -4.7976364e-06 -1.7231718e-05 -4.9219286e-09 -1.0744504e-06 8.114746e-06 -2.790966e-07 -5.8732107e-06
-9.113746e-06 -2.8358528e-07 -2.8109814e-06 -1.2515215e-05 4.2806164e-06 6.5102813e-07 -8.5609645e-06 -2.1043306e-05
-9.900683e-06 -2.8109814e-06 -1.2515757e-05 4.2806164e-06 -4.235572e-05 2.614749e-05 1.1746123e-05 0.00011557894
-5.120354e-05 -7.358839e-05 -2.4709667e-05 -2.4652345e-05 7.628428e-05 -0.00011160671 -3.3855347e-05 -0.00016765132
0.0001957638 -4.802107e-05 -5.3129156e-06 0.00019346282 -9.827981e-05 -0.00020387757 -1.1680269e-06 -6.1418745e-05
0.00013372123 -0.0025629357 -0.0021506106 -1.4669671e-06 4.769487e-06 -3.5621957e-05 -6.2915643e-07 -2.1376623e-05
2.1961932e-05 -4.983014e-07 -1.6607912e-05 -1.3674227e-05 -1.1264881e-06 -2.204427e-05 -1.3134743e-05 5.3968224e-06
-5.669654e-05 1.4875075e-06 -4.0991563e-05 1.300221e-05 -2.204427e-05 -1.31347115e-05 5.3968224e-06 -3.8702306e-05
