2026-01-29_07-44-49_Fase2_Empuje_V1/model_1150.pt (torch, 189045 bytes, 36 tensors)

std f4 [6]
0.15657796 0.07897164 0.11641345 0.18553068 0.22104478 1.0444902
00000000: f955 203e e2bb a13d 2d6a ee3d c1fb 3d3e
00000010: 9059 623e dbb1 853f

actor.0.weight f4 [64, 43]
-0.009054881 0.28580165 -0.04045065 0.016693559 -0.2554876 -0.3283632 0.011263221 -0.21201608
0.07216385 0.01460944 -0.008232649 0.06983335 0.17134893 0.16980413 0.026104892 -0.14304763
-0.13110435 -0.26448315 -0.040669173 0.00037005884 0.6704456 0.3191785 -0.11440763 -0.13089554
-0.4674104 -0.010838357 -0.12819119 -0.23192456 -0.037280846 -0.25231335 0.34258384 0.13699831
0.5410917 -0.5268164 0.13810793 0.199959 0.27377942 0.3280744 0.2832137 0.37526122
-0.2481531 0.0041986112 0.3427377 0.029929217 0.21929495 0.32964653 0.5825679 -0.55379796
-0.07427807 0.025621196 -0.6530721 -0.09851667 -0.13916834 0.15190408 0.021215608 0.20080961
-0.100574724 0.009105426 0.3908191 -0.60687053 -0.12123384 -0.040852312 0.02212165 -0.6722719
0.66742367 0.0910218 0.25184032 -0.7048544 -0.53276527 0.08981774 -0.103195585 -0.014461171
0.32363427 -0.5137521 -0.033033565 0.424654 -0.20531142 -0.4315984 0.3138388 0.46308285
-0.46664926 0.014265965 0.62487125 0.10710505 0.6214588 -0.1127248 -0.43937644 -0.12910436
-0.20708309 0.021057118 0.006575749 -0.3535888 0.24464591 -0.098053135 -0.4283596 -0.16009247
0.07350478 0.0614372 -0.21770404 -0.11749065 -0.27328542 0.07811976 0.0122396285 -0.2980402
-0.0017289211 -0.0060257185 -0.37076187 -0.6209614 -0.08561513 -0.008829729 0.03875499 -0.05831042
0.035822257 -0.38024756 -0.08446157 -0.049366217 -0.4431486 0.123853706 0.186447 -0.22707924
-0.07170395 -0.040002488 -0.5996433 -0.5703329 0.15336663 0.16318677 -0.6586532 -0.16288967
0.5287994 0.051123206 0.08067921 0.11974006 -0.4328058 0.30800074 0.048792176 0.024550254
-0.19741268 0.123932995 0.15339166 -0.09227236 0.13938884 -0.032266986 0.12533432 0.010090396
-0.22563137 0.18155971 0.15773733 0.065196395 0.007946422 -0.02157976 0.040019233 -0.041381102
0.022738727 -0.28462803 0.08788942 -0.20955785 -0.039372858 0.052781485 -0.03239415 -0.024073152
-0.12757163 -0.040810026 -0.083337195 -0.16356146 -0.016226124 -0.0010080399 -0.011488582 -0.13519728
-0.040322296 0.057362694 -0.070385866 -0.44318023 0.1633646 -0.5384057 -0.50905377 -0.024731351
0.038899437 0.25892302 0.14336793 0.22850226 0.3127991 0.114016384 -0.0068867654 -0.09900543
0.15032977 -0.12379082 -0.044305228 0.061334927 0.03089686 0.19309524 -0.03585105 -0.014532752
0.09034839 0.18381724 -0.089151606 -0.1793804 -0.13785233 0.119537115 -0.057823483 -0.04260718
-0.18058851 -0.15663296 -0.25076118 0.21080601 -0.16270487 -0.3228161 -0.0021470187 -0.20800081
-0.31903633 -0.32768255 0.24863593 -0.08471164 0.24064511 -0.998579 0.417811 0.02818223
-0.07676006 -0.08382275 -0.028065722 0.15813877 -0.067929 0.27378005 -0.88586575 0.02966483
-0.059698712 0.121522054 -0.03852678 -0.042432446 -0.26809013 -0.24550131 -0.1763349 0.38436088
0.17381059 0.037190635 -0.00060467166 -0.2087853 -0.24877246 -0.011974055 -0.10139373 -0.28733698
-0.3298572 -0.18940653 -0.19408494 -0.1721928 -0.12596129 -0.3855035 -0.15001631 0.075309895
-0.09341817 0.17115745 -0.070712976 -0.31881708 -0.305077 -0.12429485 -0.021931076 -0.34394264
00000000: ec5a 14bc 9854 923e 95af 25bd eec0 883c
00000010: 45cf 82be 391f a8be 5f89 383c be1a 59be
00000020: a4ca 933d 6f5c 6f3c 3ce2 06bc ca04 8f3d
00000030: 1876 2f3e 22e1 2d3e edd9 d53c 147b 12be
00000040: 3840 06be 566a 87be b894 26bd 7504 c239
00000050: 53a2 2b3f 5d6b a33e 8c4e eabd 7b09 06be
00000060: 6a50 efbe 5d93 31bc 8d44 03be a27d 6dbe
00000070: cdb3 18bd 372f 81be 2667 af3e 4949 0c3e
00000080: fc84 0a3f 71dd 06bf 2a6c 0d3e 0dc2 4c3e
00000090: d12c 8c3e 5ef9 a73e 6301 913e 3d22 c03e
000000a0: d91b 7ebe 8194 893b 517b af3e 1e2e f53c
000000b0: db8e 603e 6ec7 a83e 2b23 153f b4c5 0dbf
000000c0: 1a1f 98bd 8be3 d13c bc2f 27bf 1cc3 c9bd
000000d0: 2582 0ebe be8c 1b3e 5bcc ad3c 09a1 4d3e
000000e0: 1ffa cdbd ed2e 153c 7119 c83e de5b 1bbf
000000f0: 7349 f8bd c154 27bd 7638 b53c 031a 2cbf
00000100: 47dc 2a3f a369 ba3d 37f1 803e 5771 34bf
00000110: 4e63 08bf 5df2 b73d 3558 d3bd 8cee 6cbc
00000120: 64b3 a53e 4285 03bf 344e 07bd 406c d93e
00000130: 283d 52be 77fa dcbe 7baf a03e 3219 ed3e
00000140: a7ec eebe cbbb 693c 90f7 1f3f e459 db3d
00000150: ed17 1f3f 43dc e6bd f3f5 e0be ef33 04be
00000160: 970d 54be fa7f ac3c 6179 d73b 9709 b5be
00000170: 7584 7a3e 15d0 c8bd f351 dbbe 48ef 23be
00000180: ad89 963d 93a5 7b3d cfed 5ebe f09e f0bd
00000190: 11ec 8bbe 41fd 9f3d b988 483c ba98 98be
000001a0: f79c e2ba 6473 c5bb 80d4 bdbe 54f7 1ebf
000001b0: fc56 afbd 91aa 10bc 8dbd 1e3d e8d6 6ebd
000001c0: 5cba 123d cfaf c2be 30fa acbd 3b34 4abd
000001d0: 60e4 e2be 03a7 fd3d f6eb 3e3e 7687 68be
000001e0: 85d9 92bd a6d9 23bd 3982 19bf 5601 12bf
000001f0: 240c 1d3e 6f1a 273e 7f9d 28bf 8dcc 26be
00000200: 665f 073f 9166 513d 243b a53d 473a f53d
00000210: b998 ddbe 46b2 9d3e 4eda 473d 9d1d c93c
00000220: 8d26 4abe 95d0 fd3d b412 1d3e 4bf9 bcbd
00000230: f3bb 0e3e 632a 04bd a457 003e 3052 253c
00000240: e90b 67be caea 393e e585 213e b085 853d
00000250: b631 023c 09c8 b0bc 35eb 233d 3b7f 29bd
00000260: 9146 ba3c c4ba 91be 5eff b33d 5596 56be
00000270: 6f45 21bd 6631 583d baaf 04bd 0f35 c5bc
00000280: 23a2 02be 6a28 27bd b1ac aabd a87c 27be
00000290: a6ec 84bc 3520 84ba 9b3a 3cbc 2871 0abe
000002a0: fe28 25bd 25f5 6a3d 7726 90bd 85e8 e2be
000002b0: 0d49 273e f5d4 09bf 5951 02bf 6799 cabc
000002c0: 0455 1f3d 8f91 843e 0bcf 123e 7ffc 693e
000002d0: 3427 a03e 6c81 e93d 60aa e1bb 5cc3 cabd
000002e0: 0cf0 193e 0b86 fdbd 6679 35bd 553a 7b3d
000002f0: 691b fd3c c2ba 453e 8dd8 12bd c81a 6ebc
00000300: 9408 b93d 963a 3c3e 1e95 b6bd 7faf 37be
00000310: 2929 0dbe e0cf f43d 51d8 6cbd de84 2ebd
00000320: 32ec 38be 6464 20be c563 80be 88dd 573e
00000330: 1b9c 26be 2748 a5be ffb4 0cbb 2afe 54be
00000340: bb58 a3be 02c6 a7be 6b9a 7e3e 4c7d adbd
00000350: ac6b 763e e0a2 7fbf 53eb d53e 6cde e63c
00000360: 6134 9dbd 43ab abbd 16ea e5bc 21ef 213e
00000370: 5c1e 8bbd e62c 8c3e 19c8 62bf a803 f33c
00000380: a386 74bd 8ee0 f83d 42ce 1dbd a5cd 2dbd
00000390: 1c43 89be b264 7bbe 2391 34be f3ca c43e
000003a0: 67fb 313e 3555 183d d482 1eba d0cb 55be
000003b0: 35be 7ebe d42e 44bc 84a7 cfbd d51d 93be
000003c0: 0be3 a8be c9f3 41be 34be 46be 4f53 30be
000003d0: fffb 00be b760 c5be e09d 19be 133c 9a3d
000003e0: 0752 bfbd e643 2f3e f7d1 90bd fe3b a3be
000003f0: 0d33 9cbe 4c8e febd cda8 b3bc 4019 b0be

actor.0.bias f4 [64]
0.050194595 0.26450455 0.09083375 -0.13377817 0.041052975 -0.05825847 0.117822886 -0.010782268
-0.05574891 0.088859476 -0.38891044 0.19699915 -0.28969836 -0.22633074 0.05783973 -0.02510815
0.00043200448 -0.06342752 -0.32933694 -0.11683679 -0.40471858 0.0016258133 -0.15340132 -0.20996153
-0.16275783 0.067632824 -0.13610077 -0.06370528 0.030172123 -0.32332185 0.30266008 0.04511849
-0.039101835 0.07990337 -0.2730898 0.046430986 0.14372917 -0.29988593 -0.1651368 -0.35446334
-0.114024885 -0.2667306 -0.032006145 -0.09810171 -0.036282856 0.095680304 0.11229284 -0.14472534
-0.1603805 0.036884572 0.059976697 -0.1382584 -0.13164932 -0.17146376 -0.053337973 0.009421704
0.3228926 -0.029140001 0.036284428 -0.4226672 -0.3483495 0.067927085 -0.19724421 -0.14989984
00000000: d998 4d3d 246d 873e 0c07 ba3d 25fd 08be
00000010: 2a27 283d 6fa0 6ebd 204d f13d 1ca8 30bc
00000020: f858 64bd f5fb b53d 451f c7be 25ba 493e
00000030: 5853 94be 3fc3 67be 5ae9 6c3d 9baf cdbc
00000040: a97e e239 4ae6 81bd da9e a8be 2148 efbd
00000050: 4637 cfbe 3e19 d53a 3c15 1dbe 2800 57be
00000060: fda9 26be 1483 8a3d 005e 0bbe ea77 82bd
00000070: 872b f73c 718a a5be 43f6 9a3e 2ace 383d
00000080: 3f29 20bd 61a4 a33d 6dd2 8bbe 6b2e 3e3d
00000090: bd2d 133e a68a 99be 9f19 29be 387c b5be
000000a0: e185 e9bd ea90 88be e018 03bd 8de9 c8bd
000000b0: 559d 14bd 09f4 c33d caf9 e53d e132 14be
000000c0: c93a 24be 4714 173d 20aa 753d 9c93 0dbe
000000d0: 14cf 06be 3294 2fbe eb78 5abd 7e5d 1a3c
000000e0: 2e52 a53e 03b7 eebc fb9e 143d d667 d8be
000000f0: de5a b2be 5b1d 8b3d 63fa 49be 587f 19be

actor.2.weight f4 [64, 64]
0.06733237 -0.05358883 -0.047365148 0.06886719 0.031011531 -0.011657395 0.06368708 0.098700196
-0.11659063 0.047351576 0.045381133 0.011919932 0.059905775 -0.10274784 0.36297557 -0.23683746
-0.06343883 0.19233719 -0.016293293 -0.023934593 0.054520115 -0.082378194 -0.22826186 0.042008314
0.11186762 -0.015384719 0.102733485 0.13155453 0.14362605 -0.08903991 0.085937016 0.16846235
0.12560035 0.112019025 -0.13026148 0.045144968 -0.10541894 0.0064636176 0.109690905 0.044409093
0.009686383 -0.07546353 -0.13461299 -0.045957986 0.073195204 -0.19264871 0.16210286 0.068837315
-0.048277784 0.008648938 0.01702676 -0.1301421 0.08576205 -0.13974251 0.026332453 0.23087345
-0.051006377 0.099368304 -0.10057662 -0.067172475 0.023821289 0.09433461 -0.12931103 -0.058297392
-0.309024 -0.24120648 0.06064025 -0.09429777 -0.021998929 0.22831978 0.085133575 -0.1009465
-0.15394881 -0.36012816 0.0557272 -0.016371215 -0.06623593 0.037925318 -0.31141984 -0.07946022
0.0049495366 0.23025438 0.21556686 0.013327137 0.005896308 -0.040209856 0.117616184 0.005114189
-0.0077153295 0.014980237 -0.1850652 0.088331625 0.13698691 0.14818105 -0.07560508 0.07444101
0.11941933 -0.1228213 -0.024094041 0.021557659 -0.15082315 0.20514862 0.14060082 0.06712606
0.16936909 0.1369358 0.093585424 0.18942192 -0.43630388 -0.07106094 -0.6173001 0.079440005
0.13697577 -0.03822852 0.013485638 0.02778484 -0.03297045 0.063687466 -0.05955647 -0.3137045
0.16001824 0.024309816 -0.07558108 0.05350238 -0.07493193 0.33325788 -0.4247918 0.1292593
0.03409144 -0.014337856 -0.057880048 0.15674889 0.08978586 0.0952305 0.109727964 -0.11990463
0.04765289 0.13775839 -0.23111945 0.15076071 -0.016884172 -0.02876376 0.0714521 0.02428498
0.050350297 -0.0372314 0.032766104 0.17431326 0.0025269024 -0.12421946 0.0565575 -0.14998354
-0.08287762 -0.028222358 0.01919295 -0.5818535 0.011887208 -0.041098576 -0.35018247 0.012977542
-0.17992076 0.018973159 0.17981091 -0.03332464 0.020655964 0.05453676 -0.064900145 0.044368207
-0.054104347 0.054807566 -0.0061728195 0.05869564 -0.08934182 -0.15242629 -0.2142544 -0.20423347
0.11069504 -0.06145381 0.15358593 -0.2726474 -0.042598724 0.05403035 -0.09736266 -0.18066965
0.17009515 0.11483871 0.037940882 -0.1824838 -0.018891796 0.021858443 -0.20151138 0.08816863
0.03217124 -0.097144574 -0.09299319 0.073014975 0.03457032 0.13381046 0.049720865 -0.09173315
0.026861858 0.07334355 0.107259 -0.03441081 -0.02229908 -0.080485515 0.21673404 -0.13547185
0.019918596 0.002888605 0.06591941 -0.0014847221 -0.122665964 -0.081205614 0.06509707 -0.07706361
0.07335626 -0.03522286 0.18892159 0.11420623 -0.032271676 0.012561701 -0.15882647 -0.08080634
0.09196384 -0.026039416 -0.06074888 0.14087728 -0.13287795 0.10666472 0.17383535 0.03369291
-0.091368355 -0.13631792 0.034682933 0.082615145 0.12890856 0.033828758 0.02941073 0.19627374
0.012447327 -0.0374404 -0.09835903 0.15267576 -0.03554748 0.13782594 -0.1007466 0.21967734
-0.26860958 -0.117238134 0.13075134 -0.050439987 0.09466251 0.037213765 -0.03840002 -0.01287842
00000000: 8ee5 893d f67f 5bbd f501 42bd 3e0a 8d3d
00000010: e50b fe3c a9fe 3ebc 5f6e 823d 5423 ca3d
00000020: 11c7 eebd baf3 413d 91e1 393d d24b 433c
00000030: c25f 753d 766d d2bd efd7 b93e 8585 72be
00000040: 38ec 81bd 0af4 443e 8379 85bc 7b12 c4bc
00000050: 7c50 5f3d e6b5 a8bd 7abd 69be e910 2c3d
00000060: da1a e53d 3010 7cbc ef65 d23d 3bb6 063e
00000070: b512 133e 8e5a b6bd bfff af3d 6581 2c3e
00000080: 619d 003e 3b6a e53d 4463 05be eee9 383d
00000090: e3e5 d7bd c1cc d33b a0a5 e03d 4fe6 353d
000000a0: a3b3 1e3c a08c 9abd fdd7 09be 713e 3cbd
000000b0: 5ee7 953d b445 45be 4bfe 253e 94fa 8c3d
000000c0: edbe 45bd 46b4 0d3c b47b 8b3c f843 05be
000000d0: 03a4 af3d a918 0fbe 28b7 d73c 176a 6c3e
000000e0: 10ec 50bd 9c81 cb3d 1dfb cdbd b991 89bd
000000f0: dd24 c33c 8132 c13d 1c6a 04be 3fc9 6ebd
00000100: 6538 9ebe d5fe 76be e961 783d 301f c1bd
00000110: 1937 b4bc a9cc 693e 835a ae3d 0abd cebd
00000120: c2a4 1dbe b862 b8be 3442 643d ed1c 86bc
00000130: b4a6 87bd 9457 1b3d 6c72 9fbe 0abc a2bd
00000140: b92f a23b cec7 6b3e 8fbd 5c3e 105a 5a3c
00000150: d135 c13b 17b3 24bd c1e0 f03d ed94 a73b
00000160: e0d0 fcbb ab6f 753c bb81 3dbe 36e7 b43d
00000170: 4c46 0c3e c6bc 173e d6d6 9abd 8774 983d
00000180: 1f92 f43d bc89 fbbd de60 c5bc b099 b03c
00000190: 6271 1abe 7b12 523e a9f9 0f3e 6379 893d
000001a0: 176f 2d3e e638 0c3e b7a9 bf3d d2f7 413e
000001b0: 3963 dfbe 6688 91bd 6107 1ebf 71b1 a23d
000001c0: 6043 0c3e 8295 1cbd def2 5c3c 089d e33c
000001d0: 060c 07bd 936e 823d 7cf1 73bd e09d a0be
000001e0: d2db 233e 6125 c73c 41ca 9abd 5025 5b3d
000001f0: e975 99bd c7a0 aa3e 507e d9be 8d5c 043e
00000200: 77a3 0b3d 54e9 6abc a113 6dbd c882 203e
00000210: a6e1 b73d 3508 c33d 0eb9 e03d 8f90 f5bd
00000220: ad2f 433d 8910 0d3e 94aa 6cbe 0461 1a3e
00000230: ad50 8abc faa1 ebbc 7b55 923d 4bf1 c63c
00000240: 1d3c 4e3d f47f 18bd c035 063d 2d7f 323e
00000250: 639a 253b c666 febd d6a8 673d 4995 19be
00000260: bebb a9bd 9332 e7bc 893a 9d3c 5af4 14bf
00000270: 90c2 423c fb56 28bd 1e4b b3be c29f 543c
00000280: 263d 38be 996d 9b3c 5a20 383e 6b7f 08bd
00000290: b236 a93c f061 5f3d 5eea 84bd 70bb 353d
000002a0: 859c 5dbd e67d 603d 5d45 cabb d76a 703d
000002b0: d8f8 b6bd a315 1cbe 8165 5bbe 9422 51be
000002c0: 15b4 e23d feb6 7bbd a145 1d3e 7198 8bbe
000002d0: 007c 2ebd ee4e 5d3d 1366 c7bd 7701 39be
000002e0: 6c2d 2e3e 8f30 eb3d e667 1b3d 09dd 3abe
000002f0: f8c2 9abc 7a10 b33c 0059 4ebe c191 b43d
00000300: fdc5 033d bcf3 c6bd 3773 bebd e088 953d
00000310: 9c99 0d3d 9c05 093e 1ba8 4b3d 97de bbbd
00000320: 660d dc3c 2535 963d 9baa db3d 59f2 0cbd
00000330: 8fac b6bc 97d5 a4bd 87ef 5d3e 22b9 0abe
00000340: 532c a33c c04e 3d3b c100 873d 029b c2ba
00000350: 4b38 fbbd 214f a6bd 9d51 853d 87d3 9dbd
00000360: cf3b 963d d845 10bd a974 413e f5e4 e93d
00000370: 4e2f 04bd 98cf 4d3c 68a3 22be cb7d a5bd
00000380: 8a57 bc3d 9d50 d5bc d1d3 78bd 2242 103e
00000390: 2811 08be 0873 da3d e501 323e 9401 0a3d
000003a0: 551f bbbd ed96 0bbe b10f 0e3d 2132 a93d
000003b0: 9b00 043e 0690 0a3d c5ee f03c fcfb 483e
000003c0: e0ef 4b3c 1b5b 19bd 7670 c9bd 0957 1c3e
000003d0: 3c9a 11bd 3e22 0d3e 3c54 cebd 19f3 603e
000003e0: 3287 89be 8c1a f0bd aee3 053e 299a 4ebd
000003f0: 6bde c13d 766d 183d 5749 1dbd 0200 53bc

actor.2.bias f4 [64]
-0.094962 0.10275665 0.0760594 0.13650438 0.004451182 0.021652993 -0.062471054 0.24792074
-0.07552531 -0.10518436 0.34552717 -0.09116106 0.05587741 -0.26690915 0.060160805 0.25498208
-0.020676088 -0.3283191 -0.006937127 -0.19902499 0.06640845 -0.047033545 -0.22564065 -0.042014193
0.03151233 0.25054887 0.07929266 0.12309068 -0.04064892 -0.10391432 0.10817285 0.060866203
-0.26396197 -0.13371141 -0.08072188 -0.20740901 -0.04590173 -0.16201347 -0.022894993 0.046182103
0.12836705 -0.28833878 0.0036942281 0.025220267 -0.11721597 -0.15700479 -0.114111155 -0.11642524
0.07079283 0.3394611 -0.06825102 -0.15550037 0.1891325 0.03613122 0.10040651 -0.29096612
0.13942072 0.07281182 -0.03928132 -0.10165031 0.018099315 -0.028423399 -0.18589659 0.19947945
00000000: 707b c2bd 1472 d23d 08c5 9b3d cec7 0b3e
00000010: 39db 913b 9e61 b13c a6e1 7fbd efde 7d3e
00000020: 04ad 9abd e66a d7bd f0e8 b03e a6b2 babd
00000030: b6df 643d 51a8 88be 2d6b 763d 038d 823e
00000040: e660 a9bc 7119 a8be d750 e3bb 35cd 4bbe
00000050: 2701 883d 3fa6 40bd 580e 67be 1317 2cbd
00000060: 1313 013d f147 803e 3164 a23d f716 fc3d
00000070: 7b7f 26bd 08d1 d4bd ba89 dd3d d74e 793d
00000080: 0626 87be a5eb 08be 8351 a5bd 0763 54be
00000090: 7403 3cbd dce6 25be 488e bbbc 7229 3d3d
000000a0: a772 033e 24a1 93be dd1a 723b bc9a ce3c
000000b0: ed0e f0bd ddc5 20be 1cb3 e9bd 5b70 eebd
000000c0: d5fb 903d d8cd ad3e 31c7 8bbd 7d3b 1fbe
000000d0: f3ab 413e 55fe 133d eea1 cd3d 83f9 94be
000000e0: 4ec4 0e3e 5d1e 953d 73e5 20bd 0a2e d0bd
000000f0: 0445 943c 30d8 e8bc ad5b 3ebe 5744 4c3e

actor.4.weight f4 [6, 64]
-0.18789826 -0.1214914 0.008178953 -0.19050816 -0.02839232 0.052810498 -0.10761979 0.0691977
0.064258 -0.069192044 -0.12405887 0.034023095 0.09539586 0.05434707 -0.0925935 -0.020771407
0.12438211 0.11752096 0.07560104 0.11414998 0.0037035148 -0.12452991 0.06506762 0.15565643
0.20228395 -0.02297777 0.078748256 -0.070135534 -0.02294664 -0.09987134 0.031405885 -0.02184196
0.067863055 0.15052597 -0.03920519 0.028104799 -0.13257968 -0.004294257 -0.08262317 0.2178008
0.072988294 0.073238194 0.13008013 0.09383537 0.19026215 0.09778914 0.004782749 0.03212187
0.047782063 -0.0009400384 -0.1124219 0.014569824 -0.07020821 -0.0601069 -0.183836 -0.031935748
0.09893622 -0.14393502 0.040860385 -0.04525274 -0.050593797 0.032097276 0.23089947 -0.13752636
0.0272863 0.117542066 -0.23071048 -0.09369045 -0.004785471 -0.066951245 0.05975162 -0.045230318
0.14058891 -0.039201997 0.06493272 0.02070945 -0.16890089 -0.011898935 0.06607129 0.0069164825
0.08551075 -0.028161922 0.07705105 -0.07752033 -0.042134665 0.13096558 -0.062214926 -0.13613279
0.052145187 0.037621077 0.069378965 -0.017238991 -0.13316195 -0.04319483 -0.1386102 0.010642369
0.055218767 -0.007802541 0.12783383 0.0040281247 -0.048139516 -0.05376065 -0.06679312 0.09979409
0.2009413 -0.09723315 -0.25179952 0.05665408 0.07027302 0.1335776 0.09914163 -0.011650722
0.13180888 0.025453 0.053625446 0.13971731 -0.024788583 -0.0043505416 0.039596155 -0.03320171
-0.054950822 0.079841845 -0.0820579 -0.115697294 0.092802756 0.053294726 -0.0721287 0.033972472
0.013824929 0.06993999 -0.053399403 0.03966939 0.036310468 0.03852204 0.0037332915 0.17311956
-0.2603501 0.08387427 0.10104707 -0.24524958 -0.11055826 -0.19318171 0.025220828 0.11726391
-0.050991446 -0.1782043 0.080000386 -0.16462295 0.07976175 -0.07136796 -0.12827696 -0.07390709
-0.062064864 0.12636557 0.09163348 0.07021321 -0.24582408 -0.036429334 0.10514187 0.09368872
-0.019787844 -0.1828925 0.024698824 -0.16364852 -0.028352592 0.009681695 0.0069397683 -0.094521746
0.0025241666 -0.17917484 0.00037956794 0.09795398 0.042846892 -0.03057035 -0.05371655 -0.069173254
0.13850795 0.12804736 -0.11913297 -0.11009412 0.10135661 0.07474613 0.004531322 -0.1753817
0.121879116 0.08183141 0.024552828 -0.06300702 -0.069406405 0.059081018 -0.13051035 0.04596911
-0.12556066 0.25431275 -0.078538835 0.08117965 -0.067203715 0.06767679 -0.08597449 -0.08096542
0.14709459 -0.084295765 0.06168962 0.20746619 0.10502984 -0.17196608 0.0681109 0.087265626
-0.050591093 -0.16249704 -0.12327242 -0.15925056 -0.11741224 0.10152491 -0.05106996 -0.10475816
-0.028997129 -0.032205638 -0.0855609 0.094588265 0.07400244 0.007438195 0.13564827 -0.040656574
-0.13770236 0.0066816863 -0.08339966 0.083124556 -0.081839785 -0.02468535 0.008183973 0.26064175
0.039408695 0.033363845 0.25844908 -0.11038601 0.054723784 -0.14927773 -0.22854924 0.2515515
-0.028611403 0.06640928 -0.008114334 -0.2753711 -0.05878963 0.017160743 0.06146699 -0.11580435
0.19090222 -0.017552648 -0.016401539 -0.070654914 -0.046611413 -0.06723628 -0.047502574 -0.040594
00000000: 6768 40be 7cd0 f8bd 0401 063c 9214 43be
00000010: 0397 e8bc d24f 583d c467 dcbd 86b7 8d3d
00000020: b399 833d 8fb4 8dbd 9412 febd cd5b 0b3d
00000030: e85e c33d 099b 5e3d a9a1 bdbd cc28 aabc
00000040: 0cbc fe3d d4ae f03d b8d4 9a3d 77c7 e93d
00000050: abb6 723b 8a09 ffbd 2c42 853d 6664 1f3e
00000060: 8623 4f3e e03b bcbc c446 a13d 38a3 8fbd
00000070: 98fa bbbc 5889 ccbd 75a3 003d e9ed b2bc
00000080: c9fb 8a3d 7b23 1a3e 9f95 20bd 093c e63c
00000090: f8c2 07be d7b6 8cbb 5636 a9bd 2c07 5f3e
000000a0: e37a 953d e8fd 953d ba33 053e c22c c03d
000000b0: 15d4 423e ac45 c83d 9bb8 9c3b 3992 033d
000000c0: 20b7 433d e96c 76ba 743d e6bd 45b6 6e3c
000000d0: 52c9 8fbd a732 76bd 813f 3cbe 0fcf 02bd
000000e0: 139f ca3d b463 13be 385d 273d f05a 39bd
000000f0: 713b 4fbd 6f78 033d e970 6c3e b6d3 0cbe
00000100: 8587 df3c e5b9 f03d 5e3f 6cbe c7e0 bfbd
00000110: 71cf 9cbb bc1d 89bd 1dbe 743d 6d43 39bd
00000120: 8af6 0f3e 4692 20bd 72fb 843d dda6 a93c
00000130: 5bf4 2cbe c0f3 42bc 6250 873d a9a3 e23b
00000140: 4320 af3d d5b3 e6bc f1cc 9d3d fbc2 9ebd
00000150: 6695 2cbd d71b 063e 14d5 7ebd 6566 0bbe
00000160: 3196 553d 8f18 1a3d 8f16 8e3d c938 8dbc
00000170: 9b5b 08be 10ed 30bd d5ef 0dbe 555d 2e3c
00000180: 132d 623d 75ac ffbb dfe6 023e 5cfe 833b
00000190: f12d 45bd 2134 5cbd d5ca 88bd d860 cc3d
000001a0: 8ec3 4d3e 2c22 c7bd deeb 80be 1c0e 683d
000001b0: 4deb 8f3d 91c8 083e c40a cb3d abe2 3ebc
000001c0: e8f8 063e cf82 d03c 5ba6 5b3d 0e12 0f3e
000001d0: 6d11 cbbc fd8e 8ebb 942f 223d 84fe 07bd
000001e0: 1d14 61bd 1f84 a33d f90d a8bd b4f2 ecbd
000001f0: 5f0f be3d 924b 5a3d 36b8 93bd b826 0b3d
00000200: f481 623c b33c 8f3d 55b9 5abd 5f7c 223d
00000210: 49ba 143d 49c9 1d3d 3daa 743b 4146 313e
00000220: 9c4c 85be 46c6 ab3d c4f1 ce3d b522 7bbe
00000230: 5e6c e2bd 6dd1 45be e99b ce3c 1028 f03d
00000240: 68dc 50bd 307b 36be 3ed7 a33d eb92 28be
00000250: 215a a33d 5d29 92bd 095b 03be 9a5c 97bd
00000260: ba37 7ebd fa65 013e 55aa bb3d f2cb 8f3d
00000270: 4fb9 7bbe ed36 15bd 9f54 d73d dfdf bf3d
00000280: 1e1a a2bc 2c48 3bbe 3055 ca3c 7a93 27be
00000290: b243 e8bc f99f 1e3c ff66 e33b 9e94 c1bd
000002a0: 7d6c 253b 9c79 37be bf00 c739 199c c83d
000002b0: 3980 2f3d ac6e fabc e305 5cbd b5aa 8dbd
000002c0: 07d5 0d3e d91e 033e fdfb f3bd 0779 e1bd
000002d0: 0e94 cf3d 8014 993d 7c7b 943b 4397 33be
000002e0: c29b f93d 3a97 a73d 0323 c93c d309 81bd
000002f0: f224 8ebd f0fe 713d 81a4 05be 1b4a 3c3d
00000300: f992 00be 4835 823e f8d8 a0bd 8441 a63d
00000310: 1aa2 89bd 219a 8a3d 6513 b0bd 33d1 a5bd
00000320: f79f 163e 42a3 acbd 41ae 7c3d 0472 543e
00000330: e219 d73d e017 30be ba7d 8b3d 52b8 b23d
00000340: 9b38 4fbd a065 26be 4076 fcbd 9412 23be
00000350: d475 f0bd 4bec cf3d bc2e 51bd 728b d6bd
00000360: 638b edbc 0fea 03bd 8e3a afbd 7eb7 c13d
00000370: 978e 973d 1abc f33b 61e7 0a3e 8287 26bd
00000380: d901 0dbe 0cf2 da3b 71cd aabd 353d aa3d
00000390: 9e9b a7bd ee38 cabc 1216 063c d672 853e
000003a0: 036b 213d 87a8 083d 7053 843e 0f12 e2bd
000003b0: 0c26 603d 43dc 18be d008 6abe 5ccb 803e
000003c0: 7662 eabc 9701 883d fcf1 04bc 71fd 8cbe
000003d0: 65cd 70bd b094 8c3c cfc4 7b3d d52a edbd
000003e0: df7b 433e 92ca 8fbc 855c 86bc 86b3 90bd
000003f0: 9ceb 3ebd 2db3 89bd 0f92 42bd e545 26bd

actor.4.bias f4 [6]
-0.14616923 0.026226934 0.09978388 0.17939065 0.054636087 0.089722835
00000000: 63ad 15be ded9 d63c 7e5b cc3d 2fb2 373e
00000010: 17ca 5f3d 9bc0 b73d

critic.0.weight f4 [64, 43]
0.5222077 -0.6092106 -0.5455817 -0.067266725 0.22295468 0.3300199 -0.08888678 0.02266223
-0.039265424 -0.010088218 0.14985307 -0.010786836 0.3038577 -0.07014465 -0.18731485 0.0695144
0.0535521 0.0623537 -0.006205809 0.016957285 0.31552663 0.6883726 -0.14030506 0.04782063
-0.5340316 0.16316101 -0.33227852 -0.2930139 0.16238314 -0.17172346 1.2226948 0.134664
0.2259561 -0.21290307 0.13801882 -0.3564954 -0.38608894 1.0185965 0.19459109 0.14070389
-0.19511703 0.4531406 0.3963756 0.42720246 -0.5062581 -0.46294275 -0.12850079 0.21601251
-0.17346337 -0.0885277 0.13099845 0.07642983 -0.06711681 -0.028915418 -0.049208023 0.21338946
-0.3356075 -0.42929628 -0.10939981 0.19386499 0.018315747 0.00043397647 -0.005491836 0.6752567
0.35914078 -0.47798616 -0.3887556 -0.42058924 0.788107 -0.458545 -0.26063314 -0.08707688
-0.2468829 1.9132847 -0.03543837 -0.748952 -0.42832384 0.5761514 -0.3390944 -0.2726374
1.8420078 -0.19523367 -0.9050809 -0.4901187 0.39948434 0.09847878 0.19749124 -0.3569359
-0.13361043 -0.078278504 -0.00026216492 0.27096534 0.017453557 -0.09195354 0.019661155 0.073427856
0.05005729 -0.018082643 -0.033753626 0.13023831 0.030743662 -0.17615627 -0.16386531 -0.034598522
0.0054887235 -0.003965962 -0.06722363 0.86140066 0.46061644 0.5101229 0.14010532 -0.20294957
0.16313067 0.1911969 0.57118976 0.04331437 -2.2831671 2.8171108 -1.4150014 -0.14616704
-0.4514603 -0.035992246 0.13274983 -2.2478683 2.81665 -1.5290517 0.18966044 0.021875963
0.092605114 0.028781578 -0.27069134 -0.06599568 0.22060521 -0.016581386 -0.12009085 -0.030338159
0.04022878 0.18433775 -0.007392188 -0.06203741 0.034048293 -0.08394572 -0.014532403 0.08424715
0.21719852 0.12605457 -0.13368124 0.0066386843 0.0011434202 -0.88926405 1.343615 0.4267005
0.6582708 -0.70633435 1.0159688 0.2425739 -0.18129317 0.86843157 0.19042093 0.26408735
-0.74522114 -0.22132333 0.0055405237 -0.31621858 0.120552406 -0.09853549 0.16177802 -0.6963985
-0.39430916 0.71926767 -0.599056 -0.31845033 0.295877 -0.09536475 0.0014356105 0.17361405
-0.117021956 0.10826126 0.024256492 0.18563119 0.05035335 0.028698735 0.1007974 -0.03203915
0.16893634 -0.10395315 -0.07296906 -0.08445734 -0.085619554 0.2126891 -0.032299537 0.0030043183
-0.24309275 -0.4542666 -0.4982334 -0.11318207 0.4256775 0.4729016 0.027698146 0.06513017
-0.3098489 -0.21221204 -0.97411984 -0.6028385 -1.0452198 -0.18784893 -0.05607689 -0.16407217
-0.033473246 -0.8205395 -0.6905197 -1.0895545 -0.04012501 -0.29868665 -0.05287599 0.032151464
-0.00559864 -0.047685258 -0.079490006 0.010099591 -0.08450362 0.02248796 0.005111049 -0.006475369
-0.0051766564 0.0245522 -0.004294975 -0.12800966 0.06098961 0.036618587 -0.114443004 -0.09772554
0.04011812 -0.0011014645 0.0019619667 0.010881494 1.2523024 -1.0728245 -0.39375085 -1.2388058
2.0845523 0.033535223 -0.4290133 -0.37374246 -0.013859301 -0.072071016 0.24984659 0.54639316
0.26243532 0.09311488 0.37744603 -0.12781698 0.020315202 0.42678547 0.4539111 -0.13622878
00000000: 67af 053f 3af5 1bbf 3eab 0bbf 23c3 89bd
00000010: 3b4e 643e 5ef8 a83e 460a b6bd 24a6 b93c
00000020: c8d4 20bd 0e49 25bc 1573 193e 45bb 30bc
00000030: 3d93 9b3e 00a8 8fbd 77cf 3fbe 915d 8e3d
00000040: 7259 5b3d 9866 7f3d 195a cbbb 01ea 8a3c
00000050: b58c a13e 3039 303f 21ac 0fbe 91df 433d
00000060: 4cb6 08bf ae13 273e 6920 aabe eb05 96be
00000070: c447 263e 46d8 2fbe 4381 9c3f 5ce5 093e
00000080: 0961 673e 4303 5abe ce54 0d3e 9186 b6be
00000090: 73ad c5be 5f61 823f e342 473e ae14 103e
000000a0: c2cc 47be 0b02 e83e bef1 ca3e 48ba da3e
000000b0: 219a 01bf d506 edbe b695 03be 6232 5d3e
000000c0: 62a0 31be 034e b5bd 7524 063e 3e87 9c3d
000000d0: 8a74 89bd 07e0 ecbc 5a8e 49bd c482 5a3e
000000e0: bfd4 abbe b9cc dbbe 020d e0bd 8b84 463e
000000f0: e80a 963c 5687 e339 dcf4 b3bb a0dd 2c3f
00000100: 4de1 b73e 9aba f4be f90a c7be 7957 d7be
00000110: 61c1 493f 69c6 eabe b571 85be 5d55 b2bd
00000120: dfce 7cbe 83e6 f43f d327 11bd 51bb 3fbf
00000130: 434d dbbe a87e 133f c89d adbe 2197 8bbe
00000140: e9c6 eb3f 56eb 47be 62b3 67bf d7f0 fabe
00000150: 3689 cc3e 3eaf c93d 253b 4a3e 4dc0 b6be
00000160: 2cd1 08be 7b50 a0bd 2e73 89b9 f8bb 8a3e
00000170: c3fa 8e3c 2352 bcbd 6e10 a13c 5861 963d
00000180: df08 4d3d 0d22 94bc 3e41 0abd 315d 053e
00000190: 22da fb3c 4f62 34be 4fcc 27be 2eb7 0dbd
000001a0: c0da b33b e7f4 81bb 8bac 89bd c184 5c3f
000001b0: ebd5 eb3e 6a97 023f c577 0f3e 03d2 4fbe
000001c0: ba0b 273e 1fc9 433e 7e39 123f 696a 313d
000001d0: 691f 12c0 8b4b 3440 c41e b5bf d0ac 15be
000001e0: ce25 e7be 9b6c 13bd 92ef 073e 13dd 0fc0
000001f0: fe43 3440 f7b7 c3bf 5936 423e 3835 b33c
00000200: c0a7 bd3d 58c7 eb3c 0e98 8abe be28 87bd
00000210: 55e6 613e b0d5 87bc 31f2 f5bd bb87 f8bc
00000220: efc6 243d 09c3 3c3e 2b3a f2bb f01a 7ebd
00000230: 3976 0b3d bceb abbd 5119 6ebc c589 ac3d
00000240: 4a69 5e3e 7314 013e bce3 08be 5289 d93b
00000250: d1de 953a cfa6 63bf 94fb ab3f 7d78 da3e
00000260: 6f84 283f 54d2 34bf 440b 823f 4b65 783e
00000270: eba4 39be 8851 5e3f b4fd 423e 7536 873e
00000280: d0c6 3ebf 95a2 62be 488d b53b 67e7 a1be
00000290: 2ee4 f63d facc c9bd 23a9 253e 2c47 32bf
000002a0: e4e2 c9be ed21 383f bc5b 19bf ec0b a3be
000002b0: 317d 973e 984e c3bd 182b bc3a e2c7 313e
000002c0: 35a9 efbd 14b8 dd3d 8db5 c63c 1a16 3e3e
000002d0: 503f 4e3d 9c19 eb3c de6e ce3d 7c3b 03bd
000002e0: a6fd 2c3e 64e5 d4bd cd70 95bd f8f7 acbd
000002f0: 4e59 afbd 2ccb 593e 854c 04bd 19e4 443b
00000300: 4eed 78be a295 e8be 7318 ffbe 00cc e7bd
00000310: 67f2 d93e 2920 f23e 39e7 e23c f762 853d
00000320: 84a4 9ebe 1d4e 59be eb5f 79bf a053 1abf
00000330: c3c9 85bf 785b 40be e2b0 65bd 8902 28be
00000340: 3e1b 09bd e00e 52bf e6c5 30bf 8676 8bbf
00000350: 1f5a 24bd 75ed 98be 7e94 58bd 41b1 033d
00000360: cc74 b7bb 9e51 43bd a8cb a2bd c178 253c
00000370: 3c10 adbd ac38 b83c 967a a73b 552f d4bb
00000380: f1a0 a9bb b221 c93c ddbc 8cbb f714 03be
00000390: 3ed0 793d 5ffd 153d 1861 eabd 5424 c8bd
000003a0: e652 243d 045f 90ba 5794 003b 4b48 323c
000003b0: 724b a03f 5052 89bf b699 c9be 3091 9ebf
000003c0: 4e69 0540 3b5c 093d a2a7 dbbe 2c5b bfbe
000003d0: 1f12 63bc f899 93bd c9d7 7f3e 6ce0 0b3f
000003e0: ec5d 863e 04b3 be3d 9b40 c13e 74e2 02be
000003f0: 116c a63c a083 da3e 0967 e83e 8f7f 0bbe

critic.0.bias f4 [64]
-0.113212354 -0.24730939 0.18997753 0.3920599 -0.15582393 -0.0024717185 -0.010607496 -0.08820977
0.15801282 -0.13471366 0.11323859 -0.37943903 0.07147271 0.07360422 -0.2641146 0.3964865
-0.35596764 -0.14236343 0.37560242 -0.06022702 -0.35719445 -0.16804387 0.2816371 -0.17156816
0.21591756 -0.026650915 -0.37580612 0.027627489 0.1299056 0.17012271 0.48691362 -0.12342977
-0.14870478 0.20184274 0.053037792 -0.34534988 -0.04990417 0.054071803 0.20732471 0.22292769
0.41549805 0.11808577 -0.032021448 -0.08273538 -0.028170409 -0.16787852 -0.17898232 0.20383994
0.23845224 -0.30527943 -0.115264766 0.11191176 -0.0016973375 0.24495219 0.3739163 0.07924917
0.12158283 0.0014964637 -0.28908208 -0.21637036 -0.13839445 -0.10556611 0.032442722 -0.06926543
00000000: e1db e7bd ac3e 7dbe 7889 423e 13bc c83e
00000010: 4f90 1fbe 8efc 21bb 10cb 2dbc 53a7 b4bd
00000020: 1dce 213e 61f2 09be a2e9 e73d d545 c2be
00000030: 4960 923d cfbd 963d 073a 87be 4700 cb3e
00000040: 6441 b6be b8c7 11be f64e c03e 9cb0 76bd
00000050: 31e2 b6be b113 2cbe bd32 903e 90af 2fbe
00000060: 7e19 5d3e 0553 dabc a969 c0be 0b53 e23c
00000070: f905 053e a634 2e3e be4c f93e bfc8 fcbd
00000080: 1146 18be ddaf 4e3e 283e 593d b3d1 b0be
00000090: 5168 4cbd 657a 5d3d ee4c 543e 2847 643e
000000a0: 29bc d43e f4d6 f13d ec28 03bd 2b71 a9bd
000000b0: a1c5 e6bc 59e8 2bbe 2447 37be 6bbb 503e
000000c0: d32c 743e 964d 9cbe ef0f ecbd fe31 e53d
000000d0: 3279 deba bfd4 7a3e f571 bf3e 644d a23d
000000e0: 6b00 f93d fd24 c43a 9102 94be 3190 5dbe
000000f0: 46b7 0dbe 0b33 d8bd a9e2 043d 09db 8dbd

critic.2.weight f4 [64, 64]
0.023159841 0.168389 0.015945466 -0.11986543 -0.009516698 -0.020674879 0.042370252 -0.07442347
-0.25731507 -0.035191745 -0.17814237 -0.030931974 -0.033601407 0.07173593 0.12644662 0.057743605
0.050757222 0.061997585 0.08239033 0.073659256 0.14603306 0.028870594 -0.1876288 0.036445778
-0.16771095 -0.043072265 0.25554228 -0.111238346 -0.057396688 0.0065678307 0.05545551 -0.04774108
-0.017097577 -0.0012967755 -0.11396243 0.103112586 0.034024913 0.047903433 -0.017486304 -0.08794309
-0.16179137 -0.07306682 0.09986115 0.12862198 -0.021543398 -0.007629893 -0.075092666 -0.12910771
-0.046280768 -0.05773375 0.08754409 -0.16668664 -0.10305071 0.05916467 0.07978097 -0.034768436
-0.08212699 -0.06260829 0.0020729315 -0.0014417191 0.072289534 -0.060010247 -0.051841076 -0.10992786
-0.10276918 -0.14501457 0.049936164 -0.23813523 -0.095776886 -0.07413676 0.093734294 -0.04877646
0.1297913 0.0072319773 0.11329029 -0.006296619 -0.19703439 0.077932164 -0.15356334 -0.10751099
0.18346368 -0.10514419 -0.14045234 0.1398661 -0.07277623 -0.045438144 -0.06688054 -0.072443396
-0.07829636 -0.16195047 -0.15000546 0.076026924 -0.036916792 0.0215631 -0.0038544573 0.09331643
0.05699257 0.059154775 0.030616926 -0.06756655 -0.18984802 -0.19782595 -0.012147107 -0.24738704
-0.11692881 0.100796275 -0.12209653 -0.109698944 -0.022198403 -0.007047841 -0.12594938 -0.24473292
-0.16242626 -0.14296415 0.04475297 0.020346196 -0.08628603 0.09941213 -0.10336749 -0.27605373
-0.03683613 0.120333545 0.085546464 -0.06860604 0.047711197 -0.117826924 -0.15455797 -0.0006552057
-0.17415754 -0.19369324 -0.1800461 -0.0551634 0.014982943 0.07436778 -0.048505582 -0.00827264
0.15122105 -0.06699978 0.20522769 0.08711791 -0.04365896 0.059763465 0.0145066995 -0.033327516
0.16219014 0.063345894 -0.06510756 -0.066267714 -0.02966755 0.089635596 0.027376141 0.03561037
-0.029359113 0.013358642 -0.16816081 -0.0032898232 0.06983582 -0.109730035 0.10022655 0.062187303
0.033802815 0.10693621 -0.009618833 -0.08183687 0.06786854 -0.108130425 -0.11443079 -0.0022360408
-0.09464073 0.014284275 0.011657297 -0.009625538 -0.06637674 -0.052946325 0.086498335 -0.08137343
0.06291703 -0.048734393 -0.018734036 -0.113868795 -0.0633632 0.07214566 -0.18089111 0.042842053
-0.0135937985 0.15713073 -0.04261419 0.07746532 0.11755888 0.1263777 -0.06497247 -0.076459534
-0.10674715 -0.09872775 -0.12533559 -0.036826555 0.03287578 0.14817248 -0.1077575 -0.2192195
0.054439664 0.0625038 0.108220756 0.07441058 0.11021314 -0.11378112 0.00048476367 -0.0363774
-0.042645074 -0.07199002 -0.1603571 -0.055176295 0.1630104 -0.17348926 -0.023676021 -0.24238221
-0.019831775 -0.12776977 0.19863693 -0.11608798 0.032713734 -0.19024119 0.0026782148 -0.16616146
0.029051958 0.049465906 -0.10348441 -0.009543304 -0.03221408 -0.06560972 -0.09072084 0.07186688
-0.20790678 -0.05462033 0.016791945 0.048150733 -0.059331857 -0.07981794 -0.051345415 0.026237398
-0.07567402 -0.068139754 -0.07143637 -0.05201225 -0.0013684747 -0.06485655 0.013264845 -0.58593
-0.008685892 -0.097848184 0.074446976 -0.09159521 -0.24247828 -0.015602626 0.022679387 0.010783132
00000000: b5b9 bd3c 2b6e 2c3e 11a0 823c 027c f5bd
00000010: edeb 1bbc 5d5e a9bc 6e8c 2d3d 556b 98bd
00000020: cdbe 83be 3825 10bd f46a 36be 0d65 fdbc
00000030: a1a1 09bd 4aea 923d 397b 013e 8f84 6c3d
00000040: cee6 4f3d 2ef1 7d3d 43bc a83d aada 963d
00000050: b189 153e 0682 ec3c c421 40be 2b48 153d
00000060: 6bbc 2bbe 8b6c 30bd 70d6 823e eed0 e3bd
00000070: ca18 6bbd f536 d73b 5125 633d 278c 43bd
00000080: 3810 8cbc 91f8 a9ba 2265 e9bd b12c d33d
00000090: b55d 0b3d 6436 443d 703f 8fbc 821b b4bd
000000a0: a3ac 25be 0fa4 95bd 0184 cc3d 7bb5 033e
000000b0: c87b b0bc 2e04 fabb 2fca 99bd d034 04be
000000c0: e790 3dbd 3a7a 6cbd 514a b33d e7af 2abe
000000d0: 400c d3bd a756 723d 3564 a33d 5969 0ebd
000000e0: 3232 a8bd c638 80bd 05da 073b 11f8 bcba
000000f0: 890c 943d 4ecd 75bd 4f57 54bd dc21 e1bd
00000100: a678 d2bd b37e 14be dd89 4c3d b9d9 73be
00000110: ac26 c4bd 03d5 97bd c4f7 bf3d d3c9 47bd
00000120: 03e8 043e 39fa ec3b bd04 e83d de53 cebb
00000130: 62c3 49be e69a 9f3d b53f 1dbe b92e dcbd
00000140: e7dd 3b3e d655 d7bd bdd2 0fbe 0f39 0f3e
00000150: b40b 95bd 591d 3abd aaf8 88bd 345d 94bd
00000160: d859 a0bd 58d6 25be 089b 19be 01b4 9b3d
00000170: 1036 17bd 19a5 b03c 109b 7cbb af1c bf3d
00000180: 0b71 693d 474c 723d 59d0 fa3c 5560 8abd
00000190: 8567 42be e392 4abe a904 47bc 0753 7dbe
000001a0: 5f78 efbd 476e ce3d bf0d fabd d7a9 e0bd
000001b0: 6dd9 b5bc 93f1 e6bb e0f8 00be 449b 7abe
000001c0: 1253 26be 3265 12be e44e 373d 11ad a63c
000001d0: bbb6 b0bd 9698 cb3d 56b2 d3bd ea56 8dbe
000001e0: 7be1 16bd 6f71 f63d fc32 af3d 5381 8cbd
000001f0: d16c 433d 3e4f f1bd 7244 1ebe 1cc2 2bba
00000200: 5b56 32be 8557 46be 015e 38be 04f3 61bd
00000210: 057b 753c 224e 983d caad 46bd f889 07bc
00000220: b1d9 1a3e 2e37 89bd 3527 523e e06a b23d
00000230: bdd3 32bd 89ca 743d 82ad 6d3c 6f82 08bd
00000240: 2c15 263e 7ebb 813d 1d57 85bd 5eb7 87bd
00000250: 5d09 f3bc de92 b73d ee43 e03c 2edc 113d
00000260: 8682 f0bc 35de 5a3c 5932 2cbe 139a 57bb
00000270: 1506 8f3d 24ba e0bd 9443 cd3d 1db8 7e3d
00000280: d274 0a3d 5f01 db3d 4f98 1dbc 179a a7bd
00000290: a9fe 8a3d 7c73 ddbd b15a eabd 8a8a 12bb
000002a0: 00d3 c1bd 9708 6a3c 3ffe 3e3c 6fb4 1dbc
000002b0: 87f0 87bd 3fde 58bd 0a26 b13d 1da7 a6bd
000002c0: a5da 803d b79d 47bd 1f78 99bc 0b34 e9bd
000002d0: 91c4 81bd 1bc1 933d 853b 39be 267b 2f3d
000002e0: 86b8 5ebc e1e6 203e 388c 2ebd 23a6 9e3d
000002f0: b6c2 f03d 2869 013e 4910 85bd d196 9cbd
00000300: 409e dabd c631 cabd f957 00be 71d7 16bd
00000310: c1a8 063d 87ba 173e f7af dcbd 147b 60be
00000320: 20fc 5e3d fe01 803d d8a2 dd3d 9364 983d
00000330: 6db7 e13d 1306 e9bd e127 fe39 7800 15bd
00000340: 9aac 2ebd 816f 93bd a734 24be 8a00 62bd
00000350: 33ec 263e 2ba7 31be 37f4 c1bc 0b33 78be
00000360: 3f76 a2bc 14d6 02be 7b67 4b3e 89bf edbd
00000370: d6fe 053d 96ce 42be fd84 2f3b 3b26 2abe
00000380: 5ffe ed3c c39c 4a3d a2ef d3bd 855b 1cbc
00000390: e9f2 03bd 645e 86bd d9cb b9bd f12e 933d
000003a0: 84e5 54be 91b9 5fbd 438f 893c b439 453d
000003b0: f605 73bd 9777 a3bd 924f 52bd d0ef d63c
000003c0: fbfa 9abd db8c 8bbd 3b4d 92bd cc0a 55bd
000003d0: 645e b3ba 83d3 84bd cb54 593c 82ff 15bf
000003e0: 464f 0ebc a164 c8bd a877 983d 4596 bbbd
000003f0: 3a4c 78be 28a2 7fbc 1fca b93c bcab 303c

critic.2.bias f4 [64]
0.00807718 -0.09873205 -0.13147518 -0.045380082 0.07362265 0.036924668 -0.14081527 -0.07835881
0.06020713 0.21929194 -0.010300899 0.11674699 -0.05927025 -0.095992446 0.085471354 -0.16005486
-0.12291801 0.06289172 -0.056297705 0.19390842 -0.08953854 -0.07712822 -0.16406742 0.0031745983
0.09724394 0.091130584 -0.07851248 0.2671605 0.052989084 -0.30784154 -0.20156014 0.029791275
0.08707913 -0.1036733 0.085222855 0.0005926778 -0.085746035 0.03029143 -0.001413394 -0.010083048
-0.07506644 -0.06346974 0.10136914 0.10277946 -0.026928876 -0.015544094 -0.101688966 0.03808737
-0.33560708 0.06999921 -0.28885582 -0.0045609227 -0.0027541087 -0.007404942 -0.15043393 -0.015562353
-0.11731284 0.03069229 -0.100449406 0.050211016 0.08566677 -0.007223076 0.035482973 -0.021290606
00000000: 2656 043c 0734 cabd 6ea1 06be 77e0 39bd
00000010: 79c7 963d 523e 173d e131 10be 957a a0bd
00000020: c09b 763d 118e 603e 1ac5 28bc 0c19 ef3d
00000030: 5dc5 72bd b097 c4bd 9b0b af3d 6ce5 23be
00000040: 70bc fbbd 60cd 803d 6c98 66bd ee8f 463e
00000050: fb5f b7bd 66f5 9dbd 4a01 28be ec0c 503b
00000060: d527 c73d aca2 ba3d 27cb a0bd 43c9 883e
00000070: 150b 593d 689d 9dbe c865 4ebe d50c f43c
00000080: 8b56 b23d ab52 d4bd 5289 ae3d ef5d 1b3a
00000090: 9e9b afbd bc25 f83c a241 b9ba 5e33 25bc
000000a0: 6fbc 99bd 6cfc 81bd a09a cf3d 0a7e d23d
000000b0: f299 dcbc a8ac 7ebc 4e42 d0bd 8101 1c3d
000000c0: b1d4 abbe bf5b 8f3d e9e4 93be cb73 95bb
000000d0: 477e 34bb 28a5 f2bb 5a0b 1abe 3df9 7ebc
000000e0: b741 f0bd 666e fb3c 6bb8 cdbd 11aa 4d3d
000000f0: 0f72 af3d 8eaf ecbb 9856 113d a369 aebc

critic.4.weight f4 [1, 64]
-0.008475953 0.0723443 0.075572155 0.060810536 0.11608142 -0.10339079 0.18097943 0.26653403
0.08751676 0.14412703 0.009321022 0.08404841 -0.04778152 0.06574799 0.060089625 0.10566167
-0.12140829 -0.11769728 0.1132687 0.16182539 0.11418127 -0.27208647 0.06444313 0.051906303
-0.08416184 0.104101606 -0.01773311 0.15337773 -0.16196395 -0.25068977 0.07872264 -0.1089265
-0.39375114 -0.18303865 -0.41029605 -0.088310726 0.11939675 0.096456066 0.035524733 0.068200134
0.018902723 0.0930321 -0.12964599 0.16171743 0.123775095 -0.08000347 -0.071943946 0.11980541
0.15367247 0.14471956 0.12999302 0.12624279 -0.17078157 -0.6133252 -0.07253024 -0.11922705
-0.7198412 0.18437122 0.070716694 0.13766499 0.17994998 0.09408924 0.1699476 -0.13040616
00000000: b9de 0abc 4029 943d 93c5 9a3d 7814 793d
00000010: 18bc ed3d 8dbe d3bd ac52 393e 2677 883e
00000020: fd3b b33d 0996 133e 33b7 183c 9321 ac3d
00000030: 8eb6 43bd e2a6 863d 8a20 763d 2565 d83d
00000040: e9a4 f8bd 460b f1bd 6cf9 e73d 8eb5 253e
00000050: dfd7 e93d eb4e 8bbe c2fa 833d b49b 543d
00000060: 0b5d acbd 3933 d53d 0745 91bc 0d0f 1d3e
00000070: e1d9 25be 695a 80be 5639 a13d db14 dfbd
00000080: c099 c9be 7c6e 3bbe 5312 d2be 41dc b4bd
00000090: 4986 f43d c28a c53d 6282 113d 83ac 8b3d
000000a0: e2d9 9a3c 9d87 be3d ebc1 04be 4199 253e
000000b0: cc7d fd3d dcd8 a3bd 5957 93bd 8a5c f53d
000000c0: 515c 1d3e 5d31 143e e41c 053e ca45 013e
000000d0: 5de1 2ebe e102 1dbf bc8a 94bd 502d f4bd
000000e0: 8347 38bf cfcb 3c3e ead3 903d 0df8 0c3e
000000f0: cf44 383e dcb1 c03d be06 2e3e 3189 05be

exp_avg f4 [6]
-0.0007588807 -0.00030490567 -0.00051230076 -0.0008149582 -0.0007828686 -0.00047722278
00000000: 9fef 46ba bfdb 9fb9 ec4b 06ba eba2 55ba
00000010: 6c39 4dba c233 fab9

exp_avg_sq f4 [6]
3.7037084e-05 0.00019188039 5.2879685e-05 2.8298193e-05 2.3448447e-05 9.940505e-07
00000000: 4458 1b38 8033 4939 21cb 5d38 e861 ed37
00000010: 28b3 c437 516b 8535

exp_avg f4 [64, 43]
0.00020046117 -0.00022156582 -0.0003715146 -7.806112e-05 -8.768661e-05 0.00019174734 0.00032002295 -7.703119e-05
-0.00015148574 -4.099205e-05 -0.00012855603 -0.00023681915 0.00048816446 -0.0006017063 -0.00083122024 -0.00019347316
-0.00016367606 0.00068268296 0.0041151545 0.008609421 3.888143e-05 1.8817926e-05 -4.3830318e-05 3.1317754e-07
-9.472779e-05 2.3780269e-05 -6.7218884e-06 -7.5895914e-05 -2.0037798e-05 -6.408399e-06 3.8579135e-05 6.61776e-05
4.121476e-05 -3.13264e-05 1.3249177e-05 -6.119385e-05 -5.24802e-05 3.8579135e-05 6.61776e-05 4.121476e-05
-4.7191403e-05 7.404547e-05 4.3774442e-05 0.00020497276 -0.00014145584 -0.00033312954 -0.00021320493 0.000103269485
0.00026257272 -7.2457888e-06 -0.0002688947 -0.00064207194 0.0019174918 -0.0005442078 3.1004674e-05 0.00032459854
-0.0001628918 -0.0009478367 -0.00022921525 0.00021752786 0.0003335845 0.0024442007 -0.003998223 1.2606452e-05
2.1845024e-06 -3.271547e-05 -2.009441e-06 -6.0608716e-05 -3.357313e-07 -2.4784215e-06 -5.8428297e-05 -3.307013e-05
-4.486081e-06 -1.1688042e-05 -4.0894618e-05 2.309282e-05 -0.00011303826 -1.786379e-05 -0.0001779839 -0.00010132607
-1.1688042e-05 -4.0894618e-05 2.309282e-05 -8.816018e-05 -4.1211573e-05 0.0001652424 0.0001563204 -4.1715397e-05
-0.000360873 6.957752e-05 2.10106e-05 0.0001799803 0.00016312479 -0.00023377851 -2.6602846e-05 0.00036603934
-0.00053434074 -7.260773e-05 0.00029415442 -0.00017455016 -0.00071511674 -9.758441e-05 -6.8768364e-05 0.0003071476
0.0066768327 0.0032013927 1.2896996e-05 1.2417925e-05 -5.667177e-05 -3.648287e-07 -4.8373113e-05 3.4711116e-05
-2.9679636e-06 -3.593199e-05 -2.1970123e-05 -3.3321376e-06 -1.2712999e-05 5.6579747e-06 1.4220801e-05 2.7830953e-05
-3.5401223e-05 8.9339446e-05 5.1511146e-05 -1.2712999e-05 5.6579747e-06 1.4220801e-05 -1.0509382e-05 9.8545555e-05
9.101775e-05 -1.0504649e-05 3.4233854e-05 6.275217e-05 -0.00021361001 4.3907003e-05 0.00012288835 5.8119265e-05
-1.5889587e-05 2.8699496e-05 0.00013401378 -0.00059514056 0.00023394004 -7.382959e-05 0.000106633364 0.00025577028
-0.00032534663 1.9612018e-05 0.00016779703 0.0020213092 -0.010720624 -1.5971285e-05 4.50643e-05 -2.9013598e-05
3.316035e-07 -3.0112313e-05 1.4997461e-05 3.5353423e-07 1.4958183e-05 -1.40028305e-05 6.853582e-07 -2.0844548e-06
-1.6122136e-05 -3.3087395e-05 6.834176e-05 -1.1422059e-05 0.00010416589 7.1156355e-05 -2.0844548e-06 -1.6122136e-05
-3.3087395e-05 4.773188e-05 -1.1565442e-06 -6.302242e-05 3.7360896e-05 -1.6903832e-05 -7.0044574e-05 -7.012728e-05
4.496168e-05 7.8855956e-05 0.00019352924 -0.00021453742 1.5564445e-05 0.00055143813 -0.0002912894 -0.000564825
9.0113186e-05 -9.49941e-05 -0.00012637822 0.00010411401 5.8547488e-05 7.966418e-05 -0.00299536 0.00060849113
2.3471448e-06 5.499666e-06 4.975546e-06 1.565849e-07 -4.6574414e-06 -5.972031e-06 -3.9107763e-07 8.420525e-07
-9.98575e-07 -2.3447123e-07 1.0629314e-05 6.7350575e-06 7.6116487e-07 -2.0675605e-05 -1.4614443e-05 -2.7279517e-05
-4.5301196e-05 1.0629314e-05 6.7350575e-06 7.6116487e-07 -5.4083477e-05 2.060551e-05 -9.979386e-05 5.1793813e-05
3.5813304e-05 -8.4183666e-05 4.031058e-05 2.257585e-05 0.00016501152 -5.2584634e-05 0.00017482085 -2.6706226e-05
-0.0005964964 0.00024495335 0.0016914221 8.812182e-05 0.00013683917 -1.9476782e-05 -0.000137335 0.00015416567
0.0007648633 0.0016274211 0.0034586461 -7.66637e-05 4.6396224e-05 -2.5870018e-05 8.8334485e-07 -3.6645158e-06
8.55289e-06 1.0738536e-06 4.2691507e-05 -1.7303004e-05 1.9567144e-06 2.4455992e-05 -2.823569e-05 2.2760498e-05
-1.0903156e-05 -9.130792e-05 -0.00011396933 2.1879614e-05 2.4455992e-05 -2.823569e-05 2.2760498e-05 8.1117985e-05
00000000: e332 5239 1f54 68b9 d8c7 c2b9 bfb4 a3b8
00000010: 64e4 b7b8 c90f 4939 c1c8 a739 ce8b a1b8
00000020: 25d8 1eb9 e1ee 2bb8 ffcc 06b9 a852 78b9
00000030: 53f0 ff39 d4bb 1dba 3fe6 59ba 0edf 4ab9
00000040: 75a0 2bb9 14f6 323a 6bd8 863b 870e 0d3c
00000050: 9e14 2338 30db 9d37 72d6 37b8 cb22 a834
00000060: 98a8 c6b8 bd7b c737 958c e1b6 4f2a 9fb8
00000070: d816 a8b7 ba07 d7b6 08d0 2138 d4c8 8a38
00000080: 03de 2c38 7764 03b8 c848 5e37 3355 80b8
00000090: 301e 5cb8 08d0 2138 d4c8 8a38 03de 2c38
000000a0: 62ef 45b8 dc48 9b38 739a 3738 f5ed 5639
000000b0: c353 14b9 e4a7 aeb9 c38f 5fb9 6292 d838
000000c0: eaa9 8939 da20 f3b6 70fa 8cb9 b850 28ba
000000d0: 5954 fb3a 2ba9 0eba 040b 0238 e12e aa39
000000e0: efcd 2ab9 3f78 78ba 8059 70b9 3118 6439
000000f0: f4e4 ae39 e22e 203b 8703 83bb 4d80 5337
00000100: 7799 1236 f837 09b8 efd9 06b6 1d36 7eb8
00000110: 8f3e b4b4 f552 26b6 e810 75b8 c8b4 0ab8
00000120: 2487 96b6 c217 44b7 4386 2bb8 74b7 c137
00000130: f40e edb8 32da 95b7 30a1 3ab9 057f d4b8
00000140: c217 44b7 4386 2bb8 74b7 c137 a3e2 b8b8
00000150: 97da 2cb8 eb44 2d39 f0e9 2339 91f7 2eb8
00000160: 8e33 bdb9 26ea 9138 ec3f b037 18b9 3c39
00000170: 7a0c 2b39 7122 75b9 2d29 dfb7 f8e8 bf39
00000180: 0013 0cba fa44 98b8 bd38 9a39 7407 37b9
00000190: ac76 3bba 3ba6 ccb8 bc37 90b8 a708 a139
000001a0: 55c9 da3b 75ce 513b 2d60 5837 9556 5037
000001b0: dab2 6db8 addd c3b4 3ce4 4ab8 c796 1138
000001c0: 3a2d 47b6 aeb5 16b8 7b4c b8b7 b09d 5fb6
000001d0: ea49 55b7 a2d9 bd36 e095 6e37 8476 e937
000001e0: c67b 14b8 c05b bb38 ac0d 5838 ea49 55b7
000001f0: a2d9 bd36 e095 6e37 7451 30b7 3eaa ce38
00000200: c8e0 be38 203d 30b7 5296 0f38 d199 8338
00000210: 80fc 5fb9 c928 3838 97db 0039 16c5 7338
00000220: a14a 85b7 b3bf f037 0d86 0c39 3503 1cba
00000230: cd4d 7539 f6d4 9ab8 5aa0 df38 e818 8639
00000240: 4993 aab9 7d84 a437 acf2 2f39 f177 043b
00000250: 8ea5 2fbc 13fa 85b7 6c03 3d38 3a62 f3b7
00000260: 3d07 b234 b399 fcb7 9b9d 7b37 60cd bd34
00000270: e8f4 7a37 b3ed 6ab7 75f9 3735 a9e2 0bb6
00000280: 063e 87b7 52c7 0ab8 b452 8f38 5fa1 3fb7
00000290: a373 da38 c739 9538 a9e2 0bb6 063e 87b7
000002a0: 52c7 0ab8 b733 4838 8e3a 9bb5 e72a 84b8
000002b0: f5b3 1c38 b4cc 8db7 e5e4 92b8 4c11 93b8
000002c0: 3c95 3c38 785f a538 1cee 4a39 73f5 60b9
000002d0: 6490 8237 638e 103a 34b8 98b9 c410 14ba
000002e0: 26fb bc38 9237 c7b8 6584 04b9 c957 da38
000002f0: e390 7538 6211 a738 cd4d 44bb 2683 1f3a
00000300: a483 1d36 c589 b836 9df3 a636 bb21 2834
00000310: 1e47 9cb6 5b63 c8b6 4df5 d1b4 6809 6235
00000320: c706 86b5 f6c2 7bb4 8e54 3237 b4fd e136
00000330: da52 4c35 8670 adb7 8e30 75b7 51d6 e4b7
00000340: ca01 3eb8 8e54 3237 b4fd e136 da52 4c35
00000350: b1d7 62b8 ffd9 ac37 6c48 d1b8 2f3d 5938
00000360: 3e36 1638 c38b b0b8 2813 2938 4561 bd37
00000370: f106 2d39 528e 5cb8 1d50 3739 2f07 e0b7
00000380: 325e 1cba 156d 8039 b5b2 dd3a 0bce b838
00000390: 7c7c 0f39 1262 a3b7 9501 10b9 88a7 2139
000003a0: 1b81 483a 314f d53a 74aa 623b 83c6 a0b8
000003b0: 9199 4238 7103 d9b7 ff1e 6d35 e7eb 75b6
000003c0: 627e 0f37 5421 9035 a80f 3338 eb25 91b7
000003d0: 1950 0336 d826 cd37 afdb ecb7 cced be37
000003e0: b3ec 36b7 917c bfb8 d102 efb8 1d8a b737
000003f0: d826 cd37 afdb ecb7 cced be37 e31d aa38
