2026-01-29_07-44-49_Fase2_Empuje_V1/model_1100.pt (torch, 189045 bytes, 36 tensors)

std f4 [6]
0.16007887 0.07629586 0.13164279 0.16548578 0.19931467 1.0460367
00000000: b7eb 233e 0141 9c3d 5ecd 063e 1b75 293e
00000010: 2519 4c3e 88e4 853f

actor.0.weight f4 [64, 43]
-0.014116342 0.29098916 -0.03156261 0.008471943 -0.25993314 -0.331949 0.013740665 -0.20506728
0.07878178 0.0018605088 0.0033633888 0.073275596 0.16631877 0.17477737 0.035126485 -0.15097144
-0.13488516 -0.261593 -0.037798524 0.0045896797 0.67146975 0.36887583 -0.1103774 -0.09884798
-0.47816467 0.015420059 -0.12548076 -0.22593386 -0.021793514 -0.24665919 0.32206586 0.15530151
0.55678487 -0.5015108 0.16037722 0.21921305 0.2919267 0.30755642 0.30151728 0.39095563
-0.2507888 0.012327994 0.3500946 0.023905609 0.2413248 0.34884155 0.5439866 -0.5369761
-0.071570635 0.020942042 -0.66994464 -0.07818037 -0.12362366 0.13801081 0.011822099 0.19430506
-0.08166442 0.03039009 0.35939983 -0.59259176 -0.12149197 -0.03366171 0.017385276 -0.6825075
0.6977509 0.10553468 0.30620968 -0.6976765 -0.5172041 0.09947237 -0.089262284 0.0126148015
0.33837625 -0.5129808 0.0015152774 0.41762367 -0.18311532 -0.42690113 0.33057114 0.47337836
-0.46587938 0.0488148 0.6178426 0.1244991 0.6317123 -0.11907864 -0.4418825 -0.12351394
-0.2068865 0.0289346 0.023730844 -0.3551083 0.2621408 -0.1134187 -0.41573015 -0.15214291
0.08046409 0.06973835 -0.22014293 -0.11303556 -0.2728296 0.082469456 0.030595299 -0.29998222
-0.0074889204 -0.003530222 -0.36395195 -0.61538357 -0.0796385 0.021865029 0.039576344 -0.05869934
0.033953488 -0.37809253 -0.07548889 -0.047428183 -0.41886604 0.1702695 0.1602718 -0.21269867
-0.066249125 -0.027995897 -0.60204786 -0.5460501 0.19978264 0.13701157 -0.64670646 -0.15169555
0.5329502 0.05247415 0.08025373 0.11290549 -0.43078867 0.3206692 0.059059765 0.023975516
-0.20803648 0.12357657 0.15893672 -0.11149792 0.14198694 -0.031868014 0.12330891 0.0045747547
-0.22517367 0.1890745 0.16532442 0.064153604 0.0054380265 -0.0154059045 0.04270214 -0.04508104
-0.0048768115 -0.29390603 0.08097496 -0.21446458 -0.045307267 0.044500407 -0.0393595 -0.033853024
-0.16285743 -0.07952427 -0.08704216 -0.19163327 -0.009525671 0.0028122414 -0.021268448 -0.17048308
-0.07903654 0.04827752 -0.078759074 -0.45911905 0.15522613 -0.5293927 -0.5065488 -0.02464317
0.042232975 0.26097026 0.1452159 0.2126565 0.314688 0.11411872 -0.0018291996 -0.103372745
0.14562911 -0.1269754 -0.042839285 0.061226375 0.035165355 0.19542117 -0.035315726 -0.011837224
0.09045158 0.18857916 -0.08186954 -0.17919777 -0.13621825 0.115030795 -0.055496674 -0.040075134
-0.17202212 -0.15453659 -0.20923054 0.25024986 -0.12836382 -0.32230824 0.0020013703 -0.20853879
-0.32308787 -0.28615198 0.28808004 -0.050370302 0.24270937 -0.99283963 0.42193493 0.030212494
-0.0779344 -0.08316603 -0.027281562 0.14688173 -0.07734393 0.25901294 -0.87142175 0.033294275
-0.0720574 0.15957893 -0.032621317 -0.04237391 -0.2666933 -0.24445046 -0.17717437 0.38794363
0.17315501 0.03999162 0.002487513 -0.20821808 -0.2294774 -0.01938298 -0.10245355 -0.29761243
-0.30443117 -0.19010395 -0.1964007 -0.17107761 -0.12670241 -0.41372132 -0.14281392 0.091989286
-0.07873784 0.16937809 -0.054233037 -0.29797235 -0.3332948 -0.117092416 -0.005251523 -0.35487288
00000000: 3b48 67bc 88fc 943e cc47 01bd e8cd 0a3c
00000010: f515 85be 38f5 a9be 8720 613c 28fd 51be
00000020: 5858 a13d 51dc f33a 4d6c 5c3b 8411 963d
00000030: 784f 2a3e d7f8 323e cae0 0f3d 4298 1abe
00000040: 561f 0abe 85ef 85be a0d2 1abd 0665 963b
00000050: 71e5 2b3f 4bdd bc3e 8c0d e2bd cf70 cabd
00000060: 00d2 f4be 6aa4 7c3c 077e 00be 355b 67be
00000070: 5088 b2bc 3a94 7cbe d1e5 a43e 5c07 1f3e
00000080: 7489 0e3f 0363 00bf ed39 243e 6379 603e
00000090: 6b77 953e 0978 9d3e 7960 9a3e 562b c83e
000000a0: 6467 80be 5bfb 493c 993f b33e b2d5 c33c
000000b0: d91d 773e 5c9b b23e b542 0b3f 4477 09bf
000000c0: a093 92bd a58e ab3c 7e81 2bbf 081d a0bd
000000d0: 672e fdbd b552 0d3e 7ab1 413c e8f7 463e
000000e0: ad3f a7bd a3f4 f83c 4103 b83e 18b4 17bf
000000f0: c8d0 f8bd dce0 09bd 916b 8e3c d0b8 2ebf
00000100: ce9f 323f 9122 d83d 84c7 9c3e ed9a 32bf
00000110: 7d67 04bf 2cb8 cb3d 25cf b6bd 50ae 4e3c
00000120: a73f ad3e b652 03bf 469c c63a c5d2 d53e
00000130: 9582 3bbe c992 dabe 9f40 a93e a65e f23e
00000140: be87 eebe 07f2 473d ef2a 1e3f 62f9 fe3d
00000150: e6b7 213f 81df f3bd 6c3e e2be e0f4 fcbd
00000160: 0eda 53be 4108 ed3c 3067 c23c c1d0 b5be
00000170: 5237 863e 1048 e8bd 95da d4be 5acb 1bbe
00000180: 5bca a43d fbd2 8e3d 266d 61be 307f e7bd
00000190: 52b0 8bbe bfe5 a83d fea2 fa3c 4597 99be
000001a0: 9e65 f5bb 4c5b 67bb e957 babe c789 1dbf
000001b0: 8319 a3bd 4a1e b33c ce1a 223d b86e 70bd
000001c0: d012 0b3d 5895 c1be eb99 9abd 0e44 42bd
000001d0: 9c75 d6be 215b 2e3e 4a1e 243e aecd 59be
000001e0: 9fad 87bd a757 e5bc cf1f 1abf f0c9 0bbf
000001f0: d293 4c3e c34c 0c3e 8e8e 25bf 1456 1bbe
00000200: 6d6f 083f 22ef 563d 115c a43d fe3a e73d
00000210: 5590 dcbe c12e a43e a7e8 713d 4d68 c43c
00000220: 8407 55be b615 fd3d 4fc0 223e 0559 e4bd
00000230: 0665 113e 0988 02bd 6289 fc3d d3e7 953b
00000240: ed93 66be bf9c 413e ce4a 293e f762 833d
00000250: 7931 b23b 0c69 7cbc 70e8 2e3d e6a6 38bd
00000260: a9cd 9fbb da7a 96be 33d6 a53d 9a9c 5bbe
00000270: 1d94 39bd 0f46 363d 6d37 21bd 78a9 0abd
00000280: 19c4 26be 9fdd a2bd 2943 b2bd 833b 44be
00000290: 8f11 1cbc 954d 383b 2b3b aebc 1e93 2ebe
000002a0: e9dd a1bd a6be 453d 704c a1bd a711 ebbe
000002b0: 99f3 1e3e 4886 07bf 2fad 01bf 79e0 c9bc
000002c0: 7cfc 2c3d e59d 853e 7ab3 143e a0c2 593e
000002d0: c91e a13e 13b7 e93d c1c1 efba 17b5 d3bd
000002e0: cc1f 153e d705 02be 3f78 2fbd 82c8 7a3d
000002f0: 8c09 103d 7d1c 483e 39a7 10bd eaf0 41bc
00000300: ae3e b93d e51a 413e 38ab a7bd 9f7f 37be
00000310: cc7c 0bbe 4495 eb3d 7b50 63bd d325 24bd
00000320: 9126 30be d73e 1ebe 8840 56be c020 803e
00000330: ce71 03be 9605 a5be 6c29 033b 318b 55be
00000340: c66b a5be 8382 92be 3a7f 933e 1751 4ebd
00000350: ce88 783e bd2a 7ebf db07 d83e 3180 f73c
00000360: 129c 9fbd f452 aabd 957d dfbc 2a68 163e
00000370: 7f66 9ebd 589d 843e 7f15 5fbf 945f 083d
00000380: d592 93bd a968 233e ee9d 05bd 4490 2dbd
00000390: 068c 88be 3951 7abe 336d 35be 8ca0 c63e
000003a0: 8c4f 313e 41ce 233d 8b05 233b 1f37 55be
000003b0: 20fc 6abe 0ec9 9ebc 2bd3 d1bd a860 98be
000003c0: 67de 9bbe 9caa 42be 441d 49be f82e 2fbe
000003d0: 47be 01be 48d3 d3be d03d 12be e164 bc3d
000003e0: 4e41 a1bd 7371 2d3e 7623 5ebd d58f 98be
000003f0: 9ea5 aabe 26ce efbd f814 acbb e6b1 b5be

actor.0.bias f4 [64]
0.055848952 0.2792518 0.09277308 -0.14074562 0.043150444 -0.059000675 0.1237613 -0.010637266
-0.057738554 0.08358141 -0.3853275 0.20186567 -0.2891473 -0.22675397 0.05505971 -0.026292397
0.004290095 -0.060186043 -0.32896885 -0.11615728 -0.39087942 -0.006297831 -0.16141267 -0.20667021
-0.17112045 0.062142007 -0.13576193 -0.06745014 0.03254728 -0.32423362 0.29773304 0.04735805
-0.031464174 0.075715914 -0.2707399 0.047855437 0.14029521 -0.28076234 -0.1620564 -0.35201278
-0.10594277 -0.26780427 -0.02806685 -0.09360185 -0.031235246 0.105763145 0.10914299 -0.14799768
-0.1561217 0.03917163 0.0634521 -0.141319 -0.114975646 -0.170284 -0.06795561 0.0016375944
0.3293599 -0.027067995 0.041243546 -0.4247332 -0.3524537 0.06850324 -0.19586805 -0.14931275
00000000: dfc1 643d 18fa 8e3e d0ff bd3d 9f1f 10be
00000010: 85be 303d b1aa 71bd 9176 fd3d ed47 2ebc
00000020: 437f 6cbd bb2c ab3d a549 c5be e0b5 4e3e
00000030: 1d0b 94be 3132 68be 4a86 613d 2763 d7bc
00000040: ed93 8c3b a485 76bd 9b6e a8be dee3 edbd
00000050: 5921 c8be 095e cebb 5d49 25be 5ba1 53be
00000060: 333a 2fbe 9e88 7e3d 2d05 0bbe 4d23 8abd
00000070: 4c50 053d f301 a6be 7770 983e 84fa 413d
00000080: 94e0 00bd f210 9b3d 6c9e 8abe 1004 443d
00000090: 8ca9 0f3e 15c0 8fbe 1df2 25be 053b b4be
000000a0: 86f8 d8bd a41d 89be 73ec e5bc 54b2 bfbd
000000b0: 0fe1 ffbc 599a d83d 5c86 df3d b48c 17be
000000c0: 5ede 1fbe 6e72 203d 2df3 813d eeb5 10be
000000d0: 5a78 ebbd ee5e 2ebe 502c 8bbd 8da4 d63a
000000e0: dca1 a83e b3bd ddbc feee 283d a176 d9be
000000f0: d074 b4be 6d4b 8c3d a291 48be 71e5 18be

actor.2.weight f4 [64, 64]
0.06516803 -0.057350393 -0.04628024 0.07078803 0.032838196 -0.01421071 0.060090303 0.09862772
-0.11471386 0.04151645 0.043235324 0.01708347 0.059457954 -0.106851794 0.36272013 -0.23539299
-0.055791836 0.19471136 -0.016766565 -0.02791072 0.0546639 -0.08710453 -0.22154239 0.043291785
0.11305559 -0.01284505 0.1041977 0.13329633 0.13990963 -0.0950047 0.08617491 0.16806391
0.12013556 0.115727186 -0.12905271 0.047912586 -0.10600241 0.005598914 0.10942695 0.045365214
0.011681474 -0.081691265 -0.13427116 -0.04621081 0.06850791 -0.19722052 0.15917504 0.07411055
-0.045590177 0.0108395545 0.018091552 -0.1311078 0.087330066 -0.1379866 0.028447118 0.23554604
-0.05863702 0.09970024 -0.10158592 -0.06085734 0.025954733 0.08892657 -0.13097161 -0.057521094
-0.29897374 -0.23142555 0.06702345 -0.10177756 -0.023381742 0.21446106 0.08603021 -0.08662881
-0.15948729 -0.34337994 0.050533034 -0.008049484 -0.06884472 0.033387497 -0.3143629 -0.08053028
0.010266105 0.22894795 0.20551924 0.013413881 0.008267109 -0.038304295 0.10307092 0.0044242726
-0.011400001 0.013672451 -0.1782044 0.088366754 0.13472384 0.14661781 -0.07297566 0.07845825
0.12740523 -0.13212344 -0.023995131 0.017786827 -0.14829628 0.20129958 0.13872302 0.06408727
0.16558039 0.13702291 0.090118125 0.1858728 -0.43227035 -0.077879734 -0.61643076 0.077272326
0.13993001 -0.040898297 0.0029768883 0.026686903 -0.03710528 0.070362665 -0.069348656 -0.32815894
0.16002142 0.037422143 -0.077218615 0.05011467 -0.08751288 0.3377956 -0.41874897 0.1181384
0.025925951 -0.014478675 -0.058667548 0.15674895 0.09128023 0.10311953 0.10775534 -0.13354671
0.046857268 0.12979038 -0.22564708 0.14591783 -0.020372842 -0.030697245 0.06760372 0.022668835
0.055809967 -0.040124405 0.035336655 0.1628956 0.00030416326 -0.12063658 0.06358385 -0.14437938
-0.088514596 -0.012531269 0.023459105 -0.57550216 0.0103563415 -0.04558692 -0.34929723 0.013025058
-0.1691657 0.01775346 0.18289958 -0.028914182 0.023031667 0.054696564 -0.059949216 0.046785798
-0.05245417 0.048514605 -0.010795417 0.06633021 -0.09526533 -0.15052272 -0.21283928 -0.20562759
0.11229711 -0.0562544 0.15739602 -0.2795677 -0.04217397 0.053918414 -0.10187213 -0.18098506
0.16988656 0.11837234 0.04077348 -0.18394718 -0.019871062 0.018543914 -0.19491115 0.08785825
0.027909664 -0.10069726 -0.09608202 0.07551017 0.03575207 0.12597118 0.04641133 -0.09535885
0.023797626 0.07146527 0.10860862 -0.0366677 -0.021486111 -0.08021179 0.21204028 -0.12810637
0.0353651 0.0066953604 0.067470685 0.002828728 -0.119022116 -0.07826102 0.070423275 -0.07553135
0.074409425 -0.03064598 0.1787413 0.11300575 -0.037044585 0.014993526 -0.15811679 -0.08813675
0.08060268 -0.024877997 -0.060000036 0.14311735 -0.13386111 0.10613217 0.16561747 0.03373948
-0.09003435 -0.14099471 0.035988156 0.0872733 0.12432099 0.024687123 0.029790094 0.1894455
0.02312353 -0.054008774 -0.09612104 0.15283976 -0.035327006 0.13397108 -0.097410955 0.2229857
-0.27410853 -0.114221744 0.12847376 -0.05143347 0.09656487 0.03138648 -0.036006942 -0.008237301
00000000: d176 853d 3fe8 6abd 5990 3dbd 51f9 903d
00000010: 5881 063d 0ad4 68bc 4021 763d 54fd c93d
00000020: 1aef eabd 270d 2a3d 8617 313d a2f2 8b3c
00000030: 2f8a 733d 1dd5 dabd 74b6 b93e dc0a 71be
00000040: fb85 64bd 6a62 473e 095a 89bc 06a5 e4bc
00000050: 41e7 5f3d dc63 b2bd 02dc 62be ba52 313d
00000060: b089 e73d 0b74 52bc 9b65 d53d d57e 083e
00000070: 7844 0f3e d391 c2bd 797c b03d f218 2c3e
00000080: a209 f63d 6002 ed3d 6526 04be fd3f 443d
00000090: cb17 d9bd 1877 b73b 3d1b e03d e0d0 393d
000000a0: a763 3f3c c04d a7bd 617e 09be 8c47 3dbd
000000b0: e04d 8c3d 2df4 49be c8fe 223e 46c7 973d
000000c0: c4bc 3abd 6398 313c bc34 943c 2041 06be
000000d0: 1bda b23d 5c4c 0dbe ee09 e93c fb32 713e
000000e0: 5f2d 70bd a42f cc3d 470c d0bd 8c45 79bd
000000f0: 059f d43c 221f b63d 6c1d 06be 3d9b 6bbd
00000100: 1613 99be d2fa 6cbe 9743 893d c170 d0bd
00000110: 118b bfbc ae9b 5b3e 9b30 b03d 726a b1bd
00000120: a350 23be 7fcf afbe bafb 4e3d fce1 03bc
00000130: 76fe 8cbd 54c1 083d 2df4 a0be 0fed a4bd
00000140: 2a33 283c 5571 6a3e a373 523e e5c5 5b3c
00000150: c572 073c f7e4 1cbd d916 d33d 7df9 903b
00000160: 12c7 3abc 6a02 603c 377b 36be a1f9 b43d
00000170: 0cf5 093e fb22 163e 4374 95bd b8ae a03d
00000180: 8476 023e 5e4b 07be 7091 c4bc aeb5 913c
00000190: fbda 17be 7a21 4e3e 680d 0e3e 3040 833d
000001a0: e88d 293e bc4f 0c3e da8f b83d 7055 3e3e
000001b0: 8a52 ddbe 697f 9fbd 68ce 1dbf f440 9e3d
000001c0: d049 0f3e f984 27bd e617 433b 7e9e da3c
000001d0: b5fb 17bd 4d1a 903d ab06 8ebd 7304 a8be
000001e0: a8dc 233e f647 193d cb24 9ebd 0a45 4d3d
000001f0: f439 b3bd 8bf3 ac3e 4466 d6be 8cf2 f13d
00000200: a962 d43c f737 6dbc 624d 70bd cc82 203e
00000210: 21f1 ba3d 5530 d33d d5ae dc3d 78c0 08be
00000220: 68ed 3f3d c5e7 043e 0710 67be 7c6b 153e
00000230: f2e4 a6bc ca78 fbbc d273 8a3d feb3 b93c
00000240: fe98 643d 7d59 24bd 2bbd 103d 1bce 263e
00000250: 1a78 9f39 5010 f7bd 4038 823d 30d8 13be
00000260: 2447 b5bd f44f 4dbc 4f2d c03c 1c54 13bf
00000270: a5ad 293c 5ab9 3abd 16d7 b2be 0e67 553c
00000280: c639 2dbe b46f 913c 074a 3b3e 6fdd ecbc
00000290: e8ac bc3c 8109 603d 4f8d 75bd 77a2 3f3d
000002a0: 2fda 56bd 40b7 463d 43df 30bc 22d8 873d
000002b0: 781a c3bd a122 1abe 8af2 59be 0a90 52be
000002c0: 07fc e53d 046b 66bd 6c2c 213e 7f23 8fbe
000002d0: 9dbe 2cbd 8ed9 5c3d 56a2 d0bd 2654 39be
000002e0: bef6 2d3e 336d f23d 1802 273d a65c 3cbe
000002f0: a3c8 a2bc 68e9 973c ca96 47be 07ef b33d
00000300: cfa2 e43c 5d3a cebd a6c6 c4bd 13a5 9a3d
00000310: c370 123d 97fe 003e cf19 3e3d 804b c3bd
00000320: 3df3 c23c 625c 923d 326e de3d df30 16bd
00000330: a403 b0bc 1446 a4bd 1621 593e 512e 03be
00000340: ffda 103d c164 db3b 122e 8a3d 2e62 393b
00000350: dec1 f3bd 5047 a0bd 143a 903d 2eb0 9abd
00000360: f863 983d 470d fbbc f607 373e 8f6f e73d
00000370: 10bc 17bd 68a7 753c 5ee9 21be 0a81 b4bd
00000380: 0513 a53d f1cc cbbc 99c2 75bd 5b8d 123e
00000390: e312 09be d35b d93d a097 293e 6932 0a3d
000003a0: ee63 b8bd eb60 10be 5168 133d 58bc b23d
000003b0: 019c fe3d a63c ca3c 5b0a f43c 00fe 413e
000003c0: 8f6d bd3c 4e38 5dbd 1cdb c4bd 0782 1c3e
000003d0: 0db3 10bd b72f 093e 657f c7bd 5d56 643e
000003e0: f457 8cbe 17ed e9bd a08e 033e e7ab 52bd
000003f0: cdc3 c53d 1c8f 003d 047c 13bd bff5 06bc

actor.2.bias f4 [64]
-0.09694676 0.10845424 0.07496303 0.13593575 0.0041651586 0.020852583 -0.06240404 0.24622494
-0.07066604 -0.1020487 0.34129432 -0.084873036 0.05561538 -0.28617474 0.056797 0.25813127
-0.013985301 -0.3259014 -0.005017493 -0.20024775 0.06539173 -0.04538729 -0.21150307 -0.03741552
0.038020678 0.24537826 0.0790859 0.11687247 -0.038362965 -0.10501082 0.1111463 0.061205268
-0.2569415 -0.1091032 -0.082115725 -0.20123719 -0.04576273 -0.15543966 -0.02124442 0.05410338
0.12790051 -0.2770117 0.0045543644 0.025105307 -0.12448639 -0.16059326 -0.11558493 -0.10485961
0.06660667 0.33510318 -0.06671381 -0.15573995 0.18955375 0.035720296 0.094922625 -0.27409753
0.13806534 0.06776285 -0.039061375 -0.09895438 0.021637976 -0.027646061 -0.1860624 0.19751962
00000000: 068c c6bd 421d de3d 3886 993d be32 0b3e
00000010: e27b 883b 09d3 aa3c 619b 7fbd 6422 7c3e
00000020: 5bb9 90bd e9fe d0bd 21be ae3e ead1 adbd
00000030: f4cc 633d 7f85 92be f9a3 683d c829 843e
00000040: 9b22 65bc 8cdc a6be c869 a4bb bf0d 4dbe
00000050: 19ec 853d 06e8 39bd 4394 58be 0441 19bd
00000060: 92bb 1b3d 7044 7b3e caf7 a13d d55a ef3d
00000070: 7c22 1dbd ea0f d7bd aca0 e33d 60b2 7a3d
00000080: d68d 83be 8071 dfbd 4a2c a8bd 1f11 4ebe
00000090: b371 3bbd 932b 1fbe c708 aebc 819b 5d3d
000000a0: 5af8 023e 7ad4 8dbe c73c 953b a5a9 cd3c
000000b0: b8f2 febd 8f72 24be cbb7 ecbd a3c0 d6bd
000000c0: 1469 883d a592 ab3e 40a1 88bd 4b7a 1fbe
000000d0: 611a 423e 724f 123d cb66 c23d 8356 8cbe
000000e0: 0061 0d3e 40c7 8a3d d2fe 1fbd 98a8 cabd
000000f0: 2042 b13c fe79 e2bc 2487 3ebe 9542 4a3e

actor.4.weight f4 [6, 64]
-0.18534437 -0.127271 0.0035455546 -0.1901717 -0.039207656 0.047318216 -0.1161801 0.0777339
0.061198585 -0.06567193 -0.116228074 0.03259565 0.09062334 0.053051736 -0.096025825 -0.023149403
0.12196888 0.116107784 0.08446786 0.112350956 0.002882665 -0.121398345 0.06355037 0.15600492
0.1793465 -0.027656846 0.073376715 -0.06907401 -0.024677359 -0.10054005 0.02724053 -0.025822496
0.063276455 0.14886662 -0.041148927 0.031069836 -0.13674901 0.006167423 -0.08163438 0.22903746
0.06975691 0.07185591 0.12801316 0.092129275 0.19495775 0.0918445 0.003961157 0.024192711
0.044750065 -0.0020869684 -0.10562816 0.008666564 -0.06541053 -0.06364305 -0.17916152 -0.034280986
0.099041134 -0.13710271 0.045197435 -0.044082146 -0.049382836 0.03046753 0.2332008 -0.13941687
0.028443256 0.11680219 -0.23059341 -0.09205096 0.0006728663 -0.069175564 0.06277146 -0.04942577
0.14318433 -0.037768323 0.06852102 0.021212338 -0.16937412 -0.011041419 0.06447745 0.006501139
0.08471707 -0.027290698 0.081956334 -0.076522164 -0.042023074 0.13022786 -0.061365988 -0.131755
0.056101844 0.039288003 0.066949256 -0.018373461 -0.13234356 -0.047927707 -0.138097 0.011845794
0.059109382 -0.006955955 0.13243133 0.003924093 -0.048416328 -0.04866434 -0.06738825 0.10376499
0.20113294 -0.09817541 -0.25208142 0.06461459 0.0700191 0.13389489 0.10505472 -0.009599557
0.13226116 0.02590368 0.05436822 0.13940103 -0.023477193 -0.0025017872 0.037290733 -0.03249399
-0.053858478 0.0766219 -0.08293118 -0.114284694 0.09453966 0.056673586 -0.071328774 0.03418192
0.018057417 0.06870604 -0.05169674 0.040376414 0.039190568 0.037883125 0.0022590621 0.1760302
-0.25828665 0.08504823 0.11194056 -0.24358332 -0.10971763 -0.18988971 0.023845894 0.1185296
-0.05244403 -0.17529468 0.07893625 -0.16172864 0.08201645 -0.074022435 -0.12536176 -0.06720002
-0.08263998 0.12926535 0.09599326 0.07040118 -0.24264725 -0.039241794 0.10864863 0.09804611
-0.019937823 -0.18027276 0.028296143 -0.16537163 -0.02533833 0.001779383 0.010618682 -0.095812134
0.0002909279 -0.1766606 0.0052395687 0.09432262 0.049749848 -0.027612321 -0.05223276 -0.067806706
0.1377799 0.12853381 -0.12347453 -0.10596766 0.10945285 0.0761234 0.007841956 -0.17342521
0.12365814 0.08026537 0.015590283 -0.06262195 -0.072152846 0.06272121 -0.12807192 0.04750329
-0.12952477 0.25401205 -0.0750782 0.07923605 -0.06253792 0.06861238 -0.08980428 -0.0829684
0.14795764 -0.08371655 0.06392465 0.20978454 0.108674146 -0.17088735 0.07194051 0.09113535
-0.04633431 -0.16099928 -0.11537897 -0.15793252 -0.1176937 0.10166823 -0.04990072 -0.100431435
-0.023137327 -0.034271337 -0.085346885 0.09516457 0.0763352 -0.0035996805 0.13976604 -0.041359738
-0.13803309 0.007952949 -0.08248183 0.08087129 -0.08297822 -0.023376355 0.0065404396 0.25053695
0.0445599 0.035387468 0.26237008 -0.10425114 0.05882595 -0.15027615 -0.22331734 0.250139
-0.026876923 0.06705963 -0.009098603 -0.28655234 -0.0583263 0.021251526 0.057245318 -0.113856524
0.19231841 -0.020228358 -0.013718632 -0.073395886 -0.04912216 -0.059255507 -0.045553066 -0.03986227
00000000: eaca 3dbe 5453 02be 895c 683b 5fbc 42be
00000010: 3598 20bd bfd0 413d d5ef edbd f332 9f3d
00000020: 5eab 7a3d 017f 86bd fc08 eebd 0483 053d
00000030: bb98 b93d c74c 593d 30a9 c4bd d1a3 bdbc
00000040: d2ca f93d ebc9 ed3d 7cfd ac3d 4218 e63d
00000050: 18eb 3c3b b29f f8bd b226 823d c1bf 1f3e
00000060: 9ca6 373e 9c90 e2bc 8846 963d ad76 8dbd
00000070: 2c28 cabc f1e7 cdbd 8827 df3c b389 d3bc
00000080: 1697 813d 7e70 183e c78b 28bd 2b86 fe3c
00000090: ef07 0cbe 1818 ca3b ed2f a7bd cc88 6a3e
000000a0: b6dc 8e3d 3129 933d e215 033e 46ae bc3d
000000b0: 01a3 473e f818 bc3d 98cc 813b cb2f c63c
000000c0: d84b 373d 85c5 08bb 9453 d8bd 34fe 0d3c
000000d0: f5f5 85bd 4a57 82bd 1e76 37be 386a 0cbd
000000e0: 14d6 ca3d a764 0cbe f220 393d 7b8f 34bd
000000f0: a845 4abd 0b97 f93c 31cc 6e3e 4cc3 0ebe
00000100: d501 e93c fd35 ef3d ae20 6cbe 3785 bcbd
00000110: 4b63 303a ebab 8dbd 538e 803d ad72 4abd
00000120: ea9e 123e f5b2 1abd c054 8c3d 7fc5 ad3c
00000130: 6970 2dbe 11e7 34bc c10c 843d 8207 d53b
00000140: 2580 ad3d be90 dfbc b9d8 a73d a7b7 9cbd
00000150: 6320 2cbd 745a 053e e75a 7bbd c8ea 06be
00000160: 0ccb 653d 75ec 203d b11c 893d f183 96bc
00000170: 1285 07be d84f 44bd 4d69 0dbe dc14 423c
00000180: ae1c 723d c8ee e3bb 149c 073e ae95 803b
00000190: 3350 46bd 4254 47bd da02 8abd bd82 d43d
000001a0: cbf5 4d3e 3010 c9bd d110 81be a754 843d
000001b0: 2d66 8f3d be1b 093e ee26 d73d 7647 1dbc
000001c0: 786f 073e f433 d43c 36b1 5e3d 25bf 0e3e
000001d0: 3e53 c0bc 06f5 23bb 2bbe 183d 6b18 05bd
000001e0: b59a 5cbd f1eb 9c3d d3d7 a9bd 180e eabd
000001f0: 029e c13d 9022 683d d214 92bd 5702 0c3d
00000200: 26ed 933c c1b5 8c3d f6bf 53bd bd61 253d
00000210: 4a86 203d 562b 1b3d c60c 143b 4341 343e
00000220: 263e 84be c42d ae3d 1841 e53d e86d 79be
00000230: a3b3 e0bd 7372 42be 7758 c33c a6bf f23d
00000240: 8dcf 56bd 7380 33be 54a9 a13d 319c 25be
00000250: 3ef8 a73d 1399 97bd d55e 00be 2aa0 89bd
00000260: 263f a9bd 235e 043e 1d98 c43d 7e2e 903d
00000270: 8578 78be 01bc 20bd 2c83 de3d 66cc c83d
00000280: a554 a3bc 6c99 38be 50cd e73c 2e57 29be
00000290: 5492 cfbc 303a e93a fbf9 2d3c 2739 c4bd
000002a0: af87 9839 84e6 34be b0b0 ab3b 382c c13d
000002b0: 7fc6 4b3d 3c33 e2bc 05f2 55bd 3ede 8abd
000002c0: 2d16 0d3e 5e9e 033e 37e0 fcbd 9305 d9bd
000002d0: d128 e03d 96e6 9b3d 8c7b 003c 6196 31be
000002e0: 7b40 fd3d 2c62 a43d 636e 7f3c f03f 80bd
000002f0: dfc4 93bd fa73 803d 4925 03be cf92 423d
00000300: 24a2 04be de0d 823e 99c2 99bd 8346 a23d
00000310: e213 80bd a684 8c3d 4eeb b7bd 56eb a9bd
00000320: 3582 173e 9573 abbd edea 823d c2d1 563e
00000330: 8d90 de3d 18fd 2ebe 8c55 933d 2ca5 ba3d
00000340: 0cc9 3dbd ffdc 24be cf4b ecbd 10b9 21be
00000350: 6509 f1bd 6f37 d03d b364 4cbd ffae cdbd
00000360: 7e8a bdbc 1a60 0cbd 59ca aebd a4e5 c23d
00000370: a155 9c3d 9ee8 6bbb d41e 0f3e d468 29bd
00000380: 8c58 0dbe 164d 023c 3cec a8bd d99f a53d
00000390: 7cf0 a9bd c57f bfbc 2f51 d63b 6146 803e
000003a0: 7184 363d 73f2 103d 5f55 863e 9f81 d5bd
000003b0: 7bf3 703d fee1 19be 4dad 64be 3812 803e
000003c0: fe2c dcbc 8f56 893d 4f12 15bc fdb6 92be
000003d0: 8fe7 6ebd ae17 ae3c 117a 6a3d 9c2d e9bd
000003e0: 1eef 443e f1b5 a5bc 1dc4 60bc 9550 96bd
000003f0: 5134 49bd e7b5 72bd da95 3abd 9f46 23bd

actor.4.bias f4 [6]
-0.14456917 0.025453888 0.096810736 0.1782469 0.057628352 0.08459521
00000000: f109 14be ac84 d03c b544 c63d 5b86 363e
00000010: b50b 6c3d 4140 ad3d

critic.0.weight f4 [64, 43]
0.4710991 -0.5750562 -0.50328386 -0.101152346 0.20211595 0.41045135 -0.10250564 -0.05024255
-0.0066797324 0.01834158 0.11714663 -0.027125377 0.27301514 -0.048597485 -0.16368167 0.031494636
0.030615376 0.0841771 0.005176317 0.02296664 0.31651697 0.7086552 -0.17425752 -0.08551934
-0.5269866 0.12654717 -0.289462 -0.28194845 0.093795426 -0.14914913 1.1870346 -0.006871931
0.24634448 -0.25723663 0.12102761 -0.37448248 -0.3209115 0.9829368 0.05305514 0.16109191
-0.1679492 0.40234515 0.43587428 0.40959963 -0.476925 -0.44807327 -0.11563531 0.21163638
-0.16065395 -0.08803507 0.11974831 0.072572984 -0.047572818 -0.0789427 -0.028537715 0.19823459
-0.31062615 -0.41986686 -0.12885903 0.18671802 0.028981661 -0.01981732 -0.02100803 0.67181814
0.34507242 -0.5004219 -0.4779368 -0.413795 0.788472 -0.43442535 -0.2597232 -0.120318756
-0.23821285 1.817227 -0.16859294 -0.50837636 -0.45676264 0.5682734 -0.34326577 -0.22881253
1.7459501 -0.3283882 -0.6645053 -0.45057896 0.4048314 0.10188688 0.2119597 -0.40221786
-0.13724363 -0.07901184 0.03614075 0.27587444 0.029144501 -0.10702317 0.035046685 0.06278162
0.015430415 -0.034732077 -0.022298943 0.11792627 0.025170533 -0.1683708 -0.13028857 -0.017749503
0.010660891 0.0018329044 -0.19239883 0.8168865 0.35255185 0.16522875 0.16209525 -0.20560043
0.23452778 0.19234106 0.43346694 0.050930083 -2.3003113 2.9176817 -1.5296857 -0.1009514
-0.42042118 -0.040989067 0.10103651 -2.2650125 2.9172208 -1.643736 0.18386564 0.0367106
0.10619171 0.018752191 -0.285023 -0.053102598 0.22060531 -0.016533704 -0.12864695 -0.07922829
0.010055843 0.18965353 0.0071466477 -0.06655815 0.025727065 -0.10215895 -0.0032224352 0.09537336
0.22508594 0.12450575 -0.122162014 0.009786564 -0.0011619717 -1.0433853 1.2991178 0.32101968
0.33955488 -0.63725555 0.9596962 0.32039317 -0.15067782 0.7254237 0.21431343 0.16060413
-0.79970545 -0.36491448 0.066769734 -0.32536554 0.13609552 -0.12751864 0.05829499 -0.7508828
-0.53790003 0.66450304 -0.6546595 -0.31744117 0.29090926 -0.095302 0.008169594 0.13894795
-0.11962202 0.113546565 0.023553656 0.13027987 0.07723196 0.02951596 0.051277418 -0.017610548
0.16753674 -0.12660074 -0.067181386 -0.08212745 -0.09021684 0.2089564 -0.029691158 -0.012065341
-0.1761031 -0.38213947 -0.43195653 -0.13246395 0.3870611 0.4632637 0.023021251 0.059759255
-0.22109595 -0.21877776 -0.7467971 -0.43979517 -0.9110551 -0.20818879 -0.02569268 -0.16695601
-0.02527512 -0.5932167 -0.52747667 -0.9553906 0.009779146 -0.33722943 -0.10440528 0.0743466
-0.009137101 -0.07518135 -0.02555587 0.003726924 -0.09352194 -0.024457337 -0.0014044518 -0.011626989
-0.0013167512 0.0129232425 -0.0023431922 -0.09922729 0.03899734 0.010068405 -0.07020217 -0.10718504
0.033561815 -0.006986827 0.002667486 0.26449028 1.1704372 -1.0662421 -0.10768113 -1.222853
2.2502851 -0.06131536 -0.44424093 -0.28454483 -0.054035433 0.07761623 0.2519187 0.5671559
0.23299807 0.13917147 0.38333544 -0.0959373 0.17000252 0.42885807 0.47467297 -0.086213954
00000000: e733 f13e e236 13bf 36d7 00bf f628 cfbd
00000010: 7cf7 4e3e ae26 d23e 7aee d1bd 22cb 4dbd
00000020: a8e1 dabb 1541 963c 93ea ef3d 0a36 debc
00000030: a4c8 8b3e 280e 47bd 2b9c 27be 8500 013d
00000040: 19cd fa3c 0b65 ac3d 189e a93b 8924 bc3c
00000050: 830e a23e 6d6a 353f 9070 32be c424 afbd
00000060: 98e8 06bf 9595 013e 5d34 94be 8c5b 90be
00000070: d117 c03d 8dba 18be c0f0 973f ef2d e1bb
00000080: ba41 7c3e 85b4 83be 53dd f73d 2bbc bfbe
00000090: 834e a4be bfa1 7b3f 5950 593d 47f5 243e
000000a0: e0fa 2bbe 2f00 ce3e ea2a df3e 0bb7 d13e
000000b0: 832f f4be dc69 e5be 35d2 ecbd 35b7 583e
000000c0: 7882 24be bb4b b4bd 9a3e f53d 25a1 943d
000000d0: b7db 42bd b6ac a1bd edc7 e9bc 02fe 4a3e
000000e0: 640a 9fbe caf8 d6be 9ff3 03be 0233 3f3e
000000f0: f36a ed3c ef57 a2bc 0819 acbc 46fc 2b3f
00000100: 55ad b03e a61b 00bf 22b4 f4be f0dc d3be
00000110: 4dd9 493f 006d debe 70fa 84be ae69 f6bd
00000120: 12ee 73be e59a e83f a1a3 2cbe f424 02bf
00000130: cbdc e9be 5e7a 113f 88c0 afbe d54d 6abe
00000140: 4b7b df3f 8022 a8be 051d 2abf 49b2 e6be
00000150: 1046 cf3e 12aa d03d f70b 593e 80ef cdbe
00000160: 9889 0cbe f6d0 a1bd 5308 143d 6a3f 8d3e
00000170: 73c0 ee3c f72e dbbd 1d8d 0f3d a693 803d
00000180: dacf 7c3c 3943 0ebd 46ac b6bc 5483 f13d
00000190: 6f32 ce3c 6569 2cbe 5e6a 05be 6867 91bc
000001a0: 05ab 2e3c 113e f03a 3304 45be 791f 513f
000001b0: ad81 b43e ba31 293e 4cfc 253e eb88 52be
000001c0: 0d28 703e 0ef5 443e 61ef dd3e 109c 503d
000001d0: 4d38 13c0 4cbb 3a40 becc c3bf 9cbf cebd
000001e0: 7241 d7be 27e4 27bd 3bec ce3d f7f5 10c0
000001f0: bfb3 3a40 f165 d2bf 4647 3c3e db5d 163d
00000200: 0a7b d93d 329e 993c 89ee 91be 1c82 59bd
00000210: 5ce6 613e b171 87bc 07bc 03be 7142 a2bd
00000220: 43c1 243c 8934 423e 6d2e ea3b a44f 88bd
00000230: 91c1 d23c b638 d1bd 7e2f 53bb 1c53 c33d
00000240: ee7c 663e dffc fe3d 1430 fabd d357 203c
00000250: 4d4d 98ba a68d 85bf 7e49 a63f b15c a43e
00000260: 23da ad3e 2e23 23bf a6ae 753f 930a a43e
00000270: 494b 1abe 5eb5 393f fb74 5b3e 6975 243e
00000280: 7fb9 4cbf 12d6 babe 92be 883d 5096 a6be
00000290: a05c 0b3e 3f94 02be bac6 6e3d db39 40bf
000002a0: d1b3 09bf df1c 2a3f c497 27bf a687 a2be
000002b0: 0ff2 943e b22d c3bd c3d9 053c 5f48 0e3e
000002c0: 64fc f4bd 1a8b e83d 99f3 c03c 1668 053e
000002d0: ca2b 9e3d 74cb f13c 4508 523d ff43 90bc
000002e0: c08e 2b3e a0a3 01be 6596 89bd 7032 a8bd
000002f0: 9bc3 b8bd abf8 553e df3a f3bc b5ad 45bc
00000300: 5f54 34be c9a7 c3be 6829 ddbe a1a4 07be
00000310: df2c c63e e630 ed3e 1097 bc3c 1fc6 743d
00000320: fa66 62be 4707 60be 182e 3fbf d52c e1be
00000330: e83a 69bf 712f 55be 7579 d2bc 84f6 2abe
00000340: c50d cfbc 0ddd 17bf b608 07bf 7a94 74bf
00000350: b638 203c 56a9 acbe 6fd2 d5bd 0843 983d
00000360: c7b3 15bc aef8 99bd 8b5a d1bc 693f 743b
00000370: 6e88 bfbd c15a c8bc 9515 b8ba 207f 3ebc
00000380: d796 acba 02bc 533c 3e90 19bb ad37 cbbd
00000390: adbb 1f3d f4f5 243c 28c6 8fbd d583 dbbd
000003a0: 1d78 093d c1f1 e4bb fdd0 2e3b 456b 873e
000003b0: e3d0 953f 9f7a 88bf ed87 dcbd 7286 9cbf
000003c0: ac04 1040 d125 7bbd 8c73 e3be dcaf 91be
000003d0: 4254 5dbd 42f5 9e3d 7dfb 803e 2131 113f
000003e0: 0c97 6e3e f782 0e3e 8b44 c43e c67a c4bd
000003f0: 2415 2e3e 4993 db3e 5608 f33e f190 b0bd

critic.0.bias f4 [64]
-0.090211086 -0.2385175 0.19760448 0.41598225 -0.16245939 -0.04269141 0.00410604 -0.10787567
0.15829523 -0.1471297 0.09918923 -0.43070167 0.095167205 0.088791184 -0.27214843 0.367712
-0.39746752 -0.1127037 0.39372152 -0.04963722 -0.3549562 -0.1753601 0.262392 -0.18009283
0.24755318 -0.050054897 -0.37257653 0.014917182 0.14070176 0.18874331 0.49858546 -0.13469565
-0.1289456 0.18083729 0.044654697 -0.34269902 -0.06393808 0.08769929 0.22615783 0.23862234
0.39008355 0.082544185 -0.04042708 -0.08010626 -0.051094394 -0.17582487 -0.20120561 0.19824171
0.2388794 -0.28710863 -0.12022651 0.10062505 0.024499515 0.23084258 0.38306996 0.04510773
0.11235867 -0.031071533 -0.33805636 -0.17962371 -0.16293052 -0.19710794 0.026807426 -0.081222035
00000000: 97c0 b8bd ee3d 74be d458 4a3e a0fb d43e
00000010: c15b 26be 30dd 2ebd f68b 863b ebed dcbd
00000020: 2518 223e 2ba9 16be b923 cb3d ee84 dcbe
00000030: 06e7 c23d 27d8 b53d 0a57 8bbe bf44 bc3e
00000040: dd80 cbbe 33d1 e6bd de95 c93e 6650 4bbd
00000050: d2bc b5be 9991 33be 3f58 863e 416a 38be
00000060: 957e 7d3e 5d06 4dbd 5ac2 bebe 3267 743c
00000070: 1f14 103e ed45 413e 9846 ff3e a8ed 09be
00000080: 510a 04be 692d 393e d8e7 363d 3f76 afbe
00000090: f8f1 82bd af9b b33d eb95 673e 6a59 743e
000000a0: 08b9 c73e ed0c a93d de96 25bd c00e a4bd
000000b0: 5b48 51bd 6f0b 34be d808 4ebe e0ff 4a3e
000000c0: cd9c 743e e7ff 92be 5139 f6bd 8214 ce3d
000000d0: 35b3 c83c ff61 6c3e bf21 c43e e2c2 383d
000000e0: 4d1c e63d ba89 febc b915 adbe 47ef 37be
000000f0: 42d7 26be aad6 49be 3f9b db3c bd57 a6bd

critic.2.weight f4 [64, 64]
0.018128863 0.16345394 0.012725729 -0.11578917 -0.014591431 -0.013242665 0.04175014 -0.07413914
-0.2607488 -0.036040697 -0.17731844 -0.03264931 -0.031454075 0.063590504 0.121597655 0.054987367
0.050843943 0.06183852 0.08095038 0.068527915 0.13902591 0.028426683 -0.17803653 0.0366889
-0.1657111 -0.04835342 0.25262025 -0.10076721 -0.059295755 0.005604201 0.057144605 -0.055668525
-0.018036865 0.006777112 -0.11530557 0.10366122 0.031158844 0.048515026 -0.01814156 -0.09090229
-0.14549291 -0.06930463 0.10189618 0.12890145 -0.018685097 -0.008205978 -0.073163316 -0.11825116
-0.053253893 -0.049931604 0.080046885 -0.16787492 -0.10258826 0.06355093 0.08078795 -0.02010253
-0.08079809 -0.053078003 0.008300526 -0.006796653 0.07223019 -0.064107336 -0.047883082 -0.11302517
-0.07672569 -0.11962554 0.046304196 -0.24230172 -0.0753569 -0.113500796 0.08968849 -0.054285187
0.15419182 -0.0076491106 0.096135356 -0.0043772995 -0.1694555 0.09147079 -0.1284653 -0.08537182
0.100345224 -0.08007042 -0.109422 0.12730697 -0.065575875 -0.052112218 -0.11723111 -0.078406364
-0.054687116 -0.18559532 -0.14732502 0.058440834 -0.03948522 0.009830631 0.019932903 0.13467598
0.06039009 0.013799982 0.01593444 -0.067334354 -0.15532956 -0.22114643 0.022119543 -0.24937375
-0.20642936 0.029878112 -0.13577943 -0.10644999 -0.043661352 -0.006769964 -0.14619766 -0.25935316
-0.13468069 -0.108487636 0.051031794 0.014260984 -0.04281907 0.08435126 -0.11372487 -0.35014236
-0.022841198 0.068300135 0.07259242 -0.042990513 0.04191005 -0.088021755 -0.13420597 0.025177624
-0.15250565 -0.17104113 -0.17108358 -0.05917657 0.027680751 0.042515147 -0.05546684 -0.0065632258
0.18663763 -0.07148018 0.17988649 0.08161357 -0.04479032 0.07050565 0.009591185 -0.06727092
0.11591241 0.062310696 -0.05887566 -0.053094905 -0.031002775 0.092646465 -0.0020933775 0.035795357
-0.032542862 -0.01247635 -0.17823297 0.0046410025 0.05926852 -0.11212956 0.09772671 0.06006077
0.046757713 0.10198572 -0.012571993 -0.08703705 0.064784944 -0.12594299 -0.115645096 0.00713297
-0.102479205 -0.0028967278 0.0007773588 0.011341298 -0.08867473 -0.039484136 0.06705581 -0.09681376
0.05336299 -0.032642197 -0.018252093 -0.11148833 -0.06366947 0.06228267 -0.17131718 -0.0019463653
-0.021850247 0.11772528 -0.02626979 0.09803723 0.09947652 0.12690897 -0.06917027 -0.06312692
-0.10608127 -0.097679384 -0.122023985 -0.030756067 0.02188613 0.14655112 -0.10907009 -0.21541807
0.08440318 0.06001089 0.10496106 0.066532604 0.10873793 -0.113398954 -0.008992738 -0.0470084
-0.049098026 -0.08958543 -0.13810939 -0.040120583 0.16551298 -0.17319444 -0.028481193 -0.23181583
-0.021136375 -0.13031597 0.20033172 -0.109793484 0.035269022 -0.17423134 0.0004126475 -0.16226448
0.035074685 0.049160384 -0.10287832 -0.00065231754 -0.035287056 -0.055248484 -0.09222654 0.08046014
-0.19923404 -0.05762888 0.039484743 0.047615614 -0.05917698 -0.07426364 -0.055982217 0.024586547
-0.08334605 -0.05992305 -0.07717568 -0.050508842 0.0038411138 -0.064344704 0.026868023 -0.58976406
-0.012630297 -0.09197675 0.07558051 -0.09063044 -0.24905579 -0.022433443 0.02050464 0.006217434
00000000: fb82 943c 7860 273e 937f 503c df22 edbd
00000010: e610 6fbc c3f7 58bc 3202 2b3d 43d6 97bd
00000020: de80 85be 699f 13bd f792 35be 48bb 05bd
00000030: fdd5 00bd bd3b 823d 3108 f93d 6f3a 613d
00000040: bd41 503d 634a 7d3d 50c9 a53d 5d58 8c3d
00000050: cf5c 0e3e 13df e83c 354f 36be 1a47 163d
00000060: 2cb0 29be 3c0e 46bd 7157 813e 0a5f cebd
00000070: 1be0 72bd 72a3 b73b 7610 6a3d ae04 64bd
00000080: 0cc2 93bc 8912 de3b 5425 ecbd 554c d43d
00000090: d540 ff3c b1b7 463d 9c9d 94bc fb2a babd
000000a0: 18fc 14be 96ef 8dbd f2ae d03d befe 033e
000000b0: 7d11 99bc 5e72 06bc a6d6 95bd aa2d f2bd
000000c0: c120 5abd 1585 4cbd 9fef a33d 67e7 2bbe
000000d0: cb19 d2bd fd26 823d 2774 a53d 10ae a4bc
000000e0: 7879 a5bd 5268 59bd eefe 073c 75b6 debb
000000f0: 6ced 933d b54a 83bd 0d21 44bd be79 e7bd
00000100: 5c22 9dbd 3cfe f4bd 78a9 3d3d f11d 78be
00000110: b854 9abd 1b73 e8bd 99ae b73d 255a 5ebd
00000120: 76e4 1d3e 64a5 fabb 9de2 c43d 736f 8fbb
00000130: be85 2dbe 0a55 bb3d 688c 03be 6cd7 aebd
00000140: cc81 cd3d f6fb a3bd a418 e0bd c25c 023e
00000150: a54c 86bd 9f73 55bd dd16 f0bd 8493 a0bd
00000160: 99ff 5fbd b30c 3ebe 5fdc 16be a85f 6f3d
00000170: 41bb 21bd a810 213c 544a a33c 80e8 093e
00000180: 995b 773d 5219 623c f188 823c 98e6 89bd
00000190: b60e 1fbe 3674 62be 0b34 b53c d55b 7fbe
000001a0: 3862 53be f1c2 f43c c309 0bbe 7402 dabd
000001b0: 3fd6 32bd 93d6 ddbb d7b4 15be f0c9 84be
000001c0: bce9 09be c42e debd b706 513d e7a6 693c
000001d0: 0d63 2fbd 5ac0 ac3d 96e8 e8bd dc45 b3be
000001e0: 771d bbbc f1e0 8b3d 56ab 943d d216 30bd
000001f0: dfa9 2b3d c044 b4bd 4a6d 09be 4e41 ce3c
00000200: 712a 1cbe 6825 2fbe 8930 2fbe 2263 72bd
00000210: bec2 e23c 5d24 2e3d 3231 63bd 5410 d7bb
00000220: ef1d 3f3e 3364 92bd 2a34 383e 0425 a73d
00000230: 0e76 37bd 4465 903d 5824 1d3c 56c5 89bd
00000240: 7c63 ed3d 8039 7f3d 9b27 71bd 0b7a 59bd
00000250: 88f9 fdbc 6ebd bd3d 0c31 09bb 279e 123d
00000260: aa4b 05bd 9b69 4cbc b482 36be 8d13 983b
00000270: 8cc3 723d 2fa4 e5bd f124 c83d 4802 763d
00000280: 0485 3f3d e4dd d03d c3fa 4dbc 7b40 b2bd
00000290: f8ad 843d 33f7 00be 56d7 ecbd b0bb e93b
000002a0: 9ee0 d1bd 07d7 3dbb aac7 4b3a dad0 393c
000002b0: 199b b5bd 1eba 21bd 8e54 893d 4b46 c6bd
000002c0: 2793 5a3d d3b3 05bd 6a85 95bc fe53 e4bd
000002d0: 2465 82bd 1d1c 7f3d c56d 2fbe 2f1d ffba
000002e0: 4aff b2bc f419 f13d be33 d7bc bec7 c83d
000002f0: 59ba cb3d 6df4 013e 24a9 8dbd b048 81bd
00000300: 2341 d9bd 210c c8bd b6e7 f9bd 26f4 fbbc
00000310: 8b4a b33c 7f11 163e 2460 dfbd 8e96 5cbe
00000320: 93db ac3d fbcd 753d d3f5 d63d 3f42 883d
00000330: feb1 de3d b63d e8bd 4756 13bc e18b 40bd
00000340: 031b 49bd 9178 b7bd 8c6c 0dbe 7b55 24bd
00000350: 3c7c 293e e259 31be 6451 e9bc 2161 6dbe
00000360: 3126 adbc 8d71 05be c223 4d3e 68db e0bd
00000370: 4076 103d b369 32be 9c58 d839 a928 26be
00000380: 79aa 0f3d 665c 493d deb1 d2bd 4a00 2bba
00000390: 2989 10bd 3c4c 62bd 45e1 bcbd 49c8 a43d
000003a0: 0204 4cbe 430c 6cbd c1ba 213d 9708 433d
000003b0: 9063 72bd 8917 98bd 9c4d 65bd ba69 c93c
000003c0: 55b1 aabd df71 75bd 480e 9ebd 5ce2 4ebd
000003d0: 32bb 7b3b 28c7 83bd 541a dc3c c7fa 16bf
000003e0: 4eef 4ebc 4e5e bcbd f4c9 9a3d 749c b9bd
000003f0: 7b08 7fbe 57c6 b7bc 59f9 a73c 9ebb cb3b

critic.2.bias f4 [64]
0.012755271 -0.12381014 -0.15481569 -0.047126956 0.060796313 0.048225746 -0.14011882 -0.0901909
0.03022339 0.20191434 -0.015969697 0.09520332 -0.027740004 -0.11257496 0.07317769 -0.17407979
-0.1254615 0.07964421 -0.07269839 0.16824013 -0.10763755 -0.0527418 -0.18106036 -0.03304476
0.11097648 0.053431097 -0.064921536 0.2496785 0.059550095 -0.2902608 -0.22746147 0.04425785
0.08487406 -0.07808477 0.10022186 0.014766651 -0.107925646 0.016021384 -0.022351407 -0.02019624
-0.0768011 -0.08653889 0.11410969 0.081299566 -0.043652464 -0.0008254247 -0.083988965 0.026020365
-0.34201172 0.062826104 -0.32100448 -0.028612737 0.0054421723 0.014035041 -0.1382249 0.0002055027
-0.102121666 0.00096188905 -0.13950452 0.03383029 0.059874654 -0.023001494 -0.00057171 -0.011217589
00000000: 7cfb 503c 2c90 fdbd 0188 1ebe 3208 41bd
00000010: 8e05 793d 5c88 453d 4f7b 0fbe 02b6 b8bd
00000020: 0b97 f73c a2c2 4e3e e2d2 82bc f5f9 c23d
00000030: 013f e3bc b38d e6bd 2fde 953d f941 32be
00000040: fb78 00be 811c a33d e5e2 94bd 2447 2c3e
00000050: 1371 dcbd c907 58bd e367 39be f159 07bd
00000060: a347 e33d 91da 5a3d 95f5 84bd b9ab 7f3e
00000070: cdea 733d 109d 94be a9eb 68be b847 353d
00000080: 73d2 ad3d e8ea 9fbd 1e41 cd3d d3ef 713c
00000090: 1f08 ddbd 473f 833c 4c1a b7bc 9672 a5bc
000000a0: e549 9dbd 4d3b b1bd 57b2 e93d 6380 a63d
000000b0: edcc 32bd 5061 58ba 6802 acbd a928 d53c
000000c0: 291c afbe f9aa 803d b35a a4be 4265 eabc
000000d0: 4054 b23b 3bf3 653c d48a 0dbe 367c 5739
000000e0: 2a25 d1bd 4827 7c3a 46da 0ebe a191 0a3d
000000f0: 203f 753d a16d bcbc cfde 15ba fac9 37bc

critic.4.weight f4 [1, 64]
0.0041967407 0.069918446 0.057386715 0.063993394 0.09740703 -0.08823654 0.15158834 0.14390217
0.06447239 0.12369187 0.004898116 0.07393163 -0.018020976 0.04177845 0.038463328 0.089884415
-0.10535569 -0.096245535 0.1010954 0.13177617 0.07161014 -0.20064954 0.04701409 0.027931878
-0.070799805 0.070105836 -0.0036811023 0.12952721 -0.14981185 -0.18412718 0.07125505 -0.10245734
-0.3662955 -0.12166934 -0.34844577 -0.071815066 0.10890484 0.083511025 0.027240368 0.06288387
0.030512366 0.10515104 -0.10535953 0.12570328 0.10308658 -0.055811882 -0.046375386 0.11720496
0.14249827 0.10228962 0.11274349 0.1354418 -0.15196028 -0.5869023 -0.06785248 -0.08811776
-0.66205037 0.13015337 0.030627321 0.09316378 0.121852875 0.078497626 0.13120466 -0.09457644
00000000: d084 893b 6731 8f3d 550e 6b3d f80e 833d
00000010: 567d c73d 5cb5 b4bd f939 1b3e 175b 133e
00000020: 1a0a 843d 2a52 fd3d 6080 a03b 7769 973d
00000030: baa0 93bc e11f 2b3d b98b 1d3d 5215 b83d
00000040: b9c4 d7bd 611c c5bd 1b0b cf3d 55f0 063e
00000050: 56a8 923d 1377 4dbe d991 403d 65d1 e43c
00000060: 7dff 90bd a693 8f3d a63e 71bb c8a2 043e
00000070: 4768 19be d68b 3cbe 2bee 913d 27d5 d1bd
00000080: 158b bbbe c62d f9bd 7c67 b2be c713 93bd
00000090: 8009 df3d d407 ab3d 3127 df3c 42c9 803d
000000a0: 12f5 f93c 6e59 d73d bdc6 d7bd 5cb8 003e
000000b0: 0f1f d33d 009b 64bd 1ef4 3dbd 2709 f03d
000000c0: 11eb 113e 387d d13d 0fe6 e63d 41b1 0a3e
000000d0: 7a9b 1bbe 3b3f 16bf 3ef6 8abd 1677 b4bd
000000e0: 227c 29bf ed46 053e 26e6 fa3c a7cc be3d
000000f0: 008e f93d 5dc3 a03d 845a 063e 4bb1 c1bd

exp_avg f4 [6]
-0.00048104094 0.00011035761 0.00042737287 0.00061723683 0.00025412947 8.675819e-05
00000000: 3934 fcb9 ca6f e738 0411 e039 10ce 213a
00000010: ae3c 8539 f3f1 b538

exp_avg_sq f4 [6]
2.234463e-05 9.5258416e-05 3.463187e-05 1.721274e-05 1.4092354e-05 4.5771844e-07
00000000: ba70 bb37 79c5 c738 b041 1138 1464 9037
00000010: 336e 6c37 58bc f534

exp_avg f4 [64, 43]
-3.622054e-05 3.5393132e-05 8.07644e-05 -0.00011748261 1.5405201e-05 9.706669e-05 1.1661323e-05 -2.6765385e-05
-8.994381e-06 0.00037490303 -0.00013715723 -0.00015816149 -9.998256e-05 8.031269e-05 0.000203602 -0.00010137674
-4.894547e-05 -1.1169508e-05 0.009610518 -0.00031832652 -2.7663252e-06 2.988884e-05 3.6170535e-05 1.2124418e-06
-1.2776413e-05 -1.0852537e-05 -7.4360884e-07 1.7098557e-05 2.531016e-05 4.6868286e-07 1.0324535e-05 2.3531235e-05
8.9574814e-07 0.00012555589 2.3227529e-05 0.000106864514 3.9180606e-05 1.0324535e-05 2.3531235e-05 8.9574814e-07
6.908222e-06 -3.801849e-06 -2.164315e-05 0.00019882568 -2.1076949e-05 -0.00043882357 -2.0246293e-06 0.00010905616
0.0001319148 0.0002695997 -0.00021176835 -0.00017783574 -0.000107056134 0.00017747084 7.101606e-05 0.00049163366
-0.00021622729 -0.0008972002 2.154962e-05 0.00024648913 0.0003040752 0.002921584 -0.00058023684 1.7603938e-05
-1.4231062e-05 -1.8734616e-05 -5.0956396e-07 -3.6326248e-05 2.4303918e-06 -3.6470815e-06 -5.055708e-05 -1.6305556e-05
-4.154658e-06 3.6875251e-06 -1.6993832e-05 1.7745444e-05 -6.4901906e-05 1.47894725e-05 -0.000100773985 -6.334465e-05
3.6875251e-06 -1.6993832e-05 1.7745444e-05 -2.5610005e-05 -1.9663081e-07 0.00013568712 0.00011006896 -7.585786e-05
-0.0001421904 -2.679083e-05 3.9429222e-05 0.00014347004 4.5546985e-05 -5.95391e-05 9.8363904e-05 -4.1222527e-05
2.7076323e-05 0.0006592086 0.00026412314 -0.00018348321 -0.00027263857 -5.937671e-05 0.00010501292 0.00024323341
0.002453417 0.0006294162 2.50863e-05 -1.7190478e-05 -4.6073525e-05 -3.304096e-08 -2.3796463e-05 1.2484539e-05
-2.6789314e-06 -4.0987947e-05 -3.3587246e-05 -2.7114154e-06 -7.000116e-06 1.3501876e-06 1.1136452e-06 -4.75185e-05
3.1017178e-05 -1.7879629e-05 3.986766e-07 -7.000116e-06 1.3501876e-06 1.1136452e-06 1.7522194e-05 -7.3304335e-07
3.657806e-05 0.000106866944 -9.868465e-05 -0.00018297599 0.00014554473 9.845497e-06 6.9058706e-06 -0.00014027013
-3.2233667e-05 5.5137003e-05 9.976788e-05 -7.801711e-05 -4.006584e-06 0.00024770625 -0.00027666293 -0.00038441614
0.00031300634 3.4499255e-05 6.765734e-05 -0.0038384355 0.0031099387 3.8310895e-06 -6.0711714e-06 -5.304441e-05
-6.839829e-07 -2.6559166e-05 1.24986655e-05 -1.3532617e-06 -3.261006e-05 -4.054713e-05 -2.037548e-06 -1.868364e-05
-1.8000277e-05 -3.4279012e-06 -4.0151524e-05 1.8713308e-05 -2.050799e-05 1.1154396e-05 -1.868364e-05 -1.8000277e-05
-3.4279012e-06 1.6655775e-05 -1.0817353e-05 -5.5333967e-05 1.4203624e-05 5.1934476e-06 -1.5623815e-05 2.6955186e-05
1.759393e-05 3.9113966e-05 -2.3164966e-05 -9.750248e-05 0.00020252378 0.00021934485 -9.128363e-05 7.845946e-06
1.2963887e-05 2.9392599e-05 9.380756e-05 -2.9335977e-05 1.5314517e-05 6.857293e-05 0.0025555876 0.0007408487
6.2458257e-06 1.1711083e-05 -1.5447724e-05 4.4073893e-08 -9.223703e-06 9.068516e-06 -3.0352308e-07 2.498322e-06
-6.387223e-06 -2.5954128e-07 1.2814802e-06 -5.670857e-07 -1.2858847e-07 -1.7249133e-05 4.833764e-07 3.0560124e-05
4.0076015e-06 1.2814802e-06 -5.670857e-07 -1.2858847e-07 -2.5680298e-05 3.4821223e-05 -4.721747e-05 0.0004061953
-0.00039394147 -0.0009490855 0.00053062954 8.329977e-05 -0.00011660135 -0.000288584 0.00021024003 1.3101185e-05
-0.00044594257 0.00015886326 0.0004486265 0.0006862645 -0.000728499 -0.0018978269 0.0010157238 0.00023065445
-0.00013996268 -0.019695075 0.0013647472 -1.8660295e-06 -3.5889047e-05 -0.00010655458 -1.7933302e-06 -8.5487074e-05
2.8871926e-05 -6.982796e-06 -0.00012135583 -7.766697e-05 -8.7740445e-06 -1.1521744e-05 -5.7317575e-06 1.1197626e-05
-7.372086e-05 2.6926366e-05 -8.7235174e-05 -3.8759674e-05 -1.1521744e-05 -5.7317575e-06 1.1197626e-05 1.2576922e-05
00000000: 82eb 17b8 1673 1438 0f60 a938 ff60 f6b8
00000010: 6b3a 8137 4890 cb38 00a5 4337 3a86 e0b7
00000020: 92e6 16b7 a28e c439 ddd1 0fb9 27d8 25b9
00000030: baad d1b8 8c6d a838 ff7d 5539 399a d4b8
00000040: cc4a 4db8 ac64 3bb7 6f75 1d3c 10e5 a6b9
00000050: 1ba5 39b6 ccb9 fa37 d1b5 1738 2fbb a235
00000060: 475a 56b7 4b13 36b7 699c 47b5 df6e 8f37
00000070: 2851 d437 489f fb34 8a37 2d37 f164 c537
00000080: 5873 7035 a7a7 0339 bdd8 c237 731c e038
00000090: db55 2438 8a37 2d37 f164 c537 5873 7035
000000a0: 2dcd e736 4523 7fb6 508e b5b7 dd7b 5039
000000b0: 67ce b0b7 e711 e6b9 dede 07b6 15b5 e438
000000c0: 9c52 0a39 0f59 8d39 220e 5eb9 6b79 3ab9
000000d0: 5383 e0b8 7717 3a39 75ee 9438 fae0 003a
000000e0: 12bb 62b9 1632 6bba 75c5 b437 363b 8139
000000f0: 486c 9f39 0c78 3f3b 091b 18ba 2bac 9337
00000100: f2c1 6eb7 4828 9db7 f8c8 08b5 035d 18b8
00000110: d019 2336 62c0 74b6 400d 54b8 eac7 88b7
00000120: 3e68 8bb6 3377 7736 fa8d 8eb7 0ddc 9437
00000130: f21b 88b8 4d20 7837 9f56 d3b8 e6d7 84b8
00000140: 3377 7736 fa8d 8eb7 0ddc 9437 11d5 d6b7
00000150: 7721 53b4 3c47 0e39 d3d4 e638 e115 9fb8
00000160: f218 15b9 dfbc e0b7 ce60 2538 7270 1639
00000170: b409 3f38 9fb9 79b8 b848 ce38 5ae6 2cb8
00000180: f621 e337 bece 2c3a 027a 8a39 6665 40b9
00000190: eef0 8eb9 420b 79b8 623a dc38 790c 7f39
000001a0: 82c9 203b 68ff 243a 6b70 d237 4534 90b7
000001b0: 123f 41b8 ebe8 0db3 849e c7b7 b074 5137
000001c0: b1c7 33b6 79ea 2bb8 08e0 0cb8 c3f5 35b6
000001d0: 8ae2 eab6 1838 b535 8f78 9535 9a4e 47b8
000001e0: 7118 0238 36fc 95b7 b209 d634 8ae2 eab6
000001f0: 1838 b535 8f78 9535 a0fc 9237 5bc6 44b5
00000200: 656b 1938 c11d e038 ebf4 ceb8 3edd 3fb9
00000210: 5e9d 1839 162e 2537 fab8 e736 7a15 13b9
00000220: a332 07b8 e842 6738 793a d138 1e9d a3b8
00000230: 4b70 86b6 92de 8139 120d 91b9 768b c9b9
00000240: 001b a439 4bb3 1038 42e3 8d38 438e 7bbb
00000250: 1dd0 4b3b cf8c 8036 f7b6 cbb6 007c 5eb8
00000260: f29a 37b5 60cb deb7 5cb1 5137 b8a1 b5b5
00000270: c9c6 08b8 2611 2ab8 cfbc 08b6 d0ba 9cb7
00000280: 4dff 96b7 e50a 66b6 5f68 28b8 86fa 9c37
00000290: 9308 acb7 c423 3b37 d0ba 9cb7 4dff 96b7
000002a0: e50a 66b6 01b8 8b37 2d7c 35b7 6516 68b8
000002b0: 1a4c 6e37 6043 ae36 e30f 83b7 d21d e237
000002c0: ad96 9337 4d0e 2438 6352 c2b7 3f7a ccb8
000002d0: 905c 5439 efff 6539 876f bfb8 15a2 0337
000002e0: 787f 5937 2090 f637 8dba c438 8816 f6b7
000002f0: ad77 8037 d0ce 8f38 a57b 273b 8435 423a
00000300: 3c93 d136 b87a 4437 bc95 81b7 c24b 3d33
00000310: 81bf 1ab7 fb24 1837 e5f3 a2b4 d8a8 2736
00000320: d451 d6b6 1557 8bb4 53ff ab35 d539 18b5
00000330: 2112 0ab4 3bb2 90b7 60c1 0135 af2d 0038
00000340: 0979 8636 53ff ab35 d539 18b5 2112 0ab4
00000350: 056c d7b7 010d 1238 5f0b 46b8 9cf6 d439
00000360: ee89 ceb9 0dcc 78ba f219 0b3a 39b1 ae38
00000370: e087 f4b8 174d 97b9 e173 5c39 29cd 5b37
00000380: 66cd e9b9 8894 2639 a135 eb39 6ee6 333a
00000390: bef8 3eba 81c0 f8ba 0922 853a d5db 7139
000003a0: f2c2 12b9 9157 a1bc 51e1 b23a 4974 fab5
000003b0: 9287 16b8 0e76 dfb8 5bb2 f0b5 8647 b3b8
000003c0: fd31 f237 c34d eab6 6a80 feb8 23e1 a2b8
000003d0: 3c34 13b7 844d 41b7 6c53 c0b6 70dd 3b37
000003e0: 969a 9ab8 eedf e137 07f2 b6b8 e291 22b8
000003f0: 844d 41b7 6c53 c0b6 70dd 3b37 7801 5337
