2026-01-29_07-44-49_Fase2_Empuje_V1/model_1600.pt (torch, 189045 bytes, 36 tensors)

std f4 [6]
0	0x3e9abf85	0.30224243
1	0x3ea4c5c8	0.32182145
2	0x3e5d33f7	0.21601854
3	0x3f23e516	0.6402143
4	0x3f25d072	0.6477119
5	0x40107ec1	2.2577364

actor.0.weight f4 [64, 43]
0	0x3cd60235	0.0261241
1	0x3e9f3b42	0.31099898
2	0xbd84603c	-0.06463668
3	0x3d7a6c93	0.0611387
4	0xbe8d6602	-0.27616888
5	0xbeaf476d	-0.3423418
6	0xbda432ce	-0.08017503
7	0xbe5eb623	-0.21749167
8	0x3c43d0aa	0.011951605
9	0x3d4b781a	0.049675085
10	0xbc8e9680	-0.017405748
11	0x3db8f531	0.090311415
12	0x3e374d78	0.17900646
13	0x3e47f3d1	0.19526602
14	0xba64da22	-0.0008730014
15	0xbdd578a3	-0.104234
16	0xbe14db33	-0.14536743
17	0xbe8627db	-0.26202282
18	0xbceb4b23	-0.028722351
19	0x3af47c06	0.0018652685
20	0x3f4931f9	0.7859188
21	0x3f292ffe	0.66088855
22	0x3e3d886a	0.18509069
23	0xbd50ba7a	-0.050959088
24	0xbf06fc77	-0.5272898
25	0xbeb3766e	-0.35051292
26	0xbe209e0b	-0.15685289
27	0xbe75840d	-0.23976155
28	0x3cde77bd	0.027156705
29	0xbe8a5e76	-0.27025193
30	0x3e98b711	0.2982717
31	0x3d94f199	0.072726436
32	0x3ec82af1	0.39095262
33	0xbf0b5cb4	-0.5443833
34	0x3cd2ba09	0.025723474
35	0x3e58d28e	0.2117407
36	0x3e8b9cf4	0.27268183
37	0x3e902a4f	0.2815728
38	0x3e623646	0.22091016
39	0x3e6396c4	0.22225481
40	0xbecf5508	-0.4049456
41	0xbe2f6122	-0.17126897
42	0x3ebc7343	0.36806688
43	0xbd2df991	-0.042474333
44	0x3e66564b	0.22493856
45	0x3e9d2286	0.30690402
46	0x3f2313f3	0.63702315
47	0xbf14ee5f	-0.58176225
48	0xbe16b346	-0.14716825
49	0x3dd28dbb	0.10280939
50	0xbf3bacdf	-0.73310655
51	0xbe1c397c	-0.15256304
52	0xbdd06a0f	-0.10176479
53	0x3df06a64	0.117390424
54	0xb9263376	-0.00015850164
55	0x3e0aae0e	0.13542959
56	0xbdacfbc9	-0.08446462
57	0xbc903d31	-0.017607303
58	0x3ef248d2	0.47321182
59	0xbf231264	-0.63699937
60	0xbe384edb	-0.17998831
61	0xbd209895	-0.039208014
62	0x3c403ff4	0.011733998
63	0xbf237567	-0.63851017
64	0x3f668f8f	0.90062803
65	0x3eba2005	0.36352554
66	0x3e8afd12	0.27146202
67	0xbf490995	-0.78530246
68	0xbf5c2969	-0.86000687
69	0x3d85ee4c	0.06539592
70	0xbdd4a220	-0.103824854
71	0x3dd8551a	0.10563107
72	0x3e9aea9b	0.30257115
73	0xbe883716	-0.26604527
74	0xbd8da2c7	-0.06915813
75	0x3ed28cb6	0.4112298
76	0xbe21ceb7	-0.15801512
77	0xbeb59fdf	-0.35473534
78	0x3e9d401c	0.30712974
79	0x3ece19ec	0.40254152
80	0xbe6167aa	-0.22012201
81	0xbc98129e	-0.018563565
82	0x3f1c5ab4	0.610759
83	0x3df1497f	0.117815964
84	0x3f2af00a	0.6677252
85	0xbdb4348e	-0.087990865
86	0xbec7bb1c	-0.3900994
87	0xbe23405c	-0.1594252
88	0xbe7d1c4b	-0.24717824
89	0x3d1a4f74	0.03767343
90	0x3aebcc67	0.0017989994
91	0xbea405b0	-0.3203559
92	0x3ea60ea1	0.32433036
93	0xbd8c9a0e	-0.06865321
94	0xbec0a5d5	-0.3762652
95	0xbe4bc4d6	-0.19899306
96	0x3d059a28	0.032617718
97	0x3d60d4dd	0.054890502
98	0xbe221c0d	-0.15831013
99	0xbe00cc05	-0.12577827
100	0xbea057ab	-0.31316885
101	0x3decf08c	0.11569318
102	0xbca391ed	-0.019967044
103	0xbe8e3f35	-0.27782598
104	0x3a09d7e2	0.00052583043
105	0x3ae94ac8	0.0017798776
106	0xbebc1f1a	-0.3674248
107	0xbeb157cc	-0.34637296
108	0xbcc65ea1	-0.024215044
109	0xbeb3b7cc	-0.35101163
110	0xbdba4a6d	-0.09096227
111	0xbe64292f	-0.22281335
112	0x3d862652	0.06550278
113	0xbed477ff	-0.414978
114	0xbdcd93d2	-0.1003796
115	0xbd9aa54e	-0.075510606
116	0xbe57e475	-0.21083243
117	0x3e82f97f	0.25580975
118	0x3efdf780	0.4960289
119	0xbe8321da	-0.25611764
120	0xbd3ecf8a	-0.046584643
121	0xbd9c685e	-0.07637094
122	0xbf0f12ed	-0.55888253
123	0xbeacdf68	-0.33764195
124	0x3e927b77	0.2860982
125	0x3ef30ccc	0.474707
126	0xbf184036	-0.5947298
127	0xbd6de82d	-0.05808275
128	0x3eff645a	0.4988125
129	0xbc052f92	-0.008129017
130	0x3d87701b	0.06613179
131	0x3e2049b8	0.15653121
132	0xbef1a708	-0.47197747
133	0x3eb06d7f	0.3445854
134	0x3d8996bd	0.06718204
135	0x3d40780e	0.046989493
136	0xbe65e622	-0.2245107
137	0x3e4be290	0.19910645
138	0x3da04790	0.078261495
139	0xbdddcb3d	-0.1082978
140	0x3d985370	0.074377894
141	0xbd89cd0b	-0.06728562
142	0x3dbc2abb	0.09187838
143	0x3d4c2558	0.0498403
144	0xbe8a6942	-0.2703343
145	0x3e54fd39	0.20799722
146	0x3ded7444	0.115944415
147	0x3d29cdcc	0.04145603
148	0xba1cca44	-0.00059810677
149	0xbdd3f476	-0.103493616
150	0xbeb00562	-0.34379107
151	0xbdf9b005	-0.12191776
152	0x3e2ab9fb	0.16672508
153	0xbdfdf13f	-0.1239953
154	0x3e4d08a7	0.20022832
155	0xbe523dc6	-0.20531377
156	0xbbddb5e1	-0.0067660664
157	0x3cba4e51	0.022742422
158	0xbc1e20d3	-0.009651381
159	0xbd265f49	-0.040618215
160	0xbde88198	-0.11352843
161	0x3e970c01	0.29501346
162	0xbdb0cf83	-0.0863333
163	0xbd73c80f	-0.059516963
164	0xbd898e40	-0.06716585
165	0x3ca470f4	0.020073391
166	0xbce10eac	-0.027472816
167	0xbdf925e5	-0.12165431
168	0x3e9927c5	0.29913154
169	0x3de0f7c0	0.109847546
170	0xbdaeae34	-0.0852932
171	0xbee8d460	-0.4547453
172	0x3e453329	0.19257797
173	0xbf02c6a9	-0.5108438
174	0xbf0a0269	-0.5390993
175	0xbc3b3995	-0.011427303
176	0x3c34050d	0.010987532
177	0x3e960872	0.29303318
178	0x3e0fe81f	0.14053391
179	0x3e7e8ebc	0.24859136
180	0x3ea936e8	0.33049703
181	0x3dff32f1	0.12460888
182	0xbcf7d8f5	-0.03025482
183	0xbd86eaac	-0.06587729
184	0x3e28f898	0.16501081
185	0xbdc59c5a	-0.09648962
186	0xbd91bde5	-0.07116298
187	0x3d88fad0	0.06688464
188	0xbad0e4f4	-0.0015937374
189	0x3e4c3d84	0.19945341
190	0xbbad03e9	-0.005280007
191	0x3aa87e63	0.0012855049
192	0x3dc72089	0.097230025
193	0x3ea21e79	0.31663874
194	0xbbb8607b	-0.0056267357
195	0xbe81deb9	-0.25365236
196	0xbe30331c	-0.17206997
197	0xba1d4cb4	-0.00060005044
198	0xbd96c799	-0.07362289
199	0xbd7dda02	-0.061975487
200	0xbe2ed3b7	-0.1707295
201	0xbe358ff6	-0.17730698
202	0xbe3e617f	-0.1859188
203	0x3ea398c2	0.31952482
204	0xbe5c6a02	-0.21524814
205	0xbeb581ed	-0.35450688
206	0xbc54395e	-0.0129531305
207	0xbe655d6e	-0.22398922
208	0xbea91178	-0.3302114
209	0xbe87a61d	-0.26493922
210	0x3eb7b2ee	0.358787
211	0xbe0cb84e	-0.13742182
212	0x3e8678e2	0.262641
213	0xbf81d084	-1.0141759
214	0x3ea9eae3	0.33187017
215	0xbd9bc662	-0.07606198
216	0xbda51dc0	-0.08062315
217	0xbdbef5f0	-0.093242526
218	0xbd2bd939	-0.041955207
219	0x3e5462c8	0.20740807
220	0xbde0a706	-0.10969357
221	0x3e99d917	0.3004844
222	0xbf5faab1	-0.8736983
223	0x3d8e9f22	0.06963946
224	0xbd8bfc67	-0.06835251
225	0x3db035db	0.08604022
226	0xbc4da469	-0.0125514055
227	0xbe16bb7b	-0.14719956
228	0xbe984f16	-0.29747838
229	0xbe80920f	-0.25111434
230	0xbe67fa0d	-0.2265398
231	0x3ee8e1b7	0.45484707
232	0x3e1c1205	0.15241249
233	0x3d0abda3	0.033872258
234	0xbc062a7d	-0.008188841
235	0xbe3c3f34	-0.18383485
236	0xbf0cc72a	-0.549914
237	0x3b39dc71	0.0028360153
238	0x3eb6e054	0.35718024
239	0xbe2e114b	-0.16998784
240	0xbeadd5ed	-0.33952275
241	0xbe81cdb0	-0.2535224
242	0xbe4106e5	-0.18850286
243	0xbe1783fc	-0.14796442
244	0xbe1131f4	-0.14179212
245	0xbe594586	-0.21217927
246	0xbe1c10f0	-0.15240836
247	0x3e61d63c	0.2205438
248	0xbc9cccc0	-0.019140601
249	0x3e725427	0.23664914
250	0xbd39c57a	-0.045354344
251	0xbeef99d4	-0.4679705
252	0xbe05e56e	-0.13075802
253	0xbdffc459	-0.12488622
254	0x3dfd4be2	0.12367989
255	0xbf080c11	-0.5314341

actor.0.bias f4 [64]
0	0x3d041da8	0.032254845
1	0x3e794e8c	0.2434637
2	0x3d847619	0.06467838
3	0xbde36241	-0.11102725
4	0x3ca6d586	0.020365488
5	0xbd97c790	-0.074111104
6	0x3d9f5708	0.07780272
7	0x3a639031	0.0008680849
8	0xbdb19853	-0.08671632
9	0x3dce2a18	0.100666225
10	0xbed01e9e	-0.4064836
11	0x3e4c57e9	0.1995541
12	0xbe88458d	-0.26615563
13	0xbe5cf30b	-0.21577089
14	0x3d20f2c5	0.039294023
15	0xbbcd4618	-0.0062644593
16	0xba8ba2be	-0.0010653359
17	0xbdbe227e	-0.092839226
18	0xbeaf31dd	-0.3421773
19	0xbd9cb07c	-0.07650849
20	0xbed724d1	-0.42020276
21	0x3cf3c890	0.029758722
22	0xbe3c7502	-0.1840401
23	0xbe5f94ed	-0.21834154
24	0xbe3b46e1	-0.18288757
25	0x3d9c3620	0.07627511
26	0xbe0d3203	-0.13788609
27	0xbd5b57eb	-0.053550642
28	0x3c9a42fa	0.018830765
29	0xbea42e0e	-0.32066387
30	0x3e9e035a	0.30861932
31	0x3db63508	0.08896834
32	0xbd8647f9	-0.065566964
33	0x3dfb68b5	0.12275831
34	0xbe7bb63b	-0.24581234
35	0x3c78e797	0.015191934
36	0x3e1c9d84	0.15294462
37	0xbe91c5af	-0.28471133
38	0xbe218cf5	-0.15776427
39	0xbeb4c78a	-0.35308486
40	0xbdf1ecf6	-0.11812775
41	0xbe78e624	-0.24306542
42	0xbcf1582a	-0.029460985
43	0xbdace206	-0.08441548
44	0xbd93724d	-0.071995355
45	0x3dc2206a	0.09478839
46	0x3de5505b	0.11196967
47	0xbe5478bc	-0.20749182
48	0xbe45c494	-0.1931327
49	0x3c944735	0.01810036
50	0x3da4bf5a	0.0804431
51	0xbdffbee2	-0.1248758
52	0xbe0c0ac4	-0.13675982
53	0xbe316b05	-0.17325981
54	0xbd2b204f	-0.04177886
55	0x3c9ce68c	0.019152902
56	0x3ea1bf39	0.31591204
57	0x3cf84cc4	0.030310042
58	0x3d27adb0	0.040937126
59	0xbed3f889	-0.41400555
60	0xbea9a0da	-0.33130533
61	0x3dca2240	0.09869814
62	0xbe3b35cb	-0.18282239
63	0xbe361c8c	-0.17784327

actor.2.weight f4 [64, 64]
0	0x3d05309f	0.03251707
1	0xbb4d8dc0	-0.0031365007
2	0x3d04f13d	0.032456625
3	0x3d928368	0.0715397
4	0x3d454e8e	0.04817062
5	0x3d72cc7a	0.059277035
6	0x3d2b709d	0.041855443
7	0x3db8e354	0.090277344
8	0xbdf7dc80	-0.12102604
9	0x3cbbeb10	0.022939235
10	0x3d89cad0	0.067281365
11	0xbca0e9a3	-0.019642657
12	0x3d9a91d5	0.075473465
13	0xbdda6b70	-0.10665023
14	0x3e99a8ab	0.30011496
15	0xbe8644e1	-0.26224425
16	0xbe03ec1d	-0.12883039
17	0x3e436d50	0.19084668
18	0x3bf20829	0.0073862267
19	0x3c4fb53f	0.01267749
20	0x3da36ae9	0.07979376
21	0xbdfae3a6	-0.12250452
22	0xbe65bdaa	-0.22435632
23	0x3d1e595b	0.038659435
24	0x3e007ea4	0.1254831
25	0x3c7e75be	0.015531002
26	0x3d75bc5f	0.059994098
27	0x3dc9edd5	0.09859816
28	0x3e0e4c40	0.13896275
29	0xbd698346	-0.057009958
30	0x3d656f1e	0.056014173
31	0x3e27b4bd	0.1637754
32	0x3e22a7f8	0.15884387
33	0x3e02563d	0.1272821
34	0xbdc02ad1	-0.093831666
35	0x3da79738	0.081831396
36	0xbe0adead	-0.13561507
37	0x3ce726e7	0.028216792
38	0x3eaef463	0.34170827
39	0x3d93aea7	0.07211047
40	0x3cce815e	0.025208171
41	0xbd58c760	-0.052924514
42	0xbddbe898	-0.10737723
43	0xbd31ab63	-0.043376338
44	0x3dace32f	0.08441769
45	0xbe27d726	-0.16390666
46	0x3e07b7ed	0.13253756
47	0x3e25da82	0.16196635
48	0xbd1a885e	-0.037727706
49	0xbc388fa2	-0.0112647135
50	0x3d0305d0	0.031987965
51	0xbe11c403	-0.14234929
52	0x3ddcb060	0.10775828
53	0xbe0238f5	-0.1271704
54	0x3d4da881	0.050209526
55	0x3e5014a1	0.2032037
56	0xbd4c7d0e	-0.04992395
57	0x3d3bca60	0.045847297
58	0xbe071a4a	-0.13193622
59	0x3d069681	0.032858375
60	0x3d0cdfb5	0.03439303
61	0x3e2de559	0.1698202
62	0xbe11f782	-0.14254573
63	0xbd9d35a0	-0.07676244
64	0xbea40970	-0.3203845
65	0xbe57f180	-0.21088219
66	0x3d54a68e	0.05191665
67	0xbd7a7bfd	-0.0611534
68	0x3d24ba30	0.040216625
69	0x3e7f8872	0.24954394
70	0x3d66bbd8	0.056331486
71	0xbe2a092e	-0.16605064
72	0xbd744bf2	-0.05964274
73	0xbee6fab7	-0.45113155
74	0x3d3a9b19	0.04555807
75	0xbd7517e5	-0.05983724
76	0xbd518927	-0.05115619
77	0x3d131772	0.03591103
78	0xbea3ecd0	-0.3201661
79	0xbe762090	-0.24035859
80	0x3b739ec0	0.003717348
81	0x3e6f9d65	0.23399885
82	0x3e92b445	0.2865316
83	0x3d5a32b8	0.053271025
84	0x3d95acf5	0.073083796
85	0x3ca9702c	0.02068337
86	0x3e1c277c	0.15249437
87	0x3dbdd285	0.09268669
88	0xbc0485cc	-0.00808854
89	0x3d4ffe72	0.050779767
90	0xbe915d95	-0.2839171
91	0x3c8f58eb	0.017498454
92	0x3db59893	0.08866992
93	0x3df1c349	0.11804826
94	0xbdf42b68	-0.119223416
95	0x3d9ed8a5	0.077561654
96	0x3dca5c60	0.098809004
97	0xbe02cde2	-0.1277385
98	0x3d560501	0.052250866
99	0x3d01fc89	0.031734977
100	0xbe675956	-0.22592673
101	0x3ea66303	0.32497415
102	0x3df67530	0.120340705
103	0x3de02db6	0.10946219
104	0x3e35da9e	0.17759177
105	0x3e1ddf63	0.15417247
106	0x3d9e86e3	0.07740571
107	0x3e2e08ab	0.16995494
108	0xbee87deb	-0.45408568
109	0xbd9c6dfd	-0.07638166
110	0xbf1a960d	-0.6038521
111	0x3d1f9374	0.03895898
112	0x3e463ada	0.19358388
113	0xbcb0f697	-0.021601958
114	0x3dac0dd7	0.08401077
115	0x3c1a270c	0.009408724
116	0x3ce49559	0.027903246
117	0x3d8efc77	0.069817476
118	0xbd2871ee	-0.041124277
119	0xbe9984ec	-0.29984224
120	0x3e3dbe92	0.18529728
121	0x3c9f0457	0.01941125
122	0xbdc96ddc	-0.09835407
123	0x3d257476	0.04039427
124	0xbd949151	-0.072542794
125	0x3e8f1285	0.27943817
126	0xbf06693b	-0.5250432
127	0x3e2bfbc7	0.16795264
128	0xbc384e56	-0.0112491455
129	0xbd0ce865	-0.034401316
130	0xbd83efc8	-0.06442219
131	0x3e34c8a6	0.17654666
132	0x3d836d6a	0.064173535
133	0x3cc1558b	0.02360036
134	0x3d96a47b	0.07355591
135	0xbe848ec6	-0.25890177
136	0x3c536bc7	0.012904114
137	0x3e048dc2	0.12944701
138	0xbe89edf4	-0.26939356
139	0x3ded9197	0.11600035
140	0x3c9f0022	0.019409243
141	0xbcd057bc	-0.02543246
142	0x3dd2b566	0.10288505
143	0x3d869863	0.06572034
144	0x3d0ca5ba	0.034337737
145	0xbd669abc	-0.05629991
146	0xbd160572	-0.036626287
147	0x3e717f18	0.23583639
148	0xbcb2f146	-0.021843564
149	0xbe0a9603	-0.13533787
150	0x3ca24df5	0.019812563
151	0xbe3cb100	-0.18426895
152	0xbd1a8c7f	-0.037731644
153	0xbd529e05	-0.05142023
154	0xbd3e2172	-0.046418615
155	0xbf2f7ab7	-0.68546623
156	0x3c7c2f5f	0.0153921535
157	0x3afaecab	0.0019144019
158	0xbeb681d1	-0.35645917
159	0xbc2656f3	-0.010152566
160	0xbe55f70d	-0.20895024
161	0x3d2afa23	0.041742455
162	0x3e17e7e5	0.14834554
163	0xbca533fc	-0.02016639
164	0x3c4c766e	0.012479408
165	0x3c2d0aa3	0.010561618
166	0xbe09cba1	-0.13456585
167	0x3c9b7abd	0.018979425
168	0xbd805549	-0.06266267
169	0x3d63b1e2	0.055589564
170	0xbd45c250	-0.048281014
171	0x3cc7f3be	0.024408218
172	0xbe029faa	-0.1275622
173	0xbe5b4eb0	-0.21416736
174	0xbe7a7544	-0.24458796
175	0xbe7855c0	-0.24251461
176	0x3d393d95	0.045224745
177	0xbdc46189	-0.09588916
178	0x3e277958	0.16354883
179	0xbe8c90e9	-0.27454308
180	0xbd3a777c	-0.045524105
181	0xbb6aca96	-0.0035826317
182	0xbd65e5ec	-0.056127474
183	0xbde70a81	-0.112813
184	0x3e2811ba	0.16413012
185	0x3db1b299	0.08676643
186	0x3c4197ac	0.011815947
187	0xbe5f6bed	-0.21818514
188	0x3b147d42	0.0022657667
189	0xbb492f9d	-0.0030698546
190	0xbe6ece5c	-0.23320907
191	0x3d4bcf3b	0.049758177
192	0xbab4947f	-0.0013777165
193	0xbb4797b2	-0.0030455408
194	0xbd5029d6	-0.050821148
195	0x3d9357e4	0.07194498
196	0x3d31fb73	0.04345269
197	0x3e56814c	0.2094776
198	0x3ca06948	0.019581452
199	0xbd70be72	-0.058775373
200	0x3cb477bc	0.02202975
201	0x3d395e2a	0.045255817
202	0x3ddc34bb	0.10752245
203	0xbd82a076	-0.06378262
204	0xbc693dd2	-0.0142359305
205	0xbde2b14c	-0.11068973
206	0x3e3e3442	0.18574622
207	0xbe2912bb	-0.16511051
208	0xbcc7e8e3	-0.024403041
209	0xbbf1e7ac	-0.007382354
210	0x3d8673fe	0.065650925
211	0x3c927166	0.017876338
212	0xbde636e9	-0.11240942
213	0xbe01f068	-0.12689364
214	0x3d89e265	0.067326345
215	0xbd9f231c	-0.077703685
216	0x3db13138	0.08651966
217	0x3c8a0ddd	0.016852314
218	0x3e21f845	0.15817364
219	0x3dd00249	0.10156686
220	0x3abf8623	0.0014612119
221	0x3d10c38f	0.03534275
222	0xbe3e4ac2	-0.18583205
223	0xbd6333cc	-0.05546932
224	0x3e2626f5	0.16225798
225	0xbc5fe6a9	-0.0136658335
226	0xbd047f9e	-0.032348268
227	0x3e1a683a	0.15078822
228	0xbe27fc19	-0.16404761
229	0x3df27623	0.11838939
230	0x3eaf0f64	0.3419143
231	0x3d8ab45e	0.067726836
232	0xbd5a38c6	-0.0532768
233	0xbe02633e	-0.1273317
234	0x3d8d17c6	0.068893
235	0x3d964e8e	0.07339202
236	0x3e272367	0.16322099
237	0x3d87a153	0.06622567
238	0x3c930874	0.017948367
239	0x3e5fdfce	0.21862718
240	0x3cdb99ee	0.026806798
241	0xbceb78ed	-0.028744185
242	0xbd9c80d0	-0.076417565
243	0x3e163af7	0.14670931
244	0xbc96c055	-0.018402258
245	0x3e1f5ed3	0.15563516
246	0xbd98c9eb	-0.07460388
247	0x3e4d46ae	0.20046493
248	0xbe8468eb	-0.25861296
249	0xbe018cf5	-0.12651427
250	0x3e210e6f	0.15728162
251	0xbd27debc	-0.0409839
252	0x3de53a61	0.111927755
253	0x3dd68bd6	0.1047589
254	0xbd15b982	-0.036553867
255	0xbcf57ca3	-0.029966658

actor.2.bias f4 [64]
0	0xbdf076f2	-0.11741437
1	0x3d5e65b4	0.05429621
2	0x3da6130b	0.08109101
3	0x3dfefa9e	0.12450145
4	0x3c8fbc9d	0.017545993
5	0x3cc099ca	0.023510832
6	0xbd4ad508	-0.04951957
7	0x3e7a3fb1	0.24438359
8	0xbdaaf909	-0.08348281
9	0xbdd05af6	-0.101735994
10	0x3eaf9a2d	0.34297314
11	0xbdc5b779	-0.09654135
12	0x3d371302	0.04469586
13	0xbe826938	-0.254709
14	0x3d52f852	0.051506348
15	0x3e81f63e	0.2538318
16	0xbc67600b	-0.0141220195
17	0xbe95ee07	-0.29283163
18	0xbcfbcddb	-0.030737808
19	0xbe31e4be	-0.17372414
20	0x3d875237	0.06607478
21	0xbd83d271	-0.06436623
22	0xbe47384b	-0.19455068
23	0xbd323b18	-0.043513387
24	0x3cae700f	0.021293668
25	0x3e88b27a	0.26698667
26	0x3d9fcb91	0.07802499
27	0x3e03b4b5	0.12861903
28	0xbd07f7e8	-0.033195406
29	0xbe01d2c7	-0.12678061
30	0x3dedba87	0.11607843
31	0x3d8e9562	0.06962086
32	0xbe8d1cec	-0.27561128
33	0xbe0aaf84	-0.13543516
34	0xbda26bee	-0.07930742
35	0xbe613a7c	-0.21994966
36	0xbd892fc4	-0.06698564
37	0xbe074254	-0.13208896
38	0xbcb556ba	-0.022136081
39	0x3ceca88f	0.028888969
40	0x3df1a96e	0.11799894
41	0xbe996d19	-0.29966047
42	0xbc1a3e4b	-0.009414266
43	0x3c96c849	0.01840605
44	0xbdbb8f99	-0.091582485
45	0xbe259075	-0.16168387
46	0xbe0a853f	-0.13527392
47	0xbe18f2a5	-0.14936312
48	0x3d989829	0.07450897
49	0x3eafe6df	0.34355828
50	0xbd9d9092	-0.0769359
51	0xbe24a1fd	-0.16077419
52	0x3e50f2d6	0.20405135
53	0x3d319fdd	0.043365348
54	0x3dd042dc	0.101690024
55	0xbe926b77	-0.28597614
56	0x3e13b3e2	0.14424089
57	0x3da5fc58	0.081047714
58	0xbd2fd1f9	-0.042924855
59	0xbddf360f	-0.10898983
60	0x3c4b13a9	0.012394824
61	0xbd284a9c	-0.041086778
62	0xbe3f7bfa	-0.18699637
63	0x3e53cb6d	0.2068307

actor.4.weight f4 [6, 64]
0	0xbe36e62c	-0.17861241
1	0xbddea446	-0.108711764
2	0x3c637fe9	0.013885477
3	0xbe47b7da	-0.19503728
4	0xbd88a8ac	-0.066727966
5	0x3d319a51	0.04336006
6	0xbdbb711a	-0.09152432
7	0x3d3cf993	0.04613645
8	0x3da5a920	0.08088899
9	0xbde42527	-0.11139899
10	0xbcce014e	-0.025147106
11	0x3d357009	0.0442963
12	0x3db59d7f	0.088679306
13	0x3d78baae	0.060724907
14	0xbd4d1161	-0.050065402
15	0xbd33d7a0	-0.043906808
16	0x3e0b8c7e	0.13627812
17	0x3e3f4e25	0.18682154
18	0x3d4769e7	0.04868498
19	0x3dff30b4	0.12460461
20	0x3bad5209	0.0052893204
21	0xbdfc75f6	-0.12327187
22	0x3d99883d	0.074966885
23	0x3e157114	0.14593917
24	0x3e0c9276	0.13727745
25	0xbcb1e352	-0.02171484
26	0x3d94b0c2	0.072602764
27	0xbd9443e2	-0.0723951
28	0xbcb23422	-0.021753374
29	0xbe320a27	-0.17386685
30	0x3ca2ce0f	0.019873647
31	0xbd07b13d	-0.033128012
32	0x3d582739	0.05277178
33	0x3e247098	0.16058576
34	0xbd184e06	-0.037183784
35	0x3d7def8a	0.06199602
36	0xbd9c78e6	-0.07640247
37	0xbb12df81	-0.002241105
38	0xbe78c20a	-0.2429277
39	0x3e51f54c	0.2050373
40	0x3de1b590	0.110209584
41	0x3d9f6063	0.07782056
42	0x3d4c217f	0.049836632
43	0xbd8a7893	-0.06761279
44	0x3e817cb5	0.25290456
45	0x3db67d7b	0.08910652
46	0xbd38dd2e	-0.04513281
47	0x3d183d6e	0.03716796
48	0x3d36e5ac	0.044652626
49	0xbc1f1126	-0.009708678
50	0xbdc9e8a0	-0.09858823
51	0x3d4a8ad8	0.049448818
52	0xbe311a31	-0.17295147
53	0xbda3edfe	-0.08004378
54	0xbe73816f	-0.23779844
55	0xbcae980f	-0.021312742
56	0x3da47ff2	0.08032216
57	0xbe1b0ac1	-0.15140821
58	0x3cdb8832	0.026798341
59	0xbd1c5787	-0.03816941
60	0xbd72897d	-0.05921315
61	0x3c6a6ae8	0.014307715
62	0x3e7c0ab4	0.24613458
63	0xbe03ae10	-0.12859368
64	0x3d440949	0.047860418
65	0x3dfc37ff	0.12315368
66	0xbe75c250	-0.23999906
67	0xbdc7c3a5	-0.09754113
68	0x3cc850ff	0.024452684
69	0xbd864e98	-0.06557959
70	0x3da8e206	0.082462355
71	0xbc70427b	-0.014664288
72	0x3e151c01	0.14561464
73	0xbd772b32	-0.06034393
74	0x3da5491e	0.080705866
75	0x3cb4b359	0.022058176
76	0xbe271340	-0.16315937
77	0xbc8f03d6	-0.017457884
78	0x3d8bbb93	0.06822886
79	0xbd168291	-0.03674561
80	0x3db9f696	0.09080236
81	0xbca76b10	-0.020436794
82	0x3d98abda	0.07454653
83	0xbd9b74f4	-0.075906664
84	0xbd471ca5	-0.048611302
85	0x3e1205b9	0.14259996
86	0xbd780505	-0.060551662
87	0xbe175419	-0.14778174
88	0x3c5036c8	0.012708373
89	0x3cdd6658	0.02702634
90	0x3da38222	0.07983805
91	0xbca9f74a	-0.0207478
92	0xbe06c984	-0.1316281
93	0xbd33b6d0	-0.043875515
94	0xbe138096	-0.1440452
95	0x3b1f0db9	0.0024269654
96	0x3d54acc6	0.051922582
97	0xbc0ecaaa	-0.008715311
98	0x3dec3555	0.1153361
99	0x3c5b85de	0.013398616
100	0xbd622961	-0.055215243
101	0xbd8e9161	-0.069613226
102	0xbda022b0	-0.07819116
103	0x3db01ccb	0.08599242
104	0x3e4ae520	0.19813967
105	0xbdb3dcb3	-0.087823294
106	0xbe886804	-0.26641858
107	0x3cc82383	0.024430996
108	0x3dca0113	0.09863486
109	0x3dc4ff82	0.09619047
110	0x3d7dda63	0.061975848
111	0xbcbd7acd	-0.023129845
112	0x3e0c6a17	0.13712345
113	0x3c3340d0	0.0109407455
114	0x3d3bf01d	0.045883287
115	0x3e16bbed	0.14720125
116	0x3d05d11e	0.032670133
117	0x3c5f30dc	0.013622489
118	0x3cf9a197	0.03047256
119	0xbcea2897	-0.028583808
120	0xbd75b071	-0.05998272
121	0x3d8b4487	0.0680018
122	0xbda94e21	-0.08266855
123	0xbdf3ef93	-0.119109295
124	0x3da9a12f	0.082826965
125	0x3d034819	0.03205118
126	0xbcc0765c	-0.023493938
127	0x3cd8056e	0.026369777
128	0xbb4972d1	-0.0030738602
129	0x3d89bca0	0.067254305
130	0xbd89ce8c	-0.06728849
131	0x3d62da5a	0.055384018
132	0x3d27d4a3	0.04097427
133	0x3ceef176	0.029167872
134	0xbc2a2c40	-0.010386527
135	0x3e02de4a	0.12780109
136	0xbe865740	-0.2623844
137	0x3da9818c	0.08276662
138	0x3d7ee2bc	0.06222795
139	0xbe806905	-0.25080124
140	0xbdffa546	-0.12482695
141	0xbe514f4c	-0.20440406
142	0x3b5dac8f	0.0033824777
143	0x3db11318	0.0864622
144	0xbd6c5513	-0.05769832
145	0xbe2b3e91	-0.16723086
146	0x3dac3d85	0.084101714
147	0xbe33266f	-0.1749513
148	0x3d9555c9	0.07291753
149	0xbdae08ba	-0.08497758
150	0xbe0dbb56	-0.13840994
151	0xbda84c6a	-0.082177
152	0xbe02cc3e	-0.12773225
153	0x3e00b418	0.125687
154	0x3d9aa509	0.07551009
155	0x3d760344	0.060061708
156	0xbe82d2cb	-0.25551447
157	0xbd7da916	-0.06192883
158	0x3dc53bf6	0.09630577
159	0x3dbecf0c	0.09316835
160	0xbc0043e8	-0.00782869
161	0xbe452c62	-0.19255212
162	0x3c0e460f	0.008683695
163	0xbe2c9239	-0.16852655
164	0xbd35f1a2	-0.044419892
165	0x3c315bda	0.010825122
166	0xbd80f20b	-0.06296166
167	0xbdae3c84	-0.08507636
168	0x3c225de2	0.009910079
169	0xbe42f163	-0.19037394
170	0xbc07b745	-0.008283441
171	0x3daf2d31	0.085535415
172	0x3c79e2e6	0.015251851
173	0xbd50c9b5	-0.050973613
174	0xbd895f60	-0.067076445
175	0xbd96ec20	-0.07369256
176	0x3e117da3	0.14208083
177	0x3de33ff3	0.11096182
178	0xbddf54d7	-0.10904854
179	0xbde23f15	-0.11047188
180	0x3dd5a674	0.10432139
181	0x3db28319	0.08716411
182	0x3c4db1a0	0.012554556
183	0xbe3e2560	-0.18568945
184	0x3df77518	0.12082881
185	0x3db548ff	0.088518135
186	0x3c9072ea	0.01763292
187	0xbd5a62fd	-0.05331706
188	0xbd2d05f6	-0.042242013
189	0x3d3ff302	0.04686261
190	0xbe40217a	-0.1876277
191	0x3d448d08	0.04798606
192	0xbda4c56f	-0.0804547
193	0x3e66f3fe	0.22554013
194	0xbde8302c	-0.11337313
195	0x3ceb05db	0.028689316
196	0xbcc1de55	-0.023665586
197	0x3d9e245c	0.07721779
198	0xbc4845a3	-0.012223634
199	0xbd9498a3	-0.07255676
200	0x3e02cfb0	0.12774539
201	0xbdd0ae46	-0.1018949
202	0x3da8785b	0.08226081
203	0x3e3412f1	0.1758535
204	0x3d6799ab	0.056543034
205	0xbe4af0ed	-0.19818468
206	0x3d08d45a	0.03340564
207	0x3d93bb31	0.07213438
208	0xbd808be1	-0.0627668
209	0xbe0f6fcb	-0.1400749
210	0xbe02e244	-0.12781626
211	0xbe35a4f0	-0.177387
212	0xbdd8903d	-0.10574386
213	0x3dcf2114	0.10113731
214	0xbd933c48	-0.07189232
215	0xbe199bdd	-0.15000863
216	0xbe3b54e2	-0.18294099
217	0xbce3c5be	-0.027804252
218	0xbdca75d6	-0.09885757
219	0x3de77408	0.11301428
220	0x3d5165cb	0.051122468
221	0x3dab2eb9	0.08358521
222	0x3d61b938	0.05510828
223	0xbcb66f22	-0.02226979
224	0xbe08fa82	-0.13376811
225	0xbc5cc887	-0.013475544
226	0xbdf0f1fd	-0.117649056
227	0x3e22e27d	0.15906711
228	0xbcf7f8a1	-0.030269923
229	0xbb9f89cc	-0.0048687216
230	0xbcd9697c	-0.026539557
231	0x3ec19b5d	0.37813845
232	0x3d9a922c	0.07547411
233	0xbc39d8ba	-0.011343176
234	0x3e3c3601	0.18379976
235	0xbe59f72b	-0.21285693
236	0x3d6476ab	0.055777233
237	0xbe0cab94	-0.13737327
238	0xbe74fdbb	-0.23924915
239	0x3e87c0fd	0.26514426
240	0xbd085290	-0.033281863
241	0x3dd091d9	0.10184068
242	0x3d075ae3	0.03304566
243	0xbea15281	-0.31508258
244	0xbd4e7eab	-0.05041377
245	0x3d4d555f	0.050130244
246	0x3d8976c3	0.06712105
247	0xbe0a0db6	-0.13481793
248	0x3e375b17	0.17905842
249	0xbce18627	-0.02752979
250	0xbd8ab916	-0.067735836
251	0xbdc8e2a7	-0.098088555
252	0xbc002960	-0.007822365
253	0xbdc03cd1	-0.093866
254	0xbdd9bbca	-0.10631521
255	0xbcf84ae8	-0.030309156

actor.4.bias f4 [6]
0	0xbe20e563	-0.15712504
1	0x3cc67ee8	0.024230435
2	0x3de01eba	0.109433606
3	0x3e4cff85	0.20019348
4	0x3d9768d6	0.07393043
5	0x3db0e4f5	0.0863742

critic.0.weight f4 [64, 43]
0	0x3efe673b	0.49688134
1	0xbf5b68b8	-0.85706663
2	0xbf418e91	-0.75608164
3	0xbdf3438a	-0.118781164
4	0x3e1b9b10	0.1519587
5	0x3ec69b20	0.38790226
6	0xbe3a183e	-0.1817331
7	0xbe06b909	-0.13156523
8	0xbdab828b	-0.083745085
9	0x36b9784c	5.527434e-06
10	0x3bb00117	0.0053712237
11	0xbc773bcb	-0.015089939
12	0x3e82219a	0.2541626
13	0x3d766c81	0.06016207
14	0xbe8f721b	-0.28016743
15	0x3e0cf877	0.13766657
16	0xbd032bc1	-0.03202415
17	0x3db6a5d6	0.089183494
18	0xbc95f10e	-0.01830342
19	0x3b3518ca	0.0027633184
20	0x3eb163a0	0.3464632
21	0x3e8f4905	0.27985397
22	0xbe8833ae	-0.26601928
23	0x3cbc8145	0.02301086
24	0xbf2cb70d	-0.67466813
25	0xbe0899a3	-0.13339858
26	0xbf088599	-0.53328854
27	0xbf0a0894	-0.5391934
28	0xbdb0dc7f	-0.08635806
29	0xbeedafa5	-0.4642307
30	0x3f98d4cf	1.1939944
31	0x3d200786	0.039069675
32	0xbf0f6806	-0.560181
33	0xbdd3a083	-0.103333496
34	0x3e17fac1	0.14841749
35	0xbeaa2307	-0.3322985
36	0xbf2c6802	-0.67346203
37	0x3f7dbe92	0.9911891
38	0x3dc3a398	0.095526874
39	0xbf251f9a	-0.64501345
40	0xbf254607	-0.6455998
41	0x3d266947	0.040627744
42	0xbd34f565	-0.04417934
43	0x3e92773c	0.28606594
44	0xbf26540a	-0.64971983
45	0xbed96df0	-0.42466688
46	0xbe1a3f50	-0.15063214
47	0x3db7bfd8	0.08972138
48	0x3d6851c3	0.0567186
49	0xbc2313ef	-0.009953483
50	0x3e95eb1c	0.29280937
51	0x3e347e03	0.17626195
52	0x3cc1a062	0.023636047
53	0xbd27c9db	-0.04096399
54	0xbb36866b	-0.0027851115
55	0xbd0c8a01	-0.0343113
56	0xbec512c7	-0.38490888
57	0xbea93fc2	-0.33056456
58	0xbd920e26	-0.07131605
59	0x3e21a518	0.15785635
60	0xbb42c201	-0.0029717686
61	0x3c870e4b	0.016486308
62	0xbb016302	-0.001974285
63	0x3f2fb98a	0.68642485
64	0x3e49f7fe	0.19723508
65	0xbeb5f236	-0.35536355
66	0xbf5c9ace	-0.86173713
67	0xbeec74e7	-0.4618294
68	0x3eb50fc1	0.35363582
69	0xbeb510c9	-0.3536437
70	0xbea00274	-0.31251872
71	0xbe2fc97e	-0.17166707
72	0xbeccac25	-0.39975086
73	0x400b4588	2.1761189
74	0x3eb0ea16	0.34553593
75	0xbc0dd9ff	-0.008657931
76	0xbe9b6cec	-0.30356538
77	0x3f22b375	0.6355508
78	0x3e33502d	0.17511053
79	0xbd534fd6	-0.05158981
80	0x4006e561	2.1077502
81	0x3e4287a8	0.18997061
82	0xbe257434	-0.16157609
83	0xbedb6afa	-0.42855054
84	0x3e69a0f2	0.22815302
85	0xbeafda32	-0.34346157
86	0x3f0009e3	0.50015086
87	0xbeb75be4	-0.35812294
88	0xbdf8a617	-0.12141054
89	0x3b7d7363	0.0038673512
90	0xbe0f3ffe	-0.13989255
91	0x3ea0c50c	0.31400335
92	0xbd97174e	-0.07377492
93	0x3d4efe79	0.050535653
94	0xbd14e019	-0.03634653
95	0x3cd1c48e	0.02560642
96	0x3d7cb33c	0.06169437
97	0x3c5399e5	0.012915109
98	0x3e141991	0.14462878
99	0x3dd3a6d4	0.10334554
100	0x3cbe50ee	0.02323195
101	0xbddf1a80	-0.10893726
102	0xbe8077a7	-0.25091287
103	0xbd84f84f	-0.064926736
104	0xbbbc61e2	-0.005748973
105	0xb986d541	-0.00025717358
106	0xbd34cabf	-0.044138666
107	0x3fedd4f8	1.8580618
108	0x3ee8461b	0.45365986
109	0x3ecedc27	0.40402338
110	0x3d351417	0.044208612
111	0xbd1d1124	-0.038346425
112	0x3e19f879	0.15036191
113	0x3ea59869	0.32342842
114	0x3f390ec5	0.7228816
115	0x3c53fdc6	0.012938922
116	0xc0032025	-2.048837
117	0x401ecb8b	2.4811733
118	0xbf903ea4	-1.1269116
119	0xbe7c51f9	-0.24640645
120	0xbef0c49f	-0.4702501
121	0x3cc03675	0.023463467
122	0x3eb1dcd3	0.34738788
123	0xc000df83	-2.013642
124	0x401ecefb	2.481383
125	0xbf9ed7d5	-1.2409617
126	0x3e48ebfd	0.19621272
127	0xbd829821	-0.063766725
128	0x3dd4de3f	0.103939526
129	0x3e36395c	0.17795318
130	0xbe6e467b	-0.23269074
131	0xbd9f6a7d	-0.07783983
132	0x3e386d09	0.18010344
133	0x3d0301f4	0.031984285
134	0xbcbb1ad7	-0.022839947
135	0x3d37c092	0.044861384
136	0x3cc54fe7	0.024085952
137	0x3dfd5cd1	0.12371219
138	0xbc5f7784	-0.013639335
139	0xbd56dc70	-0.05245632
140	0x3cad3736	0.02114449
141	0xbc4ad68f	-0.012380256
142	0xbd98fbe9	-0.07469923
143	0x3da1280d	0.07868967
144	0x3e264775	0.16238196
145	0x3e3f38bc	0.18673986
146	0xbd83c58f	-0.06434166
147	0x3b9aa26b	0.0047190688
148	0x39629f67	0.00021612422
149	0xbf84d276	-1.0376728
150	0x401707ef	2.3598592
151	0x3f9808ae	1.1877649
152	0x3f28eda0	0.65987587
153	0xbf8057ee	-1.0026834
154	0x3f14efe7	0.5817856
155	0x3e7cc2d8	0.24683702
156	0xbe1bd0eb	-0.15216415
157	0x3fa0a236	1.2549503
158	0x3e424717	0.18972431
159	0x3e1e6b9b	0.15470736
160	0xbf24db9e	-0.6439761
161	0xbdffd192	-0.12491144
162	0xbd9c7b8a	-0.07640751
163	0xbee6c849	-0.4507468
164	0x3e0d567f	0.13802527
165	0x3d7161ff	0.058931347
166	0x3d56891b	0.052376848
167	0xbf185c05	-0.5951541
168	0xbe988689	-0.29790142
169	0x3f2748bd	0.65345365
170	0xbea07530	-0.31339407
171	0xbe9c92d4	-0.3058077
172	0x3f25a1f8	0.6470027
173	0x3d22fcbf	0.03979182
174	0x3dc4ff0a	0.09618957
175	0x3e049a9e	0.12949607
176	0x3e247630	0.1606071
177	0x3c1345e1	0.008988828
178	0xbd7e8652	-0.062139817
179	0x3b7ae6ca	0.0038284534
180	0xbd0a480a	-0.033760108
181	0x3cb9866d	0.022647107
182	0xbd142012	-0.036163397
183	0xbb705bd1	-0.003667582
184	0x3ea010d7	0.31262848
185	0x3d7f90a2	0.062393792
186	0xba3fa205	-0.00073102146
187	0xbe482127	-0.19543897
188	0x3e53730f	0.2064936
189	0x3c4f47c9	0.012651392
190	0xbcc0210a	-0.023453254
191	0x3b2dcf01	0.002652109
192	0xbf099813	-0.5374767
193	0xbfd6e3d2	-1.6788275
194	0xc00e95b9	-2.2278883
195	0x3f2b8dff	0.67013544
196	0x3f80a256	1.0049541
197	0x3fae61e2	1.3623621
198	0x3debeb26	0.115194604
199	0x3e40c5eb	0.188255
200	0xbf82f022	-1.0229533
201	0xbd16ad72	-0.036786504
202	0xbf23f031	-0.6403838
203	0x3ba0a4eb	0.0049024723
204	0x3babe54e	0.005245841
205	0xbd997a48	-0.074940264
206	0xbed3d0f9	-0.4137037
207	0xbe0e1630	-0.13875651
208	0x3e672eda	0.22576466
209	0xbef979f9	-0.4872587
210	0xbda3e809	-0.080032416
211	0xbd1d57a0	-0.038413644
212	0xbdb09a94	-0.086232334
213	0xbcbbc605	-0.022921572
214	0xbd989bb9	-0.07451577
215	0x3c84abe4	0.016195245
216	0xbc15fea2	-0.0091549475
217	0xbd015691	-0.031576697
218	0xbd94ad41	-0.07259608
219	0x3d57fcfe	0.052731507
220	0xbccd440f	-0.025056867
221	0x3d47b477	0.04875609
222	0xbd0b9a43	-0.034082662
223	0xbcf7ba69	-0.030240254
224	0x3bff525c	0.0077918004
225	0x3c697d83	0.014251116
226	0xbb470d78	-0.0030373018
227	0xbddb2f69	-0.10702402
228	0x3d48bbf2	0.049007364
229	0x3d1d5423	0.038410317
230	0xbdbf4234	-0.09338799
231	0xbd8b9186	-0.06814866
232	0x3c49b41e	0.01231101
233	0xbc28c0d0	-0.010299876
234	0x3b14bfbb	0.0022697288
235	0x3d2cabff	0.042156216
236	0x400b1f85	2.1737988
237	0xc000c2be	-2.0118861
238	0xbf904275	-1.1270281
239	0xbfae75d5	-1.362971
240	0x400d7f4e	2.210895
241	0x3e591f78	0.2120341
242	0xbeb77a9c	-0.3583573
243	0xbfa66c34	-1.3001771
244	0x3d5a2573	0.05325837
245	0xbe3618d8	-0.17782915
246	0x3e77af49	0.2418796
247	0x3f62c5e5	0.88583213
248	0x3e9e1a49	0.3087943
249	0x3ccb2668	0.024798587
250	0x3ebef43b	0.37295708
251	0xbdddb884	-0.10826209
252	0xbda7c224	-0.08191326
253	0x3ed73948	0.4203589
254	0x3f4c21c9	0.7973905
255	0xbe875cdd	-0.26438037

critic.0.bias f4 [64]
0	0xbed0e2fc	-0.40798175
1	0xbecd598d	-0.40107384
2	0x3e236880	0.15957832
3	0x3ec86153	0.39136752
4	0x3ca5f1c1	0.020256879
5	0x3d846d3f	0.064661495
6	0x3dc4e90a	0.09614761
7	0xbd5da41b	-0.05411158
8	0x3e4c6312	0.19959667
9	0xbd3e945d	-0.04652821
10	0x3e428221	0.18994953
11	0xbea80ec5	-0.32823768
12	0xbd4a43cc	-0.049381062
13	0x3dacb40b	0.08432778
14	0xbe912481	-0.28348163
15	0x3f0dc0a1	0.55372053
16	0xbea0531e	-0.31313413
17	0xbeaa79c9	-0.3329604
18	0x3eb73c70	0.35788298
19	0xbd4d824e	-0.050173096
20	0xbec02054	-0.37524664
21	0xbda2ecd0	-0.07955325
22	0x3ed2485f	0.4107084
23	0xbdef0009	-0.116699286
24	0xbc2854c6	-0.010274118
25	0x3dd155ec	0.102214664
26	0xbec5d4bf	-0.38638875
27	0x3e0e5f62	0.13903573
28	0x3e318d62	0.1733909
29	0x3e1745b8	0.1477269
30	0x3ee17267	0.44032595
31	0xbe4068b2	-0.18789938
32	0xbe4f4611	-0.20241572
33	0x3e5c3e01	0.21508028
34	0x3d1017fe	0.03517913
35	0xbec3f132	-0.38269955
36	0xbed57a35	-0.416948
37	0x3e436691	0.19082095
38	0x3db7b66a	0.089703396
39	0x3e627f78	0.22118938
40	0x3eec70d5	0.46179834
41	0x3e561add	0.20908685
42	0x3cadfc50	0.021238476
43	0x3de397df	0.111129515
44	0x3bc96cc0	0.006146997
45	0xbea9fa88	-0.33198953
46	0xbe635369	-0.22199787
47	0x3e5fe76c	0.21865624
48	0x3decbaf1	0.11559094
49	0xbeab3353	-0.33437595
50	0xbe056903	-0.1302834
51	0x3e39d5e2	0.18147996
52	0xbd40cd3d	-0.04707073
53	0x3e1098f3	0.14120845
54	0x3ebd7dfd	0.37010184
55	0x3e1fe2b2	0.15613821
56	0x3d3ba927	0.045815613
57	0x3daa0ee0	0.083036184
58	0xbec1edd9	-0.37876776
59	0xbe31519f	-0.17316292
60	0xbd98d510	-0.074625134
61	0xbea32878	-0.31866813
62	0xbd47dc16	-0.048793875
63	0xbe2ae83f	-0.16690157

critic.2.weight f4 [64, 64]
0	0x3ca3e433	0.020006275
1	0x3e11d473	0.14241199
2	0x3d6d4800	0.057929993
3	0xbe12e0b6	-0.14343533
4	0xbcf754b0	-0.03019175
5	0xbdb9a463	-0.090645574
6	0x3d61bdff	0.055112835
7	0xbd37d990	-0.04488522
8	0xbec338e8	-0.38129354
9	0x3d008e15	0.0313855
10	0xbe7cec63	-0.2469955
11	0x3cd52374	0.026017882
12	0xbdb1e90f	-0.086870305
13	0x3def3707	0.116804175
14	0x3d88dd4c	0.06682834
15	0x3e2e5905	0.17026146
16	0x3e5fc43a	0.21852198
17	0x3a38c608	0.0007048552
18	0x3bb903f1	0.005646222
19	0x3e091b0f	0.13389228
20	0x3e231f7d	0.1592998
21	0x3da80801	0.082046516
22	0x3bcf668d	0.0063293637
23	0x3d80951d	0.06278441
24	0xbe73acc8	-0.2379638
25	0xbd81a388	-0.06330019
26	0x3e8139b4	0.25239336
27	0xbdc569cf	-0.09639322
28	0xbd417600	-0.047231674
29	0xbb9a75e5	-0.004713761
30	0xbd37fdb7	-0.044919696
31	0xbd1b7ab6	-0.037958823
32	0x3c1f8b85	0.009737854
33	0xbc4a854c	-0.012360882
34	0xbbba4829	-0.0056848717
35	0x3dcf37bc	0.10118052
36	0xbcc50f75	-0.024055222
37	0x3e2c1baf	0.16807435
38	0xbe204231	-0.1565025
39	0xbe1a5d41	-0.15074636
40	0x3ce7116b	0.028206548
41	0xbda79d68	-0.0818432
42	0x3dec680b	0.11543282
43	0x3e351395	0.17683251
44	0xbc4109c7	-0.011782116
45	0x3d3aeb15	0.045634348
46	0xbdf50988	-0.119647086
47	0xbe24e81f	-0.16104172
48	0xbdc1357e	-0.09434031
49	0xbd27200e	-0.040802054
50	0x3d6f0338	0.05835268
51	0xbdfc5611	-0.12321103
52	0xbe45eeaa	-0.19329324
53	0xbc983560	-0.018580139
54	0x3deae0d2	0.11468662
55	0xbe467c5a	-0.19383374
56	0xbe49d3e6	-0.19709739
57	0xbd1670d7	-0.036728706
58	0x3d46abeb	0.048503798
59	0xbb2ba65d	-0.002619169
60	0x3db0eef5	0.086393274
61	0xbd0bf24e	-0.034166627
62	0xbdc95237	-0.09830134
63	0xbe11bb66	-0.14231643
64	0xbe1c9847	-0.15292464
65	0xbe4613cc	-0.1934349
66	0xbb43c355	-0.0029871066
67	0xbde1321e	-0.10995887
68	0xbe56deac	-0.2098338
69	0xbdbbf6a2	-0.09177901
70	0x3e161d9e	0.14659736
71	0xbcd35cd8	-0.025801107
72	0x3d946a39	0.07246823
73	0x3cee0b40	0.029058099
74	0x3d4b4fb3	0.049636554
75	0xbe1454a9	-0.1448542
76	0xbdcb139c	-0.099158496
77	0x3df2389f	0.11827206
78	0xbe1c4c13	-0.15263395
79	0xbe9dab71	-0.30794862
80	0xbe2f303d	-0.17108245
81	0xbd9510de	-0.07278608
82	0x3d02d4f7	0.03194138
83	0x3ec4775a	0.38372308
84	0xbe12e643	-0.1434565
85	0xbd66b835	-0.056328017
86	0x3d2f17af	0.042747196
87	0xbd690784	-0.056891933
88	0xbd365c23	-0.044521462
89	0xbdf89504	-0.121377975
90	0xbe214e18	-0.15752447
91	0x3e4f62b3	0.20252495
92	0xb927ee1a	-0.00016015061
93	0x3e3dd187	0.1853696
94	0x3e0bddaf	0.13658784
95	0xbd9906ae	-0.07471977
96	0xbd89e893	-0.06733813
97	0x3e02121a	0.12702218
98	0x3c5628a1	0.01307121
99	0xbd7c8ffb	-0.061660748
100	0xbd9005b3	-0.07032337
101	0xbe303e9e	-0.17211387
102	0x3df5bf5c	0.119993895
103	0xbd235059	-0.039871547
104	0xbe01eb00	-0.12687302
105	0x3dfb6fb9	0.12277169
106	0xbd5fd70e	-0.05464845
107	0xbe0dcc4b	-0.13847463
108	0x3cd52ceb	0.026022395
109	0xbccb985a	-0.02485292
110	0xbda13f0b	-0.078733526
111	0xbe2e9a24	-0.17050987
112	0xbdc971ad	-0.09836135
113	0xbe3de477	-0.18544184
114	0x3dbf6b26	0.09346609
115	0x3d7af0e0	0.061264873
116	0x3d3d220f	0.04617506
117	0x3dacfe59	0.084469505
118	0x3abca152	0.0014391339
119	0xbe609c59	-0.21934642
120	0xbc838b16	-0.016057532
121	0x3df16cf6	0.11788361
122	0x3da25f86	0.07928376
123	0xbdfcad88	-0.12337786
124	0x3d98c9de	0.07460378
125	0xbe6a1caf	-0.22862504
126	0xbd4f3850	-0.050590813
127	0xbd04d2ca	-0.032427587
128	0xbe5ef6ac	-0.21773785
129	0xbe85a6fe	-0.26103967
130	0xbe996928	-0.2996304
131	0xbdc0aac6	-0.094075724
132	0x3ddc0a5f	0.10744166
133	0xbe7ab0f3	-0.24481563
134	0xbdd7ac0c	-0.10530862
135	0x3d0cda4f	0.034387883
136	0xbe0cb1f4	-0.13739759
137	0xbe02c5d1	-0.12770773
138	0xbe445a1c	-0.19174999
139	0x3e0f5feb	0.14001434
140	0xbc600be4	-0.01367471
141	0xbcffd187	-0.03122784
142	0x3bf17887	0.0073691043
143	0xbcc5d761	-0.024150552
144	0x3d6d2498	0.057896227
145	0x3dd6cb1a	0.10487957
146	0xbe8f2ab5	-0.2796227
147	0xbde31df1	-0.11089695
148	0xbdae990a	-0.08525284
149	0x3d9a1936	0.0752434
150	0xbe8ac584	-0.27103817
151	0x3d9c9684	0.07645896
152	0xbc73043c	-0.0148325525
153	0xbeaa97a7	-0.33318827
154	0xbcfe24ec	-0.031023465
155	0xbb859bee	-0.004077426
156	0xbdd37606	-0.103252456
157	0xbe9fc3d2	-0.31204087
158	0x3e100d9f	0.14067696
159	0x3b558a85	0.0032583785
160	0x3c6ce386	0.014458543
161	0x3de84051	0.113403924
162	0xbd81522a	-0.063145
163	0xbdae7736	-0.085188314
164	0x3d9ca18d	0.07648001
165	0xbe9d9f38	-0.30785537
166	0xbdaa6baf	-0.0832132
167	0xbe352529	-0.17689957
168	0xbe334d21	-0.17509891
169	0xbeab2d76	-0.3343312
170	0xbd71d2f3	-0.059039067
171	0xbd492370	-0.04910606
172	0xbe230dea	-0.15923277
173	0x3ceee533	0.029162025
174	0x3ddc5108	0.10757643
175	0xbe22e8e3	-0.15909152
176	0x3df1fced	0.1181582
177	0x3d110e96	0.0354143
178	0x3d01aff6	0.03166195
179	0xbe227c7f	-0.15867804
180	0xbeb75dce	-0.35813755
181	0x3dfc3d9f	0.12316441
182	0xbea8daa6	-0.32979316
183	0xbcc7052b	-0.024294456
184	0x3dffc97c	0.12489602
185	0xbddc879f	-0.10768055
186	0xbd50cfe7	-0.05097952
187	0x3d645eb3	0.055754375
188	0x3d8a81e3	0.06763055
189	0x3d3ae3b6	0.04562732
190	0xbd51b37f	-0.05119657
191	0xbd9c940a	-0.07645424
192	0xbe27a0a7	-0.16369878
193	0xbe3b03e3	-0.18263201
194	0xbde387a7	-0.11109858
195	0xbd25cb6a	-0.040477194
196	0x3cbcdf3f	0.02305567
197	0xbd76440c	-0.06012349
198	0xbe319f57	-0.1734594
199	0xbe4985ea	-0.1967999
200	0xbe611d52	-0.21983841
201	0xbd3907fb	-0.045173626
202	0xbe01954e	-0.12654611
203	0x3da16425	0.07880429
204	0x3e2dbc40	0.16966343
205	0xbe67eb66	-0.22648391
206	0x3ca893e7	0.020578338
207	0x3dbd2d41	0.09237147
208	0xbe2ccd3e	-0.16875169
209	0xbbdec0a9	-0.006797869
210	0xbe4c3b00	-0.19944382
211	0x3d3bd008	0.04585269
212	0x3e14c20f	0.14527152
213	0xbe6d1d37	-0.23155676
214	0x3ca3a8a9	0.019977884
215	0xbe498f49	-0.19683565
216	0x3cc97a80	0.024594545
217	0xbe98e7e1	-0.2986441
218	0x3e84c9ff	0.2593536
219	0xbda82b90	-0.08211434
220	0xbe3f8dcc	-0.18706435
221	0xbe6f6c09	-0.23381056
222	0x3d9d3c4b	0.076775156
223	0xbe8f5134	-0.2799164
224	0xbd7bc15d	-0.061463702
225	0x3daaedf4	0.08346167
226	0xbe1e9ba6	-0.15489063
227	0xbdce14d7	-0.10062569
228	0x3d0b0845	0.033943433
229	0xbe22a988	-0.15884984
230	0xbd2cbdbc	-0.042173132
231	0x3db15237	0.08658259
232	0xbe775419	-0.24153174
233	0xbea78039	-0.32715014
234	0xbd89388f	-0.06700241
235	0xbcd505b7	-0.026003702
236	0xbdf5ae5a	-0.119961455
237	0x3d5d1c0a	0.05398182
238	0xbc6ab3d5	-0.014325102
239	0xbdc5e41f	-0.09662651
240	0x3c80cf60	0.015723884
241	0xbe0abcdc	-0.13548607
242	0xbd4367ae	-0.0477063
243	0xbe160099	-0.14648665
244	0xbd4801de	-0.048829906
245	0xbc7f972b	-0.015600006
246	0x3cce5e17	0.02519135
247	0xbf299453	-0.6624195
248	0x3e3aff81	0.1826153
249	0xbeed392c	-0.4633268
250	0x3c88f097	0.016716285
251	0xbe03b200	-0.1286087
252	0xbe908c54	-0.28232062
253	0xbd2654b9	-0.04060814
254	0x3d96fe0a	0.07372673
255	0xbd5aaacd	-0.053385545

critic.2.bias f4 [64]
0	0x3beef312	0.00729216
1	0xbd4399b4	-0.047754005
2	0xbd8b176c	-0.06791577
3	0x3d13f756	0.03612455
4	0x3e387bd9	0.18015994
5	0xbb820748	-0.003968153
6	0xbde602e6	-0.112310216
7	0x3c689a29	0.014196911
8	0x3c2239b3	0.009901452
9	0x3e9c19d1	0.30488446
10	0x3da10d64	0.07863882
11	0x3e427518	0.1898998
12	0xbdd9af54	-0.10629144
13	0xbc910e50	-0.01770702
14	0x3e25f9fb	0.16208641
15	0xbd93b3c3	-0.07212021
16	0xbe35dad3	-0.17759256
17	0x3cef90f7	0.02924393
18	0xbd0d0397	-0.03442725
19	0x3d87c752	0.06629814
20	0xbddbc3c9	-0.107307024
21	0xbd824873	-0.06361475
22	0xbe193aa3	-0.14963774
23	0x3d07e98f	0.033181723
24	0x3d899758	0.0671832
25	0x3e03fa18	0.12888372
26	0xbd5c0eb8	-0.053724974
27	0x3e8c6a0f	0.27424666
28	0xbdca7bc1	-0.098868854
29	0xbebbf3a3	-0.36709318
30	0xbe0a1037	-0.13482748
31	0xbe03b008	-0.1286012
32	0x3d58da40	0.052942514
33	0xbe31eade	-0.17374751
34	0x3d992f2b	0.074797
35	0xbe03de26	-0.12877712
36	0xbd446f47	-0.047957685
37	0x3d5ff4c3	0.054676782
38	0x3d9ce485	0.07660774
39	0x3d19460c	0.037420318
40	0x3d5a36c5	0.05327489
41	0xba48e04e	-0.00076628185
42	0x3dc3051c	0.09522459
43	0x3dd3f155	0.10348765
44	0xbcd5a5b1	-0.026079984
45	0xbd349e9f	-0.044096585
46	0xbe0385e0	-0.12844038
47	0x3d9066d4	0.07050863
48	0xbe04c0ad	-0.12964125
49	0x3e05a257	0.13050209
50	0xbe5cf79b	-0.21578829
51	0xbda12987	-0.07869249
52	0xbc8bc628	-0.017062262
53	0xbd58541a	-0.05281458
54	0xbe3dd13f	-0.18536852
55	0xbd087f47	-0.033324506
56	0xbd8c2340	-0.06842661
57	0x3d4fae07	0.050703075
58	0xbcc44037	-0.023956401
59	0x3dd382a3	0.10327651
60	0x3e0281ec	0.12744874
61	0x3cf39dcb	0.029738327
62	0x3dece7c3	0.115676425
63	0xbcb1729f	-0.0216611

critic.4.weight f4 [1, 64]
0	0xbd8d71bb	-0.06906458
1	0x3de0db08	0.10979277
2	0x3e39e6b6	0.18154415
3	0x3e38a5cc	0.18031996
4	0x3ef797c7	0.48357984
5	0xbe54fc55	-0.20799382
6	0x3e7abfed	0.24487276
7	0x3f4ff95e	0.8123988
8	0x3d3a890c	0.045540854
9	0x3e345edc	0.17614311
10	0x3db65e5d	0.08904717
11	0x3e11e648	0.14248002
12	0xbe16607c	-0.14685243
13	0x3ec0c71c	0.37651908
14	0x3e551fcf	0.20812915
15	0x3ead1581	0.3380547
16	0xbf15e66f	-0.5855474
17	0xbe38c22d	-0.18042822
18	0x3dec2561	0.11530567
19	0x3f1bea32	0.6090423
20	0x3db93bd1	0.09044612
21	0xbedf9069	-0.43664864
22	0x3eb1b70f	0.34709975
23	0x3de087da	0.10963412
24	0xbdd04e4e	-0.101711854
25	0x3e043bb8	0.12913406
26	0xbe9f1061	-0.31067184
27	0x3dfec1bb	0.12439295
28	0xbf8bf31e	-1.0933568
29	0xbf0b3904	-0.54383874
30	0x3db3f400	0.08786774
31	0xbea1d078	-0.31604362
32	0xbeeec984	-0.4663812
33	0xbf10967c	-0.5647962
34	0xbf8c3003	-1.0952152
35	0xbf261735	-0.6487916
36	0x3ea3e9a2	0.32014185
37	0x3df2a013	0.11846938
38	0x3e61a01f	0.22033738
39	0x3dfc42c2	0.123174205
40	0xbe6771cd	-0.22602005
41	0x3e8f8d78	0.2803762
42	0xbe2f7835	-0.17135699
43	0x3dfab06b	0.1224068
44	0x3e14e76c	0.14541405
45	0xbe03c1af	-0.12866853
46	0xbe06f3ac	-0.13178891
47	0x3df85b0f	0.12126743
48	0x3f198964	0.59975266
49	0x3e619b3b	0.22031872
50	0x3e2718cd	0.16318054
51	0x3f383d94	0.7196896
52	0xbf108abd	-0.564617
53	0xbf592076	-0.84815156
54	0xbebe6924	-0.3718959
55	0xbe5a75fd	-0.21334071
56	0xbf9113d2	-1.1334174
57	0x3e3eac19	0.18620338
58	0x3da71f88	0.08160311
59	0x3f3e89a1	0.74428755
60	0x3e92a4ee	0.28641456
61	0x3d80e419	0.06293506
62	0x3f1030aa	0.56324255
63	0xbe9d3be7	-0.30709764

exp_avg f4 [6]
0	0x38b5a451	8.661359e-05
1	0x39c3ad58	0.0003732245
2	0xba5dd6c0	-0.0008462481
3	0xb90268ed	-0.00012436854
4	0xb9834085	-0.00025034338
5	0xb9739cdf	-0.00023232725

exp_avg_sq f4 [6]
0	0x3753950c	1.2611283e-05
1	0x36d6e620	6.404487e-06
2	0x37d3b8ec	2.5239271e-05
3	0x36022564	1.9393274e-06
4	0x35b3cfca	1.3397014e-06
5	0x342822f2	1.5658932e-07

exp_avg f4 [64, 43]
0	0x38d0c885	9.9555626e-05
1	0xb942ff1d	-0.00018596319
2	0xb9e00412	-0.00042727642
3	0x38b5645f	8.649448e-05
4	0xb8fe2f0b	-0.00012120426
5	0x393dfb36	0.00018118028
6	0xb92b9e1a	-0.00016366728
7	0xb71a2137	-9.186849e-06
8	0x38af0899	8.346252e-05
9	0x38b93e02	8.833037e-05
10	0xb907ffdd	-0.0001296992
11	0xb9320186	-0.0001697597
12	0x392ea78b	0.00016656348
13	0xb9c293ba	-0.00037112628
14	0xba5a7bf8	-0.0008334513
15	0x3938bb17	0.00017617304
16	0xb97e9c95	-0.00024281659
17	0x39c350c0	0.00037253462
18	0xbb7f3a09	-0.0038944504
19	0x3af39fb3	0.0018587023
20	0x37699cee	1.392442e-05
21	0xb7823407	-1.5521435e-05
22	0xb8058aab	-3.1838816e-05
23	0xb4caba24	-3.7760867e-07
24	0xb863da00	-5.4324046e-05
25	0xb77f969a	-1.5234249e-05
26	0xb6a09033	-4.7851586e-06
27	0xb8927d00	-6.9851056e-05
28	0xb8456f7c	-4.7072288e-05
29	0xb6ad2abd	-5.160777e-06
30	0xb75b5c0e	-1.307485e-05
31	0xb73fa587	-1.1423027e-05
32	0x37249319	9.809411e-06
33	0xb8ecf263	-0.00011298505
34	0x3784c48b	1.5827149e-05
35	0xb8e018b2	-0.00010685752
36	0xb81ff53d	-3.813695e-05
37	0xb75b6a49	-1.3078164e-05
38	0xb73fb80e	-1.1427341e-05
39	0x3724929e	9.809299e-06
40	0x362dc4ca	2.5893555e-06
41	0xb8556e40	-5.0885836e-05
42	0xb8169989	-3.5905778e-05
43	0x391e3c5d	0.00015090541
44	0xb92283af	-0.0001549858
45	0xba05bb93	-0.0005101498
46	0xb8c66eee	-9.462038e-05
47	0xb95c2002	-0.00020992759
48	0x398c7263	0.00026788106
49	0xb8b34fe9	-8.5502696e-05
50	0x38203bc3	3.820263e-05
51	0xb7a020a2	-1.9088682e-05
52	0x39032d8a	0.00012510098
53	0x39afdbe4	0.00033542432
54	0x392894d0	0.00016077165
55	0x3984af7e	0.00025307754
56	0xb9ac9dad	-0.00032923874
57	0xba883d7b	-0.0010394299
58	0xb935d57c	-0.00017341034
59	0xb9b5a4f3	-0.00034645907
60	0x3a124e26	0.0005581103
61	0x3b9fba65	0.004874515
62	0xba128926	-0.0005589895
63	0x377550bb	1.46219345e-05
64	0xb6bb3caf	-5.580099e-06
65	0xb78ba2b2	-1.6645852e-05
66	0xb49fa140	-2.9733383e-07
67	0xb8943300	-7.0666894e-05
68	0xb7c1492d	-2.3041468e-05
69	0xb6b8ad43	-5.5037976e-06
70	0xb89fe6d2	-7.6247044e-05
71	0xb8266ff5	-3.9681752e-05
72	0xb6c298e2	-5.7994484e-06
73	0xb78150de	-1.5415655e-05
74	0xb80f7670	-3.420416e-05
75	0x3730c54d	1.0536355e-05
76	0xb914875b	-0.00014164804
77	0xb81d347f	-3.7480608e-05
78	0xb92b10fe	-0.00016314161
79	0xb830b166	-4.2126885e-05
80	0xb7815154	-1.541587e-05
81	0xb80f76bc	-3.4204437e-05
82	0x3730c489	1.0536177e-05
83	0xb758e564	-1.2928012e-05
84	0xb840eac3	-4.5995006e-05
85	0xb7903c80	-1.719431e-05
86	0xb6b2ce5f	-5.328838e-06
87	0x375d16d2	1.317794e-05
88	0x38b0a78b	8.423541e-05
89	0xb8f8265e	-0.00011832708
90	0xb81cdd13	-3.739919e-05
91	0x368fa0a8	4.280435e-06
92	0x38a1bdec	7.712454e-05
93	0xb86da585	-5.6659355e-05
94	0x3870103b	5.7235575e-05
95	0xb917e5f0	-0.0001448614
96	0x3892d3d3	7.001278e-05
97	0xb92d6880	-0.00016537495
98	0x373be777	1.1199961e-05
99	0x37c9fd02	2.4078883e-05
100	0x395227f8	0.0002004205
101	0xb9846285	-0.00025250405
102	0xb8bbd45b	-8.956409e-05
103	0x3891e5c8	6.956939e-05
104	0x3b0d3f2a	0.0021552541
105	0x3aa82c31	0.0012830553
106	0xb617a5d1	-2.2597271e-06
107	0x3510bb47	5.3916705e-07
108	0xb59640d9	-1.1194744e-06
109	0xb4394154	-1.7253234e-07
110	0x36ce8f6a	6.155974e-06
111	0x37025f40	7.770781e-06
112	0x3546b254	7.402025e-07
113	0x36e09c8e	6.6939456e-06
114	0x36df52d2	6.6555594e-06
115	0x3518525c	5.674426e-07
116	0x37e30257	2.7061598e-05
117	0x378b2b56	1.6590271e-05
118	0x3694a017	4.4293806e-06
119	0x380180fb	3.087612e-05
120	0xb7948cc7	-1.770853e-05
121	0xb6021a76	-1.9386912e-06
122	0x3637ef72	2.74085e-06
123	0x37e31477	2.7070038e-05
124	0x378b42ef	1.660126e-05
125	0x36949c99	4.428974e-06
126	0xb71c4d96	-9.316389e-06
127	0x38071a11	3.2210784e-05
128	0x37a90e03	2.0152895e-05
129	0xb9228bbf	-0.00015501583
130	0x395912fb	0.00020701803
131	0x3a17ee43	0.00057956966
132	0xb8cb4b7e	-9.693856e-05
133	0x392ddc5f	0.0001658066
134	0xb94cd400	-0.00019533932
135	0x392129c3	0.00015369714
136	0x386030d1	5.3451226e-05
137	0x38324a8e	4.250794e-05
138	0xb90b9185	-0.00013310283
139	0x3931510c	0.00016910228
140	0x3a1db7df	0.00060164736
141	0xb997ff79	-0.00028991306
142	0x39e015de	0.00042740902
143	0x3a98b1fe	0.0011649725
144	0xb954bfb0	-0.00020289305
145	0x39bc8597	0.00035957686
146	0xb98c28c6	-0.0002673326
147	0x3baafd04	0.00521815
148	0x3a0a18db	0.0005267986
149	0xb7b233ef	-2.1243437e-05
150	0x3739069f	1.1028401e-05
151	0x382532f7	3.938653e-05
152	0x34baaf22	3.4772626e-07
153	0x38a8f5fc	8.0566824e-05
154	0x37748543	1.4574561e-05
155	0x36d1284d	6.233377e-06
156	0x38c01771	9.15964e-05
157	0x386250cb	5.3957843e-05
158	0x36dcc0db	6.5789623e-06
159	0x379999d1	1.8310648e-05
160	0x37ba5ee8	2.2217122e-05
161	0x360f38c5	2.1341705e-06
162	0x3905eb57	0.0001277154
163	0xb5d3e95f	-1.5788645e-06
164	0x39134a41	0.00014046674
165	0x3845e01d	4.7177182e-05
166	0x3799ad12	1.8319613e-05
167	0x37ba77fa	2.2228796e-05
168	0x360f3ac8	2.1342876e-06
169	0x378304b1	1.5618602e-05
170	0x381aa448	3.686946e-05
171	0xb66ca82d	-3.5264632e-06
172	0x37f9f30b	2.9796289e-05
173	0xb72bbd23	-1.0236431e-05
174	0xb86688b3	-5.4963584e-05
175	0xb7ddc380	-2.643629e-05
176	0xb7f4d7ce	-2.9187559e-05
177	0x378abff5	1.6540269e-05
178	0x381aefc2	3.6939753e-05
179	0xb7e9632e	-2.7821949e-05
180	0xb8886b7d	-6.5050066e-05
181	0x379b01d5	1.8478293e-05
182	0xb7bdc6b5	-2.2623086e-05
183	0x382cc57a	4.119191e-05
184	0x38873103	6.446431e-05
185	0xb7b82119	-2.1949922e-05
186	0xb907675c	-0.00012913108
187	0xb8ae26ad	-8.3041705e-05
188	0xb88b091f	-6.6297354e-05
189	0x38b5c8dc	8.6681655e-05
190	0x39a53f5e	0.00031518465
191	0xb97208b3	-0.00023082159
192	0x371a6bce	9.2042155e-06
193	0xb5377038	-6.833611e-07
194	0xb6ccf553	-6.1082333e-06
195	0xb3aa38e6	-7.926592e-08
196	0xb72f7707	-1.0458526e-05
197	0xb4bee30e	-3.5555462e-07
198	0xb547f81d	-7.449433e-07
199	0xb73ae92e	-1.1140755e-05
200	0xb6d8e6fe	-6.4641927e-06
201	0xb55d29b0	-8.238958e-07
202	0xb398db07	-7.1178924e-08
203	0xb5041511	-4.920449e-07
204	0x343e6714	1.7732629e-07
205	0xb773120c	-1.4488131e-05
206	0xb704d9f8	-7.918563e-06
207	0xb7b05a20	-2.1022803e-05
208	0xb7070d49	-8.04972e-06
209	0xb39874dd	-7.099309e-08
210	0xb5040470	-4.918029e-07
211	0x343e676b	1.7732752e-07
212	0xb60bca61	-2.0830414e-06
213	0x37b7a106	2.1890282e-05
214	0x3751c8e9	1.2504149e-05
215	0xb7b7e51e	-2.1921991e-05
216	0x37d3302f	2.5175597e-05
217	0x389ec324	7.570375e-05
218	0xb93c02e9	-0.00017930161
219	0xb881edf3	-6.195521e-05
220	0x384f823d	4.947394e-05
221	0xb8eb1609	-0.000112097776
222	0x3809e83f	3.287964e-05
223	0xb8256b71	-3.9439128e-05
224	0xb458aded	-2.0179841e-07
225	0xb92b355b	-0.00016327707
226	0xb9a9a29c	-0.00032355345
227	0xb891d688	-6.954098e-05
228	0x388ade73	6.621787e-05
229	0x39170f6d	0.00014406229
230	0xb9ba6e10	-0.00035558688
231	0xb94f6a78	-0.00019780721
232	0x38397c9e	4.4223496e-05
233	0x3bc04795	0.0058679082
234	0xbb132d55	-0.002245744
235	0xb687db31	-4.0488308e-06
236	0x3698def6	4.555909e-06
237	0x371c00c1	9.2985e-06
238	0x34100e6f	1.3416296e-07
239	0x367599f1	3.659745e-06
240	0xb6a36635	-4.869677e-06
241	0x3494367b	2.7606788e-07
242	0x3709c626	8.211971e-06
243	0x36949224	4.4277567e-06
244	0x34dc5236	4.103801e-07
245	0xb7b938db	-2.2080194e-05
246	0xb8055ab3	-3.179414e-05
247	0x372d3d52	1.0325881e-05
248	0x36cc6b07	6.0921334e-06
249	0xb7d3e0e2	-2.525788e-05
250	0xb790ff68	-1.728507e-05
251	0x36c7789a	5.944702e-06
252	0xb7b93abd	-2.208107e-05
253	0xb8055bed	-3.1795284e-05
254	0x372d3d6a	1.0325903e-05
255	0x36e3396d	6.7718124e-06
