2026-01-29_07-44-49_Fase2_Empuje_V1/model_1200.pt (torch, 189045 bytes, 36 tensors)

std f4 [6]
0	0x3e132520	0.14369631
1	0x3dadb7e1	0.08482338
2	0x3dc8a3ba	0.09796853
3	0x3e52ba04	0.20578772
4	0x3e7ae66c	0.24501961
5	0x3f85e1d2	1.045954

actor.0.weight f4 [64, 43]
0	0xbc0c97a4	-0.008581076
1	0x3e8fb308	0.28066278
2	0xbd48245b	-0.048862796
3	0x3c89faf0	0.01684329
4	0xbe851931	-0.25995782
5	0xbea45af3	-0.3210064
6	0xbc1c12d0	-0.00952597
7	0xbe4fc79b	-0.20290987
8	0x3da005e1	0.07813621
9	0x3cc489e8	0.02399154
10	0xbc2f857d	-0.010712978
11	0x3d98fa49	0.07469613
12	0x3e2c6d8e	0.16838667
13	0x3e29c592	0.16579273
14	0x3c8febf7	0.017568571
15	0xbe12e20a	-0.1434404
16	0xbe0dc433	-0.13844375
17	0xbe8731f4	-0.264053
18	0xbd1e906b	-0.038711946
19	0xbb0a0795	-0.0021061648
20	0x3f2ed885	0.6829913
21	0x3e7a4910	0.24441934
22	0xbdf8c108	-0.12146193
23	0xbdf67d76	-0.120356485
24	0xbee4eb0f	-0.44710585
25	0xbd23bea0	-0.039976716
26	0xbe0dd327	-0.1385008
27	0xbe76f747	-0.24117766
28	0xbd6cf3f7	-0.05784985
29	0xbe8594a5	-0.2608997
30	0x3eb1f279	0.34755304
31	0x3e04070e	0.12893316
32	0x3efeeedb	0.49791607
33	0xbf0c32d5	-0.54765064
34	0x3d9751eb	0.073886715
35	0x3e417f85	0.18896301
36	0x3e856351	0.26052335
37	0x3eaa84b1	0.3330436
38	0x3e8ce044	0.2751485
39	0x3eaa06ec	0.33208406
40	0xbe8c1235	-0.2735764
41	0xb9d313ca	-0.000402598
42	0x3eb13e1e	0.34617704
43	0x3d259b4a	0.0404313
44	0x3e43871d	0.1909451
45	0x3e9a2586	0.30106753
46	0x3f199dba	0.60006297
47	0xbf108a17	-0.5646071
48	0xbd989d4f	-0.07451879
49	0x3d2826ff	0.041052815
50	0xbf28e11b	-0.65968484
51	0xbde4d789	-0.111739226
52	0xbe01082e	-0.12600777
53	0x3e16aa7c	0.14713472
54	0x3c820036	0.015869241
55	0x3e596d10	0.2123301
56	0xbe02acb7	-0.12761198
57	0xbca50e6f	-0.020148484
58	0x3ed50017	0.4160163
59	0xbf1e0fed	-0.6174305
60	0xbe003340	-0.1251955
61	0xbd3d5c6d	-0.046230722
62	0x3cc2a651	0.023760946
63	0xbf284037	-0.65722984
64	0x3f1de382	0.61675274
65	0x3d7bfed0	0.061522305
66	0x3e5d0efc	0.21587747
67	0xbf37e665	-0.7183593
68	0xbf077b4b	-0.52922505
69	0x3d8b402c	0.06799349
70	0xbe037188	-0.12836277
71	0xbd5c31fd	-0.05375861
72	0x3e9996a7	0.2999775
73	0xbef4e4e7	-0.4783089
74	0xbc973a23	-0.018460339
75	0x3ee2d7f7	0.44305393
76	0xbe6b82bd	-0.22999091
77	0xbeea0811	-0.4570928
78	0x3e968a1a	0.29402238
79	0x3ee16793	0.44024333
80	0xbedcc6fe	-0.4312057
81	0x3cec4031	0.028839203
82	0x3f24ad53	0.6432697
83	0x3de72530	0.1128639
84	0x3f234bcb	0.63787526
85	0xbdbfb9cc	-0.0936161
86	0xbedf8624	-0.4365703
87	0xbe088b3c	-0.13334364
88	0xbe53c400	-0.20680237
89	0x3c891d45	0.01673759
90	0x3c4f7d2c	0.012664121
91	0xbeb3da0b	-0.3512729
92	0x3e674b09	0.22587217
93	0xbdc2aead	-0.09505973
94	0xbed1d7db	-0.40984997
95	0xbe17d287	-0.14826404
96	0x3d6c8bf9	0.057750676
97	0x3d8f8079	0.07006926
98	0xbe5c1c40	-0.21495152
99	0xbdf4807b	-0.11938568
100	0xbe8bd9a7	-0.27314493
101	0x3da5f012	0.081024304
102	0x3c73ddc4	0.014884416
103	0xbe971654	-0.29509223
104	0xbb62056a	-0.003448809
105	0xbb7c0d54	-0.0038460093
106	0xbec35131	-0.38147882
107	0xbf208be6	-0.6271347
108	0xbdba55c5	-0.090983905
109	0xbd7a152e	-0.061055355
110	0x3d18928f	0.037249144
111	0xbd71b3a3	-0.059009206
112	0x3d296502	0.041356094
113	0xbec4232f	-0.38308093
114	0xbdbeeea2	-0.09322859
115	0xbd4f3f80	-0.050597668
116	0xbee072a2	-0.43837458
117	0x3e11a001	0.14221193
118	0x3e821665	0.2540771
119	0xbe6b26b7	-0.22963987
120	0xbd9a29e9	-0.07527525
121	0xbd238549	-0.039922033
122	0xbf143790	-0.5789728
123	0xbf10c880	-0.5655594
124	0x3e2fd8ab	0.17172496
125	0x3e6c5b34	0.23081666
126	0xbf2ff920	-0.6873951
127	0xbe297762	-0.16549447
128	0x3f03cfb9	0.51488835
129	0x3d41f632	0.04735393
130	0x3dac57dc	0.08415195
131	0x3e00ff84	0.12597471
132	0xbedde159	-0.4333599
133	0x3e9fb415	0.3119208
134	0x3d29ae9f	0.041426297
135	0x3d20b093	0.039230894
136	0xbe463e49	-0.19359697
137	0x3e02db30	0.12778926
138	0x3e0f33dc	0.13984627
139	0xbd98e4ea	-0.07465537
140	0x3e07fbab	0.13279597
141	0xbcf7ce6c	-0.030249797
142	0x3e020c83	0.12700085
143	0x3c8a4dee	0.016882863
144	0xbe697895	-0.22799905
145	0x3e452fdb	0.19256537
146	0x3e1bf8ff	0.15231703
147	0x3d804ff5	0.062652506
148	0x3bd3e3df	0.0064663733
149	0xbcd5ee98	-0.026114747
150	0x3b140134	0.0022583725
151	0xbcf1ea07	-0.029530538
152	0x3c66641b	0.014061953
153	0xbe857088	-0.26062417
154	0x3d8a4e42	0.06753208
155	0xbe4ef7d2	-0.20211723
156	0xbd0a72cc	-0.033800885
157	0x3d760e34	0.06007214
158	0xbcd62b68	-0.026143745
159	0xbd872c32	-0.066002265
160	0xbded0f7a	-0.115752175
161	0x3d9cc26e	0.07654272
162	0xbdc8c890	-0.09803879
163	0xbde759f0	-0.11296451
164	0xbd2ce85c	-0.042213783
165	0xbc84a7bf	-0.016193269
166	0xbd5acc84	-0.053417698
167	0xbdfcada6	-0.12337808
168	0x3d9dc224	0.07703045
169	0x3d84b7a7	0.064803414
170	0xbda22aa9	-0.07918293
171	0xbee7a5a5	-0.45243564
172	0x3e2d6a08	0.16934979
173	0xbf0b17de	-0.54333293
174	0xbf03a8fb	-0.5142972
175	0xbca029e5	-0.019551227
176	0x3d0af294	0.033922747
177	0x3e86c75c	0.26323974
178	0x3e0e6abf	0.13907908
179	0x3e6be9ba	0.23038378
180	0x3e9e33a4	0.30898774
181	0x3df445b7	0.119273596
182	0xbc311e6d	-0.010810477
183	0xbdc04c1f	-0.09389519
184	0x3e1e6af3	0.15470485
185	0xbe06ba20	-0.13156939
186	0xbd4e3cf0	-0.050351083
187	0x3d8439c5	0.06456331
188	0x3cc938bb	0.024563184
189	0x3e443b45	0.19163235
190	0xbd105c0d	-0.035244036
191	0xbc4cbc8d	-0.012496126
192	0x3dbe0356	0.0927798
193	0x3e3008db	0.17190878
194	0xbdc1453f	-0.09437036
195	0xbe39b430	-0.18135142
196	0xbe0f91b2	-0.14020422
197	0x3e02f7da	0.1278986
198	0xbd81acd6	-0.06331794
199	0xbd43752e	-0.047719173
200	0xbe3c7dee	-0.18407413
201	0xbe25a3a2	-0.16175702
202	0xbe78f0dc	-0.2431063
203	0x3e5d6a55	0.21622594
204	0xbe433415	-0.19062836
205	0xbea6eda8	-0.32603192
206	0xba229e34	-0.00062033837
207	0xbe518c8b	-0.20463769
208	0xbe9f88fb	-0.31159195
209	0xbea3dab4	-0.32002795
210	0x3e821383	0.2540551
211	0xbde6ad2c	-0.11263499
212	0x3e77ec6e	0.24211285
213	0xbf7ff48c	-0.99982524
214	0x3ed68cb5	0.41904226
215	0x3c93617c	0.01799082
216	0xbda10878	-0.078629434
217	0xbdb79d97	-0.08965605
218	0xbcc68582	-0.024233583
219	0x3e2c801b	0.16845743
220	0xbdbc6a8c	-0.0920001
221	0x3e938bc6	0.28817576
222	0xbf600814	-0.87512326
223	0x3d13933b	0.03602908
224	0xbd85f435	-0.065407194
225	0x3df867ed	0.12129197
226	0xbd369bc2	-0.044582136
227	0xbd51c165	-0.051209826
228	0xbe8a663c	-0.27031124
229	0xbe8017bd	-0.2501811
230	0xbe334e0f	-0.17510246
231	0x3ec861e0	0.39137173
232	0x3e1d192b	0.15341632
233	0x3d1b97d6	0.0379866
234	0x3a67e3d1	0.0008845898
235	0xbe544b31	-0.20731808
236	0xbe90a749	-0.28252628
237	0xb99f7c7d	-0.00030419594
238	0xbd9c9017	-0.076446705
239	0xbe8eb59c	-0.27872932
240	0xbebdeec2	-0.3709622
241	0xbe48c4e7	-0.19606362
242	0xbe4af828	-0.19821227
243	0xbe3309d3	-0.17484216
244	0xbe056d82	-0.13030055
245	0xbeb472b0	-0.3524375
246	0xbe38a682	-0.18032268
247	0x3ce373f3	0.02776525
248	0xbda2d014	-0.07949844
249	0x3e3d3fed	0.18481417
250	0xbd80d7f3	-0.06291189
251	0xbea73c9f	-0.32663438
252	0xbe8b4506	-0.27201098
253	0xbe1e4fca	-0.15460125
254	0xbd8e4949	-0.06947572
255	0xbeb49f5f	-0.3527784

actor.0.bias f4 [64]
0	0x3d2a6b8b	0.041606467
1	0x3e769ebe	0.24083993
2	0x3db7817b	0.08960243
3	0xbe029631	-0.12752606
4	0x3d13254e	0.03592425
5	0xbd803383	-0.06259825
6	0x3dd12cab	0.10213598
7	0xbc479d34	-0.012183476
8	0xbd8589e5	-0.06520442
9	0x3dc3c7a1	0.095595606
10	0xbec76565	-0.38944545
11	0x3e3f2312	0.18665722
12	0xbe9456f9	-0.28972605
13	0xbe5cf9af	-0.21579622
14	0x3d6d771a	0.057974912
15	0xbc7d78ad	-0.015470666
16	0xbb5520d6	-0.0032520792
17	0xbd87dbbd	-0.066337086
18	0xbeaa1209	-0.33216885
19	0xbdf1628f	-0.11786377
20	0xbed3f6fa	-0.41399366
21	0x3c5238d8	0.012830935
22	0xbe1d587e	-0.15365788
23	0xbe539af7	-0.20664583
24	0xbe23d5d7	-0.15999542
25	0x3d8cc493	0.06873431
26	0xbe08d311	-0.13361765
27	0xbd7d8065	-0.061890025
28	0x3cc6f497	0.024286551
29	0xbea3f58d	-0.32023278
30	0x3e9e34d7	0.3089969
31	0x3d1a1bfe	0.03762435
32	0xbd5a01d6	-0.053224407
33	0x3dacbfce	0.08435021
34	0xbe8bd8a3	-0.27313718
35	0x3d3a6744	0.045508638
36	0x3e180ab4	0.14847833
37	0xbe9ec2c8	-0.3100798
38	0xbe258ead	-0.16167708
39	0xbeba6fa0	-0.36413288
40	0xbde20e2a	-0.11037858
41	0xbe88d5c7	-0.267256
42	0xbd12aa0e	-0.035806708
43	0xbdcba12f	-0.09942853
44	0xbd5878db	-0.05284963
45	0x3dba74ae	0.09104286
46	0x3ded7988	0.11595446
47	0xbe1822dd	-0.1485705
48	0xbe2c45fd	-0.16823573
49	0x3c1b2004	0.009468082
50	0x3d674bca	0.056468762
51	0xbe0d9716	-0.13827166
52	0xbe05a1b6	-0.13049969
53	0xbe2b2a9c	-0.16715473
54	0xbd3110d2	-0.04322893
55	0x3c3d6e34	0.011561919
56	0x3e9fd3b7	0.31216213
57	0xbcf554c1	-0.02994764
58	0x3d03e9a1	0.032205228
59	0xbedcdc7d	-0.4313697
60	0xbeb01388	-0.343899
61	0x3d916724	0.07099751
62	0xbe453892	-0.19259861
63	0xbe282a4b	-0.16422383

actor.2.weight f4 [64, 64]
0	0x3d8b7148	0.06808716
1	0xbd55b90e	-0.052178435
2	0xbd29cf4a	-0.041457452
3	0x3d872379	0.06598563
4	0x3cfb9da0	0.03071481
5	0x3b6a45db	0.0035747204
6	0x3d8bb5ae	0.06821762
7	0x3dcadb10	0.09905064
8	0xbdea30fc	-0.11435124
9	0x3d6cb707	0.057791736
10	0x3d3f6680	0.04672861
11	0x3c71d3e4	0.014759991
12	0x3d733ef8	0.059386224
13	0xbdcaa121	-0.09894014
14	0x3eb86972	0.36017948
15	0xbe79d809	-0.24398817
16	0xbd821a5c	-0.06352684
17	0x3e3e5435	0.1858681
18	0xbc769220	-0.015049487
19	0xbcb79e21	-0.022414269
20	0x3d638b0e	0.055552535
21	0xbdc9bab1	-0.09850062
22	0xbe6c6334	-0.23084718
23	0x3d265809	0.0406113
24	0x3de62230	0.112369895
25	0xbc94a130	-0.018143266
26	0x3ddad71d	0.10685561
27	0x3e02974d	0.12753029
28	0x3e18028f	0.14844726
29	0xbdacd4c6	-0.08439021
30	0x3d9fb1d3	0.07797589
31	0x3e2dd43e	0.16975495
32	0x3e07abb4	0.13249093
33	0x3dde9aee	0.10869394
34	0xbe031c0e	-0.12803671
35	0x3d2f1a8b	0.042749923
36	0xbde5c28f	-0.1121875
37	0x3bffa75a	0.0078019323
38	0x3df79627	0.12089186
39	0x3d4a4364	0.049380675
40	0x3c4c0344	0.01245195
41	0xbd9eb28e	-0.077489
42	0xbe0a614d	-0.1351368
43	0xbd36d18e	-0.04463344
44	0x3d9a5640	0.07535982
45	0xbe39c99f	-0.18143319
46	0x3e1e03ce	0.15431139
47	0x3d97bb26	0.074087426
48	0xbd5c6c66	-0.053814314
49	0x3c2e4472	0.010636436
50	0x3c8244b3	0.015901899
51	0xbe04a3db	-0.12953131
52	0x3db396f5	0.08769027
53	0xbe0b07b8	-0.13577163
54	0x3ccb724b	0.024834773
55	0x3e6588fc	0.22415537
56	0xbd559361	-0.052142505
57	0x3dd12e05	0.10213856
58	0xbdc4ded3	-0.09612813
59	0xbd81ee8a	-0.06344326
60	0x3cb20f0a	0.021735687
61	0x3dc530e4	0.09628466
62	0xbe05c5eb	-0.13063781
63	0xbd610d20	-0.054944158
64	0xbea38a27	-0.3194134
65	0xbe7bfe25	-0.24608667
66	0x3d6a9074	0.057266667
67	0xbdc0f837	-0.09422343
68	0xbcdc1b23	-0.026868409
69	0x3e711c76	0.23546013
70	0x3da89e19	0.0823328
71	0xbdd47a17	-0.10374849
72	0xbe1f6d15	-0.15568955
73	0xbebb2c70	-0.3655734
74	0x3d816c82	0.06319524
75	0xbc3ed7cc	-0.01164813
76	0xbd7a6e68	-0.061140448
77	0x3d34829b	0.044069868
78	0xbe9cdf42	-0.30639082
79	0xbdb40ccf	-0.087915055
80	0x3c39d71f	0.011342793
81	0x3e700b1b	0.23441736
82	0x3e6c93bb	0.2310323
83	0x3ca2ae49	0.019858496
84	0x3ba47591	0.005018898
85	0xbd25d0a1	-0.040482167
86	0x3df70962	0.120623365
87	0x3af68c24	0.0018810076
88	0xbc09b888	-0.008405812
89	0x3c41feb0	0.011840507
90	0xbe4306c8	-0.19045556
91	0x3da78d91	0.081812985
92	0x3e1a9268	0.15094912
93	0x3e1ea84f	0.15493892
94	0xbd9b1f18	-0.0757429
95	0x3d979763	0.074019216
96	0x3de4c9eb	0.11171325
97	0xbdfaa105	-0.12237743
98	0xbcc2bde8	-0.023772195
99	0x3c91416e	0.017731395
100	0xbe223f1b	-0.15844385
101	0x3e55921c	0.20856518
102	0x3e10cebe	0.14141366
103	0x3d8a915f	0.067660086
104	0x3e2aadb9	0.16667832
105	0x3e0da844	0.1383372
106	0x3dc3ef99	0.09567184
107	0x3e3efd2b	0.18651263
108	0xbee01f7b	-0.43774018
109	0xbd959817	-0.073043995
110	0xbf2388d3	-0.6388065
111	0x3da0d57e	0.078532204
112	0x3e0f5f95	0.14001305
113	0xbd11ff51	-0.03564388
114	0x3c905422	0.017618243
115	0x3d05f913	0.03270824
116	0xbcfc611c	-0.030808024
117	0x3d88ac3b	0.06673475
118	0xbd6faf53	-0.05851681
119	0xbea02d1d	-0.3128442
120	0x3e2894d4	0.16463023
121	0x3c93a359	0.018022226
122	0xbd9c1269	-0.07620699
123	0x3d57c35b	0.05267654
124	0xbd9974ce	-0.07492982
125	0x3eae1c0c	0.34005773
126	0xbee5b98a	-0.44868118
127	0x3dea3ce9	0.11437399
128	0x3d0411e9	0.032243643
129	0xbc56d8cb	-0.013113211
130	0xbd810cd5	-0.06301276
131	0x3e269d36	0.16270909
132	0x3da49b67	0.08037453
133	0x3da1e780	0.07905483
134	0x3dd9a698	0.10627478
135	0xbe067012	-0.13128689
136	0x3d280ae0	0.041025996
137	0x3e104f91	0.14092852
138	0xbe7a1f17	-0.24425922
139	0x3e1512bc	0.14557928
140	0xbc64af6c	-0.013957839
141	0xbcee28d6	-0.029072206
142	0x3d986fd9	0.07443208
143	0x3d2e6fbf	0.042587038
144	0x3d2e98d7	0.04262623
145	0xbce8c216	-0.02841286
146	0x3c995957	0.018719358
147	0x3e341955	0.17587788
148	0xbb6231f1	-0.003451463
149	0xbdf0faaf	-0.11766564
150	0x3d3176f3	0.04332633
151	0xbe2057b8	-0.15658462
152	0xbd9e7b08	-0.0773831
153	0xbd1571b8	-0.036485404
154	0x3c42971f	0.01187685
155	0xbf17cf58	-0.59300756
156	0x3c80930a	0.015695114
157	0xbd165a85	-0.03670742
158	0xbeb0f9a0	-0.3456545
159	0x3c1b4c82	0.00947869
160	0xbe404c90	-0.18779206
161	0x3cce744d	0.02520194
162	0x3e31a0da	0.17346516
163	0xbd18e966	-0.03733196
164	0x3cf6399a	0.030056763
165	0x3d34ec36	0.04417058
166	0xbd966725	-0.07343892
167	0x3d1b0a99	0.037851904
168	0xbd663e51	-0.056211773
169	0x3d7e9131	0.062150184
170	0xba47fc14	-0.000762881
171	0x3d4353f6	0.047687493
172	0xbdbbc3ac	-0.09168181
173	0xbe249183	-0.16071133
174	0xbe650ec4	-0.22368914
175	0xbe566cfc	-0.20940012
176	0x3dd963c6	0.106147334
177	0xbd8df36b	-0.06931194
178	0x3e1e09ff	0.154335
179	0xbe86b473	-0.26309547
180	0xbd398e75	-0.045301873
181	0x3d46736e	0.048449926
182	0xbdbafe8f	-0.091305844
183	0xbe2ccc67	-0.16874848
184	0x3e2dacca	0.16960445
185	0x3de93f65	0.11389045
186	0x3d443ec6	0.047911428
187	0xbe47270d	-0.1944849
188	0xbc47fc82	-0.012206199
189	0x3caf7ef9	0.02142285
190	0xbe4465d5	-0.19179471
191	0x3da53150	0.08066046
192	0x3d0158b2	0.031578727
193	0xbdb7969c	-0.08964273
194	0xbdb53f07	-0.08849912
195	0x3d8f44dc	0.06995556
196	0x3d1403c1	0.036136393
197	0x3e1e5922	0.15463689
198	0x3d519e7b	0.05117653
199	0xbdaffe2a	-0.085934
200	0x3d1163bf	0.035495516
201	0x3d9b0dda	0.07571001
202	0x3dd6d177	0.10489171
203	0xbcdf07ce	-0.027225401
204	0xbcdf1238	-0.027230367
205	0xbda66011	-0.08123792
206	0x3e5f1fb7	0.21789442
207	0xbe1929da	-0.14957371
208	0x3c33b32f	0.010968014
209	0xba31f55c	-0.00067885756
210	0x3d7a5717	0.06111821
211	0xbc0dd42a	-0.008656541
212	0xbe01cf53	-0.12676744
213	0xbdc80aad	-0.09767661
214	0x3d880e72	0.0664338
215	0xbd9a17b6	-0.07524054
216	0x3d966870	0.073441386
217	0xbd26c68a	-0.040716685
218	0x3e4bf40c	0.19917315
219	0x3de78059	0.11303777
220	0xbcce5e33	-0.025191402
221	0x3bc35a11	0.0059616645
222	0xbe2a85df	-0.1665263
223	0xbd962df6	-0.07332985
224	0x3dd26d2e	0.102747306
225	0xbcd65f11	-0.026168378
226	0xbd6f206d	-0.058380533
227	0x3e0b7c10	0.13621545
228	0xbe0f92b8	-0.14020813
229	0x3ddc7719	0.107649036
230	0x3e40e9e7	0.18839227
231	0x3d1cd90d	0.038292933
232	0xbdb38132	-0.087648764
233	0xbe14cd2a	-0.14531389
234	0x3d16fb04	0.03686048
235	0x3d9ce5a4	0.07660988
236	0x3e069c96	0.1314567
237	0x3d42a87e	0.047523968
238	0x3cdc10d1	0.026863487
239	0x3e5449b6	0.20731243
240	0x3c4cf26d	0.012508971
241	0xbc9d4922	-0.019199912
242	0xbdc6d270	-0.097081065
243	0x3e1aff19	0.15136375
244	0xbd0d1d62	-0.03445185
245	0x3e17ff25	0.14843424
246	0xbdd202a6	-0.102544114
247	0x3e5ddd00	0.21666336
248	0xbe8959af	-0.26826236
249	0xbdedfb6c	-0.116202205
250	0x3e0914a8	0.13386786
251	0xbd29b1e1	-0.041429404
252	0x3dc30ab1	0.095235236
253	0x3d31b85e	0.043388717
254	0xbd23e94b	-0.040017407
255	0xbbfbcd8a	-0.0076844143

actor.2.bias f4 [64]
0	0xbdc720ef	-0.097230785
1	0x3dced112	0.10098471
2	0x3da1e185	0.079043426
3	0x3e096afe	0.1341972
4	0x3c6c2ee6	0.014415478
5	0x3ccc004f	0.02490249
6	0xbd783a85	-0.060602684
7	0x3e7db468	0.24775851
8	0xbda13e4f	-0.078732125
9	0xbdd590c0	-0.104279995
10	0x3eb1c717	0.34722206
11	0xbdc8aaa1	-0.0979817
12	0x3d65a0c7	0.056061532
13	0xbe8aa432	-0.27078396
14	0x3d7a6fe4	0.061141863
15	0x3e80e37b	0.25173554
16	0xbca4c0ab	-0.020111402
17	0xbe98b68a	-0.29826766
18	0xbc08d211	-0.008350865
19	0xbe404215	-0.18775208
20	0x3d8aea96	0.06783025
21	0xbd4fc2ee	-0.05072301
22	0xbe5d152e	-0.2159011
23	0xbd39492f	-0.04523581
24	0x3cf2d771	0.029643746
25	0x3e83a5e5	0.25712505
26	0x3da711c8	0.081576884
27	0x3e030e47	0.12798415
28	0xbd321bb2	-0.043483444
29	0xbdd6cdb0	-0.104884505
30	0x3dd9c8ce	0.106340036
31	0x3d85597a	0.06511207
32	0xbe89b7a1	-0.2689791
33	0xbe0fcc50	-0.14042783
34	0xbda16e01	-0.0788231
35	0xbe62a135	-0.22131808
36	0xbd41b69b	-0.047293287
37	0xbe2abdd6	-0.16673979
38	0xbca9cbe2	-0.020727102
39	0x3d24590b	0.04012398
40	0x3e061a62	0.13096002
41	0xbe965008	-0.29357934
42	0x39d9497f	0.00041444224
43	0x3cd550f8	0.026039585
44	0xbde4b01b	-0.11166402
45	0xbe1afddc	-0.15135902
46	0xbdebffa4	-0.11523369
47	0xbe013fe3	-0.12622027
48	0x3d9ecc86	0.077538535
49	0x3eaf2ae9	0.34212425
50	0xbd919574	-0.07108584
51	0xbe201cd0	-0.15635991
52	0x3e41b3a0	0.18916178
53	0x3d15f737	0.036612716
54	0x3dd2f696	0.10300939
55	0xbe992b33	-0.2991577
56	0x3e10643f	0.14100741
57	0x3d9b9526	0.07596807
58	0xbd1c11b5	-0.038102824
59	0xbdcd4c3a	-0.10024305
60	0x3c1f7136	0.009731581
61	0xbcf9561a	-0.030436564
62	0xbe42e865	-0.19033964
63	0x3e4d6351	0.20057417

actor.4.weight f4 [6, 64]
0	0xbe429d8d	-0.19005413
1	0xbdfac80b	-0.122451864
2	0x3c226b39	0.009913259
3	0xbe4d1ee7	-0.2003132
4	0xbcde2705	-0.027118215
5	0x3d65caea	0.056101717
6	0xbdc221c3	-0.09479096
7	0x3d8b5787	0.06803804
8	0x3d88a3b0	0.06671846
9	0xbd912636	-0.07087366
10	0xbe030a88	-0.12796986
11	0x3cff0ea9	0.03113492
12	0x3dcf32e5	0.10117129
13	0x3d5fdd90	0.054654658
14	0xbdaef98f	-0.08543693
15	0xbcd00be2	-0.025396291
16	0x3e039f95	0.12853844
17	0x3df0be19	0.11755008
18	0x3d8648b4	0.06556836
19	0x3dea8392	0.11450876
20	0x3ba9a3e1	0.0051770066
21	0xbe011185	-0.1260434
22	0x3d852334	0.06500855
23	0x3e208461	0.15675499
24	0x3e5695d5	0.20955594
25	0xbcb72eb6	-0.02236114
26	0x3da75d72	0.0817212
27	0xbd94fbff	-0.07274627
28	0xbcc10742	-0.023563031
29	0xbdcf153c	-0.10111472
30	0x3d131f93	0.035918783
31	0xbca04a38	-0.01956664
32	0x3d85cb4a	0.06532915
33	0x3e1a5b4c	0.1507389
34	0xbd2da023	-0.042389046
35	0x3d063495	0.03276499
36	0xbe039e5f	-0.12853383
37	0xbc2f6bf6	-0.010706892
38	0xbdae69e9	-0.085162945
39	0x3e5ab738	0.21358955
40	0x3db00aed	0.08595834
41	0x3d998046	0.07495169
42	0x3df84a0f	0.121235006
43	0x3db96e39	0.090542264
44	0x3e486a09	0.19571699
45	0x3dcd2c7b	0.100182496
46	0xbaaa006a	-0.0012970094
47	0x3d10e67d	0.03537606
48	0x3d4c8cc6	0.04993894
49	0x3a3f1973	0.0007289864
50	0xbdea6aea	-0.114461735
51	0x3c31c9db	0.010851349
52	0xbd8d4f2b	-0.06899866
53	0xbd73cce0	-0.059521556
54	0xbe40d0c9	-0.18829645
55	0xbcfafa1b	-0.030636838
56	0x3dceea47	0.101032786
57	0xbe187b64	-0.1489082
58	0x3d2dd7d3	0.042442154
59	0xbd333d18	-0.043759435
60	0xbd619bc9	-0.05508021
61	0x3d144018	0.036193937
62	0x3e627c64	0.22117764
63	0xbe0caa5a	-0.13736859
64	0x3cfa9c37	0.030592067
65	0x3df21088	0.11819559
66	0xbe6ad9ec	-0.22934693
67	0xbdc964e8	-0.098336995
68	0xbc2eb918	-0.010664247
69	0xbd852a36	-0.06502192
70	0x3d83cd0c	0.06435594
71	0xbd064cef	-0.032788213
72	0x3e11d08c	0.1423971
73	0xbd2d00b0	-0.042236984
74	0x3d98d396	0.07462232
75	0x3c9f0923	0.019413536
76	0xbe2b3c4c	-0.1672222
77	0xbc492524	-0.012276921
78	0x3d9034a0	0.070412874
79	0x3abb3399	0.0014282345
80	0x3db05f43	0.0861192
81	0xbce80040	-0.028320432
82	0x3d8ae640	0.06782198
83	0xbd9fe2c9	-0.07806928
84	0xbd2ae734	-0.0417244
85	0x3e06593c	0.13119978
86	0xbd8067f1	-0.06269825
87	0xbe0b6c5b	-0.13615553
88	0x3d512fa3	0.05107082
89	0x3d12e0db	0.03585897
90	0x3d985dc2	0.07439758
91	0xbc86de64	-0.016463466
92	0xbe08c554	-0.13356525
93	0xbd24cc02	-0.04023362
94	0xbe0bcc50	-0.13652158
95	0x3c00b7ed	0.007856351
96	0x3d476e84	0.04868938
97	0xbc07cd0d	-0.008288634
98	0x3dfb8b50	0.12282431
99	0x3b4fa5c7	0.0031684504
100	0xbd373542	-0.044728525
101	0xbd730864	-0.059334174
102	0xbd9098e8	-0.070604146
103	0x3dc98035	0.09838907
104	0x3e4c4eff	0.1995201
105	0xbdc6cc20	-0.097069025
106	0xbe814cef	-0.25254008
107	0x3d3d6174	0.046235517
108	0x3d992e2a	0.07479508
109	0x3e094b64	0.13407665
110	0x3db51c4b	0.08843287
111	0xbc3f09bf	-0.0116600385
112	0x3e05c439	0.13063134
113	0x3ce06791	0.027393134
114	0x3d5bfbb2	0.053706832
115	0x3e0c7192	0.13715199
116	0xbcc43127	-0.023949219
117	0xbbc8f01c	-0.006132139
118	0x3d30943d	0.04311012
119	0xbd0878d3	-0.033318352
120	0xbd5ca7d0	-0.053870976
121	0x3da01bd2	0.07817806
122	0xbda9956e	-0.082804546
123	0xbdef2067	-0.11676102
124	0x3db2673b	0.08711096
125	0x3d487903	0.04894353
126	0xbd91cad4	-0.071187645
127	0x3d0b1677	0.03395697
128	0x3c4667c3	0.0121097
129	0x3d86c628	0.06580764
130	0xbd751119	-0.05983076
131	0x3d2a1fc2	0.041534193
132	0x3d0d6803	0.03452302
133	0x3d137f5a	0.036010124
134	0x3b34c9a2	0.0027586003
135	0x3e26897a	0.1626338
136	0xbe86b0c5	-0.2630674
137	0x3db199ff	0.086719505
138	0x3db6be1b	0.089229785
139	0xbe7ea22d	-0.24866553
140	0xbde67764	-0.11253241
141	0xbe48e857	-0.1961988
142	0x3ce14500	0.027498722
143	0x3de0ab9c	0.10970232
144	0xbd4dbb63	-0.050227534
145	0xbe39ad51	-0.18132521
146	0x3db453f3	0.088050745
147	0xbe2c3995	-0.16818841
148	0x3d9dcf7d	0.07705591
149	0xbd8f0d27	-0.069849305
150	0xbe06f6f0	-0.13180137
151	0xbd98db2d	-0.074636795
152	0xbd8a8fe1	-0.06765724
153	0x3dfb7907	0.122789435
154	0x3db92762	0.09040715
155	0x3d8c510f	0.06851398
156	0xbe7f2e66	-0.24920043
157	0xbd17f993	-0.037103247
158	0x3dcb652e	0.09931408
159	0x3db5e007	0.088806204
160	0xbc6023f0	-0.013680443
161	0xbe3e985d	-0.1861281
162	0x3ca3235b	0.01991432
163	0xbe231297	-0.1592506
164	0xbd022b29	-0.031779442
165	0x3c0634d1	0.008191303
166	0x3b8f365f	0.004370495
167	0xbdc347db	-0.0953519
168	0x3c0390b6	0.008030107
169	0xbe3a858e	-0.1821501
170	0xbb881486	-0.004152837
171	0x3dc80f7f	0.09768581
172	0x3d196a38	0.037454814
173	0xbd1301b4	-0.035890296
174	0xbd5f279a	-0.054481126
175	0xbd87505a	-0.06607123
176	0x3e0f9b2d	0.14024039
177	0x3dff6d36	0.12472002
178	0xbdea249b	-0.11432763
179	0xbde2dfe0	-0.11077857
180	0x3dd95345	0.106115855
181	0x3d9d56fa	0.07682605
182	0x3c859e7c	0.016310923
183	0xbe3675e5	-0.1781841
184	0x3df501be	0.11963223
185	0x3dae760d	0.0851861
186	0x3cfcc785	0.030856857
187	0xbd761b59	-0.060084675
188	0xbd7da046	-0.061920427
189	0x3d4faf73	0.05070443
190	0xbe0c5d88	-0.13707554
191	0x3d3bfa54	0.04589303
192	0xbde2c5ae	-0.11072861
193	0x3e862b67	0.26204988
194	0xbda7913c	-0.08181998
195	0x3da4fc8c	0.08055982
196	0xbd900291	-0.070317395
197	0x3d8b59ea	0.06804259
198	0xbd7b4849	-0.061348233
199	0xbd9215db	-0.07133075
200	0x3e1e3c98	0.15452802
201	0xbdbcc357	-0.092169456
202	0x3d943381	0.07236386
203	0x3e52dfb7	0.20593153
204	0x3dd463ba	0.10370584
205	0xbe310e03	-0.17290501
206	0x3d90867a	0.07056899
207	0x3d9ae682	0.07563497
208	0xbd5496a1	-0.051901463
209	0xbe291477	-0.16511713
210	0xbe07e215	-0.13269837
211	0xbe23420c	-0.15943164
212	0xbdef53a5	-0.11685876
213	0x3dd35edb	0.103208266
214	0xbd53312a	-0.05156056
215	0xbde2a9e1	-0.11067558
216	0xbd20e72a	-0.039282955
217	0xbd07212d	-0.032990623
218	0xbdae61ae	-0.08514725
219	0x3dbe549d	0.092934825
220	0x3d96ffb2	0.07372989
221	0x3ce73a70	0.028226107
222	0x3e06ece9	0.13176312
223	0xbd25b76f	-0.04045814
224	0xbe0febf1	-0.14054848
225	0x3bbe9c2e	0.005816958
226	0xbdab3633	-0.08359947
227	0x3dc67f2e	0.09692226
228	0xbda4843a	-0.08033033
229	0xbc93f306	-0.018060219
230	0x38c60754	9.442741e-05
231	0x3e8a3c7a	0.26999265
232	0x3d230cb3	0.039807033
233	0x3d07e3cb	0.033176225
234	0x3e803785	0.25042358
235	0xbdfa0fcb	-0.122100435
236	0x3d53ab4f	0.051677044
237	0xbe151086	-0.14557084
238	0xbe73d315	-0.2381099
239	0x3e844299	0.2583206
240	0xbcebb49b	-0.028772643
241	0x3d92b8b8	0.071641386
242	0xbbb2aeb3	-0.0054529547
243	0xbe857d3c	-0.2607211
244	0xbd6ebb24	-0.05828394
245	0x3c649e58	0.013953768
246	0x3d9350e9	0.07193167
247	0xbdf293c7	-0.118445925
248	0x3e43f969	0.19138111
249	0xbcaaf200	-0.020867348
250	0xbcb1faba	-0.021726001
251	0xbda29fef	-0.07940661
252	0xbd521866	-0.0512928
253	0xbda9dc37	-0.08293956
254	0xbd6b8aed	-0.057505537
255	0xbd264e1b	-0.04060183

actor.4.bias f4 [6]
0	0xbe15cefc	-0.1462974
1	0x3cda09d7	0.02661602
2	0x3dd33f41	0.10314799
3	0x3e383a9a	0.17991105
4	0x3d5e26ce	0.054236226
5	0x3dbb3a8d	0.09142027

critic.0.weight f4 [64, 43]
0	0x3f11b357	0.56914276
1	0xbf1e5b09	-0.6185766
2	0xbf148269	-0.5801149
3	0xbdc0b8f9	-0.09410281
4	0x3e2ee663	0.17080073
5	0x3e96f75e	0.294856
6	0xbe09c04b	-0.1345226
7	0x3e17e9b3	0.14835243
8	0xbe34e917	-0.17667042
9	0xbbbaeaf3	-0.0057042777
10	0x3d95c0d6	0.07312171
11	0x3d3d81f7	0.046266522
12	0x3e94d5ce	0.2906937
13	0xbcb3b12e	-0.021935072
14	0xbe2333a2	-0.15937665
15	0x3d8da6d0	0.069165826
16	0xbb58f750	-0.0033106394
17	0x3d669797	0.05629691
18	0x3c5a6362	0.013329359
19	0xbb243574	-0.0025056275
20	0x3e5a3637	0.21309744
21	0x3f42c9f3	0.760894
22	0xbd0b3429	-0.03398529
23	0x3e8a32a4	0.2699176
24	0xbf007cca	-0.50190413
25	0x3d0a128b	0.03370909
26	0xbeae8cff	-0.34091946
27	0xbe7dec31	-0.24797131
28	0x3e802281	0.25026324
29	0xbe1bbef1	-0.15209557
30	0x3fa579f0	1.2927837
31	0x3e3423d4	0.17591792
32	0xbdf685d5	-0.12037245
33	0xbdc9fc11	-0.09862531
34	0x3d6c5ac1	0.057703737
35	0xbebd8961	-0.37018874
36	0xbf0b7e8a	-0.5448996
37	0x3f8b5a0c	1.0886855
38	0x3e71813d	0.23584457
39	0xbe528f4d	-0.20562477
40	0xbe8e004f	-0.2773461
41	0x3efae28d	0.4900097
42	0x3eabf9aa	0.33588916
43	0x3ee1f22a	0.4413007
44	0xbf042252	-0.5161487
45	0xbee85f49	-0.45385197
46	0xbe3826c9	-0.17983545
47	0x3e3eb80b	0.18624894
48	0xbe24bfbc	-0.16088766
49	0xbd852676	-0.065014765
50	0x3e399f42	0.18127158
51	0x3ca8f11c	0.020622782
52	0xbde1b4ea	-0.11020835
53	0xbe01139b	-0.12605135
54	0xbd6594eb	-0.056050222
55	0x3e5a8e87	0.21343432
56	0xbeaffb9b	-0.34371647
57	0xbed29011	-0.4112554
58	0xbe067ab7	-0.1313275
59	0x3e341ddd	0.17589517
60	0x3cc1db0a	0.023664016
61	0x3be9377a	0.007117209
62	0x3c204a8c	0.009783398
63	0x3f18d62f	0.5970182
64	0x3ee4375d	0.4457349
65	0xbec2d540	-0.38053322
66	0xbe095c9a	-0.13414231
67	0xbec36dc2	-0.38169676
68	0x3f2c7b81	0.6737595
69	0xbef250ba	-0.47327214
70	0xbe542d3b	-0.20720379
71	0xbaee9b77	-0.0018204291
72	0xbe644606	-0.22292337
73	0x4004cf21	2.0751421
74	0x3caf0cac	0.021368347
75	0xbf81f6f0	-1.0153484
76	0xbeaf9107	-0.34290335
77	0x3f0334f6	0.51252687
78	0xbe9cb195	-0.30604234
79	0xbeb30ae5	-0.3496925
80	0x40003f5e	2.0038676
81	0xbe0dbfc8	-0.1384269
82	0xbf95f2ee	-1.1714761
83	0xbf0f47e9	-0.559691
84	0x3e9449d9	0.2896259
85	0x3c91ffcc	0.017822169
86	0x3e5cd667	0.21566163
87	0xbeb09aed	-0.344932
88	0xbe1284c5	-0.1430846
89	0xbd8f26ea	-0.06989844
90	0xbcedc79f	-0.02902585
91	0x3e9070db	0.28211102
92	0x3cbc010a	0.022949714
93	0xbdab7e0e	-0.083736524
94	0x3c12fa3b	0.008970792
95	0x3d45f920	0.048333287
96	0x3dc078a4	0.093980104
97	0xbc12c77a	-0.008958692
98	0xbcf37f47	-0.029723777
99	0x3df9e90b	0.122026525
100	0x3ce24579	0.027621018
101	0xbe311254	-0.17292148
102	0xbe35399d	-0.17697759
103	0xbc96686d	-0.018360341
104	0x3a8f1e0c	0.0010918989
105	0xbac11d06	-0.0014733381
106	0xbd87bf15	-0.06628243
107	0x3f5fd423	0.8743307
108	0x3eeab3ab	0.458402
109	0x3f3bca4f	0.73355573
110	0x3e13b733	0.14425354
111	0xbe4905dc	-0.19631141
112	0x3df60353	0.12012353
113	0x3e4b1ddb	0.19835608
114	0x3f125b74	0.57170796
115	0x3d1275d7	0.035756912
116	0xc010fafc	-2.2653189
117	0x4036668c	2.850009
118	0xbfaf3310	-1.3687458
119	0xbe10ce94	-0.14141303
120	0xbed73b0b	-0.42037234
121	0xbc8a7ba7	-0.016904665
122	0x3e013119	0.12616386
123	0xc00eb8a6	-2.23002
124	0x40365eff	2.849548
125	0xbfbdcc43	-1.4827961
126	0x3e2f1919	0.17099418
127	0x3ce88691	0.028384479
128	0x3dd3c56f	0.10340392
129	0x3d20351a	0.03911314
130	0xbe8acde2	-0.271102
131	0xbd9ca2c4	-0.076482326
132	0x3e6944bf	0.22780131
133	0xbc8d2d14	-0.017233409
134	0xbdf59b10	-0.119924664
135	0xbc525927	-0.012838638
136	0x3d4ae05f	0.049530383
137	0x3e3505d4	0.17678005
138	0xb9ee9dd3	-0.00045512486
139	0xbd8a5dd7	-0.0675618
140	0x3cf36e46	0.029715668
141	0xbda33d27	-0.07970648
142	0xbceeea83	-0.029164558
143	0x3da40ea7	0.08010607
144	0x3e63770a	0.22213379
145	0x3e084518	0.13307607
146	0xbe08cc82	-0.13359264
147	0x3b2c52f0	0.0026294552
148	0xbb0e6b19	-0.0021731316
149	0xbf63363c	-0.8875463
150	0x3fa9e984	1.3274388
151	0x3ede6b39	0.4344118
152	0x3f4515c6	0.7698635
153	0xbf398f08	-0.72483873
154	0x3f830391	1.0235463
155	0x3e6014a6	0.21882877
156	0xbe4c41a9	-0.19946922
157	0x3f618126	0.8808769
158	0x3e3c671b	0.18398707
159	0x3e9aae5c	0.3021115
160	0xbf37a2dc	-0.7173288
161	0xbe45a9bd	-0.19303031
162	0xbc956e32	-0.018241022
163	0xbeae93d3	-0.34097156
164	0x3e081c31	0.13292004
165	0xbdb8cdaf	-0.09023606
166	0x3e4c98ef	0.19980215
167	0xbf2b2338	-0.66850615
168	0xbebb6677	-0.36601612
169	0x3f3c04b2	0.73444664
170	0xbf0f851b	-0.5606248
171	0xbe9db2bc	-0.30800426
172	0x3e9ccc02	0.30624396
173	0xbdbdeeed	-0.09274087
174	0xbbec9f63	-0.007221149
175	0x3e26e7ab	0.16299312
176	0xbdbb559f	-0.0914719
177	0x3df680b2	0.120362654
178	0x3d3213bb	0.043475848
179	0x3e100e26	0.14067897
180	0x3c5e2cb0	0.013560459
181	0x3bffd986	0.0078079132
182	0x3d8bb4e2	0.0682161
183	0xbc8588c5	-0.016300568
184	0x3e381c89	0.17979635
185	0xbdc02ab3	-0.09383144
186	0xbda338a7	-0.0796979
187	0xbde962ef	-0.11395823
188	0xbd670aeb	-0.056406897
189	0x3e52691c	0.20547909
190	0xbcd88eaa	-0.026435215
191	0x3bf7dda2	0.0075642625
192	0xbe7df525	-0.24800546
193	0xbef7e934	-0.48420107
194	0xbf0741f4	-0.5283501
195	0xbd96e5a5	-0.0736802
196	0x3ee2de52	0.44310242
197	0x3efa45e4	0.48881447
198	0x3c9f08dc	0.019413404
199	0x3d8d4b89	0.06899173
200	0xbeb12ab6	-0.34602898
201	0xbe5bbec1	-0.21459486
202	0xbf78d522	-0.97200215
203	0xbed90155	-0.4238383
204	0xbf8b4cfb	-1.0882868
205	0xbe2feb99	-0.17179717
206	0xbd96f7bd	-0.07371471
207	0xbe1ce6f6	-0.1532248
208	0xbd15c11a	-0.03656111
209	0xbf518417	-0.8184218
210	0xbf02f2fa	-0.51152
211	0xbf90f9be	-1.1326215
212	0xbe1816bc	-0.14852422
213	0xbe91585a	-0.2838772
214	0xbb739266	-0.0037166118
215	0x3c127d92	0.008941071
216	0xbc7e5084	-0.015522126
217	0xbd0a618c	-0.033784434
218	0xbdc71c92	-0.09722246
219	0x3cef9938	0.029247865
220	0xbdbe5ec5	-0.092954196
221	0x3d78a52b	0.06070439
222	0xbc588597	-0.013215444
223	0xbd0ce9b9	-0.034402583
224	0x3cc769ad	0.024342382
225	0xbabc98c6	-0.0014388792
226	0xbbbc1843	-0.005740197
227	0xbe01cf10	-0.12676644
228	0x3d82ac58	0.06380528
229	0x3d4534fb	0.04814623
230	0xbdfb579e	-0.12272571
231	0xbdb74a35	-0.08949701
232	0x3cff2957	0.031147642
233	0x3b5d72b5	0.0033790295
234	0x3912196d	0.00013933117
235	0xbd5ab187	-0.05339196
236	0x3fa00bf0	1.2503643
237	0xbf871dae	-1.0555933
238	0xbf2d7551	-0.67757136
239	0xbfa23fc7	-1.2675713
240	0x40050267	2.0782716
241	0x3dc2e636	0.095165655
242	0xbee6dcd6	-0.4509036
243	0xbeb3bec9	-0.35106495
244	0x3b120175	0.00222787
245	0xbd62f654	-0.055410698
246	0x3e3c9b98	0.1841873
247	0x3f019cf9	0.50630146
248	0x3e8c1956	0.2736308
249	0x3d83976d	0.064253666
250	0x3ec1de66	0.3786499
251	0xbdf26cb7	-0.11837142
252	0x3d1773a9	0.036975536
253	0x3eb8e57a	0.36112577
254	0x3ed3e017	0.41381904
255	0xbe34f4f9	-0.17671575

critic.0.bias f4 [64]
0	0xbdbe78d4	-0.0930039
1	0xbe639457	-0.22224556
2	0x3e3aca43	0.18241219
3	0x3ec57023	0.38562116
4	0xbe2205b1	-0.15822484
5	0x3c5f303a	0.013622338
6	0xbc0e577e	-0.008687852
7	0xbdb01e79	-0.08599562
8	0x3e253ff4	0.16137677
9	0xbe09308d	-0.13397427
10	0x3dfb438c	0.12268743
11	0xbebf32f5	-0.37343565
12	0xbae89db8	-0.0017747199
13	0x3d9ea0d2	0.07745518
14	0xbe88d18f	-0.2672238
15	0x3ecdd795	0.4020354
16	0xbeb1fdad	-0.34763852
17	0xbe21ce86	-0.15801439
18	0x3ec0d8c9	0.37665394
19	0xbd7a8691	-0.06116349
20	0xbebd7a4a	-0.37007362
21	0xbe296bb5	-0.16544993
22	0x3e932a57	0.2874324
23	0xbe2a393d	-0.16623397
24	0x3e261c9e	0.16221854
25	0xbc7ac180	-0.015304923
26	0xbebedf82	-0.37279898
27	0x3d07324d	0.033006955
28	0x3e0327e6	0.12808189
29	0x3e2a068b	0.16604058
30	0x3ed1c91e	0.40973753
31	0xbdef1985	-0.11674789
32	0xbe1bbe69	-0.15209354
33	0x3e538ab4	0.2065838
34	0x3d5b41d0	0.05352956
35	0xbeb4808b	-0.3525432
36	0xbe0f6772	-0.14004305
37	0x3d4e8826	0.05042281
38	0x3e080d3b	0.13286297
39	0x3e62b41f	0.22139023
40	0x3ed39041	0.41320994
41	0x3dfbc937	0.12294238
42	0xbce9f953	-0.02856127
43	0xbda12aaa	-0.07869466
44	0xbcdd086d	-0.026981557
45	0xbe3074c7	-0.17232047
46	0xbe396db1	-0.1810825
47	0x3e4bd9cb	0.199073
48	0x3e6ed60c	0.2332384
49	0xbea0a81d	-0.3137826
50	0xbe00459c	-0.12526554
51	0x3de0132a	0.10941155
52	0xbc5bb996	-0.013410946
53	0x3e7aa2f0	0.24476218
54	0x3ebbdaa0	0.36690235
55	0x3db9f78f	0.09080421
56	0x3def29e7	0.11677914
57	0x3bd494e9	0.006487478
58	0xbe964cb7	-0.29355404
59	0xbe708198	-0.23486936
60	0xbe048803	-0.1294251
61	0xbdf191f0	-0.117954135
62	0x3c01dc48	0.007926054
63	0xbd953b03	-0.07286646

critic.2.weight f4 [64, 64]
0	0x3d1e95e1	0.038717154
1	0x3e3a78b1	0.18210103
2	0x3c6c6ac1	0.014429749
3	0xbde1d30c	-0.11026582
4	0x3b1a69c4	0.0023561576
5	0xbd02d5ca	-0.031942166
6	0x3d1828af	0.037148174
7	0xbd949ac6	-0.07256083
8	0xbe81dc27	-0.25363275
9	0xbd118c53	-0.035534214
10	0xbe32f2b0	-0.1747539
11	0x3b11ec05	0.0022265923
12	0xbd0b37b4	-0.03398867
13	0x3d837e06	0.064205214
14	0x3e0d6282	0.13807109
15	0x3d9a3ab3	0.07530727
16	0x3dee1d5d	0.11626694
17	0x3d913bf5	0.07091514
18	0x3d8971d4	0.06711164
19	0x3d735670	0.059408605
20	0x3e19a6cd	0.15005036
21	0x3d17ef3a	0.03709338
22	0xbe585c35	-0.21128924
23	0x3d26d32d	0.040728737
24	0xbe2e5533	-0.17024688
25	0xbd535da8	-0.05160299
26	0x3e87e506	0.2654192
27	0xbdf6bed3	-0.120481156
28	0xbd7af2c4	-0.061266676
29	0xbc23dada	-0.010000909
30	0x3d47e266	0.048799895
31	0xbc554581	-0.013017059
32	0xbc172a92	-0.009226458
33	0xbccd6322	-0.025071684
34	0xbde50490	-0.11182511
35	0x3dd2cf2d	0.10293422
36	0x3d2afe11	0.041746203
37	0x3d3b3937	0.04570886
38	0xbc975431	-0.018472763
39	0xbdfa7461	-0.12229229
40	0xbe39b23b	-0.18134396
41	0xbdbc5ae3	-0.09197023
42	0x3dc99364	0.09842566
43	0x3e1e035c	0.15430969
44	0xbd14f425	-0.036365647
45	0xba4d33ac	-0.0007827829
46	0xbd9d64cb	-0.0768524
47	0xbdecbefe	-0.11559866
48	0xbd031f80	-0.032012463
49	0xbd925c56	-0.07146518
50	0x3dbb019b	0.091311656
51	0xbe2f65e2	-0.17128709
52	0xbe057ac6	-0.13035116
53	0x3d7045cb	0.05866031
54	0x3d697360	0.056994796
55	0xbdc6c663	-0.09705808
56	0xbd8e9d25	-0.06963567
57	0xbd79555f	-0.06087243
58	0xbb66d907	-0.0035224573
59	0x3c466c6d	0.012110812
60	0x3d8eec39	0.0697865
61	0xbd2c421e	-0.04205524
62	0xbd6d9788	-0.05800584
63	0xbdcbac3e	-0.09944962
64	0xbdf2d5db	-0.11857196
65	0xbe23caf0	-0.15995383
66	0x3d5e8304	0.054324165
67	0xbe5ece63	-0.21758418
68	0xbde0e15c	-0.10980484
69	0xbd90b21b	-0.07065221
70	0x3dcff8fd	0.101549126
71	0xbd3cf833	-0.04613514
72	0x3de2cc35	0.11074106
73	0x3c19e9e5	0.009394144
74	0x3dd3f511	0.10349477
75	0xbd0504b6	-0.032475196
76	0xbe493bc4	-0.19651705
77	0x3db031a8	0.08603221
78	0xbe2aee46	-0.16692457
79	0xbe01415e	-0.12622592
80	0x3e01bb15	0.12669022
81	0xbdf5512c	-0.11978373
82	0xbe0009cd	-0.12503739
83	0x3e194487	0.14967547
84	0xbd921a05	-0.07133869
85	0xbd57e93a	-0.052712657
86	0xbd429021	-0.047500733
87	0xbd93ff8f	-0.07226478
88	0xbd981139	-0.0742516
89	0xbe1aab9f	-0.15104531
90	0xbe1bd13a	-0.15216532
91	0x3dae1d31	0.085016616
92	0xbcf619b7	-0.030041559
93	0x3d13333a	0.035937525
94	0x3a0959e4	0.000523953
95	0x3d80c581	0.06287671
96	0x3d553f38	0.052062243
97	0x3daef536	0.08542864
98	0x3cf5a4b8	0.02998577
99	0xbd821020	-0.06350732
100	0xbe50f3e4	-0.20405537
101	0xbe48f09d	-0.19623037
102	0xbc71690f	-0.014734521
103	0xbe5ddd56	-0.21666464
104	0xbdde3375	-0.108496584
105	0x3db7f5e1	0.089824446
106	0xbdf055a3	-0.11735084
107	0xbe06e4a7	-0.13173161
108	0xbc7eaaf4	-0.015543688
109	0xbbab76a5	-0.0052326494
110	0xbdf0f664	-0.11765745
111	0xbe704bab	-0.23466365
112	0xbe3108f7	-0.17288576
113	0xbe0e9321	-0.13923313
114	0x3d389a97	0.045069303
115	0x3cbaa8ec	0.022785626
116	0xbda27225	-0.079319276
117	0x3dd51548	0.1040445
118	0xbdae07c3	-0.08497574
119	0xbe75a154	-0.23987323
120	0xbd39655a	-0.045262672
121	0x3dfc7952	0.123278275
122	0x3d934b04	0.071920425
123	0xbdaab997	-0.0833618
124	0x3d5ae1cf	0.053438004
125	0xbe0e8581	-0.13918115
126	0xbe15c8ab	-0.1462733
127	0xbc58199d	-0.0131897
128	0xbe3683df	-0.17823742
129	0xbe4adf06	-0.19811639
130	0xbe3708f9	-0.17874517
131	0xbd80a6d0	-0.06281817
132	0x3ca803de	0.020509657
133	0x3d8bcd8d	0.06826315
134	0xbd6aec96	-0.057354532
135	0xbc8dd275	-0.017312268
136	0x3e17682b	0.1478583
137	0xbd9894a2	-0.074502245
138	0x3e53ca22	0.20682576
139	0x3dc16806	0.09443669
140	0xbd41df6e	-0.04733222
141	0x3d677062	0.05650366
142	0x3c4406b6	0.011964491
143	0xbbae8a29	-0.0053265286
144	0x3e3b40da	0.18286458
145	0x3d588a07	0.052866008
146	0xbd9d2349	-0.07672746
147	0xbd9525c0	-0.07282591
148	0xbd4592f6	-0.048235856
149	0x3dafa82d	0.08576999
150	0x3d191d44	0.037381425
151	0x3cc93721	0.02456242
152	0xbd00f018	-0.03147897
153	0xbb1ea988	-0.0024209935
154	0xbe3e49bb	-0.18582813
155	0xbc8591d9	-0.016304897
156	0x3d8bda70	0.06828773
157	0xbde03fe4	-0.10949686
158	0x3dc84d15	0.09780327
159	0x3d9411a1	0.07229925
160	0x3ccb4bba	0.024816383
161	0x3ddb4fc7	0.10708576
162	0xbc497fd3	-0.012298542
163	0xbdbf9064	-0.09353712
164	0x3d867173	0.065646075
165	0xbdd88a25	-0.10573224
166	0xbdf2a9fb	-0.118488275
167	0xbbb6af51	-0.0055750986
168	0xbd9717ad	-0.07377563
169	0x3c9535ff	0.018214224
170	0x3bbd917f	0.0057851668
171	0xbc719675	-0.014745344
172	0xbd89f382	-0.067358986
173	0xbd90fe3c	-0.07079741
174	0x3db19649	0.08671243
175	0xbda9f3c8	-0.08298451
176	0x3d7a3708	0.06108764
177	0xbd4211dc	-0.047380313
178	0xbcfe37fe	-0.031032559
179	0xbdf1e0d8	-0.11810464
180	0xbd92e8bc	-0.07173297
181	0x3d8c8a6e	0.06862341
182	0xbe30f762	-0.17281869
183	0x3d99beec	0.075071186
184	0xbcc10611	-0.023562463
185	0x3e1d015f	0.15332554
186	0xbd2d4864	-0.042305365
187	0x3d965978	0.073412836
188	0x3de8897f	0.1135435
189	0x3de6f557	0.112772636
190	0xbd893f4c	-0.06701526
191	0xbdad557c	-0.084635705
192	0xbde23ba2	-0.1104653
193	0xbdd0ee49	-0.10201699
194	0xbde63e7f	-0.11242389
195	0xbd3d6791	-0.046241347
196	0x3d1fc694	0.03900774
197	0x3e116188	0.14197361
198	0xbdd28eec	-0.102811664
199	0xbe65494d	-0.22391243
200	0x3d49cc1b	0.049266916
201	0x3d77cd26	0.06049838
202	0x3dc9c448	0.09851891
203	0x3dafa2be	0.085759625
204	0x3de09dbd	0.10967586
205	0xbde4bcae	-0.111688
206	0x3adc81e7	0.0016823382
207	0xbd0b50a7	-0.034012463
208	0xbcbb2f12	-0.022849593
209	0xbda71135	-0.08157579
210	0xbe33a1da	-0.1754221
211	0xbd3cdfbd	-0.04611181
212	0x3e29c9f0	0.1658094
213	0xbe32426e	-0.17408153
214	0xbce489eb	-0.027897796
215	0xbe7c6fa5	-0.24651964
216	0xbca70446	-0.02038778
217	0xbe10f1d6	-0.14154753
218	0x3e382531	0.17982937
219	0xbe00da1c	-0.12583202
220	0x3d16b364	0.036792174
221	0xbe448f91	-0.19195391
222	0x3b3fed0c	0.0029285578
223	0xbe2b34fc	-0.1671943
224	0x3c88e5d1	0.016711148
225	0x3d506925	0.050881524
226	0xbdd63694	-0.10459629
227	0xbc500460	-0.012696356
228	0xbd0325b9	-0.032018397
229	0xbd9fe54d	-0.078074075
230	0xbdba64bc	-0.09101245
231	0x3d8eff93	0.06982341
232	0xbe523b7f	-0.20530508
233	0xbd5259d7	-0.05135521
234	0x3bb62b42	0.005559356
235	0x3d11bbc6	0.035579465
236	0xbd5fdc84	-0.05465366
237	0xbda290a7	-0.079377465
238	0xbd44d48b	-0.04805426
239	0x3cba6a26	0.022755694
240	0xbd9f7217	-0.07785433
241	0xbd94f140	-0.07272577
242	0xbd9557dd	-0.07292149
243	0xbd5dff39	-0.054198477
244	0xbbdb893a	-0.0066997083
245	0xbd8175ba	-0.06321283
246	0x3cb25ff8	0.021774277
247	0xbf125859	-0.5716606
248	0xbc8b8090	-0.017029077
249	0xbdec7774	-0.115462214
250	0x3d9714e1	0.07377029
251	0xbdc21b71	-0.0947789
252	0xbe65bc17	-0.22435032
253	0xbce340a0	-0.027740777
254	0x3cb86a81	0.022511723
255	0x3bd7f486	0.0065904288

critic.2.bias f4 [64]
0	0xbbadbb92	-0.005301901
1	0xbdac9c36	-0.08428232
2	0xbe01c1b4	-0.12671548
3	0xbd2ca817	-0.04215249
4	0x3d950655	0.07276598
5	0x3cfba6b1	0.030719133
6	0xbe0d9ff6	-0.13830552
7	0xbda708f6	-0.08156006
8	0x3d908d8c	0.07058248
9	0x3e6c4c76	0.23076043
10	0x3b2461ff	0.0025082824
11	0x3e049967	0.12949143
12	0xbd82639b	-0.063666545
13	0xbdbca56e	-0.09211241
14	0x3dc0ae56	0.09408252
15	0xbe21c5bc	-0.15798086
16	0xbe08d66e	-0.13363048
17	0x3d7d3f92	0.061828203
18	0xbd371c79	-0.044704888
19	0x3e4ef153	0.20209245
20	0xbd9ba42a	-0.07599671
21	0xbd947553	-0.0724894
22	0xbe2066dc	-0.15664238
23	0x3be5cd26	0.007012981
24	0x3db3d80e	0.087814435
25	0x3dd1c097	0.10241812
26	0xbdb38fe5	-0.0876768
27	0x3e8ee545	0.27909294
28	0x3ce94008	0.028472915
29	0xbe9ee7f8	-0.31036353
30	0xbe410327	-0.18848859
31	0x3cb16ac4	0.021657355
32	0x3d9e65ee	0.07734285
33	0xbddd9096	-0.10818593
34	0x3dada713	0.084791325
35	0xba0cb3ab	-0.0005367349
36	0xbd9f4cce	-0.07778321
37	0x3d31acec	0.0433778
38	0x3aa8637a	0.0012847029
39	0xbc203149	-0.0097773755
40	0xbd8f7858	-0.070053756
41	0xbd575336	-0.05256959
42	0x3dcb6d17	0.099329166
43	0x3dd938d1	0.1060654
44	0xbc95380f	-0.018215207
45	0xbca47833	-0.020076847
46	0xbdd4d04f	-0.10391294
47	0x3d43696e	0.047707967
48	0xbea8b694	-0.32951796
49	0x3d8a8696	0.067639515
50	0xbe8c423d	-0.27394286
51	0xbbc07478	-0.005873259
52	0xbbd1d96a	-0.0064040916
53	0xbc0adf09	-0.008476027
54	0xbe1c9a37	-0.15293203
55	0xbca4c6a4	-0.02011425
56	0xbdf1e166	-0.118105695
57	0x3d0ecd63	0.03486384
58	0xbdb8440d	-0.08997355
59	0x3d413d04	0.04717733
60	0x3dab5d17	0.08367365
61	0x3b06b2b5	0.0020553295
62	0x3d26693d	0.040627707
63	0xbca7d7b5	-0.0204886

critic.4.weight f4 [1, 64]
0	0xbc61d6b9	-0.013784104
1	0x3d9f9fd6	0.07794158
2	0x3d9f7806	0.077865645
3	0x3d784159	0.060609195
4	0x3df2b2ab	0.118504845
5	0xbdc5d953	-0.09660592
6	0x3e3a965f	0.18221425
7	0x3e9639bb	0.2934092
8	0x3dba7c49	0.09105737
9	0x3e1a5225	0.15070398
10	0x3c3a77ab	0.01138107
11	0x3db49307	0.08817106
12	0xbd8c2155	-0.06842295
13	0x3d9f4a52	0.07777847
14	0x3d85d005	0.06533817
15	0x3dd90e2f	0.105984084
16	0xbe191c3f	-0.14952181
17	0xbdf5814f	-0.11987554
18	0x3def39a5	0.11680917
19	0x3e38075e	0.1797156
20	0x3ddfb739	0.10923619
21	0xbe8e292f	-0.27765796
22	0x3d93d601	0.072185524
23	0x3d76101b	0.060073953
24	0xbd9df296	-0.07712285
25	0x3df23c8a	0.11827953
26	0xbca27b31	-0.019834133
27	0x3e25525d	0.161447
28	0xbe30b221	-0.17255451
29	0xbe9683e1	-0.2939749
30	0x3da8de31	0.08245505
31	0xbde95180	-0.11392498
32	0xbecc8fc5	-0.39953437
33	0xbe6226bc	-0.22085088
34	0xbed752da	-0.42055398
35	0xbdd067ed	-0.10176072
36	0x3e03b8db	0.12863486
37	0x3dce49f0	0.10072696
38	0x3d09706d	0.033554483
39	0x3d84d2f1	0.064855464
40	0x3c93bf0b	0.018035432
41	0x3dbddb68	0.09270364
42	0xbe048ad8	-0.1294359
43	0x3e2ca137	0.16858374
44	0x3e0016e1	0.12508728
45	0xbd977559	-0.07395429
46	0xbd9f764d	-0.07786236
47	0x3dfa1023	0.12210109
48	0x3e255e8b	0.16149347
49	0x3e1995c8	0.14998543
50	0x3e09dd5e	0.13463351
51	0x3dfb1bb8	0.12261146
52	0xbe34e7bb	-0.17666523
53	0xbf20834d	-0.6270035
54	0xbd9dfe7d	-0.077145554
55	0xbdf6f38e	-0.12058173
56	0xbf3986d8	-0.7247138
57	0x3e30b3d3	0.17256097
58	0x3d94c8db	0.07264873
59	0x3e1b2a8e	0.15152952
60	0x3e322144	0.17395502
61	0x3dc84e82	0.09780599
62	0x3e3e8bac	0.18607968
63	0xbdfc6e63	-0.12325742

exp_avg f4 [6]
0	0x3aa6f2e5	0.0012737183
1	0x37edee46	2.8363556e-05
2	0xba419afd	-0.0007385461
3	0x398a039d	0.00026324103
4	0xb99dabd3	-0.00030073393
5	0xb9ac3d7e	-0.00032852212

exp_avg_sq f4 [6]
0	0x385c6f85	5.2555948e-05
1	0x394674b6	0.0001892623
2	0x38bd398a	9.02294e-05
3	0x37f3bbea	2.9055362e-05
4	0x37b0ee6b	2.1091857e-05
5	0x3582faa7	9.758704e-07

exp_avg f4 [64, 43]
0	0xb93dcb86	-0.00018100263
1	0x38aa8816	8.13158e-05
2	0x387e55d9	6.063827e-05
3	0xb9487282	-0.00019116144
4	0xb8833522	-6.2564635e-05
5	0xb8c884ff	-9.5615156e-05
6	0x397459b8	0.00023303076
7	0xb9554042	-0.00020337201
8	0xba0f1e9e	-0.00054595794
9	0xb921eda3	-0.00015442683
10	0xb98e17f5	-0.000271022
11	0xb8f2c05a	-0.000115752875
12	0xb967ff7a	-0.00022125049
13	0x3882fe42	6.246242e-05
14	0xb7c2fb82	-2.324372e-05
15	0xb9e68c3c	-0.000439735
16	0xb90ec41f	-0.00013615236
17	0xb8afb1be	-8.377757e-05
18	0x3ba70852	0.0050974274
19	0x3ae1ccda	0.0017227188
20	0x37947bac	1.7700564e-05
21	0x382013f3	3.816555e-05
22	0x381fad0d	3.806972e-05
23	0xb5093f5c	-5.1128677e-07
24	0xb8071a56	-3.2211035e-05
25	0xb8335dd7	-4.276432e-05
26	0x355826ed	8.0522915e-07
27	0x36c83e67	5.967729e-06
28	0xb69e12e2	-4.710965e-06
29	0x349eb9e8	2.9565058e-07
30	0x369f2d1d	4.743821e-06
31	0xb7b68d2e	-2.1761833e-05
32	0x37136786	8.785986e-06
33	0x38640570	5.43645e-05
34	0x3824425f	3.916246e-05
35	0xb7be3bfb	-2.2677696e-05
36	0xb6a5aad4	-4.93727e-06
37	0x369f2d1d	4.743821e-06
38	0xb7b68d2e	-2.1761833e-05
39	0x37136786	8.785986e-06
40	0x38667917	5.4949047e-05
41	0x37856d1a	1.590564e-05
42	0x389b0e56	7.393646e-05
43	0x3807dd2e	3.2392498e-05
44	0xb89cd7a8	-7.478829e-05
45	0xb912e12b	-0.00014007527
46	0xb85965b7	-5.183156e-05
47	0xb879dcc5	-5.9571834e-05
48	0x3922ae05	0.00015514351
49	0x3893a21a	7.0397e-05
50	0xb9343515	-0.00017185912
51	0xb96c76b5	-0.00022550936
52	0x3a034fc7	0.0005009141
53	0x38cf3a5c	9.8813995e-05
54	0x39bdbee6	0.0003619112
55	0x388b6f39	6.648753e-05
56	0xb9a505b3	-0.000314755
57	0xb9d7552c	-0.00041071454
58	0xb93206e0	-0.00016977964
59	0xb8885f82	-6.502775e-05
60	0x3992e534	0.0002801806
61	0x3acf86f6	0.0015833068
62	0x3b345171	0.0027514363
63	0xb838b3ee	-4.403659e-05
64	0x373c9a2e	1.1241571e-05
65	0x3700b1f6	7.670829e-06
66	0xb3f91b9a	-1.1599987e-07
67	0x37045a44	7.88883e-06
68	0xb7489c37	-1.1957301e-05
69	0x3522e339	6.0680355e-07
70	0x37a0aa03	1.9152654e-05
71	0xb68f930a	-4.2788497e-06
72	0x3503bc04	4.90749e-07
73	0x33de3c9f	1.03487075e-07
74	0x372857bb	1.0034007e-05
75	0xb6bfd187	-5.7166358e-06
76	0x384764b0	4.753907e-05
77	0xb82ccddd	-4.119972e-05
78	0xb8383ea1	-4.3927346e-05
79	0xb74015b8	-1.1449149e-05
80	0x33de3c9f	1.03487075e-07
81	0x372857bb	1.0034007e-05
82	0xb6bfd187	-5.7166358e-06
83	0x38a52238	7.874187e-05
84	0x38ac6edf	8.2222505e-05
85	0x38f9f85f	0.00011919508
86	0x3976484f	0.00023487325
87	0xb8f503fa	-0.00011683251
88	0xb9a687b7	-0.00031763103
89	0xb91327aa	-0.00014033788
90	0xb8fb5a2c	-0.000119854085
91	0x398351a9	0.0002504711
92	0x38abac11	8.185965e-05
93	0xb942fcfa	-0.00018595523
94	0xb88a79ee	-6.603064e-05
95	0x39e2f422	0.00043287972
96	0xb88c81ef	-6.699922e-05
97	0xba416da0	-0.0007378701
98	0x39ed615a	0.00045276695
99	0xb99e116e	-0.00030149095
100	0xba14d3ab	-0.0005677293
101	0xb9ac6a78	-0.00032885722
102	0xb9894df4	-0.00026188756
103	0x399d52fc	0.00030007202
104	0x3ae62f6b	0.0017561739
105	0xbbfcf411	-0.0077195247
106	0xb8238df7	-3.8994443e-05
107	0xb733bebc	-1.071364e-05
108	0xb81b7d5a	-3.7071623e-05
109	0xb49f88e3	-2.9715656e-07
110	0xb72501ee	-9.835216e-06
111	0x379da7f2	1.8794064e-05
112	0xb5dfb198	-1.6666481e-06
113	0xb7ac3d24	-2.0532469e-05
114	0xb7991492	-1.82486e-05
115	0xb603c7c4	-1.96368e-06
116	0x378a0fbf	1.6458214e-05
117	0x35447ae3	7.3194514e-07
118	0xb715ddb7	-8.932714e-06
119	0xb84e28fd	-4.91524e-05
120	0xb8407041	-4.588091e-05
121	0xb8d94dac	-0.00010361834
122	0xb8328696	-4.256385e-05
123	0x378a0fbf	1.6458214e-05
124	0x35447ae3	7.3194514e-07
125	0xb715ddb7	-8.932714e-06
126	0x37b024b5	2.0997928e-05
127	0x38bdf49e	9.057786e-05
128	0x3898f82d	7.294151e-05
129	0x394525ee	0.00018801514
130	0xb936e958	-0.000174438
131	0xb9ec3680	-0.00045054033
132	0x394af077	0.00019353801
133	0x371c6445	9.32167e-06
134	0x38d9f6cb	0.00010393335
135	0xb86c899a	-5.6394936e-05
136	0xb95c172c	-0.00020989467
137	0x39008c9d	0.00012259414
138	0x3a0fdffd	0.0005488394
139	0x398ce4e4	0.00026873418
140	0xba06de9f	-0.00051448675
141	0x39bb72b2	0.00035752874
142	0xb9cdb9d5	-0.00039239103
143	0xba501af2	-0.00079385855
144	0x3a0e87ad	0.00054370874
145	0x38535011	5.0380888e-05
146	0x38b6193b	8.683136e-05
147	0xbbdc78ed	-0.0067282827
148	0xba8d1c98	-0.0010765968
149	0x3780230b	1.5275107e-05
150	0xb4498e48	-1.8771345e-07
151	0xb896286d	-7.160087e-05
152	0x34a685b2	3.1017186e-07
153	0xb87a7f58	-5.9723243e-05
154	0x37c7cec1	2.3818926e-05
155	0xb6b14e66	-5.284138e-06
156	0xb87b5538	-5.992243e-05
157	0xb8486f7c	-4.7787544e-05
158	0xb6a6ebf6	-4.974655e-06
159	0x37c21740	2.3137429e-05
160	0xb7e5387f	-2.7325235e-05
161	0x362bb490	2.5586087e-06
162	0xb8c9744c	-9.606089e-05
163	0xb7073736	-8.059482e-06
164	0xb8466d7f	-4.7308855e-05
165	0xb88405d7	-6.295338e-05
166	0x37c21740	2.3137429e-05
167	0xb7e5387f	-2.7325235e-05
168	0x362bb490	2.5586087e-06
169	0x387b8863	5.9970083e-05
170	0xb6f85f5e	-7.402078e-06
171	0x3766972b	1.3744265e-05
172	0xb70641fa	-8.002384e-06
173	0x38863121	6.398769e-05
174	0xb916c148	-0.00014377118
175	0xb9456646	-0.00018825484
176	0x36f3619b	7.253327e-06
177	0xb8b7aeb3	-8.75866e-05
178	0x369a584d	4.599837e-06
179	0xb78b97e5	-1.6640823e-05
180	0xba21617e	-0.000615619
181	0xba466d98	-0.00075694313
182	0x39591f07	0.00020706291
183	0x39dfc168	0.00042677973
184	0x37368b87	1.0880532e-05
185	0x3931a36f	0.00016940919
186	0xb9f1b9c1	-0.000461055
187	0xb9ec6c85	-0.0004509428
188	0x3880c89c	6.140882e-05
189	0x391c9556	0.00014932951
190	0x39ad5ed2	0.00033067778
191	0x3b912c05	0.0044302964
192	0x388ad82c	6.620618e-05
193	0xb71fb4a0	-9.519194e-06
194	0xb80183e9	-3.0878848e-05
195	0xb4ebe858	-4.3941213e-07
196	0xb8161fe6	-3.5792495e-05
197	0x36a11983	4.801144e-06
198	0xb641acfc	-2.8859931e-06
199	0xb83dfc3c	-4.5296023e-05
200	0xb7dac7ec	-2.6080721e-05
201	0xb65f0d95	-3.3237495e-06
202	0x365e12d7	3.3091544e-06
203	0xb685c529	-3.9866613e-06
204	0xb688262a	-4.0575587e-06
205	0xb80c392c	-3.3431847e-05
206	0x381d2d47	3.7473885e-05
207	0xb897f3a9	-7.245626e-05
208	0xb8c6e9f1	-9.484951e-05
209	0x365e12d7	3.3091544e-06
210	0xb685c529	-3.9866613e-06
211	0xb688262a	-4.0575587e-06
212	0xb8412214	-4.6046523e-05
213	0x37219afe	9.632435e-06
214	0x3905e9da	0.00012770985
215	0x396f2b2e	0.00022808902
216	0xb98acb9b	-0.0002647311
217	0xb9c93e76	-0.00038384245
218	0x397ac9a5	0.00023916976
219	0x38a1bf11	7.712667e-05
220	0x38d7bdcd	0.00010287352
221	0x37e6d74c	2.7518392e-05
222	0x384c3bc2	4.8693044e-05
223	0x3989646a	0.0002620549
224	0xb9b79e60	-0.0003502248
225	0xb9197a99	-0.00014636888
226	0xb967b1f0	-0.00022096164
227	0x39c50764	0.00037580275
228	0xb9ec43c0	-0.00045063905
229	0xba3a5fcd	-0.00071096123
230	0x39e54903	0.00043732682
231	0x38c1c9b0	9.2405244e-05
232	0x38c8ed84	9.580984e-05
233	0xbbec3476	-0.0072084023
234	0x3bcfd4ee	0.006342522
235	0xb76f2ec6	-1.42564e-05
236	0x360136d7	1.925442e-06
237	0xb8944a9e	-7.0710885e-05
238	0xb547eedb	-7.448086e-07
239	0xb8475ec7	-4.7533566e-05
240	0x37fa0d83	2.9808614e-05
241	0xb6401bbe	-2.8626378e-06
242	0xb83f64cb	-4.563182e-05
243	0xb82baa3c	-4.092812e-05
244	0xb671ff38	-3.6060355e-06
245	0xb5873f54	-1.0076715e-06
246	0x38199f9c	3.662669e-05
247	0x3776e744	1.4716588e-05
248	0xb6406a8d	-2.867225e-06
249	0xb7030aaf	-7.810696e-06
250	0x37936abc	1.7573468e-05
251	0x3711a144	8.680221e-06
252	0xb5873f54	-1.0076715e-06
253	0x38199f9c	3.662669e-05
254	0x3776e744	1.4716588e-05
255	0x389e7726	7.55622e-05
