2026-01-29_07-44-49_Fase2_Empuje_V1/model_1800.pt (torch, 189045 bytes, 36 tensors)

std f4 [6]
000000 ee f0 13 3f f3 cb 20 3f 27 4d d9 3e f3 30 8c 3f
       0.57789505 0.628112 0.42441675 1.0952438
000010 e0 b6 81 3f 11 a4 60 40
       1.0133934 3.5100138

actor.0.weight f4 [64, 43]
000000 49 c1 35 3d b9 cf 9b 3e b8 c6 69 bd 35 0e f4 3c
       0.044373784 0.30431917 -0.05707428 0.02979193
000010 7b d7 9a be 91 8c ba be ea e0 11 be 35 c5 79 be
       -0.30242524 -0.3643537 -0.14245954 -0.24391635
000020 f8 b4 e9 3c c1 dc 2e 3d ae 4e de bc 38 1f d6 3d
       0.028528675 0.042690996 -0.027137127 0.10455173
000030 14 62 27 3e 8a 4a 4b 3e e9 88 e0 3b 1b 70 0b be
       0.16346008 0.19852653 0.0068522585 -0.13616984
000040 d9 4e 2d be c0 e0 48 be 2e ee 1f bd 2a 08 b9 3b
       -0.16924609 -0.19616985 -0.039045505 0.005646725
000050 87 58 67 3f 97 2e 31 3f 03 b6 82 3e 0f 66 3a bd
       0.90369457 0.69211715 0.2552949 -0.045507487
000060 58 0c 13 bf 66 82 b6 be 87 41 28 be 64 00 7f be
       -0.5744071 -0.3564636 -0.16431247 -0.24902493
000070 c1 74 a6 3d db 6c 8d be 11 36 9f 3e 17 47 83 3c
       0.08127738 -0.27622113 0.31095937 0.01602511
000080 1e 5d c2 3e 53 b3 00 bf 46 f0 f7 3d 00 f5 8a 3e
       0.37961668 -0.5027363 0.121063754 0.27140045
000090 c3 55 87 3e 50 af 95 3e 93 66 2f 3e 11 4d 5a 3e
       0.26432618 0.29235315 0.17128973 0.21318461
0000a0 5d 79 dc be 76 cd 80 be a6 49 b1 3e 1b c5 84 bd
       -0.43061343 -0.25156754 0.34626502 -0.064829074
0000b0 fe b0 47 3e e3 f1 a9 3e 44 b1 23 3f f3 bf 24 bf
       0.19501111 0.33192357 0.6394236 -0.6435539
0000c0 38 3a 3d be ad 44 48 3d 13 da 34 bf 84 97 ce bd
       -0.1847924 0.04889362 -0.70645255 -0.10087493
0000d0 3a ff 64 bd 9a 9f 41 3e 9f b1 0b 3d 8e c4 a5 3d
       -0.055907466 0.1890854 0.03410494 0.080941305
0000e0 6f 70 f0 bd 8f 09 0b 3c 62 35 ed 3e 59 3c 29 bf
       -0.11740195 0.008486166 0.4632979 -0.6610771
0000f0 3d b9 31 be 6a 3d 31 bd be a9 e2 3b f4 36 33 bf
       -0.17355819 -0.04327146 0.0069172075 -0.70005727
000100 61 44 86 3f 8d f9 0f 3f 96 a2 9b 3e 93 22 4d bf
       1.0489618 0.5624016 0.3039748 -0.8013088
000110 23 5a 49 bf 6d ec 37 3d eb 16 8f bd 2c 0b b5 3e
       -0.7865316 0.044903208 -0.06986793 0.35360086
000120 86 46 a0 3e 45 de 26 be 9c 5d 37 be f9 eb be 3e
       0.31303805 -0.16295727 -0.17906803 0.37289408
000130 ec da df bd dd bb bd be 79 dc 9f 3e a6 34 28 3f
       -0.10930428 -0.3705739 0.31222895 0.65705335
000140 ae 10 01 be 96 5a e2 bd 95 ec 15 3f 58 76 83 3d
       -0.12604019 -0.11052434 0.5856412 0.06419057
000150 d9 15 18 3f 18 ae 2a be d1 21 c1 be 34 29 51 be
       0.59408337 -0.16667974 -0.37721112 -0.20425874
000160 70 a8 9a be 43 50 03 3d 42 d6 70 bc a0 b3 7c be
       -0.30206633 0.032058965 -0.014699521 -0.24677896
000170 fc 1f 96 3e 72 e1 a7 bd a4 7e 95 be 9d f3 4a be
       0.29321277 -0.08197297 -0.29198182 -0.19819494
000180 86 61 8e bc c1 47 68 3d f7 2b 1c be 7a ff 31 be
       -0.017380487 0.056709055 -0.15251146 -0.17382613
000190 03 8a bd be 89 7a a4 3d cd a7 2a bd 1e cf 84 be
       -0.37019357 0.08031184 -0.041663934 -0.25939268
0001a0 a6 ee d4 bb cf d4 13 3b 05 c1 bc be cf 4c d6 be
       -0.0064981757 0.0022557264 -0.36866012 -0.41855475
0001b0 1d e2 5b bc 9c 50 b5 be 50 43 aa bd 77 05 89 be
       -0.013420609 -0.35413063 -0.0831362 -0.26761982
0001c0 4c 3e 83 3d 79 3e ea be 61 6a 14 be 41 8a eb bd
       0.064083666 -0.45750788 -0.14493705 -0.11500979
0001d0 5e 62 0e be c4 fc 8d 3e 9e 13 0d 3f 54 05 a4 be
       -0.13904712 0.27731907 0.5510806 -0.32035315
0001e0 60 24 06 bd 45 27 1d be dc f0 11 bf d9 e3 93 be
       -0.032749534 -0.15347011 -0.5700815 -0.2888477
0001f0 0c 27 9a 3e cd c7 04 3f 65 36 f3 be f5 ce 23 bd
       0.30107915 0.5186737 -0.47502437 -0.03999229
000200 1c 81 f6 3e 7b 6b 33 bd 2f bd 14 3d ce 10 1e 3e
       0.48145378 -0.043803673 0.036313232 0.15436098
000210 6a cb df be 04 4f aa 3e 2e 13 43 3c db cc 7b 3d
       -0.4370988 0.3326341 0.011906428 0.061474662
000220 f0 b1 88 be 00 ad 87 3e a7 16 24 3e 09 43 94 bd
       -0.26698256 0.26499176 0.16024266 -0.072393484
000230 62 90 76 3d c7 cd b2 bd a8 21 90 3d 9d ae 31 3d
       0.060196288 -0.08730655 0.070376694 0.043379415
000240 bd 21 66 be a7 1f 58 3e 76 28 02 3e ab 7d 9d 3c
       -0.22473808 0.21105824 0.12710747 0.019224962
000250 12 0a 8f b8 27 29 d4 bd e4 04 cf be 1b 4a 75 be
       -6.820647e-05 -0.10359412 -0.4043342 -0.2395405
000260 ff 12 32 3e e0 bf b5 bd c5 1e 3a 3e 9d 39 59 be
       0.17390059 -0.08874488 0.181758 -0.21213384
000270 60 e3 00 bc 77 f5 f2 bd f2 43 4a bc 19 5a 65 3b
       -0.00786671 -0.11863225 -0.012345301 0.003499633
000280 dd 94 b7 bd 36 ba 94 3e d7 13 b1 bd 89 17 46 bd
       -0.0896394 0.29048318 -0.08646362 -0.04836229
000290 67 b3 b4 bd fa 39 33 3d 3c 22 89 3b d1 d4 d3 bd
       -0.08823281 0.043756463 0.0041849893 -0.10343326
0002a0 0b b5 97 3e aa 0b 4f 3e 44 26 b0 bd 52 bd 0a bf
       0.29630312 0.20219293 -0.086010486 -0.5419513
0002b0 3b e7 3f 3e f6 80 0a bf d6 63 0a bf c1 57 e7 bc
       0.18740551 -0.5410303 -0.5405859 -0.028240087
0002c0 b0 47 87 3d aa 71 c1 3e 11 b9 36 3e 6a 5f b0 3e
       0.0660547 0.3778203 0.17844035 0.34447795
0002d0 7a d8 aa 3e ba e0 eb bb 4a 68 fd bd 8a b8 ef bb
       0.33368284 -0.0071984204 -0.12373407 -0.0073157
0002e0 67 7c 29 3e 22 c9 9c bd 46 46 54 bd ad 98 4b 3d
       0.16551362 -0.076555505 -0.05182483 0.04970615
0002f0 63 09 f9 3c 87 75 44 3e 60 e1 d9 3c 02 d5 58 bc
       0.030399984 0.19185458 0.026596725 -0.013234379
000300 00 de 88 bc 6a eb 24 3f 05 19 be 3d fd bb 9b be
       -0.01670742 0.64421713 0.09282116 -0.3041686
000310 1d 5d 8a be a0 07 01 bd 0f 99 98 bc 5e ed b4 bc
       -0.27024165 -0.031501412 -0.018627672 -0.022085842
000320 c2 1e 98 bd 93 11 1e be a9 4e 5c be 5f 99 a2 3e
       -0.074277416 -0.15436392 -0.21514381 0.31757638
000330 e1 9e 26 be de 2d a1 be 62 ec 04 bd b0 6c 4a be
       -0.16271545 -0.31480306 -0.032451995 -0.19768023
000340 01 de a8 be 35 87 97 be f5 98 ae 3e 2a d8 ad bd
       -0.32981876 -0.29595342 0.34101072 -0.08488496
000350 b0 9a 55 3e 9c c4 8c bf ee 14 8f 3e 12 78 d6 bd
       0.2085979 -1.09975 0.27945656 -0.1047212
000360 36 70 b2 bd 9f 14 d0 bd 4e 81 a9 bc fe d2 55 3e
       -0.08712809 -0.10160183 -0.02069154 0.20881268
000370 8c 24 00 be ef 33 87 3e b2 cb 55 bf 1c bf 4c 3d
       -0.12513942 0.2640681 -0.8351394 0.049986944
000380 cf 7a 3e 3c 0e dd 44 3d 74 25 b8 bc c6 67 32 be
       0.01162596 0.048062377 -0.022478797 -0.17422399
000390 6c 0f 9b be a5 c1 85 be de e7 3e be bc e2 ec 3e
       -0.30285203 -0.26124302 -0.18643138 0.46266735
0003a0 72 81 4c 3e 6a a6 16 3d f9 e7 f6 3b 16 bc 43 be
       0.19971254 0.0367798 0.0075349775 -0.19114718
0003b0 dd 67 44 bf 66 f2 72 bb 1d 21 ba 3e 3f 7b a2 bd
       -0.7672098 -0.003707075 0.36353388 -0.079336636
0003c0 74 78 c9 be ea 6c 8c be 29 c9 30 be 45 11 3b be
       -0.3934971 -0.27426845 -0.17264237 -0.18268307
0003d0 80 64 15 be 6b e7 0a be 35 5e f9 bd 6b 70 8a 3e
       -0.14589119 -0.13564841 -0.12176172 0.27038893
0003e0 49 6e 9f bc 61 5c 0c 3e 13 cf d9 bd 6d f5 b9 be
       -0.019461768 0.13707115 -0.106351994 -0.36320058
0003f0 6e 26 6d bd 82 78 cb bd 94 79 32 3e 0b 21 2c bf
       -0.057897978 -0.099350944 0.17429191 -0.6723792

actor.0.bias f4 [64]
000000 5f 2b d7 3c ba 06 82 3e 9f ba cc 3c c7 e5 e8 bd
       0.026265798 0.25395757 0.024991332 -0.113719516
000010 73 f8 31 3d 81 3f a0 bd cf ad fb 3d 04 bf 51 3c
       0.04344983 -0.078246124 0.12289011 0.012801889
000020 21 c0 00 bd e0 47 ca 3d 20 ac b9 be d3 1b 4f 3e
       -0.03143323 0.0987699 -0.36264133 0.20225458
000030 9e a8 96 be ba b4 57 be d0 79 71 3d 00 07 1d 3c
       -0.2942552 -0.21065035 0.05895406 0.009584188
000040 e6 4a 2c bd 65 84 5a bd ac 84 af be 7c f7 99 bd
       -0.042063616 -0.053348918 -0.34280908 -0.07517907
000050 4e a9 ed be 2c c4 7b 3d 5e 84 2f be e2 de 43 be
       -0.46418232 0.06146638 -0.17140338 -0.19127992
000060 11 23 7b be db 30 b5 3d 73 ac 11 be 32 e4 22 bd
       -0.24525096 0.08847209 -0.1422594 -0.039768405
000070 4e 2d 2b 3d e8 e0 a6 be 76 ee 9e 3e c4 e1 da 3d
       0.041791253 -0.32593465 0.31041306 0.106875926
000080 d5 f4 ab bd 5f 58 e0 3d 61 d5 73 be 80 1a d9 3c
       -0.083963074 0.109543554 -0.23811866 0.026501894
000090 94 09 22 3e 98 d3 a1 be 39 4d 1e be 95 6d bf be
       0.15823966 -0.31606746 -0.15459146 -0.37388292
0000a0 23 44 00 be 89 05 4f be ba 01 2e bd fe 34 da bd
       -0.12525992 -0.20216955 -0.042482115 -0.10654639
0000b0 00 92 64 bd 7f 92 d4 3d 25 ac f7 3d 7b 7b 4a be
       -0.0558033 0.103795044 0.12093381 -0.19773667
0000c0 c7 20 4f be 7c 44 b5 3c 62 32 aa 3d 63 6b d9 bd
       -0.20227347 0.022127382 0.08310391 -0.106161855
0000d0 00 2e 00 be b9 65 2e be 8c 56 49 bd ec 6a fe 3b
       -0.12517548 -0.17030992 -0.049154803 0.007764211
0000e0 92 51 af 3e f5 95 61 3c 15 fa 27 3d b7 72 d1 be
       0.3424192 0.013768663 0.04100998 -0.40907833
0000f0 15 3c ca be 0f 55 d2 3d 55 6c 38 be 62 b9 19 be
       -0.39498964 0.1027013 -0.18010075 -0.15012124

actor.2.weight f4 [64, 64]
000000 b6 8f cb 3c ce ef b7 3c de 13 a8 bb 9d 0a 87 3d
       0.0248488 0.022453215 -0.0051293215 0.06593821
000010 43 26 58 3d 04 e9 7a bb 60 5d 4f 3d 4d 08 b4 3d
       0.052770864 -0.003828586 0.05062616 0.08790646
000020 50 66 f8 bd 1a 27 be 3c 6c 0e 37 3d 7a 4b 44 bd
       -0.121288896 0.023212004 0.04469149 -0.047923543
000030 da 9e a0 3d f4 9d e6 bd 98 cd 90 3e 1a 60 87 be
       0.078427985 -0.11260596 0.28281856 -0.26440507
000040 ff 26 25 be fc 03 62 3e ba 4a 28 bc 74 f6 dd 3c
       -0.16128157 0.22071832 -0.010271722 0.027095057
000050 e3 78 84 3d 1d 95 b5 bd 69 35 8d be 9e 7d 1a 3d
       0.0646837 -0.08866332 -0.2757981 0.037717454
000060 00 54 c9 3d ee b7 de 3c ce fa b6 3c c6 a0 ba 3d
       0.09830475 0.027187314 0.02233639 0.09112696
000070 a1 98 59 3e c4 11 83 bd c4 5a 76 3d 69 cc 1e 3e
       0.2124963 -0.06399873 0.060145155 0.15507664
000080 7d bc eb 3d a7 4f 07 3e 28 23 e7 bd 72 32 71 3d
       0.11510561 0.13213979 -0.112860024 0.058886
000090 b6 49 04 be 41 4d 04 3c 11 bc b8 3e 4c 25 83 3d
       -0.12918743 0.008075059 0.36080983 0.06403598
0000a0 4e 77 0b ba 32 0b 9e bd e6 5b 72 bd 00 cc c1 bd
       -0.0005320207 -0.07716979 -0.059169672 -0.09462738
0000b0 96 b4 b5 3d 51 5f 34 be b6 62 03 3e bb b3 0e 3e
       0.08872335 -0.17614485 0.12830624 0.13935749
0000c0 1f 0d 8e bd c0 13 02 bd 9d fb 93 bb 0c 8e 0c be
       -0.069360964 -0.031757116 -0.0045160786 -0.13726062
0000d0 32 46 c5 3d 2c 51 1a be f7 2f fe 3c a6 36 46 3e
       0.09632529 -0.15070027 0.03102873 0.19356784
0000e0 6a 92 a7 3c 60 6f d7 3c cf 2c e9 bd 35 5a 56 3c
       0.020455558 0.026298225 -0.113855 0.0130830305
0000f0 02 93 f3 3c 50 73 58 3e 97 e0 04 be a5 45 c5 bd
       0.029733185 0.21137738 -0.12976299 -0.09632424
000100 61 b3 66 be 33 bf 52 be 86 12 ea 3d 9c b3 77 bd
       -0.22529365 -0.20580749 0.11429314 -0.060474023
000110 02 92 3d 3d 2d 2a 98 3e 94 05 00 3e bf 0c e6 bd
       0.046281822 0.29719678 0.12502128 -0.112329
000120 30 3b 27 be 08 bf b7 be ae fb ef 3c b3 28 ac 3d
       -0.16331172 -0.35887933 0.029294815 0.084062
000130 66 63 37 bd 46 e7 51 bc 34 ff 9e be 83 75 03 be
       -0.044772528 -0.012811488 -0.3105408 -0.12837796
000140 47 8a 0e 3e 8c 28 d6 3d 04 c3 81 3e 12 5b 20 3d
       0.13919936 0.104569525 0.25344098 0.03914935
000150 94 1f 4c 3d 67 ef 70 bc de ec 25 3e dc 22 be 3d
       0.049834803 -0.0147055155 0.16203639 0.09283993
000160 8d 77 c1 3c 24 5e 3d 3e 81 c0 c3 be 94 f5 c6 3d
       0.023616577 0.18492943 -0.38232806 0.09714809
000170 48 0e 87 bc b1 e3 b9 3d 4d 5d 57 bd a7 9a d0 3d
       -0.016486302 0.09076632 -0.052579213 0.101857476
000180 8b 78 23 3e 15 e2 23 be 1d be 50 3e dc bf 5b bd
       0.15963952 -0.16004212 0.20385022 -0.05364977
000190 0f dd ea bd 5d d2 b5 3e e6 a2 f4 3c 64 68 f8 3d
       -0.11467945 0.35512057 0.029862832 0.12129286
0001a0 7f a3 71 3e ca 01 45 3e 12 29 49 3d aa 5b de 3e
       0.23597525 0.19238964 0.049111433 0.4342931
0001b0 0d ea c6 be 14 18 19 bc 4a 04 20 bf f6 16 5b bd
       -0.38850442 -0.00934412 -0.62506545 -0.053488694
0001c0 55 50 58 3e 76 cf ff bb 30 14 36 3e 9b f4 a5 3c
       0.21124394 -0.0078067137 0.17781138 0.020258239
0001d0 70 37 ad 3c 65 44 90 3d f6 28 0c bd 29 46 b4 be
       0.021144599 0.07044295 -0.03421875 -0.35209778
0001e0 67 60 79 3e 9d 21 9c 3d f7 af 01 be 71 3a 40 3e
       0.24353181 0.07623599 -0.12664782 0.18772294
0001f0 f3 b4 ac bd ea 3c 85 3e be 77 f6 be eb a7 2b 3e
       -0.08432951 0.26023036 -0.4813823 0.16763274
000200 e8 ae 41 3c 61 40 29 3d 5c 42 a2 bc 15 e1 0a 3e
       0.011821486 0.041321162 -0.019807033 0.13562424
000210 16 9e 4a 3d 93 f2 8c 3c f4 ef f9 3d 1e 06 4e be
       0.04946717 0.017205512 0.122039706 -0.20119521
000220 6c fe a4 3d 01 1f f7 3d 9e e9 83 be 5b 19 02 3e
       0.080563396 0.120664604 -0.25764173 0.12704985
000230 23 b0 38 bd a6 f5 28 bd 0b d9 f1 3d e7 85 4c 3d
       -0.045089852 -0.041249894 0.11808976 0.049932387
000240 40 64 90 bc 3a 93 41 bc 22 bf 44 bd af 9a 43 3e
       -0.017625928 -0.011814887 -0.04803384 0.19101976
000250 41 c2 f9 bc bb c2 17 be 20 68 17 3d 17 92 82 be
       -0.030488135 -0.14820378 0.036964536 -0.25502083
000260 ae 9a 87 bd c9 f4 81 bd 38 3a b3 3c 7b 0a 42 bf
       -0.066213 -0.06345517 0.021878347 -0.7579724
000270 ca 2d bc 3d 46 40 56 bc 56 6e 99 be e7 ff 5d 3d
       0.09188421 -0.013076847 -0.29966992 0.054199126
000280 c8 8c 0d be 25 9a 71 3c 44 d5 4f 3e 08 09 fa bc
       -0.13823235 0.014746224 0.20296198 -0.030521885
000290 9c f3 6b bc 51 79 2d bc c5 a0 12 be 9e af 20 3d
       -0.014401343 -0.010588006 -0.14319141 0.03922998
0002a0 6c 63 49 bd 29 75 8a bd e0 b4 36 bd 39 b9 55 bd
       -0.04916708 -0.06760628 -0.04460609 -0.052178595
0002b0 87 2f 23 bd 44 7f 1d be 29 d3 9b be 1a fc 59 be
       -0.039840247 -0.15380579 -0.3043454 -0.21287575
0002c0 f8 8b d5 bc dd 90 6d bd c2 70 30 3e ac fd 9e be
       -0.026067719 -0.05799948 0.17230514 -0.3105291
0002d0 b3 eb 09 bd 3f a6 dd bb 1f 05 c8 bd e8 a3 08 be
       -0.033672046 -0.006764203 -0.09766602 -0.13343775
0002e0 df 21 23 3e 31 4a cf 3d 44 51 91 bd 00 f5 4a be
       0.1593089 0.10121573 -0.07095578 -0.19820023
0002f0 87 46 24 bd dc ba 40 3d 4b ae a1 be 3d db e4 3d
       -0.040106323 0.047053203 -0.31578287 0.11174629
000300 14 66 a4 3c 86 4c f4 3c 29 8a 9f bd 67 59 9b 3d
       0.020068206 0.029821645 -0.07790024 0.075854115
000310 c5 12 43 3d 6d dc 2c 3e d4 06 3a 3d 95 e3 76 bd
       0.047625322 0.16880961 0.045416668 -0.060275633
000320 25 53 ce 3b de f6 32 3d c6 bc e3 3d 35 33 54 bd
       0.0062965327 0.043692462 0.1111999 -0.051806647
000330 ea 27 63 3a 56 4c f6 bd 84 6a 0f 3e 45 55 ee bd
       0.00086653105 -0.12026279 0.14005476 -0.116373576
000340 fd cf a5 bc 19 9d 42 39 1a 87 43 3d 06 e0 c8 3c
       -0.020240778 0.00018559805 0.047736265 0.024520885
000350 79 7b 01 be 6d dd a6 bd 18 0b 0d 3d 7c 2c 80 bd
       -0.12644757 -0.08147702 0.034434408 -0.06258485
000360 a7 f0 9b 3d 4f ab 99 3d c9 cf d8 3d f1 06 cf 3d
       0.0761426 0.07503378 0.10586507 0.10108746
000370 f2 2b cf 3a 14 1b 50 3c 5b 54 3e be c5 30 69 bd
       0.0015805943 0.012701768 -0.18586867 -0.056931276
000380 0d d8 0c 3e 03 6f 1c bb 9b 65 e6 bc 9d 59 e2 3d
       0.13754292 -0.002386988 -0.028124621 0.110522486
000390 7e 6c 22 be 77 ad cb 3d fe cf 9c 3e 58 c1 89 3d
       -0.15861699 0.09945195 0.30627435 0.067263305
0003a0 1a 53 8a bd 68 38 02 be 62 7c b0 3d 9b b3 a2 3d
       -0.067541316 -0.1271683 0.08617474 0.07944413
0003b0 61 70 52 3e 8b 53 48 3d 90 9a 2f 3d 41 32 1c 3e
       0.20550682 0.048907798 0.04287201 0.15253545
0003c0 ab 08 85 3c 40 4e a9 bc 31 94 cd bd 37 7d 0b 3e
       0.016239485 -0.020667195 -0.10038031 0.13621984
0003d0 ce d7 9a bc ae 25 1c 3e f1 1b a9 bd 9a 47 46 3e
       -0.018901732 0.15248749 -0.082572825 0.19363251
0003e0 65 38 4b be af be e1 bd 39 f3 07 3e 73 ea 1d 3b
       -0.19845732 -0.11022698 0.13276376 0.0024096041
0003f0 ec 1a ea 3d e6 51 c0 3d 4e 76 5d bc c6 32 b5 bd
       0.11430916 0.09390621 -0.013516976 -0.08847575

actor.2.bias f4 [64]
000000 60 64 e7 bd 3d c9 b3 3d 83 ad 3a 3d 10 e1 07 3e
       -0.11298442 0.087786175 0.04557563 0.13269448
000010 86 5a 17 3c 59 ed c1 3c 1d 1d 4b bd 4a ff 80 3e
       0.009237891 0.023672746 -0.04958831 0.2519477
000020 29 bf cb bd 9f 32 f9 bd 0f f3 b3 3e e8 f0 be bd
       -0.0994857 -0.12167858 0.35146376 -0.09323293
000030 c6 8d b9 3c 85 da 80 be d8 a7 25 3d 18 90 71 3e
       0.02265061 -0.25166717 0.04044327 0.23590124
000040 0f f3 fe 3b 5c 4a 9a be 39 33 20 bc ae 28 18 be
       0.0077804397 -0.30134857 -0.009777837 -0.14859268
000050 63 ec 69 3d 37 ec 57 bd 28 30 10 be 09 ab b2 bc
       0.0571102 -0.052715506 -0.1408087 -0.021810072
000060 90 42 46 bb e8 65 93 3e 04 25 c4 3d e1 6a df 3d
       -0.0030252077 0.28788686 0.09577373 0.109090574
000070 54 45 44 bd 2b 12 ef bd 77 e6 ea 3d f2 b5 a2 3d
       -0.04791768 -0.11673387 0.11469739 0.079448596
000080 ec 56 9d be 88 7d 08 be d2 21 84 bd 80 d1 69 be
       -0.3073038 -0.13329136 -0.06451763 -0.22833824
000090 db df a5 bd 85 c6 03 be 94 9d 25 bd 8c 50 73 3c
       -0.08099338 -0.12868698 -0.04043348 0.014850747
0000a0 c2 43 fe 3d 96 8e a1 be 4e 59 ca bc 59 6d a0 3c
       0.124152675 -0.31554097 -0.024700787 0.019583391
0000b0 3b 54 c2 bd 80 0e 2b be 8b 92 26 be ac b7 40 be
       -0.09488722 -0.1670475 -0.16266839 -0.18820065
0000c0 df 64 82 3d 9c 54 b0 3e b4 9e a9 bd 81 d0 35 be
       0.06366896 0.34439552 -0.08282223 -0.17755319
0000d0 78 71 58 3e f2 30 65 3d cd df c0 3d 7e e1 9a be
       0.21137035 0.05595488 0.094176866 -0.30250162
0000e0 7b f5 1a 3e 63 4e ac 3d dc 59 75 bd cc 5a ff bd
       0.15132706 0.084133886 -0.05990015 -0.1246849
0000f0 9e 5f 2e 3c f7 d3 be bc d2 3e 3d be b5 d2 53 3e
       0.010642914 -0.023294432 -0.18480995 0.20685847

actor.4.weight f4 [6, 64]
000000 f4 46 1a be de 55 fb bd 24 ee 44 ba fc 24 0a be
       -0.15066129 -0.12272237 -0.00075122924 -0.13490671
000010 dc a1 8f bd 1f 57 5d 3d 51 38 d8 bd 71 67 48 3d
       -0.07013294 0.054038163 -0.105576165 0.048926774
000020 9c f4 7b 3d 3d c6 d6 bd fa 9d a3 bc 0b 48 2c 3d
       0.061512575 -0.1048703 -0.01997279 0.042060893
000030 33 f4 88 3d ce 7d 3b 3d a1 03 bd bd 2a 8e 66 bd
       0.06687202 0.045774274 -0.09229208 -0.056287922
000040 a2 34 4f 3e 42 f5 37 3e 38 48 1a 3d 42 34 e4 3d
       0.20234922 0.17964652 0.03766653 0.1114278
000050 25 a9 5c 3c 79 0d 35 be 76 90 7f 3d 96 60 06 3e
       0.013468062 -0.1768092 0.062393628 0.13122782
000060 40 c0 08 3e b9 d5 ec bb b5 e9 bd 3d 23 8b d2 bd
       0.13354588 -0.007227626 0.09273092 -0.102804445
000070 7a 63 03 bd 9f f3 85 be 98 7d 25 bc 35 e8 5f bc
       -0.03207729 -0.2616243 -0.010100745 -0.013666202
000080 dd 02 1b 3c be 26 1c 3e ad 80 ff bc 74 30 60 3d
       0.009461132 0.15249154 -0.031189287 0.05473371
000090 27 14 e2 bc 4b 30 bc 3c ec 74 8a be ad d3 62 3e
       -0.0275975 0.022972247 -0.2704233 0.2215106
0000a0 f1 3e ad 3d a2 2a 91 3d 40 59 4b 3c 9d f6 76 bd
       0.08459271 0.0708821 0.012411416 -0.060293783
0000b0 22 45 96 3e fa c3 9d 3d 05 ae df bc cb 34 cc 3c
       0.2934962 0.07703395 -0.027304659 0.024927517
0000c0 1c 73 68 3d f9 ec 86 ba c7 25 f1 bd 72 36 36 3d
       0.0567504 -0.0010294012 -0.117747836 0.044485517
0000d0 c7 3e ee bd 8a 65 50 bd 8f 45 7c be c0 34 db bc
       -0.116330676 -0.050878085 -0.2463591 -0.026758552
0000e0 3d 59 b6 3d d6 31 ed bd 2f ba 12 3c 14 fc eb bd
       0.089037396 -0.11581771 0.008955522 -0.115226895
0000f0 64 51 a5 bd 17 fd e4 3c 3e 21 80 3e 7d c7 e4 bd
       -0.08072165 0.027952714 0.25025362 -0.11170862
000100 3f 51 68 3d 46 09 e3 3d b9 2d 84 be 7f 0c ff bc
       0.056718107 0.11085753 -0.25816134 -0.031133888
000110 e0 26 ad 3a 12 2f 1f bd 61 1d b4 3d 75 22 db bc
       0.0013210438 -0.03886325 0.08794666 -0.026749829
000120 4c 71 16 3e b3 3b 81 bd df eb 05 3e 48 f0 a4 3c
       0.14691657 -0.06310215 0.13078259 0.020134106
000130 cd 3a 32 be 3e 70 2b bd 8d 87 7d 3d 66 68 b3 bb
       -0.17405243 -0.04185509 0.06189685 -0.0054750917
000140 ec b4 d3 3d 09 61 a6 bc 51 98 a0 3d 45 48 a8 bd
       0.103372425 -0.020309942 0.07841552 -0.08216909
000150 a3 09 38 bd 17 b6 e6 3d 24 43 89 bd 72 9e 20 be
       -0.044931065 0.112652 -0.06702259 -0.15685442
000160 09 32 2b bc 41 91 86 3c 82 3d 6f 3d 97 e7 2b bc
       -0.010448941 0.016426684 0.058408268 -0.010492227
000170 2a 5f 0f be ec 40 14 bd 65 8e 25 be cd 5a 12 3c
       -0.14001146 -0.036194727 -0.161676 0.008932781
000180 38 8c 91 3c 1e db ba bc bf c0 e7 3d f4 41 da bc
       0.017767057 -0.022809561 0.1131606 -0.026642777
000190 f7 90 a0 bc a4 57 89 bd d7 6a dc bd a8 38 3b 3d
       -0.019600375 -0.06706169 -0.107625656 0.04570833
0001a0 97 64 38 3e ec 07 b7 bd 86 82 97 be 9c 4c a6 3c
       0.18007122 -0.08937058 -0.2959177 0.020300202
0001b0 75 c1 ed 3d 6a 8e f5 3d b0 99 6d 3d a4 75 bc bc
       0.116091646 0.11990054 0.058007896 -0.023005314
0001c0 4c 1a 08 3e 2c d4 ca 3c fd e3 bb 3b dc 02 03 3e
       0.13291281 0.024759375 0.0057339654 0.1279406
0001d0 77 b2 ae 3d 7f 29 0d 3d c6 e6 8c 3d 26 51 05 bd
       0.08530133 0.034463402 0.06879954 -0.032548092
0001e0 f9 0e 55 bd 8c 4b cc 3d 94 d3 9c bd 79 a2 1b be
       -0.052016232 0.09975347 -0.07657543 -0.15198697
0001f0 0a 63 c5 3d 16 63 12 3d 40 30 2f 3c a3 72 3b 3d
       0.09638031 0.035739027 0.010692656 0.045763623
000200 32 3e 3e bc 71 44 64 3d 6a fc 8d bd ba f4 4f 3d
       -0.011611508 0.055729333 -0.0693291 0.0507705
000210 c1 82 d7 3c 4e 79 cc 3c a7 f0 8d 3b 24 91 12 3e
       0.026307466 0.024960186 0.0043316665 0.14313179
000220 ed 93 8a be a5 d0 a9 3d 89 19 20 3d 80 40 89 be
       -0.27065983 0.08291749 0.039086852 -0.26807022
000230 44 ae 13 be 33 45 5e be ef 09 80 3c db 09 53 3d
       -0.14421946 -0.21706085 0.015629737 0.05152307
000240 96 aa 87 bd c4 46 2a be ca 5f c0 3d fc 13 3e be
       -0.066243336 -0.16628557 0.0939327 -0.18562311
000250 c4 8d 92 3d d7 e3 6a bd d2 fc 1b be bb dd ae bd
       0.07155946 -0.05734619 -0.15233162 -0.085383855
000260 b1 4d ed bd 4c 88 fd 3d 56 3f 82 3d f1 aa 80 3d
       -0.11587084 0.12379512 0.063597366 0.062826045
000270 43 95 89 be 62 ae a4 bd 66 30 c3 3d c8 bc cb 3d
       -0.2687169 -0.080410734 0.09530716 0.099481165
000280 b7 22 0c bc b9 dd 4e be 28 95 e6 3a 5c 34 38 be
       -0.008553199 -0.20201768 0.001759206 -0.17988724
000290 81 c4 a9 bd da 43 62 3c 1d 7b b6 bd 48 01 7c bd
       -0.08289433 0.013810122 -0.08910201 -0.06152466
0002a0 07 43 bd 3a 74 32 52 be 73 ce 6b bc fd f6 bf 3d
       0.0014439531 -0.20527059 -0.014392483 0.09373281
0002b0 0a 3a 5a 3b 25 fc 78 bd 62 7e b3 bd ae 77 88 bd
       0.0033298754 -0.06078734 -0.0876434 -0.06663452
0002c0 82 be 06 3e d0 8a dd 3d b8 29 e2 bd 08 4c cd bd
       0.1315861 0.10817492 -0.110431135 -0.100242674
0002d0 09 de 08 3e fe 9c a3 3d de d7 00 bb 79 0e 48 be
       0.1336595 0.07988928 -0.0019659917 -0.19536771
0002e0 41 27 fe 3d 70 97 c7 3d ac 11 d3 3c ca 60 ba bc
       0.12409831 0.09745681 0.025765263 -0.02275123
0002f0 d4 77 cb bc 9d a0 69 3d df 1b 46 be 83 01 3f 3d
       -0.024837412 0.05703794 -0.1934657 0.0466323
000300 7d f8 4f bd 4b 54 6c 3e ed aa ee bd 77 fe fa bb
       -0.050774086 0.2307903 -0.11653695 -0.007659729
000310 09 10 c0 bc 2f 5d c9 3d e3 09 64 bc 75 32 90 bd
       -0.023445146 0.098322265 -0.013918373 -0.07040874
000320 e1 ce f5 3c 70 a7 f8 bd 77 73 f7 3d 8b eb 52 3e
       0.030005874 -0.12141311 0.1208257 0.20597665
000330 a7 ed 2b 3d 4a be 32 be 00 d4 68 bd ff 3e fe 3d
       0.04197469 -0.17455402 -0.056842804 0.12414359
000340 b0 dc 7c 3d aa 2b 32 be 34 a3 12 be 0f 1d 30 be
       0.0617339 -0.17399469 -0.1432007 -0.17198585
000350 c2 8e f5 bd ef 71 07 bd 7f 19 8f bd a5 c2 f7 bd
       -0.119901195 -0.03306764 -0.06987285 -0.120976724
000360 87 da 30 be aa 12 18 bd 5f bc 6b bd b5 9b 02 3e
       -0.17270862 -0.037127174 -0.05755269 0.1275471
000370 3c 07 7d 3d 10 30 ec 3d 8c 52 ae 3d ce 56 13 bd
       0.061774477 0.11532605 0.08511838 -0.035971455
000380 44 2b d0 bd c4 e4 45 3a c7 43 e7 bd 42 8c 03 3e
       -0.10164502 0.00075490423 -0.112922244 0.12846473
000390 b4 8b 8d 3c e7 e4 a1 bc be c0 0a bc e3 fa b2 3e
       0.01727853 -0.01976247 -0.008468805 0.34957036
0003a0 30 70 24 3e 2d 67 df bc f5 dd 30 3e 01 06 73 be
       0.16058421 -0.027270878 0.1727217 -0.23732759
0003b0 65 27 17 3d 36 e2 fd bd 76 81 62 be f4 17 ac 3e
       0.036902804 -0.12396662 -0.22119698 0.33612025
0003c0 64 32 ab 3a 9d 98 df 3d 5d 38 b8 3b fd 0e af be
       0.0013061282 0.109177805 0.0056219534 -0.34191123
0003d0 c2 5a 4b bd ab 74 48 3d 28 03 b7 3d b7 9f 11 be
       -0.0496471 0.04893939 0.08936149 -0.14221083
0003e0 ee ea 35 3e 8c ec 16 bd a9 8d a7 bd 0c 4a f6 bd
       0.177654 -0.036846682 -0.081813164 -0.12025842
0003f0 13 84 8e 3b 05 9d fc bd 41 44 8b bd 54 88 2f bd
       0.0043492406 -0.123346366 -0.06800128 -0.042854622

actor.4.bias f4 [6]
000000 b7 fb 16 be 2a db 10 3d 25 a2 fb 3d c7 60 41 3e
       -0.14744459 0.03536526 0.12286786 0.18884574
000010 5c 12 c3 3d 3c bd 31 3d
       0.09524986 0.04339336

critic.0.weight f4 [64, 43]
000000 3d 91 00 3f 12 89 5d bf 09 d2 65 bf ce 00 5e bd
       0.50221616 -0.8653728 -0.89773613 -0.054199986
000010 5b 46 c0 3d 4e 21 da 3e 45 bf 71 be 19 e1 00 be
       0.09388419 0.42603534 -0.2360812 -0.12585868
000020 ab dd c6 3c 5e 04 b9 bc 1a 85 04 3d 9c e6 4b bb
       0.024275621 -0.02258509 0.032353498 -0.0031112796
000030 9c 52 6f 3e 0a 1d 83 bc ac 9d 8f be 32 83 fa 3c
       0.23371357 -0.016005058 -0.28049982 0.030580137
000040 57 d6 a9 bd 68 63 95 3c 78 14 a0 bc f3 e4 2b 3c
       -0.08292835 0.018235877 -0.01954101 0.0104915975
000050 13 f6 86 3f ea e0 a5 3e 01 bb 77 be 99 b9 9b bd
       1.0543846 0.32398158 -0.2419243 -0.07603759
000060 43 73 6f bf 38 f7 d2 be 04 67 3d bf af ee 85 bf
       -0.9353525 -0.41204238 -0.73985314 -1.0463465
000070 12 59 fe be 82 0a 70 bf 15 e4 87 3f 1f c4 98 bd
       -0.4967733 -0.93766034 1.061648 -0.07459282
000080 4b 25 c5 be 8c c1 b7 be ad 6c 1c 3f 9e 39 98 be
       -0.38505015 -0.35889852 0.61103326 -0.29731458
000090 23 84 08 bf f7 d9 5e 3f a7 6d bd bc 47 c0 f3 be
       -0.53326625 0.8705134 -0.023123575 -0.47607633
0000a0 60 98 05 bf 73 bf a8 be 9e 66 65 be e2 29 59 3e
       -0.5218563 -0.32958564 -0.22402427 0.21207383
0000b0 44 86 3c bf e5 4a 00 bf 8e aa 8e bd 6c 5b 78 3d
       -0.73642373 -0.5011428 -0.069661245 0.06063406
0000c0 f7 0a 75 3d 4d 1d b6 3d db ef 0d 3e 6d 0b 9c 3d
       0.05982491 0.088923074 0.13861029 0.07619367
0000d0 54 73 72 3c 1d 0a 3c bd 5e db 43 3a ac 20 2c bc
       0.014798004 -0.045908082 0.0007471348 -0.010505836
0000e0 d6 af b2 be 1e 16 98 be 29 db a1 bc bb 17 04 3e
       -0.34899777 -0.29704374 -0.019757824 0.12899677
0000f0 d8 22 83 3c a8 55 f7 3a e8 21 07 3b 9d 9c 67 3f
       0.016007826 0.0018870132 0.0020619575 0.9047335
000100 72 79 c9 3e ba e9 95 be 0b df 66 bf c0 71 23 bf
       0.39350468 -0.29279882 -0.90184087 -0.63845444
000110 bb aa 06 3e 2f 93 ac be 1c 9a e0 be e5 63 09 bf
       0.13151066 -0.33706042 -0.43867576 -0.5366805
000120 47 24 1c bf 71 3c ff 3f 0b b5 cf 3e 46 70 cf 3e
       -0.60992855 1.994032 0.40567812 0.40515345
000130 7c 10 52 be 19 20 5b 3f e8 71 77 3e 81 af be bd
       -0.20514101 0.8559585 0.24164546 -0.093108185
000140 5d f3 f9 3f 93 13 6c 3e 63 73 24 3e 83 18 15 be
       1.9527394 0.23054342 0.16059642 -0.14560132
000150 4c 4d 51 3e 33 c9 cf 3c f5 0e 38 3f 64 75 d4 be
       0.20439643 0.025364494 0.7189782 -0.41495812
000160 82 ba 34 be 2f 9c 28 3d 9a de 49 3d 51 76 94 3e
       -0.17649272 0.041164573 0.049284555 0.28996518
000170 55 d4 25 bd 77 5a 1e bd 7f bd 17 bd eb 89 25 bb
       -0.0404857 -0.038660493 -0.037045952 -0.0025259207
000180 f5 87 81 3c 4a 8c 0c 3b 70 86 14 3e 7c ca e1 3d
       0.0158119 0.0021445923 0.14504409 0.11024949
000190 54 c5 49 bd f3 4b 15 bd da fe 46 bd 43 82 24 bc
       -0.049260452 -0.036449384 -0.04858289 -0.010040822
0001a0 23 d4 09 bb bc cf 21 3b 6c c9 3d bd 78 08 0e 40
       -0.0021030984 0.002469047 -0.04633467 2.219267
0001b0 e7 f5 22 3f b9 e1 9d be 03 e1 87 3b 50 f0 e5 be
       0.6365647 -0.30836275 0.0041466965 -0.44909906
0001c0 f7 d1 16 3e 3e 7f b6 3e 3e f5 1e 3f a1 fd c2 bd
       0.14728533 0.35643953 0.6209296 -0.09521032
0001d0 c4 60 fb bf 3d 41 20 40 da 5e 43 bf cd 77 89 be
       -1.9638906 2.5039818 -0.76316607 -0.26849213
0001e0 29 a6 69 be c1 92 dd bd 71 ff 5a 3d 95 18 f7 bf
       -0.22817291 -0.10819007 0.053466264 -1.9304377
0001f0 1c 2e 20 40 42 91 60 bf 0a bc 14 be d0 1d fa 3d
       2.5028143 -0.87721646 -0.14524856 0.122127175
000200 79 2f 07 3d 8c 0d 35 3e 6d c1 8b be 06 2c c4 bd
       0.033004258 0.17680949 -0.2729601 -0.09578709
000210 d0 e8 a4 3d ee 76 9d 3d fe c5 42 bd 84 35 a1 3d
       0.08052218 0.076887 -0.0475521 0.078715354
000220 04 6b 3a 3d bb f9 b3 3d 59 c4 27 bb b8 f8 23 bd
       0.045512214 0.08787867 -0.002559921 -0.04003212
000230 72 fc ef 39 c4 6b e3 bc fc 9c 5d bd 07 90 1c 3d
       0.0004577372 -0.027761348 -0.05410479 0.038223293
000240 40 78 c3 3d d7 e8 0c 3e 65 45 d1 bb 34 32 08 3c
       0.0954442 0.13760696 -0.0063864463 0.008312751
000250 f7 f9 c8 ba 1b cb 80 bf da 8f 63 40 41 35 05 40
       -0.0015333284 -1.0061983 3.555655 2.0813754
000260 3d ea 92 3f fc 6e 8d bf d1 5e 05 3e 32 60 3c 3e
       1.1477734 -1.1049495 0.13024451 0.1839607
000270 08 ea 0f 3d ec 14 bc 3f 9d 44 42 3e 55 d1 e7 3d
       0.0351353 1.4693885 0.18971486 0.11319224
000280 a7 a4 f6 be 0e 1c 7c 3e cb 63 3a bd 00 5c ac be
       -0.48172495 0.24620077 -0.045505326 -0.3366394
000290 75 2c bd 3d 95 68 48 3d 3f 76 e9 3b ba a8 de be
       0.09236995 0.048927862 0.0071246917 -0.43488103
0002a0 b8 ef 95 3d 37 ff e1 3e c9 c5 68 be d2 3c 8a bd
       0.07321113 0.44140026 -0.22731699 -0.06749882
0002b0 ee 38 12 3f df d6 ef 3c 79 9a e1 3d 9c 77 26 3e
       0.5711812 0.029277263 0.110157914 0.16256565
0002c0 cc 66 1d 3e 88 a9 56 bd 0f 8d 25 bd d3 d7 a0 bc
       0.15371245 -0.05240777 -0.040417727 -0.019634163
0002d0 d3 9d 12 bc 0a 7b 19 3d fa 15 32 bd 07 67 d6 ba
       -0.008948761 0.037470855 -0.04347799 -0.0016357609
0002e0 ff e9 36 3e c3 d0 98 3d 4b 50 2c bc bd 7a 18 be
       0.178627 0.07461693 -0.01051719 -0.14890571
0002f0 f8 20 67 3e 88 fd 9e 3b a2 14 2b bb 7a c5 81 3a
       0.2257117 0.0048520006 -0.0026104827 0.0009900772
000300 9a 68 ea be 98 a4 fe bf 15 e4 4e c0 21 28 2e 3f
       -0.4578293 -1.989398 -3.232671 0.6802998
000310 c7 24 89 3f 76 c6 d9 3f f1 9d 12 3e 9e db 48 3e
       1.0714349 1.701369 0.14318062 0.19615027
000320 c1 2c a0 bf 1e 6e 9a 3c 57 b5 12 bf e3 88 cd 3d
       -1.2513658 0.018851336 -0.5730795 0.10035875
000330 e2 29 cc 3c 64 df f7 bd 1b d2 94 be 88 b7 0d be
       0.024922315 -0.12103155 -0.29066548 -0.13839543
000340 86 64 ef 3d 27 c7 d6 be 22 c3 cb 3c 54 8e 08 bc
       0.11689095 -0.41948816 0.02487332 -0.008334715
000350 33 45 1b bd 2e b8 44 bd a9 9c 86 bd 75 0b 23 bc
       -0.03790779 -0.04802721 -0.06572849 -0.009951462
000360 fa 0d ae 3d 78 a9 83 bc 89 12 5d bc 39 5c 00 3c
       0.084987596 -0.01607202 -0.013493189 0.007834488
000370 ae 1a ec bc 48 4d 08 3d 78 13 70 bd 90 43 76 bc
       -0.028821316 0.033276826 -0.058612317 -0.015030757
000380 9b 8c 24 3b 51 60 5e 3c 82 d5 a2 ba d9 7b d2 bd
       0.0025108221 0.013572768 -0.001242325 -0.10277528
000390 3d 0d c8 3d 50 99 26 3d d9 91 19 bd c6 3d 02 bd
       0.0976815 0.040673554 -0.037492607 -0.031797193
0003a0 04 f4 11 3a 28 9a 63 ba ff 33 3a ba 81 33 e8 3d
       0.0005567672 -0.0008682334 -0.0007103085 0.113379486
0003b0 f2 fc 4f 40 04 e8 3a c0 64 fb 98 bf d6 a3 ad bf
       3.2498136 -2.920411 -1.1951718 -1.3565624
0003c0 29 cb 07 40 23 23 96 3e f3 06 17 be 8e 44 04 c0
       2.121775 0.29323682 -0.14748745 -2.0666842
0003d0 28 cf 05 3e f9 bb 95 be 23 0d d9 3e cd 6b 8b 3f
       0.13067305 -0.29244974 0.42392835 1.0892273
0003e0 ad 32 a8 3e f5 b4 01 3e 27 7f ab 3e c3 24 09 be
       0.32851163 0.12666686 0.33495447 -0.1339293
0003f0 b1 89 35 be dc cd 10 3f ed 86 75 3f 45 44 9e 3c
       -0.17728306 0.56564116 0.95909005 0.019319663

critic.0.bias f4 [64]
000000 a8 64 63 bf 79 90 1c bf bf 62 52 3d 22 60 c8 3e
       -0.88825464 -0.6115795 0.051363703 0.39135844
000010 98 71 9b 3d a4 7d 11 3e 37 ab 9c 3d 18 5b e8 bb
       0.07590026 0.14208084 0.07649844 -0.0070909373
000020 c4 bc 90 3e da ed e7 bb 76 62 86 3e bb cb 6b be
       0.28269017 -0.0070779147 0.26246995 -0.23026936
000030 47 54 8a bd 08 78 3e bd af ec 92 be a5 97 25 3f
       -0.06754356 -0.04650119 -0.286962 0.64684516
000040 31 0a 83 be 8c 66 ae be 8b 2c ac 3e a3 f4 df 3c
       -0.25593713 -0.34062612 0.33627734 0.027338332
000050 5a 1c 97 be ea 18 9d bd 3c 42 fb 3e b5 3c f7 bd
       -0.29513818 -0.076707676 0.4907397 -0.12072126
000060 da a8 88 3d 3c 63 0b 3e 98 a5 c9 be a6 9f 80 3e
       0.06672831 0.13612074 -0.3938415 0.25121802
000070 10 8f 4c 3e cc 4d 33 3e f5 6f fb 3e 6f 63 62 be
       0.19976449 0.17510146 0.49108854 -0.22108243
000080 79 f6 95 be 73 dd 98 3e a3 1e 4b be 2f 21 db be
       -0.29289606 0.29856452 -0.19835906 -0.42798755
000090 24 72 f7 be 26 d9 2f 3e 91 9e 21 3d 48 dd 56 3e
       -0.4832927 0.1717268 0.03945786 0.2098285
0000a0 4f 61 f5 3e 1f 62 94 3e a7 58 80 3d 0c 34 7a 3e
       0.47925803 0.2898111 0.06266909 0.24433917
0000b0 86 e1 86 3d 06 05 5e be 57 e9 42 be a5 01 7c 3e
       0.06585984 -0.21681604 -0.19034325 0.24610002
0000c0 b5 48 12 3e 3e fe c3 be a5 3b ea bd 3a db 49 3e
       0.14285548 -0.3827991 -0.114371575 0.19712535
0000d0 bc 3b 12 be 1a 40 2c 3e cf 15 cd 3e d6 9a 81 3e
       -0.142806 0.16821328 0.400557 0.25313443
0000e0 49 27 43 3d f4 3b 30 3e f4 f6 f7 be 2e 0c 20 be
       0.047644887 0.1721037 -0.48430598 -0.15629646
0000f0 69 b7 b8 bd a5 23 06 bf ad ef c3 bd 22 8b 3b be
       -0.09019358 -0.5239814 -0.09567199 -0.18314794

critic.2.weight f4 [64, 64]
000000 0a 8b b9 3c c5 5e b7 3d 01 0b bf 3d f7 43 eb bd
       0.022649307 0.08953623 0.09328271 -0.11487573
000010 06 23 70 bc 8d e6 cb bd 6e 69 49 3d 3a 36 73 bd
       -0.014656788 -0.099560834 0.04917281 -0.059377886
000020 69 f5 b7 be b6 b5 2a 3d cc f1 98 be a6 99 55 3d
       -0.3592942 0.0416772 -0.29871976 0.052148484
000030 ef 2f fe bc c9 79 b6 bc af 49 49 3d e0 a9 71 3d
       -0.031028716 -0.022274869 0.049142536 0.058999896
000040 fe 27 1d 3e 16 41 12 bd 47 e0 84 bd 8c 14 40 3e
       0.15347287 -0.035706602 -0.0648809 0.18757838
000050 8d 79 3e 3e bc a1 a4 3d b9 3e 75 39 e6 fd a2 3d
       0.18601055 0.08038661 0.00023388387 0.079585835
000060 b3 54 60 be d9 1a e4 bd ea ef 79 3e b7 fa 75 3d
       -0.2190731 -0.11137933 0.24407926 0.060053553
000070 5f bd 91 bd 75 49 fc b7 98 b4 b5 bd 8d 7c 95 bd
       -0.07116198 -3.0074947e-05 -0.08872336 -0.07299147
000080 70 4e d1 bc ac 2f 7d 3d 53 d8 90 3c 55 f5 0e 3e
       -0.025550097 0.06181304 0.017681276 0.13960774
000090 bf b8 fe bc 57 40 6b 3e 51 54 2a be 5a be 23 be
       -0.031093953 0.22973762 -0.16633727 -0.15990582
0000a0 ef 23 d0 3d 45 1a a8 bd 2b 1c 13 3e 69 0c 2d 3e
       0.10163104 -0.082081355 0.14366214 0.16899265
0000b0 8c e1 e6 3b c7 5e 21 3d f6 31 bf bd ba b9 e7 bd
       0.0070459303 0.039397027 -0.09335701 -0.113147214
0000c0 f0 4e 95 bd dd 70 ca ba b3 a1 99 3c 84 06 10 be
       -0.07290447 -0.0015445013 0.018753862 -0.14064986
0000d0 0d 7f 95 be 8f 97 08 3d 55 9f 7b 3e a3 ec 4c be
       -0.29198495 0.033347663 0.24572499 -0.20012145
0000e0 d9 af 6d be 22 3f 8c bc 92 03 90 3d 83 ed 10 be
       -0.23211612 -0.017119948 0.07031931 -0.14153104
0000f0 6c bd c4 3d 52 48 87 bd 96 4c fc bd c0 e1 4e be
       0.09606442 -0.06605591 -0.12319295 -0.20203304
000100 fd c3 7d be dd ef 84 be 4d a9 b0 bd 05 a9 88 bd
       -0.24781795 -0.2596425 -0.086260416 -0.06672863
000110 53 cc ad be d0 ee 64 be 07 0b 64 3e aa ac 0d bc
       -0.3394495 -0.22356725 0.22269832 -0.008647123
000120 d9 6f fc bd 2c 28 7b 3c 97 00 59 be 1e 94 1c be
       -0.12326021 0.015329402 -0.21191631 -0.15290877
000130 86 48 8c bd 9e db 91 3d 52 6a f9 bd 35 50 c6 be
       -0.0684977 0.07121967 -0.12178482 -0.38733068
000140 a2 91 14 bf c3 92 e1 bd 49 c0 19 3e e6 af fb 3e
       -0.5803472 -0.11014321 0.15014757 0.49157637
000150 8b 46 02 be 73 fc b0 bd b4 57 e3 3d 8f ae 5f bd
       -0.12722223 -0.08641901 0.111007124 -0.05460983
000160 a9 ae 66 bc 62 e7 14 be 1f 5c 11 be c4 f9 7d 3e
       -0.014079728 -0.1454139 -0.14195298 0.2480231
000170 e3 94 90 3d 36 5c 47 3e 8a c3 37 3e 19 aa fd bd
       0.07059648 0.1946877 0.17945686 -0.12385959
000180 8e 69 7b be 93 47 26 3e dd 4c dd bd 5e f7 48 bd
       -0.24551985 0.16238241 -0.10805676 -0.049064033
000190 8d 0a 8a bd 84 da fd bd d2 a8 1c 3e ee 6b c2 3c
       -0.06740294 -0.12395194 0.15298775 0.023733106
0001a0 d3 30 25 be c9 14 68 3d 96 86 db bd 68 6d ef bd
       -0.16131906 0.056660447 -0.107190296 -0.116907895
0001b0 94 25 f0 3b b1 1a 7d ba a3 bb a8 bd 18 46 48 be
       0.0073286984 -0.00096551614 -0.08238914 -0.19557989
0001c0 d4 60 92 bd 94 e5 3f bd 59 93 0e 3e e9 6f 2b 3d
       -0.07147375 -0.046849802 0.13923396 0.041854773
0001d0 67 8c 52 3c 24 87 0f 3d 07 b7 b8 3d 52 04 cf be
       0.012850857 0.03504099 0.09019285 -0.40432984
0001e0 a5 10 52 bb b4 37 ea 3d d9 6b 7c bc 6b ef 05 be
       -0.0032053378 0.11436406 -0.015406572 -0.13079612
0001f0 fd 74 ca 3d f4 c0 8b be 91 8e 8c bd 02 4f 89 bd
       0.09885595 -0.2729565 -0.0686313 -0.06704523
000200 f4 ef 98 be 45 5c 94 be 42 cf 9d be 69 e6 15 be
       -0.2987057 -0.28976646 -0.30822188 -0.14638676
000210 b3 11 7c 3d 6d 67 a6 be 20 15 a0 bd eb 17 d4 3c
       0.061540317 -0.32500783 -0.07816529 0.025890311
000220 64 de 48 be 67 c0 0a be 4a 6d b9 be af 84 12 3e
       -0.19616085 -0.13549958 -0.36216193 0.14308427
000230 6f cd 09 bd 1f 64 a3 bd 4a ea 74 3c 86 e0 5a 3d
       -0.033643182 -0.07978081 0.014948437 0.05343678
000240 9b 10 00 3c 4c 03 10 3d bf 55 5c be 90 14 79 bd
       0.007816459 0.035159394 -0.21517085 -0.060810626
000250 c1 e7 8d 3d d8 57 c4 3d 6a 4b 17 be 00 73 2f 3e
       0.06928969 0.09587067 -0.14774862 0.17133713
000260 15 4b e0 3b f3 88 a5 be f0 f6 07 3e 76 fb 55 bd
       0.006844888 -0.32331046 0.13277793 -0.052241765
000270 ef 26 68 bd 4a a1 94 be 69 76 0d 3e ac f1 c9 3c
       -0.056677755 -0.29029304 0.13814701 0.024651371
000280 7e 15 90 3d 7e 39 1d 3e a1 08 fc bd 90 37 7f 3d
       0.07035349 0.15353963 -0.12306333 0.062308848
000290 35 dd 8a 3d 06 be b1 be d8 4e bf bd 48 07 98 bd
       0.06780473 -0.3471529 -0.0934121 -0.07423264
0002a0 12 99 a6 be 85 ea 0c bf 64 b1 a8 bd 72 59 98 bc
       -0.32538658 -0.5504535 -0.082369596 -0.018597338
0002b0 20 d0 5b be c4 6b 37 3c cf dd 14 3e b3 cd d7 bd
       -0.21466112 0.011195127 0.14537738 -0.10537281
0002c0 9d c6 a3 3d 21 52 61 3d 89 07 bf 3d c1 eb 48 be
       0.07996867 0.055009965 0.09327609 -0.19621183
0002d0 d3 88 cd be 41 3c 45 3e 10 30 be be eb 59 7e be
       -0.4014345 0.19261266 -0.37146044 -0.24838988
0002e0 2a e3 24 3e d3 58 00 be 61 e2 c3 bd 0c ed 95 3d
       0.16102281 -0.12533884 -0.09564663 0.07320604
0002f0 d6 3f e6 3d b4 4a 29 3d f8 26 9f bd a0 b5 98 bd
       0.112426445 0.041331008 -0.077711046 -0.07456517
000300 53 84 52 be 81 e7 35 be e0 d7 31 be c7 db ee bd
       -0.2055829 -0.17764093 -0.17367506 -0.11663013
000310 e6 a1 e7 bc 5e a2 14 be 89 bd 26 be ef de a2 be
       -0.028275441 -0.14515063 -0.1628324 -0.3181071
000320 fc 04 b7 be cc 3f a1 bc 0e f5 96 be 7a 20 b8 3d
       -0.3574599 -0.019683741 -0.29483837 0.089905694
000330 b9 27 28 3e af 59 7b be f5 b6 2d 3d c9 44 00 3e
       0.16421403 -0.2454593 0.04241081 0.1252624
000340 29 01 65 be 0a c0 9d bc b3 0b 2d be bb d9 80 3e
       -0.22363724 -0.01925661 -0.16898994 0.25166115
000350 c8 94 66 3e ad d6 66 be 1c b4 c9 3d f6 49 5e bc
       0.22517693 -0.2254283 0.09848806 -0.013567438
000360 c6 63 43 3d ab 02 6c be 4b 0b dc 3e a8 e5 ed bd
       0.047702573 -0.23047893 0.42977366 -0.11616069
000370 91 83 30 be bf bd 83 be f3 2d 87 3d 03 dc 45 be
       -0.17237689 -0.25730702 0.06600561 -0.19322209
000380 b1 21 1f 3d 3b 4b e2 3d 02 44 4d be 14 f5 77 3d
       0.03885049 0.11049505 -0.20045474 0.06053646
000390 87 8f a2 3c d6 d3 1b be 43 b9 45 bd 9a 3b 1d 3e
       0.01984383 -0.15217528 -0.048272382 0.15354767
0003a0 f1 c9 c2 be 03 23 08 bf b6 1d 25 bd 49 1e 14 bd
       -0.38044694 -0.53178424 -0.040311538 -0.036161695
0003b0 f4 d7 28 be 31 87 08 3d 90 5d a3 3b 4f cf be bd
       -0.1648863 0.033332054 0.0049855188 -0.09316885
0003c0 72 2a 20 3c 3e 69 88 bd 3e 9a c5 bc 8f 1d 55 be
       0.009775745 -0.06660698 -0.0241214 -0.20812057
0003d0 16 9e ab bd 9b 85 0a 3d 51 83 cc bc ad 8f 58 bf
       -0.08379762 0.033818822 -0.02496496 -0.8459423
0003e0 d5 01 22 3e f8 4d f4 be 11 a1 8d bc c8 09 4d be
       0.15821011 -0.47715735 -0.017288717 -0.20023263
0003f0 b8 f0 67 be 2f 19 a2 bd 42 a0 29 3d 50 85 4f bd
       -0.2265042 -0.0791496 0.0414126 -0.050664246

critic.2.bias f4 [64]
000000 8b df 89 3b e8 82 3c 3d 04 d9 c5 3c 1b fd a1 3d
       0.0042075566 0.04602328 0.024151333 0.07909604
000010 4b 7e 65 3e 19 bb 8c bc 4b 02 b0 bd 81 23 82 3d
       0.22411458 -0.017179059 -0.08594187 0.06354428
000020 20 bc b2 be b5 75 b5 3e c4 29 05 3e 90 af 7a 3e
       -0.34909153 0.35441366 0.13004214 0.24481034
000030 f1 99 e6 bd 45 06 be 3d 0a 0e 7b 3e bc 19 73 3b
       -0.11259831 0.092785396 0.24517074 0.0037094196
000040 b8 45 60 be 3e 35 90 3c 4e 14 80 bd 77 bf 99 bd
       -0.21901596 0.017603513 -0.06253873 -0.07507222
000050 90 8a ed bd ca 94 f0 bd 26 54 ec bd ac 81 88 3d
       -0.11598694 -0.11747129 -0.115394875 0.06665358
000060 21 23 6f 3d 82 99 29 3e 56 54 b5 bd 06 cb 9c 3e
       0.05838311 0.16562465 -0.088539764 0.30623645
000070 17 5a 27 be 82 a0 c0 be 02 a2 5f bd c7 99 32 be
       -0.1634296 -0.37622458 -0.054597862 -0.17441474
000080 0b e3 db 3b 89 8a 47 be 8d 5e bd 3d 4d 9e 17 be
       0.0067104152 -0.1948644 0.0924655 -0.1480648
000090 d4 bd f5 b9 7c 02 0a 3e b1 06 cd 3d ed 5f f2 3d
       -0.00046871474 0.1347751 0.10011042 0.11834703
0000a0 d0 ac ec 3c 07 cc cd 3d f5 d0 8b 3d 21 a9 00 3e
       0.028890997 0.10048681 0.06826965 0.12564518
0000b0 fa 77 f9 bc f8 ee b4 bd 56 55 15 be 46 31 a9 3d
       -0.030452717 -0.08834642 -0.14583334 0.08261351
0000c0 76 fb 63 bd 51 f7 8f 3c 46 94 17 be 6c 90 af bd
       -0.055659734 0.017573984 -0.14802656 -0.08572468
0000d0 10 4a b2 bc 36 e5 71 bd 90 36 3f be b1 d4 36 bd
       -0.021763831 -0.059056483 -0.18673158 -0.044636432
0000e0 bd ad aa bd 6a 55 0f 3e 87 5e b0 bc 8e ea 2c 3e
       -0.08333919 0.13997427 -0.02152945 0.1688635
0000f0 21 9f 37 3e 39 9b ac 3d bf aa 85 3e b4 35 fc bc
       0.17931797 0.08428044 0.2610683 -0.030787326

critic.4.weight f4 [1, 64]
000000 7e 4e ab bd 27 94 40 3e ee 75 88 3e ad 59 92 3e
       -0.083645806 0.18806516 0.26652473 0.28584042
000010 6d b1 1b 3f e5 18 88 be 38 9a 6d 3e 34 fe 82 3f
       0.60817605 -0.26581493 0.23203361 1.0233827
000020 40 6b 8b 3f 5e e0 80 3e 65 27 32 3e e3 2f 3f 3e
       1.0892105 0.2517118 0.1739784 0.18670611
000030 86 de 13 be 67 e4 03 3f c4 7c 9e 3e eb 62 c3 3e
       -0.14440355 0.5152039 0.30954564 0.38161406
000040 e4 00 38 bf 71 49 5c be 84 68 00 3e f6 10 86 3f
       -0.7187636 -0.2151239 0.1253987 1.0473926
000050 2f c3 e2 3d e0 c0 0d bf 2d e8 10 3f 26 97 2e 3e
       0.110723846 -0.5537243 0.5660427 0.17049846
000060 74 83 03 be 2d 65 0e 3e c4 57 a5 be 24 db fe 3d
       -0.12843114 0.13905783 -0.32293522 0.124441415
000070 bf d1 9a bf 50 af 1b bf bd b4 1e 3e 56 f7 09 bf
       -1.209526 -0.6081438 0.15498634 -0.5389303
000080 01 6f 05 bf 1a e6 19 bf 5b dc a5 bf 4a d9 68 bf
       -0.52122504 -0.6011673 -1.2957872 -0.90956557
000090 0c 45 b7 3e 49 9e 45 3e 84 3a 83 3e 87 d9 41 3e
       0.35794866 0.19298662 0.2563058 0.18930636
0000a0 a1 4e a2 be 89 04 d7 3e b1 b1 64 be 9b e1 60 3e
       -0.31700614 0.41995648 -0.22333409 0.21961062
0000b0 86 ce e3 3d 8e 7c 27 be 0d 3a 25 be c1 49 24 3e
       0.111233756 -0.16356108 -0.16135426 0.1604376
0000c0 70 65 36 3f 51 e9 b7 3e 8a ee 5e 3e 63 2d 82 3f
       0.7124853 0.35920194 0.21770683 1.0170101
0000d0 f2 c4 1f bf 87 3b 6d bf 90 63 d5 be b6 74 5d be
       -0.6240989 -0.92668957 -0.41677523 -0.21626553
0000e0 7f 71 9f bf 15 b1 87 3e 94 f6 d0 3d e4 44 86 3f
       -1.2456511 0.2650229 0.10203281 1.0489774
0000f0 3c 24 e2 3e a5 bf 9d 3d 3c 8b 3b 3f d5 58 be be
       0.4416827 0.07702569 0.7325933 -0.37177148

exp_avg f4 [6]
000000 f1 7f b8 38 d8 6b 3b 37 da d0 9d b7 fa d5 01 b9
       8.797635e-05 1.1171178e-05 -1.8813113e-05 -0.00012382111
000010 49 18 95 35 55 c7 16 b8
       1.1108433e-06 -3.594843e-05

exp_avg_sq f4 [6]
000000 54 df 1b 35 30 d4 0f 35 c7 42 57 35 a2 09 33 34
       5.8066985e-07 5.3580425e-07 8.0190915e-07 1.6674178e-07
000010 05 8e 19 34 e9 06 a4 32
       1.4300902e-07 1.9095255e-08
