2026-01-29_07-44-49_Fase2_Empuje_V1/model_1550.pt (torch, 189045 bytes, 36 tensors)

std f4 [6]
00000000: d5f2 863e 2cc4 8d3e 913b 403e fac4 143f
00000010: 5ccd 203f 9052 0340
0.2635714 0.2768873 0.18772723 0.5811306 0.62813354 2.0519142

actor.0.weight f4 [64, 43]
00000000: c4ff ed3c 5e6b 983e 11fc 8fbd eca4 323d
00000010: 46e6 86be c2b5 a8be adb9 88bd 1902 78be
00000020: d377 ea3c 7c40 733d 751b 4dbd 72eb 993d
00000030: 6f98 403e 324e 393e 3118 c5bb e8bc f3bd
00000040: 8f6c 0dbe 5809 84be 1511 02bd 79bd babb
00000050: 7b92 483f 8ea3 083f e2ab 033e 668b 2fbd
00000060: c061 01bf 1cec 98be 6852 2bbe a597 7fbe
00000070: 3fb6 ceb9 4e86 8ebe a52c 953e de77 e33d
00000080: eabd c43e 4591 0dbf 3c0a 213d 9c1b 493e
00000090: 1a29 773e 4185 8d3e 3b26 843e 0eac 5f3e
000000a0: 69ce dfbe cc69 d8bd c372 b83e 00e1 27bd
000000b0: 9e6e 593e c010 993e 7043 253f 524b 0cbf
000000c0: 65b8 13be 4660 f63d 6a2a 38bf 1615 e9bd
000000d0: 7eee f6bd 7253 f33d f6da aabb ae29 103e
000000e0: a027 c6bd 74f8 c4bc 6f15 f43e b828 1bbf
000000f0: 2935 35be 82de 32bd 1569 053c e071 20bf
00000100: 25be 523f 30c9 a83e fb12 6e3e 0023 45bf
00000110: 682b 58bf da34 833d 0141 e7bd d16e 903d
00000120: b66b 973e bd9d a3be a309 9abc 17be d43e
00000130: 3b1b 2ebe dcab a4be 97e9 9c3e 9033 b03e
00000140: 88c3 8bbe 6044 e33c 53a0 1d3f a23a 013e
00000150: 0c3f 333f 8af2 ebbd 69d9 c5be c0a3 12be
00000160: 25c7 70be 4142 053d abc4 2bbb 11f1 a9be
00000170: 4c45 a63e 3db8 95bd 97a5 cabe 67ff 42be
00000180: 26bf af3c ee94 5c3d 7489 1ebe 55e1 e5bd
00000190: 3302 9bbe 4a50 ea3d 048c d5bc d1fa 90be
000001a0: d085 1ebb add4 b6bb 04b0 b8be d279 b2be
000001b0: 448e 1fbd 4bfd b0be 872e a0bd 3f35 3bbe
000001c0: 4875 943d dfaf cfbe 45d8 c3bd be66 8abd
000001d0: 1b97 7ebe bb43 8d3e dd9b 023f a577 7ebe
000001e0: cdb6 98bd ef5d 8abd 687f 09bf f07e c0be
000001f0: e84b 9b3e 244f f93e 348f 17bf 7294 36bd
00000200: ccaa 073f ffe1 1bbc 86c5 a43d 1b2b 253e
00000210: 2ab3 f0be ac59 b13e 7230 5e3d 1324 1c3d
00000220: 3937 53be dc0b 2b3e d3c5 ad3d cef5 cabd
00000230: 8999 a83d 5773 97bd 5ba0 dc3d 5981 5b3d
00000240: 29b8 8bbe fcd5 573e 4742 ea3d 1c38 3f3d
00000250: dea7 423a 0284 cfbd 6143 a3be a5f7 dcbd
00000260: 1300 0d3e 8c90 00be 2ec8 3e3e bb3f 44be
00000270: 210c 81bb eec8 143d 280b 7bbb cbdc b7bc
00000280: 3ee4 04be 05b1 963e 4899 aebd 6295 1bbd
00000290: 81d1 83bd 84a2 063c 51b2 1dbc 2883 0bbe
000002a0: f2f0 963e f261 a73d 7520 c8bd 1e0d e9be
000002b0: c3ad 423e 340c 0ebf 1869 09bf c474 663b
000002c0: c350 5b3c d9a2 953e 8483 093e 0d1e 7a3e
000002d0: 479b aa3e baa0 013e 0875 4abd 66ac 49bd
000002e0: 4c39 253e 5dca 0cbe 0ffe 8fbd c6b0 973d
000002f0: 0046 72bb 01a6 4d3e f2d1 88bc dcff 69bc
00000300: 0bbe c93d bbff 9d3e 81f6 10bd 0ebd 82be
00000310: 292e 2fbe 182d f93c 74ab 95bd b038 80bd
00000320: bcde 3dbe a674 37be 4af9 61be 0afa 9b3e
00000330: 4442 63be 5559 b4be 4141 1eba a771 5bbe
00000340: 20f4 a3be 1360 98be 1602 b03e f264 13be
00000350: c2c6 8d3e 9659 82bf 43b1 ad3e 454c 96bd
00000360: 9098 a9bd eeba b9bd 9dce 35bd 9e43 473e
00000370: 6486 e4bd 8cf3 aa3e e201 5dbf d2dc 593d
00000380: 0f06 6fbd b493 b13d 35ee 97bc 66c8 0dbe
00000390: 7d03 98be fbc2 7ebe 68ff 5fbe 3ea6 de3e
000003a0: 6974 0b3e c2c4 083d d00b a8bb d1d2 4ebe
000003b0: 33a6 08bf eeea 05bb dd44 af3e f38e 36be
000003c0: 0309 afbe b4f7 81be b847 44be 4c75 1fbe
000003d0: 1d84 0fbe f096 56be 63d4 0abe e91d 2a3e
000003e0: fb91 18bd 41bb 743e cfe8 6abd 0036 f2be
000003f0: 13e4 04be ac3c e0bd b915 8d3d de70 00bf
0.029052623 0.29769415 -0.070305 0.043614313 -0.2634756 -0.3295117 -0.0667604 -0.2421955
0.02862159 0.05938767 -0.050075013 0.07515611 0.18808149 0.18096235 -0.0060148467 -0.119012654
-0.13810943 -0.2578838 -0.031754572 -0.0056988564 0.7834851 0.53374565 0.12858537 -0.04285755
-0.5053978 -0.29867637 -0.16730654 -0.24960192 -0.00039427166 -0.2783684 0.29135624 0.11106847
0.38426143 -0.5529979 0.0393164 0.19639438 0.24136773 0.27640727 0.25810418 0.21842977
-0.43712166 -0.10567054 0.36025056 -0.04098606 0.21233603 0.29895592 0.64556026 -0.5480243
-0.1442581 0.120300815 -0.7193972 -0.11380975 -0.120572075 0.1188115 -0.0052140905 0.140784
-0.096755266 -0.024044253 0.47672603 -0.60609007 -0.1769606 -0.04366923 0.008142729 -0.6267376
0.8232139 0.32965994 0.23249428 -0.7700653 -0.8444123 0.06406565 -0.112916954 0.070523866
0.29574364 -0.31956282 -0.018803423 0.41551277 -0.17002575 -0.32162368 0.30646965 0.3441434
-0.27297616 0.027742565 0.6157276 0.12620023 0.70018077 -0.1152087 -0.38642433 -0.14320278
-0.23513468 0.032533888 -0.0026209753 -0.33191732 0.32474744 -0.07310531 -0.3957946 -0.19042741
0.021453451 0.053852968 -0.15482122 -0.11224619 -0.30275115 0.11441095 -0.026067741 -0.28316358
-0.0024188645 -0.005579552 -0.3607179 -0.34858567 -0.038954034 -0.34568247 -0.078213744 -0.1828203
0.07248932 -0.40563866 -0.095627345 -0.06757878 -0.2486233 0.27590737 0.5101908 -0.24850328
-0.074567415 -0.06756198 -0.5371003 -0.37596846 0.3033135 0.48693192 -0.59202886 -0.044575162
0.5299499 -0.009514331 0.08045487 0.16129725 -0.4701169 0.34638727 0.05424542 0.03812034
-0.20626535 0.16703743 0.084849976 -0.09910165 0.082324095 -0.07395046 0.10772773 0.053590152
-0.2728894 0.21077722 0.11438423 0.04668437 0.0007425527 -0.101326 -0.31887344 -0.10789422
0.1376956 -0.1255514 0.1863105 -0.19164936 -0.0039382135 0.036324434 -0.003830621 -0.02244415
-0.12977692 0.2943193 -0.0852533 -0.03798426 -0.06436444 0.008217458 -0.0096250335 -0.13624251
0.29480702 0.081729785 -0.09771816 -0.4551782 0.19011597 -0.5548737 -0.53675985 0.0035164813
0.013385954 0.29225805 0.13429075 0.24425526 0.33321592 0.12658969 -0.049428016 -0.049236678
0.16135138 -0.1374907 -0.0703088 0.07406764 -0.0036967993 0.20082857 -0.016701672 -0.014282193
0.09850701 0.3085917 -0.035391334 -0.25534862 -0.17107452 0.03041701 -0.07308093 -0.06260812
-0.18541998 -0.17915592 -0.22067752 0.30464202 -0.22193247 -0.35224405 -0.0006036945 -0.21430074
-0.3202219 -0.297608 0.3437659 -0.14393976 0.27690703 -1.018359 0.33924302 -0.07338766
-0.08281052 -0.09068857 -0.044386495 0.19459388 -0.111584455 0.33388937 -0.86331 0.053189106
-0.058355387 0.0867075 -0.018546203 -0.13845977 -0.2969016 -0.24879067 -0.21874774 0.43486208
0.13618626 0.033390768 -0.0051283613 -0.20197608 -0.533786 -0.0020434218 0.34232226 -0.17827968
-0.34186563 -0.25384295 -0.19167984 -0.15572089 -0.14015241 -0.20956016 -0.13557582 0.16612972
-0.037248593 0.23899557 -0.05735093 -0.47306824 -0.12977628 -0.10949072 0.06888909 -0.5017222

actor.0.bias f4 [64]
00000000: b2af c53c b14f 723e f2b9 943d 0c74 d7bd
00000010: 0999 973c a469 94bd af4c 923d a571 a63a
00000020: da67 b8bd 0f9c ce3d bbe4 cabe 3da7 4b3e
00000030: 6d5e 85be 13ae 58be 4a7f 273d a9e3 0fbc
00000040: 502d 8a3b 1224 c8bd 6fa8 aabe 5a92 9dbd
00000050: 39b3 d8be 06f1 c03c 5134 31be 3771 59be
00000060: 6e70 2abe 54ad 9c3d 57f7 13be ca98 64bd
00000070: bc0f 593c ab17 a2be 63a7 9e3e 4722 b23d
00000080: 4ea4 84bd d5bd ff3d b7c5 82be b4e2 1a3b
00000090: c29b 1c3e 2620 92be c520 21be b845 b4be
000000a0: 2646 f6bd b4af 73be 5f36 e1bc 40c3 afbd
000000b0: 50e8 91bd 612c b33d 4f96 e63d 50a0 4ebe
000000c0: a4d8 40be 55e2 6b3c 605f 973d bdac ffbd
000000d0: 1288 0dbe af5e 34be a487 1fbd 33ff 1a3c
000000e0: 2c08 a23e 2e7f c43b 7a9b 1b3d 1bc1 d6be
000000f0: e71c a5be 7c4c bd3d f875 3bbe c651 31be
0.02413163 0.23663212 0.07262029 -0.10520181 0.01850559 -0.07246712 0.071435325 0.0012698664
-0.09004183 0.100883596 -0.39627632 0.19888015 -0.26048604 -0.21160154 0.040892877 -0.008782306
0.0042168275 -0.09772505 -0.3333163 -0.0769393 -0.42324236 0.023552429 -0.17305113 -0.21234594
-0.16644451 0.07650247 -0.14449821 -0.055809774 0.01324838 -0.31658682 0.3098708 0.08697944
-0.06476651 0.124873795 -0.2554147 0.002363366 0.15293792 -0.28540152 -0.15735157 -0.3520944
-0.120250985 -0.23797494 -0.027491746 -0.08582163 -0.07124388 0.08748699 0.11259138 -0.20178342
-0.18832642 0.0143972235 0.07391238 -0.12484119 -0.13821438 -0.17614244 -0.038947716 0.009460258
0.3164686 0.0059966063 0.03799007 -0.41944203 -0.32248613 0.09243104 -0.1830672 -0.1731635

actor.2.weight f4 [64, 64]
00000000: 5c58 d63c 9266 acbc 9012 5d3c 0725 9a3d
00000010: 9eca 373d 0921 603d 56f9 0d3d 36df bd3d
00000020: 28fc 04be 7d27 aa3c 3cac 773d 3411 fabc
00000030: ee50 863d fd69 e3bd bf56 973e 88f8 84be
00000040: 9ec6 ebbd 27f7 333e 2be1 083b 075d c73b
00000050: 5310 9c3d cc8a e1bd 27c8 63be f3de 183d
00000060: 839d 033e af3d e53c 5791 583d 7dbd d13d
00000070: d534 063e c757 82bd 94a1 6f3d 8a91 1f3e
00000080: b65d 133e 26a2 063e ac3a c9bd 20b2 9b3d
00000090: 817a 08be d486 c33c e82e ab3e faa0 923d
000000a0: 1e44 b13c f79e 5cbd 43f2 dbbd 3a8d 13bd
000000b0: 7cd0 903d 3714 38be faa6 123e 2ee1 083e
000000c0: b06f 2bbd 09cf 8dbc f5af 2a3d 622e 11be
000000d0: 929b d43d 5d17 00be d1ca 603d f600 593e
000000e0: d111 73bd 2899 5c3d 9588 0abe 6cb5 f63c
000000f0: eaaf 143d 45c8 2a3e 9a6a 0fbe e156 b4bd
00000100: cfe1 9cbe cbd3 43be 23a1 9a3d 266f 88bd
00000110: 1a16 b13c e5ef 6a3e 3ac6 843d 2f64 12be
00000120: 7348 85bd f13f e4be 0b48 633d f2ca 09bd
00000130: 138e 63bd 1b0e 233d 3e3a 9ebe a22b 63be
00000140: 6bad 73bc ff50 863e 8e47 823e 83b0 273d
00000150: 8199 533d 4740 e93c dd02 183e 8ab4 a13d
00000160: 7f30 63bc 958a 4b3d ad14 7bbe 69da 223d
00000170: 569d f63d 95d7 e73d eb29 e0bd ab21 a53d
00000180: b5a9 d83d 245c 05be e557 2c3d bf68 5e3d
00000190: d8d7 57be 0812 953e 97f8 133e 72c9 b03d
000001a0: 786c 2c3e 91f8 103e 7b55 c13d 987c 263e
000001b0: 9212 e8be 1064 89bd eadd 1fbf 4734 8c3d
000001c0: e335 323e b9d9 74bc e45c 503d a848 083d
000001d0: c0ab bbba f3cd c63d a22f 75bd 016d 9cbe
000001e0: 0117 483e 009a ae3c fb51 9ebd 452d 083d
000001f0: c34d a0bd 6675 983e e341 0dbf 771d 223e
00000200: fdc0 1abc d3da 07bd 170a 86bd 3779 3b3e
00000210: f5f9 803d 4e4e 253d ea54 a43d 37dc 64be
00000220: 18de 333c 3146 fc3d 85c1 8abe 2576 e43d
00000230: fccc c23c f776 8abc ae2a b93d 7472 6b3d
00000240: 82d5 4b3d d002 68bd f6fa d6bc 0552 7f3e
00000250: 2ad6 bcbc 2391 0bbe bda3 a53c eff5 40be
00000260: aa9f e8bc 4678 26bd db8c 24bd 8a65 25bf
00000270: 70d4 503a f9ec ef3a 064c afbe 0a2d 19bc
00000280: 4e17 56be 7678 473d 37fe 103e be15 b6bc
00000290: a2b5 a93c 295e de3c a593 ccbd 0b38 923c
000002a0: b260 86bd 525a 4f3d 9391 d7bc 8c3f 473d
000002b0: ab91 08be d33c 55be 4715 6dbe 5b61 70be
000002c0: 309c 323d ca9a bfbd 68b4 293e e6dd 87be
000002d0: e732 47bd 316b 203c 1731 4abd 09d9 d0bd
000002e0: fd05 223e eca1 b43d 89ab b63c aa66 4bbe
000002f0: 0ba6 813c b6d5 03bc 1182 56be bc24 6a3d
00000300: 9ec8 33bc 62b9 22bc 6f2b 62bd 19ba 963d
00000310: 205d 413d 4cad 513e 4b69 953c f2e0 85bd
00000320: 07ed ee3c 3401 223d 6611 db3d f43e 9abd
00000330: 9e3e a9bc f542 e6bd 8eac 3e3e ffe9 28be
00000340: 31f4 b8bc bd04 58bb 1ba2 8d3d 3d74 6c3c
00000350: 70f8 e2bd 900a 01be df3f aa3d 28ff 9abd
00000360: eeb6 b03d 82a1 e93a b177 263e fb88 ca3d
00000370: 500c b3bb d126 c03c c83c 40be 7298 84bd
00000380: 87ba 173e 8f4b 5fbc 0923 0fbd ed72 263e
00000390: ae1f 2cbe dc63 f73d 076f af3e 205b 903d
000003a0: 2ec7 74bd f46a fbbd 59c3 783d 840f 8c3d
000003b0: adc6 1f3e b03c 613d 4d9b bb3c c55e 663e
000003c0: 7177 dd3c 39b6 41bd 2256 94bd 4bd8 0f3e
000003d0: 9b32 84bc 7d15 1d3e 5d30 9abd e418 523e
000003e0: 1416 8abe f770 10be 58ab 133e d1e0 4bbd
000003f0: 658e e23d ce39 c83d 3419 2fbd 06a9 f1bc
0.02616518 -0.021045003 0.013493195 0.07526594 0.044870965 0.054719005 0.034661613 0.0927109
-0.12986815 0.020770783 0.06046699 -0.030525781 0.06558405 -0.111042 0.2955837 -0.25970864
-0.115124926 0.1757475 0.0020886164 0.006084088 0.07620301 -0.110128015 -0.22244321 0.037321996
0.12853055 0.027983515 0.052872982 0.1024122 0.13106091 -0.063643984 0.058503702 0.15582862
0.14391217 0.13147792 -0.09825644 0.07602334 -0.13327982 0.023868002 0.33434224 0.0715961
0.021638926 -0.05386254 -0.10739567 -0.036023356 0.07071015 -0.17976461 0.14321509 0.13367149
-0.04185456 -0.017310636 0.041671712 -0.1417785 0.10381235 -0.12508912 0.05488092 0.21191773
-0.059343163 0.053857 -0.13528664 0.030115806 0.036300577 0.1667796 -0.14005509 -0.08805633
-0.30641028 -0.19123761 0.07550266 -0.06661825 0.021616984 0.22943075 0.06483121 -0.1429603
-0.06507959 -0.44580033 0.055488627 -0.03364081 -0.055555414 0.039808374 -0.3090381 -0.22184613
-0.014872889 0.2623367 0.25445217 0.04093982 0.051660065 0.028473033 0.14844842 0.07895763
-0.013866543 0.04969271 -0.24519606 0.039759073 0.12041728 0.11320416 -0.10945495 0.08063062
0.10579244 -0.1302343 0.04207601 0.054299112 -0.21078432 0.2911532 0.14450298 0.08632173
0.16838253 0.1415732 0.09440132 0.16258466 -0.45326668 -0.067085385 -0.6244799 0.068459086
0.17403369 -0.014944487 0.050869837 0.033272415 -0.0014318153 0.097072504 -0.05985988 -0.30551913
0.19540025 0.021313667 -0.0773048 0.033246297 -0.07827332 0.29777068 -0.5517866 0.15831552
-0.009445426 -0.03316767 -0.06544893 0.18307959 0.062976755 0.04035788 0.080240086 -0.2234963
0.010978244 0.123180754 -0.2710077 0.11155347 0.023779385 -0.01690243 0.09041344 0.057482198
0.049764164 -0.056643307 -0.026242714 0.24933632 -0.02305134 -0.13629584 0.020219678 -0.18843816
-0.028396446 -0.040642045 -0.040173393 -0.6460806 0.0007966226 0.0018304876 -0.3423769 -0.009349117
-0.20907328 0.048698865 0.14159475 -0.022227164 0.020716492 0.027144508 -0.099890985 0.017848989
-0.06561412 0.050623246 -0.026314532 0.048644587 -0.13336818 -0.20823984 -0.23152648 -0.23474638
0.043605983 -0.093556955 0.16572726 -0.26536483 -0.04863253 0.009791181 -0.049363222 -0.10197646
0.15822597 0.08819947 0.022298591 -0.19863382 0.015826246 -0.008046558 -0.20948054 0.05716394
-0.010973124 -0.009931894 -0.055217203 0.07359714 0.04720795 0.20476264 0.018238684 -0.065370455
0.029165758 0.03955193 0.10696678 -0.075315386 -0.020659741 -0.1124324 0.18620512 -0.16495512
-0.022577377 -0.0032961809 0.06915685 0.01443201 -0.11082542 -0.12601686 0.08312964 -0.075681984
0.08628641 0.0017824622 0.16256596 0.09889408 -0.0054641142 0.02345601 -0.18773186 -0.06474389
0.14817248 -0.013628854 -0.03494552 0.16254778 -0.1680896 0.120795935 0.34264395 0.07048631
-0.059760265 -0.12276259 0.060733173 0.06838897 0.15603133 0.054989517 0.022901202 0.22497089
0.027034493 -0.04729292 -0.07242991 0.14047353 -0.016137412 0.15340228 -0.07528756 0.20517308
-0.2696997 -0.14105593 0.14420831 -0.04977495 0.11062316 0.0977665 -0.042748645 -0.029499542

actor.2.bias f4 [64]
00000000: 9402 e8bd fd91 923d bf32 ae3d 10ef f73d
00000010: f644 843c 10c7 cb3c 70f3 43bd 068b 7a3e
00000020: ee96 abbd 71c7 c9bd 8bd8 b03e b304 c1bd
00000030: 5710 4a3d d173 6ebe bf5e 5c3d 4f97 753e
00000040: 19e7 b5bc 3ffb 96be 1125 f5bc ebaf 3abe
00000050: 2c6d 8a3d 3712 7bbd 266c 49be 8fd0 41bd
00000060: c962 c93c 2832 883e c126 a13d bc8a 053e
00000070: 0169 ffbc 8012 08be a5ad e43d 5d64 8b3d
00000080: 7ec1 8ebe e02a 04be 57c3 9dbd 5e93 61be
00000090: f4f8 81bd 764e 0bbe c037 37bc 3406 cd3c
000000a0: bac3 f13d 84d4 98be a7b8 3bbc 09a2 a23c
000000b0: 5b1f afbd 7bbf 22be 060e fdbd 55f9 25be
000000c0: 7e1f 9a3d 2edd ae3e f54a 9ebd 2e68 24be
000000d0: 0d52 523e dd37 283d be20 d53d 4d7d 98be
000000e0: cbff 113e de63 a73d a4fb 2bbd 1821 e3bd
000000f0: bbb3 893c 6c1d 23bd 27f7 3cbe 3310 543e
-0.11328617 0.07156751 0.08505773 0.121061444 0.016146164 0.024875194 -0.047839582 0.24467096
-0.08378397 -0.098524936 0.3454021 -0.094247244 0.04933199 -0.23286368 0.053801294 0.23983501
-0.022204923 -0.2948856 -0.029924901 -0.1823117 0.06759104 -0.061296668 -0.19670162 -0.047318038
0.024583237 0.26600766 0.0786872 0.13041204 -0.031178 -0.13288307 0.111659326 0.06806252
-0.27881998 -0.1290698 -0.07703274 -0.22028872 -0.06346312 -0.13604149 -0.011182725 0.025027372
0.1180491 -0.29849637 -0.011457599 0.019852655 -0.085509025 -0.15893357 -0.123561904 -0.16208394
0.07525538 0.34153122 -0.07729141 -0.16055366 0.20539112 0.0410689 0.10406636 -0.29783097
0.14257734 0.08173345 -0.04198803 -0.110902965 0.016809335 -0.03982298 -0.18453656 0.20709305

actor.4.weight f4 [6, 64]
00000000: 4b32 3bbe e512 e4bd 9f6b 4d3c 2966 4ebe
00000010: 26d3 89bd b124 423d aaf0 babd bae4 3a3d
00000020: 37ca 973d 0b24 ddbd 0b1d a0bc 667a 353d
00000030: 0ab3 b33d e79d 823d dc53 57bd b4ba 2bbd
00000040: 3618 0a3e b39a 3b3e 0ab3 5d3d c081 fd3d
00000050: 4190 fd3b 5fad f5bd fe5a 983d d44d 153e
00000060: 3d23 0b3e 0f83 afbc cc26 943d 793c 93bd
00000070: 8c5e b0bc 082e 15be 1870 ab3c a535 04bd
00000080: 5816 623d 75cc 243e e55a 1dbd 3f0f 693d
00000090: af0b 9fbd 023e c537 24d2 72be 2e7a 513e
000000a0: e644 d33d 9caf 9c3d a365 603d 75b9 88bd
000000b0: 40e1 7e3e 7f78 b33d cd4a 38bd 97b8 3e3d
000000c0: 3e53 2a3d 234b f9bb f7ea d0bd 8840 283d
000000d0: 9f46 34be ec75 aabd 9427 6bbe 9da8 b6bc
000000e0: a5ef a73d 3b42 1abe b301 fb3c 4bb6 26bd
000000f0: 6afc 6bbd 3060 8e3c 327b 7e3e 3b4c 02be
00000100: 4ae7 3b3d 52ce ff3d e2be 73be 16f8 d2bd
00000110: 9531 053c 6c21 7ebd 6642 ad3d 199c 0fbc
00000120: 9a9f 103e 5563 71bd baaf b03d fa8a bc3c
00000130: 3921 2abe 1dd0 69bc 5c19 883d f8d3 fabc
00000140: 0270 b33d 4b3f 0dbd f464 9a3d f734 9fbd
00000150: fd08 38bd ec97 153e 01b0 80bd 2173 14be
00000160: d64a 923c 8c88 f43c 5a64 9b3d 4a2e 9abc
00000170: df16 0abe ff40 0ebd 8afa 0dbe d062 693b
00000180: c8be 583d 1c0a 1bbc 6864 ec3d 5ca0 3c3b
00000190: 1c61 73bd 8d38 97bd 5259 aabd 42d2 a63d
000001a0: ea96 4a3e eeb4 bbbd 727f 83be 32ff 653c
000001b0: ba91 ca3d 7636 d63d ac42 7c3d c36e 86bc
000001c0: af92 0b3e 9792 7b3c 80eb 3a3d abfe 133e
000001d0: 6477 f33a 7db2 ff3a cdfa f93c 55a1 01bd
000001e0: da40 6ebd d400 843d ad31 b1bd 50e8 efbd
000001f0: 7731 a63d 6c86 0e3d bf16 c7bc 8b00 ec3c
00000200: e04c b2ba 98ee 843d 9f9b 85bd 03cf 523d
00000210: 618d 223d b5d9 063d 3037 52bc 7bf6 093e
00000220: f746 88be 3e64 af3d f9e4 873d bc64 80be
00000230: 4601 fcbd ea69 4ebe 8eed b53b e4d5 bd3d
00000240: 03db 60bd 36fa 2dbe b5bc af3d 1bee 31be
00000250: 56e5 9a3d 7902 9cbd e47d 0cbe 604e a8bd
00000260: edfd fcbd f425 003e 356e a03d 7da2 803d
00000270: a540 82be 5810 3dbd 5e8c c03d feec bd3d
00000280: 238e e7bb 5ece 43be a29e 273c ada6 26be
00000290: 9587 0dbd c09b 3a3c 290e 4bbd d309 b3bd
000002a0: c5dc 2a3c 5e0f 41be 9642 41bc 8fbd b13d
000002b0: fdae da3c 39b8 38bd 2f11 70bd a492 97bd
000002c0: 9dd0 113e 7aaf e93d 2e87 dcbd 368b debd
000002d0: 6e20 cb3d 28ac a93d 1570 883c 6b89 3bbe
000002e0: adec f63d eef8 b23d 3385 943c 9e2d 5fbd
000002f0: 1090 28bd c4f9 3a3d ccc9 39be 459e 433d
00000300: 5836 6dbd 6504 6d3e c663 d6bd 21eb 7b3d
00000310: 47d6 b7bc 6578 873d 2d0c 5abc 175b 82bd
00000320: 8297 123e cbd8 c2bd 22fb b43d 52fb 383e
00000330: c8ff 843d 5b43 43be ffd1 723d 44f2 813d
00000340: c2fe 93bd 8ef6 f5bd aaea 00be 58f1 31be
00000350: 93f0 d0bd d954 fc3d c9aa 89bd e9a5 0dbe
00000360: b177 1fbe bc36 c5bc c931 abbd 07c8 043e
00000370: 5196 653d 4b54 b13d c5c2 9b3d 066d e5bc
00000380: 2993 f0bd 6855 16bc 3f5c debd 5594 343e
00000390: 9101 82bc af53 99bb e5d6 acbc dcd7 bf3e
000003a0: 88fd c13d 1ef4 5abb de1c 583e 7d27 5cbe
000003b0: 8c43 813d 7a32 fdbd ef31 6cbe f49f 7e3e
000003c0: 1b2b cbbc 2f0b c53d 2766 363d 0e1e 9fbe
000003d0: 4b16 a3bd bf57 fc3c b216 fc3d f281 06be
000003e0: 0d9f 363e e3b8 13bd 8689 80bd 0aee c2bd
000003f0: 5bac f3ba f2a7 cabd bc04 cdbd 4b40 c7bc
-0.18280904 -0.11136416 0.012537866 -0.20156159 -0.067297265 0.047398273 -0.09127934 0.045628287
0.07411616 -0.1079789 -0.019545099 0.04430618 0.08774383 0.06377774 -0.05257021 -0.0419261
0.13485798 0.18320732 0.054125823 0.123782635 0.0077381437 -0.119959585 0.074392304 0.1458047
0.13587661 -0.021424798 0.072339624 -0.071892686 -0.021529458 -0.14568341 0.020927474 -0.032277722
0.05519709 0.16093619 -0.038416762 0.056899305 -0.077659 2.3513105e-05 -0.23712975 0.20456764
0.10315876 0.07650682 0.05478443 -0.06675998 0.24890614 0.08763217 -0.04499321 0.046562757
0.041583292 -0.007607834 -0.10201066 0.041077167 -0.17605065 -0.08323273 -0.22964317 -0.022297198
0.082000054 -0.15064327 0.030640459 -0.040701192 -0.057613768 0.01737985 0.24851683 -0.12724392
0.04587487 0.12490524 -0.23803285 -0.10301225 0.008129497 -0.062043592 0.0845993 -0.008765244
0.14123383 -0.05893262 0.08627267 0.023015488 -0.16614236 -0.0142708095 0.06645462 -0.030618653
0.08761598 -0.03448419 0.075387865 -0.07773774 -0.044930447 0.14608735 -0.0628357 -0.14497043
0.01785795 0.029850267 0.075875 -0.0188209 -0.13485287 -0.034729954 -0.13865104 0.0035611875
0.05291632 -0.0094628595 0.115425885 0.0028782105 -0.059418783 -0.07383833 -0.08317818 0.08145572
0.19784132 -0.09165369 -0.2568317 0.014037894 0.098910764 0.10459606 0.06158702 -0.016410237
0.13630174 0.015354774 0.045634747 0.14452617 0.001857501 0.001950815 0.030515099 -0.031648
-0.058167316 0.064454705 -0.08652053 -0.11714232 0.081149034 0.034796163 -0.024302838 0.028808853
-0.0013603233 0.06490821 -0.06523823 0.051466953 0.03968561 0.032922465 -0.012830541 0.13472931
-0.26616642 0.085640416 0.0663547 -0.25076854 -0.123049304 -0.2015759 0.0055520004 0.09269312
-0.054896366 -0.16989979 0.08580915 -0.17375986 0.075632736 -0.07617659 -0.13719898 -0.08218074
-0.1235312 0.12514478 0.0783352 0.06280992 -0.25439945 -0.046158165 0.09401773 0.09273718
-0.0070665046 -0.19121692 0.010230692 -0.1627452 -0.03455313 0.011389673 -0.04957405 -0.08742108
0.010428612 -0.18853518 -0.0117956605 0.086787336 0.026694769 -0.045097563 -0.058610138 -0.07401016
0.14239736 0.114104226 -0.10767971 -0.10866396 0.09918295 0.08284789 0.016655007 -0.1831414
0.12056861 0.08738886 0.01812992 -0.054486863 -0.041153014 0.04564835 -0.18143386 0.04775836
-0.057913154 0.23146208 -0.10468249 0.061503533 -0.022441043 0.0661476 -0.013308567 -0.0636503
0.14315608 -0.09514006 0.08836962 0.18064621 0.06494099 -0.19068663 0.0592823 0.063450366
-0.072263256 -0.12009917 -0.12589517 -0.17377222 -0.10202136 0.12320871 -0.06722028 -0.13832821
-0.15573002 -0.024073951 -0.08359105 0.1296693 0.056051556 0.08658656 0.07605509 -0.028006088
-0.117468186 -0.009175636 -0.10857438 0.17634709 -0.015869888 -0.0046791653 -0.021098563 0.37469375
0.094721854 -0.0033409665 0.21104762 -0.21499439 0.06311712 -0.12363143 -0.23065923 0.24865705
-0.024800828 0.09621274 0.044531014 -0.31077617 -0.079632364 0.03080356 0.12309016 -0.13135508
0.1783411 -0.036064994 -0.062762305 -0.095180586 -0.0018590795 -0.09895314 -0.10010669 -0.02432265

actor.4.bias f4 [6]
00000000: c4fb 1fbe ae4e da3c e0a3 dd3d 78af 483e
00000010: 3a8f 943d 67af a83d
-0.15623385 0.026648846 0.10822272 0.19598186 0.07253881 0.0823658

critic.0.weight f4 [64, 43]
00000000: b43b f73e c71a 3dbf 8a4c 31bf 442a d1bd
00000010: 2f99 353e ec3e dc3e 2aea 67be f64b 29be
00000020: e843 22be beed dfbb bd5c 77bb a4fd cbbc
00000030: b26c 683e fa1b d43c 2d6a 41be be47 fc3d
00000040: 5973 f4bb 8fc6 c13d 3b52 f8ba 3fc9 8ebb
00000050: 1206 f93e dfe8 893e d8c8 ccbe 5d95 df3d
00000060: 1bfe 2ebf cdda d03b 8fc5 20bf 2689 0fbf
00000070: 573d c2bd 84f5 febe fde7 9f3f b2c5 d23d
00000080: 3ecd 21bf f657 35be 70cc a73e 8b2a 53be
00000090: d1c3 e2be 15b3 853f 6c27 223e 53a0 37bf
000000a0: 0539 2fbf 0eba c0bc 78d1 a9bd 6c26 a53e
000000b0: 2df8 1ebf 0e55 d0be 2f9b 39be 05d2 c13d
000000c0: d9c6 a33d e71c 25bd 97ab 913e 94e0 363e
000000d0: 831e ea3c 3b83 0bbd cf75 8b3b 0ec7 923c
000000e0: b00e d1be 89f4 9fbe 71ef f3bd 4256 303e
000000f0: 7e73 85bc 7410 353c 65eb 5ebb 2b17 313f
00000100: 5c54 f03d d017 d6be a197 1fbf 7904 dcbe
00000110: eaa2 f43e db53 e5be bebf 9cbe 73bf 1dbe
00000120: 9bf8 c1be a7d5 0d40 7c2c 9a3e 99e6 55be
00000130: da64 99be 7985 2a3f ec17 253e 51b6 f13c
00000140: 9f45 0940 ac15 133e 40e3 babe 6c1d fcbe
00000150: 18a0 533e eadc e3be d3e3 f23e ba34 b2be
00000160: 8314 16be 7d0c 9d3c fec3 33be 4271 a73e
00000170: 37df 7ebd 1b68 293c ca87 51bc d8c0 203c
00000180: 04f3 933d 2b8b 113c 2177 153e 2b1e cb3d
00000190: 6241 5d3c 9a40 d0bd 5c74 95be dac8 6bbd
000001a0: bab4 a63b c0f7 94bb 4c1c 2cbd 6f9b d63f
000001b0: df74 cd3e 9bb7 1d3f d4d3 033d 46ac b3bb
000001c0: 7f9f dc3d 952f 8d3e 86ad 2e3f 3bab c83a
000001d0: 3282 fdbf e072 2040 ca01 96bf 22e8 88be
000001e0: 2a6c f7be ca26 983c d4b9 b13e 8500 f9bf
000001f0: 0a75 2040 fd9a a4bf 9899 863e cf77 dcbd
00000200: cc6c 703d 1d42 193e 645c 85be 3418 99bd
00000210: 8f7c 473e bc68 733c f898 f0bc eed3 453d
00000220: 1cf4 553d 6be8 f53d 893a 02bd 1332 2fbd
00000230: e0d7 8f3c a1be 6bbc 11a9 a1bd 0a9f b63d
00000240: fa80 443e f3a8 343e dd3b 8ebd 608d 34ba
00000250: bf9e 703b 9b37 82bf dbab 0640 4b51 813f
00000260: e45b 313f aefb 76bf ef80 313f f772 723e
00000270: 6780 38be a218 933f 18ed 3c3e 27b2 093e
00000280: fcc9 22bf e6f2 0bbe a9b2 75bd 402d ecbe
00000290: 0aa4 203e c43e 533d fda3 033d 0f4a 16bf
000002a0: d28a 9ebe f3b9 253f 4c6b a6be d9a4 9ebe
000002b0: 5f87 2a3f 39a4 583c 9947 a93d 0365 ec3d
000002c0: 1c08 263e 2062 203d e217 8cbd 8675 433c
000002d0: d6b4 a9bc d32e 903c 3843 03bd c14f a2bb
000002e0: aad2 be3e d763 133d 416a 64bc 7140 53be
000002f0: 444f 493e 6675 d63c 47bf edbc 082f 563a
00000300: d0d6 0bbf 8d2e c7bf e330 02c0 7cb8 103f
00000310: c052 7c3f 9cb2 a43f 4750 e63d 498c 433e
00000320: 5925 70bf 5084 55bd ee4f 27bf 4521 0f3c
00000330: 6ad6 eebc d356 94bd 90d6 d6be db23 16be
00000340: 9dc9 533e 99e5 ffbe 4d31 9cbd cd81 96bd
00000350: 8e21 53bd 776e 36bb 2312 27bd ea91 2a3d
00000360: ee7a c1bc 40fe 30bd fc59 a0bd 1c0e 803d
00000370: 0750 77bc d287 403d 8143 2cbd 50f7 ecbc
00000380: ba5d 033c 18f7 603c 1226 e7bb d7a0 bdbd
00000390: c465 213d 66c2 d73c e5ca d8bd 5bcc 99bd
000003a0: eed7 213d 7ab3 48bc b4d4 10ba 210b 983d
000003b0: 9608 f63f 3aa6 e1bf 1487 8ebf a1b5 aebf
000003c0: 7a2d 0b40 a319 3e3e c077 ccbe 10e7 86bf
000003d0: dceb fd3c a14a 18be 41e8 563e c222 4f3f
000003e0: 41cc 903e 76e3 703c f5a9 bc3e 7c4b cdbd
000003f0: e0fa 66bd 2746 c63e ce75 373f 560d 9abe
0.48287737 -0.73868984 -0.69257414 -0.1021314 0.17734216 0.43016756 -0.2264792 -0.16532883
-0.15846217 -0.006833761 -0.0037744485 -0.024901219 0.22697714 0.025892247 -0.18888159 0.12318371
-0.0074600396 0.094617 -0.0018945405 -0.0043574865 0.48637444 0.2693548 -0.39996982 0.10917161
-0.68356484 0.0063737393 -0.6280145 -0.56068647 -0.09484356 -0.4979669 1.2492672 0.10291614
-0.632038 -0.17709336 0.3277316 -0.20621698 -0.4429002 1.0445276 0.15835351 -0.7172901
-0.6844638 -0.023526218 -0.08291906 0.32255876 -0.62097436 -0.40689892 -0.18125604 0.09463886
0.079969116 -0.040310767 0.28451225 0.17859107 0.028579002 -0.034060698 0.0042559872 0.017917182
-0.40831518 -0.31241253 -0.11910904 0.17220405 -0.016290423 0.011051286 -0.0034014818 0.69175977
0.1173484 -0.41815042 -0.6234074 -0.42972162 0.47780544 -0.4479054 -0.30615038 -0.15405063
-0.37884983 2.2161653 0.30112064 -0.20888747 -0.29959756 0.66609913 0.16122407 0.02950588
2.1448743 0.14363736 -0.36501503 -0.49241197 0.2066654 -0.44504482 0.4743944 -0.34805852
-0.14656262 0.019170994 -0.17555234 0.32703596 -0.062224593 0.010339762 -0.012788722 0.0098116025
0.07224086 0.008883278 0.14596225 0.099178635 0.013504358 -0.10168572 -0.29190338 -0.057564594
0.0050874623 -0.0045461357 -0.042019174 1.6766185 0.40128228 0.61608285 0.032184437 -0.005483183
0.10772609 0.27575365 0.68233526 0.001530982 -1.9805357 2.5070114 -1.1719296 -0.26739603
-0.4832471 0.018573184 0.34712088 -1.9453284 2.5071435 -1.2859799 0.26289058 -0.10765039
0.058697507 0.14966626 -0.2604705 -0.074753195 0.19481109 0.014856514 -0.029369816 0.048297815
0.052234754 0.12007221 -0.031794105 -0.042772364 0.017558992 -0.014388711 -0.07893575 0.08917053
0.19189826 0.17642574 -0.06945012 -0.00068875216 0.0036715714 -1.017322 2.1042392 1.0102934
0.6928084 -0.9647778 0.6933736 0.23676668 -0.18017732 1.1491892 0.18449819 0.13446866
-0.63589454 -0.13666877 -0.059984837 -0.46128273 0.15687576 0.05157353 0.032138813 -0.58706754
-0.30965286 0.6473686 -0.32503736 -0.30985144 0.6661281 0.0132227475 0.08265609 0.11542704
0.16214031 0.03915608 -0.06840493 0.011929875 -0.020716112 0.017600453 -0.032046527 -0.004953355
0.372701 0.035983887 -0.0139413485 -0.20630051 0.19659144 0.026179027 -0.029021872 0.00081704604
-0.5462465 -1.5561081 -2.0342338 0.565315 0.98563766 1.2867007 0.112457804 0.19096483
-0.9380699 -0.052128136 -0.6535634 0.008735959 -0.029154975 -0.07243123 -0.41960573 -0.14662115
0.20682378 -0.49979857 -0.07626591 -0.07348976 -0.051545672 -0.0027836838 -0.04078878 0.04164306
-0.023618188 -0.04321122 -0.07829663 0.06252691 -0.015094764 0.04700453 -0.042056564 -0.028926522
0.008017952 0.013730787 -0.007054099 -0.092591934 0.039403692 0.026337814 -0.10585574 -0.07509681
0.039512567 -0.012249822 -0.00055248593 0.07423998 1.922137 -1.7628853 -1.1134973 -1.3649179
2.1746507 0.18564467 -0.39935112 -1.0539265 0.030996256 -0.14872219 0.20987035 0.8091241
0.28280833 0.014702668 0.36848417 -0.10024163 -0.056391597 0.38725397 0.7166413 -0.300883

critic.0.bias f4 [64]
00000000: e04a e2be 38a1 c2be e0b7 173e 04b4 c53e
00000010: 1b02 a13b 3fa8 2d3d 39de d43d 3b80 73bd
00000020: 8ed1 3f3e a04c 44bd af3d 3a3e 87b0 b0be
00000030: 6d97 a2bd e68e b73d b597 90be b2a2 0c3f
00000040: ea7f a7be cb8b a5be 5b18 b63e f22f 85bd
00000050: 3f7b c6be 5f94 98bd 708e c83e ba02 cabd
00000060: 82bc 25bc 8496 c13d eb32 c6be 1fc3 dd3d
00000070: 8952 403e cb28 203e 57cf d43e 9b83 3cbe
00000080: 078e 48be 9ea8 4a3e 4de0 463d f04e cbbe
00000090: 49f7 d5be 14f5 393e 36d1 a43d 1999 623e
000000a0: 8a0f e63e 4f04 463e b5f0 253c 7e43 b83d
000000b0: 7a31 293c 0ec6 a2be 90ed 64be 2d7b 583e
000000c0: 5aa2 e73d ee55 a9be 371c 01be dec8 3f3e
000000d0: 6795 13bd ed85 1a3e 3f62 b93e 6b50 0a3e
000000e0: 47c7 5c3d a16e 993d d8bf b4be 1abb 4abe
000000f0: 231b 91bd 4309 8dbe 050b 35bd e0fb 30be
-0.4419775 -0.38013625 0.14816236 0.38613904 0.004913581 0.04239678 0.10393948 -0.059448462
0.18732283 -0.047924638 0.18187593 -0.3450968 -0.079390384 0.089628026 -0.28240743 0.54935753
-0.32714778 -0.32333216 0.35565457 -0.065032855 -0.38765904 -0.074501745 0.3917117 -0.09863801
-0.010115745 0.09452537 -0.38710722 0.10828232 0.18781485 0.15640561 0.41564438 -0.18409579
-0.19585429 0.19790885 0.048553754 -0.39708662 -0.41790226 0.18159896 0.08047716 0.22128715
0.4493373 0.19337581 0.01012819 0.08997248 0.010326738 -0.3179173 -0.22356248 0.21140738
0.11310263 -0.33073372 -0.1260842 0.18728969 -0.036031153 0.15090151 0.36207768 0.1350724
0.053900983 0.07491804 -0.35302615 -0.19797936 -0.07085254 -0.2754613 -0.044199962 -0.17283583

critic.2.weight f4 [64, 64]
00000000: d790 d53c 362e 1d3e 41f9 893d db60 09be
00000010: b29d 29bd 0fbf c2bd be07 5a3d d391 4cbd
00000020: 0896 c1be 7645 133d 9314 7fbe 2a2e 093c
00000030: a059 bdbd 74cb 113e 0109 a43d c659 353e
00000040: f305 2a3e f5c3 0b3b e82d cf3c 1d80 fa3d
00000050: e0f4 173e 3f9e ad3d e89a 4ebc 6954 773d
00000060: 5e59 6dbe 4cd1 6cbd 713c 853e c547 efbd
00000070: e893 28bd 22d7 c9bb 0214 c9bc 2b34 eebc
00000080: 4c5e 123c 0d58 93bc 3879 723c 339e c73d
00000090: c3aa 8bbc 1bcb 173e dcb2 19be e4dd 10be
000000a0: 0152 82bc caa9 bebd ac70 cb3d 1c3b 383e
000000b0: 3a2a 67bc e64d 3a3d edeb d9bd 5308 19be
000000c0: 3ade bebd 4ae4 75bd 36bd 793d dc8d e5bd
000000d0: e315 47be 3d1a 813c 1cb2 e63d 6f84 40be
000000e0: afeb 28be 5aed 32bd 8bbf 7a3d f4e4 e43b
000000f0: 9dfa b63d 153e 8dbd 53f2 bfbd 39fb 01be
00000100: 54f8 23be f709 51be 100e 383c ca60 e8bd
00000110: afe8 34be a56b b3bd 2b80 0f3e d491 dbbc
00000120: ad76 a43d 54ec ca3c a830 503d d364 f4bd
00000130: bd07 c6bd 2853 cf3d 8134 1abe c270 93be
00000140: 62b7 86bd 9fc4 abbd d9aa 5a3c 6c81 b33e
00000150: 8b62 00be 6ceb 5fbd 0726 4a3d 64c9 62bd
00000160: c68f 1abd 7d44 eabd f093 1dbe f3b1 4a3e
00000170: 1df1 8a3a b44f 373e d06d 103e 09c2 99bd
00000180: c83d 7fbd 11ff 0b3e 4b22 cd36 4737 5ebd
00000190: 1930 9abd 7021 2dbe a605 fe3d dedb 7abd
000001a0: 5309 e1bd b8e4 f33d ab52 41bd fe82 0fbe
000001b0: 266c c03c 86ec a5bc 650b 8ebd 49eb 25be
000001c0: 49e8 d1bd e062 47be eca9 cd3d 1e23 4f3d
000001d0: 582a 753c e60f c63d d66c 67bc 7db6 57be
000001e0: 58b7 03bd 12c5 073e 743f 8e3d 5be3 febd
000001f0: d0b8 943d 7d6c 71be 56db 05bd 4f46 12bd
00000200: 72a7 58be bd6f 84be b688 95be 20cf c4bd
00000210: f76f c93d 9176 74be d24a c9bd 51a2 5e3c
00000220: 5a3b 3bbe 935a 0abe f3da 4abe 6b33 053e
00000230: 6eff aabc 377e debc e434 9abb 7fea 16bd
00000240: f92f 813d c2db ae3d aa51 8ebe 9241 ffbd
00000250: 5765 d0bd 3e99 8c3d c417 5fbe d0a3 113d
00000260: edc8 c6bc d45f 9cbe a26f a3bd 28ed 53bb
00000270: 7872 b7bd f14d 9ebe 2b31 0a3e f8f9 2dbd
00000280: fc7c e1bc eee7 d93d d908 78bd cbcd 08be
00000290: fef7 813d 6b2e 87be 0dfe bbbd 229e 43be
000002a0: 0054 29be ade8 9bbe 360c 60bd db9c 0cbd
000002b0: 884b 26be 0ad4 a03c 2435 c83d ae61 3ebe
000002c0: 0e83 e33d 87cc 85b9 9121 dc3c 65e4 28be
000002d0: d7df a5be 88d3 d43d 9f4b adbe 4389 87bc
000002e0: 3f4e da3d 4457 c2bd 95dd 59bd 0cf5 393d
000002f0: 5857 7e3d a7ae 553d 2b0d 42bd 566b d8bd
00000300: 8b21 28be 4f2c 3ebe a7ae aebd 11a7 38bd
00000310: 1384 323d 873f 78bc ab34 41be 7656 60be
00000320: d4dd 4dbe 9ec9 31bd fb84 e4bd 2738 a53d
00000330: 0a00 293e dc76 5fbe 5259 763c bace d83d
00000340: a03a 02be d769 fabc ea57 51be 7740 143c
00000350: 227a 123e 6d68 77be cffc 133d 3c27 83be
00000360: 3596 b43c cca9 86be 453c 693e a84d b9bd
00000370: 5eca 11be 44d5 74be fe40 a13d d46a 99be
00000380: b858 b1bd b051 a83d 47fb 1abe 2cd6 00be
00000390: 0251 0c3d 00aa 2dbe 0366 34bd 6180 963d
000003a0: 5d4d 6dbe a979 91be 0d0b a8bd 834d 7fbc
000003b0: f895 f8bd 6bf3 4a3d 2dae 6abc 0dd4 b5bd
000003c0: e566 243c 7da9 1dbe 6ff2 3ebd 7e2e 0fbe
000003d0: 1f8e 60bd 3f9d 93bc 2592 153c c028 1fbf
000003e0: eb75 323e a194 e0be 97de 823c 3f24 e8bd
000003f0: ddad 93be 8192 84bd 0554 ae3d fa9d 8ebd
0.026070042 0.1534966 0.067369945 -0.13415854 -0.041410156 -0.09509098 0.05323004 -0.049943756
-0.37809777 0.035954915 -0.24910192 0.008372823 -0.0924561 0.14237767 0.0800953 0.17710027
0.16603832 0.0021326516 0.025290444 0.12231467 0.14839506 0.08477449 -0.012610175 0.060383234
-0.23178622 -0.05781679 0.26022676 -0.11683611 -0.04115668 -0.006159679 -0.024545673 -0.02907761
0.008933615 -0.017986322 0.014799409 0.09746971 -0.017049199 0.14823572 -0.15009636 -0.14147145
-0.015908243 -0.093097284 0.099336 0.17991298 -0.014109189 0.045484446 -0.106407024 -0.14944582
-0.0931973 -0.060032167 0.06097146 -0.11208698 -0.19441943 0.015759582 0.112644404 -0.1880052
-0.16496156 -0.043683387 0.061217826 0.006985301 0.089345194 -0.06896607 -0.093723916 -0.1269349
-0.16012698 -0.20413958 0.0112338215 -0.11346586 -0.17666887 -0.08760766 0.14013736 -0.026802935
0.08030448 0.024770893 0.050827652 -0.11933293 -0.09669445 0.10123283 -0.15059091 -0.28796965
-0.06577946 -0.08387112 0.013346397 0.3505968 -0.12537591 -0.054667875 0.049352672 -0.055367842
-0.03773477 -0.11438844 -0.15388465 0.19794445 0.0010600422 0.17901498 0.1410439 -0.075077124
-0.06231478 0.13671519 6.1134683e-06 -0.054251935 -0.07528705 -0.16907287 0.12403421 -0.061244838
-0.109881066 0.11908859 -0.04719798 -0.14014813 0.02348907 -0.020254385 -0.06935767 -0.16203035
-0.10249383 -0.19471312 0.10042176 0.0505706 0.014963709 0.09671001 -0.01412507 -0.21065708
-0.032157272 0.1325877 0.069456965 -0.12445708 0.07261813 -0.23576541 -0.03267988 -0.035711583
-0.21157625 -0.258665 -0.29205865 -0.096098185 0.09835809 -0.23873354 -0.09828724 0.013588504
-0.1828436 -0.13511114 -0.19810085 0.13007896 -0.020873751 -0.027159793 -0.004706012 -0.036844727
0.06307978 0.08538009 -0.2779668 -0.124636784 -0.10175579 0.06865166 -0.2178641 0.035556614
-0.02426573 -0.3054186 -0.07980277 -0.00323374 -0.0895738 -0.3091884 0.13495319 -0.042474717
-0.027525418 0.1063994 -0.060555313 -0.13359754 0.06346129 -0.26402602 -0.09179316 -0.19103292
-0.1653595 -0.30450955 -0.054699145 -0.034329277 -0.1623975 0.019632358 0.09775761 -0.1859195
0.11108981 -0.00025520122 0.026871474 -0.16493376 -0.3239734 0.10391909 -0.33846757 -0.016544944
0.106594555 -0.09489301 -0.053189833 0.04539971 0.062095016 0.052168515 -0.04737584 -0.10567348
-0.16419046 -0.1857159 -0.08529406 -0.045081202 0.043582987 -0.015151865 -0.18867747 -0.21907982
-0.20104152 -0.043405168 -0.111581765 0.08067351 0.16503921 -0.21822685 0.015035944 0.10586305
-0.12717676 -0.030568046 -0.20443693 0.009048573 0.14304402 -0.24160929 0.03612977 -0.2561587
0.02204428 -0.2630142 0.22776897 -0.09048015 -0.14237353 -0.2390948 0.078737244 -0.29964316
-0.086595 0.08218706 -0.15134917 -0.125817 0.034256943 -0.16959381 -0.0440426 0.07348705
-0.23174043 -0.28413132 -0.08205233 -0.015582445 -0.12137979 0.049548548 -0.014323753 -0.08878336
0.010034298 -0.15396686 -0.04661792 -0.13982579 -0.054823037 -0.018019317 0.009129082 -0.62171555
0.17427795 -0.43863395 0.01597528 -0.113350384 -0.28843585 -0.06473256 0.08512119 -0.069637254

critic.2.bias f4 [64]
00000000: 6587 ba3a eb25 21bd 748c 96bd 69d9 1b3d
00000010: 859b 303e 3dcf 64bc 5a82 debd 2512 1dbc
00000020: 146a fe3c 6875 9f3e 1d51 b43d 3a12 483e
00000030: c125 e6bd a459 c0bc 798e 293e 09e2 b3bd
00000040: 17ff 3bbe 64d4 943c 752b bebc f04e f93d
00000050: 393b c1bd 203d 75bd fa6e 0dbe 2c52 153d
00000060: 6c3b 623d 6dad 083e 7dfe 5dbd f01c 8e3e
00000070: fd77 b5bd 6d11 b3be d9fb 06be f516 f0bd
00000080: 0a27 523d 47c7 2ebe a10e a23d dce7 f5bd
00000090: 2dbe 80bd 5ad1 733d 7649 873d 53a3 393d
000000a0: 0c0d f43c 74af dcbb b3ea b03d 0f46 db3d
000000b0: 0c48 5dbc 1df5 2bbd 24ed 09be c5ea 9d3d
000000c0: 93b5 16be 0685 ef3d d7a2 5cbe 8859 7abd
000000d0: 698e ebbc aab6 4cbd eb5d 45be 0d0f 3cbd
000000e0: 25ae 88bd a53f 4b3d 7dfd 86bc 3a69 c93d
000000f0: 76fd e73d 3a33 f83c 18a8 b13d 182b 09bd
0.0014231025 -0.039342802 -0.07351008 0.038049135 0.17246826 -0.013965425 -0.10864706 -0.0095868455
0.031056441 0.3114426 0.08804534 0.19538203 -0.1123767 -0.023480244 0.16558255 -0.08783347
-0.18359028 0.018167682 -0.023214081 0.12173259 -0.09435124 -0.059872746 -0.13811865 0.03645532
0.05523245 0.13347407 -0.054197777 0.27756453 -0.088607766 -0.34974232 -0.1318201 -0.11723129
0.05130676 -0.17068206 0.079129465 -0.12007114 -0.06286273 0.059525825 0.066058084 0.045321774
0.029791377 -0.006734783 0.08638515 0.10706722 -0.013505947 -0.041981805 -0.13469368 0.07710794
-0.14717703 0.11695294 -0.21546493 -0.06112054 -0.02875443 -0.04997889 -0.19274108 -0.04591279
-0.066738404 0.049621243 -0.016478295 0.098345235 0.11327641 0.030297864 0.086746395 -0.033488363

critic.4.weight f4 [1, 64]
00000000: eba3 8bbd b081 d53d d59d 2a3e 05f0 353e
00000010: adcc e33e 03f4 4bbe cd8c 7a3e fed4 3c3f
00000020: 58f3 043d 695b 343e fd5c a63d c9a0 093e
00000030: 45cc 18be 4c92 af3e 473b 473e 60eb a03e
00000040: 19ee 0dbf a64a 34be d01b ea3d 5936 e63e
00000050: 43a9 ba3d eb2d bdbe 01f5 983e ff33 dd3d
00000060: 81a3 c3bd 198e 083e 4bb9 92be abd1 023e
00000070: 0248 80bf 61e5 05bf bdef b03d 9a18 64be
00000080: edce edbe 5b27 0bbf 64e3 65bf f3e6 f2be
00000090: 5cc7 ac3e 89df c23d 9aec 5a3e 89c1 f43d
000000a0: 38b4 46be b0ec 813e be25 26be c756 e63d
000000b0: 2f50 193e a9ba fabd 6487 04be 9d1e ee3d
000000c0: f575 0a3f 5a26 573e 2993 1e3e c379 223f
000000d0: c3ea 0dbf 0015 50bf d7ef bcbe 27f5 5ebe
000000e0: 076c 83bf 5253 3a3e 8354 a63d 90c6 133f
000000f0: 4206 523e a1c9 883d 788e 003f 2ca2 96be
-0.06818374 0.104251266 0.1666177 0.17767341 0.44492093 -0.19917302 0.24467774 0.737625
0.032458633 0.17612995 0.08123205 0.13440241 -0.14921673 0.34291303 0.19456206 0.31429577
-0.55441433 -0.17606601 0.11431086 0.4496334 0.09114315 -0.36949095 0.29874423 0.10800933
-0.0955267 0.13335456 -0.28656992 0.12775294 -1.0021975 -0.5230313 0.086394764 -0.2227501
-0.46446934 -0.54356927 -0.89800096 -0.47441825 0.3374585 0.09515292 0.21379319 0.119509764
-0.19404685 0.2537589 -0.16225335 0.1124702 0.14971994 -0.12242634 -0.12942272 0.11626933
0.5408624 0.21010724 0.15485825 0.63467044 -0.5543634 -0.81282043 -0.36901733 -0.21773206
-1.0267342 0.18195847 0.08121588 0.5772486 0.205102 0.06679083 0.5021739 -0.29420602

exp_avg f4 [6]
00000000: e1bd 29ba 63c7 9dba 88d2 04b9 4f46 46ba
00000010: f46c 22b9 1874 69b9
-0.00064751325 -0.0012037571 -0.0001266693 -0.00075635774 -0.00015490112 -0.0002226386

exp_avg_sq f4 [6]
00000000: 8524 f836 d5c0 0337 a39e 9937 c2f1 be35
00000010: faad ad35 91a1 3a34
7.3952274e-06 7.853106e-06 1.8312892e-05 1.4226464e-06 1.2940138e-06 1.7381377e-07

exp_avg f4 [64, 43]
00000000: 74fb 9038 9ff8 8eb8 3a19 36b9 adc3 3234
00000010: b357 9a36 3f10 8838 0f5b 18b7 3d40 f535
00000020: 76a0 9238 3d53 fdb8 38ac 9e39 b3e7 5ab8
00000030: c555 0939 b8ed 11b9 14b3 b8b9 596e 9e38
00000040: 08ac a438 39ca 6638 0653 30ba b551 45bb
00000050: 35d7 65b6 4bb8 b0b7 6adb b7b7 8e2f 1fb3
00000060: cb0c 90b5 3667 be36 763c eeb5 45b3 b9b7
00000070: 7145 88b7 532b f3b5 2c15 cb36 6217 0936
00000080: e02b 3eb7 3e5f f5b7 e2c1 3cb7 2aae 1ab8
00000090: 659a d8b5 2c15 cb36 6217 0936 e02b 3eb7
000000a0: c0c3 2036 97f7 10b8 5e5e 05b7 33db e437
000000b0: bcfb acb8 93d4 5ab9 ad4f 6938 3274 d537
000000c0: 10c1 dc38 4e29 a3b8 2d0c 8037 42e6 2739
000000d0: 1df5 d8b9 c122 edb9 d9ef 78ba d1a5 ff37
000000e0: f929 22b9 057b c7b9 02ed 0939 3d74 e7b7
000000f0: d639 beb8 94f0 30bb 5d89 4c39 5f35 8033
00000100: de79 b0b7 3e73 3fb7 7545 c2b4 d925 3ab7
00000110: 9fbb b7b6 ef3c fdb5 e2b6 06b8 81ae 8db7
00000120: 57ce 16b6 9d57 5238 1c45 4538 3861 38b7
00000130: 458f 41b8 a3a0 4538 1d56 72b8 55b9 33b8
00000140: 9d57 5238 1c45 4538 3861 38b7 e3f8 8935
00000150: 3fc8 03b7 a1c6 84b7 26ea 62b8 3db5 7737
00000160: fe8f be38 75cf 82b5 3c37 4bb5 f3e9 07b8
00000170: 37fe 5938 b595 63b7 7aee 4ab8 fb2f 5cb8
00000180: 77a7 1339 d6be 063a 4051 c4b8 a5f6 3938
00000190: 9baa 4b39 d1d0 3638 c8d5 8138 4291 0e38
000001a0: c25f f4ba 0af5 e33a 8e6e 91b6 bade c136
000001b0: adbe 4d37 79e1 1db3 6104 ec36 d0e6 8bb6
000001c0: f3a1 7435 b6f5 5637 34e0 0737 ffc8 6a35
000001d0: 0670 4737 2e3c e236 56a0 f9b4 58eb dd37
000001e0: 419b ff36 b53e a037 1b86 4536 0670 4737
000001f0: 2e3c e236 56a0 f9b4 43a5 44b7 a7c7 cf36
00000200: 718b 1b36 db0c 1237 bb68 f837 9fbc 1838
00000210: 128d 8eb8 5d9f 91b7 6ea7 0537 7bef 8db8
00000220: b998 f9b7 da07 a1b8 06ee d138 b3c8 01b9
00000230: bedc bab8 074b 30b7 38bc 4f38 eded 1538
00000240: c3fa fbb8 cc96 80b8 958e 5436 fc24 0b3a
00000250: 80af 2d3a a282 3cb6 04c4 4d36 164f 8436
00000260: ed0c 77b4 4c5c a335 649f 9236 76cf 4935
00000270: a8e6 8f36 1b6b 0b37 ebf9 0b35 6373 22b7
00000280: 3ee5 d0b5 a660 8d35 e5a3 d435 cd5f 90b7
00000290: ac79 80b6 4eec f6b6 6373 22b7 3ee5 d0b5
000002a0: a660 8d35 2748 c6b7 5bf1 2137 47a1 d437
000002b0: 8f67 6f36 ee27 0737 c706 8cb7 b64b e536
000002c0: ed7c ba31 b502 e7b6 dd33 a237 b1d2 6636
000002d0: b16b c3b7 4a46 90b8 f8f8 07b9 b436 9c39
000002e0: f977 4237 7585 8937 1d19 3bb7 0cea ceb7
000002f0: f533 f8b7 759d 5838 78f8 96b9 3592 343a
00000300: 835c 6f36 a364 45b6 b43d b0b6 19ef 90b3
00000310: fab4 5bb5 2b0d 4436 63a0 31b4 3a45 7cb6
00000320: 8574 1cb6 6903 7ab4 de8a c3b4 67c3 ce34
00000330: b5dd f733 ff95 d3b6 0621 1136 ee7d b0b6
00000340: f005 a0b6 de8a c3b4 67c3 ce34 b5dd f733
00000350: 0ac9 43b6 437e 87b6 c9d4 e436 646d 3138
00000360: 9604 05b8 4271 4bb8 ceba 55b6 0fe3 71b4
00000370: 6390 3038 bb5e ffb8 bfab c037 37a2 b6b7
00000380: bd0c 3539 d338 0d39 a809 b4b9 ffa0 6e38
00000390: b5db d7b7 2753 23b9 d9d8 5238 ac84 a136
000003a0: 6d22 d0b8 de62 8139 96dc 1a3b 1e2f a134
000003b0: 172f 3cb6 82b1 69b6 b216 b0b4 2666 c8b6
000003c0: 9b73 a035 14c9 59b4 7a14 13b7 2ccf 19b6
000003d0: 8755 0eb5 ec1b db36 1e06 1938 ecfa f8b5
000003e0: 47fe 86b7 a2cd 8134 dcd4 c0b7 97c7 3cb6
000003f0: ec1b db36 1e06 1938 ecfa f8b5 e7c3 76b6
6.913292e-05 -6.817397e-05 -0.0001736627 1.6648728e-07 4.599767e-06 6.4880114e-05 -9.081107e-06 1.8272618e-06
6.991711e-05 -0.000120794844 0.0003026442 -5.2191037e-05 0.0001309729 -0.00013916835 -0.00035228638 7.554581e-05
7.852173e-05 5.5024608e-05 -0.00067262386 -0.0030108516 -3.4248926e-06 -2.1066653e-05 -2.1917473e-05 -3.7063323e-08
-1.0732559e-06 5.6744566e-06 -1.7749978e-06 -2.2137197e-05 -1.62448e-05 -1.811752e-06 6.052336e-06 2.0428201e-06
-1.1335098e-05 -2.9250627e-05 -1.1250815e-05 -3.6878664e-05 -1.6138189e-06 6.052336e-06 2.0428201e-06 -1.1335098e-05
2.39558e-06 -3.456286e-05 -7.949389e-06 2.728179e-05 -8.248488e-05 -0.0002086929 5.5625733e-05 2.5445686e-05
0.00010526378 -7.780139e-05 1.5264459e-05 0.00016012139 -0.00041381354 -0.00045230056 -0.00094961893 3.0475583e-05
-0.0001546516 -0.00038047894 0.0001315363 -2.7591474e-05 -9.070679e-05 -0.0026998864 0.00019506128 5.9701726e-08
-2.1037584e-05 -1.1411319e-05 -3.6185853e-07 -1.1095276e-05 -5.475667e-06 -1.8867703e-06 -3.2118412e-05 -1.688977e-05
-2.2471847e-06 5.0149498e-05 4.7032823e-05 -1.098989e-05 -4.6148216e-05 4.7118065e-05 -5.7777495e-05 -4.284953e-05
5.0149498e-05 4.7032823e-05 -1.098989e-05 1.0279731e-06 -7.854832e-06 -1.582812e-05 -5.4100667e-05 1.4764545e-05
9.086727e-05 -9.746133e-07 -7.570377e-07 -3.240439e-05 5.1973588e-05 -1.3565111e-05 -4.838265e-05 -5.2496773e-05
0.00014081398 0.0005140131 -9.361142e-05 4.4337143e-05 0.00019423144 4.3586657e-05 6.191019e-05 3.399072e-05
-0.0018644261 0.0017391753 -4.334207e-06 5.777777e-06 1.2263347e-05 -3.6759477e-08 7.033858e-06 -4.169393e-06
9.113275e-07 1.2812603e-05 8.098828e-06 8.746428e-07 1.1887407e-05 6.7423307e-06 -4.6496524e-07 2.6454843e-05
7.617666e-06 1.9102687e-05 2.9433347e-06 1.1887407e-05 6.7423307e-06 -4.6496524e-07 -1.1720988e-05 6.1923233e-06
2.3177965e-06 8.705271e-06 2.9612673e-05 3.641529e-05 -6.797364e-05 -1.7359556e-05 7.9664005e-06 -6.768011e-05
-2.975423e-05 -7.678541e-05 0.00010010232 -0.00012377165 -8.9102876e-05 -1.0507886e-05 4.952794e-05 3.5745954e-05
-0.00012015321 -6.131604e-05 3.1673455e-06 0.00053079403 0.0006625578 -2.8090221e-06 3.0661477e-06 3.9431134e-06
-2.300837e-07 1.2171308e-06 4.3696946e-06 7.518023e-07 4.288584e-06 8.309983e-06 5.2145214e-07 -9.682818e-06
-1.5563926e-06 1.0533447e-06 1.584293e-06 -1.7210748e-05 -3.8288617e-06 -7.358881e-06 -9.682818e-06 -1.5563926e-06
1.0533447e-06 -2.3637038e-05 9.652543e-06 2.534747e-05 3.5674054e-06 8.055924e-06 -1.6692456e-05 6.8335457e-06
5.427515e-09 -6.8846516e-06 1.9336056e-05 3.439531e-06 -2.329596e-05 -6.8795474e-05 -0.00012967351 0.00029795396
1.1591234e-05 1.6393818e-05 -1.1151916e-05 -2.46661e-05 -2.9588098e-05 5.1645056e-05 -0.00028795353 0.00068882416
3.5667624e-06 -2.9413866e-06 -5.252392e-06 -6.749014e-08 -8.1847213e-07 2.921394e-06 -1.6542758e-07 -3.7591221e-06
-2.3313635e-06 -2.3284305e-07 -3.642262e-07 3.8512664e-07 1.1542162e-07 -6.305752e-06 2.1625906e-06 -5.259869e-06
-4.769063e-06 -3.642262e-07 3.8512664e-07 1.1542162e-07 -2.9174284e-06 -4.0380123e-06 6.819701e-06 4.2301966e-05
-3.1713942e-05 -4.850445e-05 -3.1848208e-06 -2.2527477e-07 4.209614e-05 -0.000121769925 2.296816e-05 -2.1771628e-05
0.0001726625 0.00013467977 -0.0003433947 5.689356e-05 -2.5732306e-05 -0.00015575868 5.0269857e-05 4.813619e-06
-9.924625e-05 0.0002467846 0.0023630015 3.002287e-07 -2.8041593e-06 -3.4823029e-06 -3.2799068e-07 -5.972356e-06
1.1954575e-06 -2.0282852e-07 -8.76665e-06 -2.2919367e-06 -5.302358e-07 6.529959e-06 3.648374e-05 -1.8550468e-06
-1.6092452e-05 2.417774e-07 -2.2987304e-05 -2.813036e-06 6.529959e-06 3.648374e-05 -1.8550468e-06 -3.6770887e-06
