2026-01-29_07-44-49_Fase2_Empuje_V1/model_1300.pt (torch, 189045 bytes, 36 tensors)

std f4 [6]
00000000: 4077 0c3e 3feb c43d 1056 a03d ca9d 7e3e
00000010: 08dc 8a3e 9704 963f
0.13717365 0.09615182 0.07828915 0.24864879 0.27120996 1.1720151

actor.0.weight f4 [64, 43]
00000000: 85d7 5b3a ec3a 8b3e 5f74 71bd c181 c23c
00000010: 9c06 74be bef6 a4be d443 8cbc 613e 62be
00000020: be08 a23d 2b19 983c accb 91bc f7a0 943d
00000030: d73f 333e 4957 1d3e e17a d63b 3f51 0fbe
00000040: 4b0e eebd 698a 85be d40b 30bd 6cad 7aba
00000050: 097c 2e3f 28a7 ba3d 61ea efbd 1e3c bfbd
00000060: 27f7 c8be b208 49bd 98dc 1bbe 490d 7dbe
00000070: 616a 68bd a3d3 8abe 2f21 893e 20eb ac3d
00000080: 4262 e93e 10a6 0cbf 5853 be3d 1e87 253e
00000090: f1d7 843e 67b3 813e 1f2f 6c3e 567a 943e
000000a0: 93c0 a5be 9041 4cbd 4434 ab3e df2a b03c
000000b0: 4d8c 153e 769b 8a3e 1c47 1d3f 89ae 19bf
000000c0: a953 b5bd 8eac d33d 56e1 3abf 2a91 0bbe
000000d0: 19ab e9bd 1b9d b43d 5fbc 513c 567c 493e
000000e0: f8ac 2dbe edad 5ebd 8932 e13e 9652 2bbf
000000f0: e22c 0dbe 20d3 e8bc 32f3 943c 1b3a 21bf
00000100: 7114 153f 9d5d b13d 9008 413e 7b96 3dbf
00000110: cefa 17bf 9874 083d a2f6 1ebe 223d 4fbd
00000120: 34a8 873e 6e74 e1be 3d87 77bc cb90 ef3e
00000130: 606b 6dbe 5028 c7be 7965 8d3e 15b1 c23e
00000140: 8556 c9be 5edb 033d c709 2b3f b17f e43d
00000150: 2bbc 2a3f 3a2d 88bd 9be1 c7be 16be 27be
00000160: 5553 7dbe 8556 df3c f2c8 0cbb bd61 a7be
00000170: 2ddf 6b3e 8994 b2bd 1e8a d1be c8ff 24be
00000180: 5da5 d53c 80e3 893d ccd1 2cbe 3805 0ebe
00000190: 264a a0be 8108 d73d 9f65 a7bc 4545 8cbe
000001a0: 98f2 863b 719a a1ba 083e ccbe 605d 1cbf
000001b0: f586 fbbd afb3 4fbe 7800 5bbb 8354 0bbc
000001c0: 27fa 023d c75e d0be 0825 e6bd 373e 9ebd
000001d0: ffc0 f3be b3cd 113e adff b53e bfb7 89be
000001e0: 6291 d2bd 7f20 b2bd fd71 03bf ad6f 1abf
000001f0: 5d06 303e ea16 aa3e 38db 2dbf c493 10be
00000200: 45af 063f 8e7f ea3c 01bb b13d 2292 0b3e
00000210: 5cc9 e2be 0042 9d3e 2dd0 8c3d 28fe f03c
00000220: ceda 3cbe 68f8 1f3e 2053 de3d ea29 7dbd
00000230: d518 dd3d 6f95 33bd b8b8 fc3d 9532 f13c
00000240: 0e54 78be 2c5e 3d3e 0041 1c3e 7d7e 8a3d
00000250: 1633 5b3b e8ae 81bd b3c2 5ebd e194 b0bb
00000260: 3345 893d 9f42 65be cf45 04bb 5943 48be
00000270: 4dbe bfbc 2d67 803d f1b1 7bbc 127d 0ebd
00000280: 8b3e 07be dabf 143e d16b d1bd 6f57 afbd
00000290: 0f2e 5fbd 4652 3abc 3be2 b5bc 9d0d 0fbe
000002a0: b43f 153e faac d63d 00bc a4bd 46a6 efbe
000002b0: ee14 383e 52ab 0bbf 5dfc 04bf 1a7d c4bc
000002c0: 7623 043d 30be 8d3e 45a1 163e 9996 6b3e
000002d0: 55de 9e3e 1fc9 eb3d 6ee0 c3bc f362 b6bd
000002e0: 7dab 283e 8b47 09be 7d29 6cbd 716b 703d
000002f0: 4c45 8e3c edc5 453e 1594 03bd 3617 f4bb
00000300: dc36 c63d f008 123e 3f87 d0bd 8ac8 5abe
00000310: 76ca 11be c560 f03d 5bad 8bbd 00d7 6cbd
00000320: 544c 4abe ba74 2dbe d090 92be d742 843e
00000330: 7e0f 6dbe 02ae aabe b348 d339 f598 5dbe
00000340: 9276 9fbe 06f3 b9be 4ba1 973e 0232 1dbe
00000350: 689c 743e c3a8 80bf 1924 cc3e 6d14 8a39
00000360: 0593 90bd eb14 b7bd 3be0 c0bc 03c4 343e
00000370: 0512 eebd a484 a53e b319 64bf 114c 333d
00000380: f410 64bd 121b d43d cad0 c2bc 582a 8bbd
00000390: c7e5 8bbe 2178 7fbe deae 3bbe 3f92 d13e
000003a0: 95d4 113e 659b 363d ca3c 92bb f66a 49be
000003b0: 9e0b b2be d3e5 7f3c 8c58 713d a21d 77be
000003c0: 7a74 cdbe ac51 54be 9e5f 44be 8790 2bbe
000003d0: e0f8 03be cf99 a2be 959d 58be 06ec e73d
000003e0: 28f8 87bd 5ce8 433e c92c 36bd 6f56 aabe
000003f0: 9fd8 72be dd46 3ebe 4717 833c 649a b5be
0.0008386302 0.2719339 -0.05894887 0.023743512 -0.23830646 -0.322195 -0.017122187 -0.22094108
0.07911824 0.018566689 -0.017797314 0.07257264 0.17504822 0.15365328 0.00654541 -0.13995837
-0.1162382 -0.2608216 -0.04298003 -0.0009562585 0.6815801 0.09113914 -0.11714626 -0.09337638
-0.39251062 -0.049080558 -0.15220869 -0.24712099 -0.056742076 -0.2711459 0.2678313 0.08443284
0.45582777 -0.5494089 0.0929324 0.16164824 0.25946 0.25332186 0.2306485 0.28999585
-0.32373485 -0.049867213 0.33438313 0.021504818 0.14604302 0.27071732 0.6143663 -0.60031945
-0.088538475 0.103356466 -0.73000085 -0.13629594 -0.114095874 0.08819028 0.012801259 0.19676337
-0.16960514 -0.054365087 0.43983868 -0.6692289 -0.13786653 -0.028420985 0.01818237 -0.62979287
0.58234316 0.086604334 0.18850923 -0.7405774 -0.5936707 0.033314317 -0.1552377 -0.05059541
0.26495516 -0.4403414 -0.015107927 0.46790156 -0.23185492 -0.38897943 0.2761648 0.38025728
-0.39323822 0.032191627 0.66811794 0.11157168 0.6669337 -0.06649251 -0.3903931 -0.16381106
-0.2473882 0.027262935 -0.0021482077 -0.32691756 0.23034354 -0.08719737 -0.40925688 -0.16113198
0.026079828 0.06732845 -0.16876906 -0.13869178 -0.3130657 0.10499669 -0.020434199 -0.27396598
0.004118275 -0.0012329352 -0.39891076 -0.6107998 -0.122816004 -0.20283388 -0.0033417027 -0.008504036
0.031976845 -0.4069731 -0.11237532 -0.0772671 -0.47608182 0.14238624 0.35546628 -0.26898
-0.10281636 -0.086976044 -0.5134581 -0.60326654 0.17189927 0.33220607 -0.67912626 -0.14118868
0.5261119 0.028625276 0.08678246 0.13629964 -0.4429425 0.30714417 0.06875644 0.029418066
-0.18442842 0.15622103 0.108556986 -0.06180755 0.10795752 -0.043843683 0.1233992 0.029443065
-0.24250814 0.18492955 0.1525917 0.06762407 0.0033447198 -0.06332189 -0.0543849 -0.0053888415
0.06702652 -0.22388695 -0.002018321 -0.19556941 -0.023406172 0.06269679 -0.015362249 -0.034787245
-0.13207452 0.1452631 -0.102256425 -0.085615985 -0.054487284 -0.011372155 -0.022202602 -0.13970037
0.14575082 0.104822114 -0.08043671 -0.46806544 0.17976734 -0.5455829 -0.51947576 -0.023985434
0.03226038 0.27684164 0.14709957 0.23006667 0.31029 0.1151297 -0.023910727 -0.08905592
0.16471668 -0.13406198 -0.057656754 0.058696214 0.017367028 0.19313784 -0.032123644 -0.007449056
0.09678432 0.14261222 -0.10182046 -0.21365562 -0.14237389 0.11737207 -0.06820174 -0.057822227
-0.1975568 -0.16939059 -0.28626108 0.25832245 -0.23150441 -0.33335882 0.0004029922 -0.2164038
-0.3114515 -0.36318225 0.29615244 -0.15351108 0.23887789 -1.0051502 0.3987129 0.0002633663
-0.07059292 -0.08939537 -0.023544421 0.17652898 -0.11624531 0.3232776 -0.89101714 0.043773714
-0.05568023 0.10356726 -0.023781199 -0.06795186 -0.27323744 -0.2494817 -0.18328425 0.4093189
0.1424125 0.04458179 -0.004462813 -0.19669709 -0.34774488 0.015618759 0.058922336 -0.24132398
-0.40127927 -0.2073428 -0.191771 -0.16754352 -0.12887907 -0.31757972 -0.21153863 0.11324315
-0.06639129 0.19131607 -0.044476304 -0.3326907 -0.23715447 -0.1858172 0.01600231 -0.35469353

actor.0.bias f4 [64]
00000000: f36e 003d 53bf 523e 2cdd 803d 8415 efbd
00000010: 09b3 e73c a194 7abd a466 a93d 91e7 c0bb
00000020: 53b6 bdbd 6f99 ca3d 7a44 c8be 5c4a 403e
00000030: c74d 8ebe 10cb 4cbe 53fb 733d 4290 1dbc
00000040: b0b0 013c c708 a3bd a51b adbe 9c2b cdbd
00000050: 8249 d7be 6749 863c c3ad 2cbe 79b9 52be
00000060: c130 30be dd49 9b3d b213 10be 8c85 7fbd
00000070: 20a8 c33c 9512 a2be a754 9e3e 193a 423d
00000080: cc0b 87bd 7c23 c43d c39a 86be add8 0a3d
00000090: 94a6 1a3e c287 9bbe fbb8 17be 9e98 b8be
000000a0: 1717 f4bd 5782 86be d993 1cbd 1a63 c1bd
000000b0: 95b3 95bd 4bc1 863d 9c78 f73d 43c4 2dbe
000000c0: dd99 32be 3ce5 833c 2218 6c3d 92e7 03be
000000d0: e247 16be f52b 24be 9c5d 11bd 7c20 813c
000000e0: b352 a43e d63e a5bc 3f83 0c3d c20f debe
000000f0: 62ea a9be 9cb1 bc3d 156b 42be a940 40be
0.03135581 0.20580797 0.06292185 -0.11674026 0.028283613 -0.0611769 0.0827153 -0.00588698
-0.09263291 0.098925464 -0.39114743 0.18778366 -0.27793714 -0.19999337 0.059565853 -0.009616913
0.007915661 -0.079606585 -0.33810154 -0.100180835 -0.4204827 0.016392423 -0.1686316 -0.20578565
-0.17206098 0.07582448 -0.14070013 -0.06238322 0.02388388 -0.31654802 0.3092396 0.047418687
-0.06594047 0.095770806 -0.2628995 0.033898044 0.15102607 -0.30377012 -0.14816658 -0.36053938
-0.119184665 -0.26271316 -0.038226936 -0.0944273 -0.07309643 0.065798365 0.12083551 -0.16969399
-0.17441507 0.016100518 0.057640202 -0.12881306 -0.14675859 -0.16032393 -0.035489663 0.01576256
0.32094344 -0.020171564 0.034304854 -0.43371397 -0.33186632 0.09213564 -0.18986161 -0.18774666

actor.2.weight f4 [64, 64]
00000000: 79d5 863d 43cc 24bd 1cd1 b8bc acf6 893d
00000010: 889d f53c 9c32 bd3c fb48 893d 7d43 cc3d
00000020: ed57 d9bd 2c0c 433d 74e3 453d 0e80 613c
00000030: af7d 6c3d f183 d2bd ecd8 b13e 6224 7ebe
00000040: 4c8b 90bd 06db 3a3e a130 70bc af3e 61bb
00000050: b5de 813d aa7f edbd 3210 68be 1e47 1c3d
00000060: ebb9 ee3d a887 48bc b4f3 ca3d dac3 f43d
00000070: 73e3 1a3e 4e32 a1bd 5219 903d 028d 343e
00000080: 9fbb 153e 52f1 e23d febe ffbd 3820 3f3d
00000090: 76c4 febd 2d5b 383c e2e9 2b3e 1e9b 593d
000000a0: 76d7 873c 02c4 9ebd cb05 fcbd 7002 20bd
000000b0: 4eaf ae3d 2e39 31be 934f 143e 145b b03d
000000c0: a778 62bd 14a9 7a3c cd00 a83c 63b9 03be
000000d0: b9ce b53d 738c 04be 249f eb3c 31e1 5e3e
000000e0: 8309 58bd 3441 ad3d 7848 bfbd 8f44 17bd
000000f0: 732f c23c e640 f73d 99cf 04be 1e44 6ebd
00000100: febd 96be d20c 53be 35f4 b53d ef0f d8bd
00000110: 4f01 9ebc da48 6a3e dd65 ae3d e8f7 c8bd
00000120: c301 13be b50d d7be 7fb5 e13d fa49 c13b
00000130: addc 64bd c1ca 403d 38db 9dbe 7467 0fbe
00000140: fa38 b4ba a1ba 843e ee20 833e 0c12 0f3d
00000150: cab3 993c d5ed 2dbc ea1a 063e 301d cf3b
00000160: 896f 81bc fb17 5a3d 927b 41be 3883 aa3d
00000170: 5cde 043e 3fc3 283e cc62 87bd 7da1 ba3d
00000180: a099 163e 2e6d 06be a439 e2bc 8442 993d
00000190: 35eb 26be b366 5f3e 84ee 123e 70cd 883d
000001a0: 0efd 2c3e 090e 133e 71b9 c93d 2e05 573e
000001b0: 0af8 d2be 190a 8bbd e04b 2ebf 657b ca3d
000001c0: 5da1 153e 56d3 acbc 50db 783c e756 c43c
000001d0: cb2c d6bc 08a4 a43d deeb 9bbd e5e7 b0be
000001e0: e2b3 3b3e f787 433b 5a5a 92bd f8a4 863d
000001f0: 0b6e aebd 9fbd a93e f2ea 09bf b931 f53d
00000200: f1bf d1bb eb12 ffbc 14a0 9fbd f830 3b3e
00000210: d73c 6c3d 22f9 823d 100f ab3d 7c3c 26be
00000220: 114f b33c d3cf 133e e339 8abe 95a5 023e
00000230: 989b e0bb d298 e2bc cf96 ba3d 4eda 6f3d
00000240: d7fd 523d 5256 5bbd d647 14bc 3539 4b3e
00000250: 448b c0bc fdde 09be c559 ca3c 9c4a 2ebe
00000260: 3a38 82bd 8b9e e1bc c878 d9bb 55bd 1bbf
00000270: 44b8 e83c 6cda 07bd 237d afbe 9972 75bb
00000280: 8e0a 4cbe df0f 4b3d 0e91 1f3e acb4 5cbd
00000290: 6008 0a3d 2889 a23c 8b3e aebd d867 dc3c
000002a0: 5ce5 94bd 2c83 843d 8041 e8ba e1d4 243d
000002b0: 2403 f5bd 959f 3cbe 6e11 72be 1c13 71be
000002c0: 2729 b13d 479f abbd bace 293e fd05 80be
000002d0: ef13 73bd f38d ca3c 5ece 8abd df6b 0dbe
000002e0: 0d14 233e e69c d43d d814 483d 0007 57be
000002f0: 07e5 8e3b 64b6 ec3c 36b4 34be 20e6 7c3d
00000300: d92d c63c 5803 6abd 4a52 a1bd 2a99 8f3d
00000310: c654 173d 51b4 343e 69df 1f3d d477 83bd
00000320: 4412 113d a448 5e3d 9260 dc3d 5bbe 00bd
00000330: 6a62 1dbd 9272 c6bd 68e9 543e eab4 25be
00000340: d59d 073c 616d b5ba 01b2 813d ef3a bf3b
00000350: ad9e f9bd 5e8e e5bd a057 8d3d 5f8f a1bd
00000360: 1dfb 9c3d e9e2 88bc 5c8c 3b3e 6ada e03d
00000370: 6393 b8bc db9e d9bb ea8a 30be 23df a1bd
00000380: 4d44 ff3d a6be 9fbc cd59 5fbd b772 0f3e
00000390: cd88 1dbe f5d9 df3d 8b8a 6d3e c405 3e3d
000003a0: 9d70 babd 88b5 14be 7653 5b3d d282 a13d
000003b0: c0bd 1d3e 8e70 313d 2d98 bf3c 5cd2 543e
000003c0: cc22 a03c 5a1a e1bc d5b4 b3bd 1da8 163e
000003d0: 15e1 01bd 1a66 233e 5301 bcbd 7230 563e
000003e0: 1bb2 90be 59ad 11be b83f 163e fe81 03bd
000003f0: fe7c d63d e610 973d 0118 1ebd a493 98bc
0.065836854 -0.04023386 -0.022560649 0.06736502 0.029982343 0.023095421 0.06703373 0.0997381
-0.10612474 0.04761903 0.04831262 0.013763441 0.05773705 -0.10279072 0.3473581 -0.24818566
-0.07057819 0.18247613 -0.014660032 -0.0034369638 0.06341306 -0.115966156 -0.22662428 0.03815376
0.11656555 -0.012239374 0.09909764 0.11951418 0.15125827 -0.07870923 0.070360795 0.17631915
0.14622353 0.110811844 -0.12487601 0.046661586 -0.12439816 0.011252207 0.16788438 0.053126447
0.016582232 -0.07752229 -0.123057924 -0.039064825 0.085295305 -0.17306969 0.1448348 0.08611122
-0.055290844 0.0152991 0.020508194 -0.12863688 0.0887732 -0.12944202 0.028762408 0.21765591
-0.052743446 0.08459702 -0.09339994 -0.036930617 0.023704266 0.12072925 -0.12969817 -0.05817043
-0.29441828 -0.2061036 0.088844694 -0.10549914 -0.019287733 0.22879353 0.08515523 -0.09812909
-0.14356141 -0.42002645 0.11020946 0.0058987113 -0.055874515 0.04706836 -0.30831313 -0.14004308
-0.001374989 0.25923637 0.2561106 0.03492932 0.018762488 -0.010615786 0.13096204 0.006320618
-0.015800254 0.053245526 -0.18894795 0.08325809 0.12975448 0.1648073 -0.06610641 0.09112833
0.14707041 -0.13127586 -0.027615376 0.0748339 -0.16300662 0.2181652 0.14348799 0.06679809
0.16893408 0.14360823 0.09849823 0.2099807 -0.41204864 -0.06789035 -0.68084526 0.09886817
0.14612336 -0.021096867 0.015189007 0.02396722 -0.026144406 0.08039099 -0.076133475 -0.3455192
0.18330339 0.002983568 -0.071461394 0.06574434 -0.08517083 0.33152482 -0.53874123 0.119723745
-0.006401055 -0.03113695 -0.07794204 0.18280399 0.05767521 0.063951746 0.08352482 -0.1623401
0.021888288 0.14434747 -0.2699729 0.12758477 -0.0068544857 -0.027660761 0.09110796 0.0585578
0.05151161 -0.05354912 -0.00905033 0.19846042 -0.023503907 -0.1346397 0.024701009 -0.17020649
-0.063583806 -0.02754142 -0.0066367127 -0.6083577 0.028408177 -0.033167288 -0.3427516 -0.0037452339
-0.19925901 0.049575683 0.15582678 -0.05388324 0.033699393 0.019840792 -0.08508023 0.026904985
-0.07270309 0.064703315 -0.0017719716 0.04024208 -0.1196349 -0.1842025 -0.23639461 -0.23542446
0.08650427 -0.08379989 0.16582766 -0.2500457 -0.059345182 0.02472589 -0.06777643 -0.13810681
0.15925618 0.103814885 0.048848003 -0.20998764 0.0043607983 0.028895564 -0.1764687 0.0617429
0.024191784 -0.057132095 -0.078770235 0.070116356 0.03694608 0.1764691 0.03903142 -0.0641934
0.03541781 0.054268494 0.10760607 -0.031431537 -0.038423933 -0.09689821 0.20792162 -0.16182294
0.008277376 -0.0013841802 0.0633278 0.005835883 -0.12188468 -0.11208795 0.06901479 -0.07888674
0.076650836 -0.016709762 0.18315262 0.10979159 -0.022531217 -0.0066412515 -0.17240492 -0.07903888
0.12464199 -0.019500088 -0.054529 0.14008604 -0.15384217 0.10930244 0.23197381 0.046392217
-0.091035105 -0.14522374 0.05354639 0.0788628 0.15404415 0.04332023 0.023387993 0.2078337
0.019547842 -0.027478386 -0.08774725 0.14712568 -0.031708796 0.15956917 -0.0917994 0.20916918
-0.28260884 -0.14226283 0.14672744 -0.032106392 0.10473059 0.0737627 -0.03859711 -0.018625088

actor.2.bias f4 [64]
00000000: 77ba c9bd 1555 cc3d e51a be3d c447 073e
00000010: efe8 433c c1bd c83c b436 63bd 07f2 7f3e
00000020: 42c8 acbd 07d4 c5bd 082a b33e 6ca3 c8bd
00000030: 5357 4c3d b57d 8dbe 313b 6b3d 2623 803e
00000040: 5487 eabc b3ab 93be 4388 4abc b964 48be
00000050: 6930 8b3d 4a55 54bd 15bd 68be 9100 3cbd
00000060: 409d cd3c c971 863e 2382 ac3d 213c 023e
00000070: 8752 27bd 0241 fcbd e5ee ee3d 555d 873d
00000080: 0164 90be 3285 17be 8628 9bbd 17a5 61be
00000090: d799 49bd 7e27 1dbe 57a4 3bbc 1af1 e83c
000000a0: 1e35 fe3d 6dfb 9abe 73de 01bc 2bf1 c43c
000000b0: b105 e4bd adfa 1bbe 06a4 efbd 7809 12be
000000c0: cd3f 9d3d 19a6 af3e d2de a0bd e8b2 1fbe
000000d0: f9e2 473e 80aa 213d 631a d73d c73c 9abe
000000e0: d382 113e 8752 9d3d 4195 f9bc 2683 cfbd
000000f0: 3c96 173c 2de9 0dbd 2afa 3bbe 370d 513e
-0.098500185 0.099771656 0.092824735 0.1321097 0.011957391 0.024504544 -0.05547209 0.2499467
-0.08436634 -0.09659582 0.34993005 -0.09796795 0.049887966 -0.2763497 0.057429496 0.25026816
-0.028628983 -0.28841934 -0.012361589 -0.19569673 0.06796343 -0.05183915 -0.22728379 -0.045898978
0.025099397 0.26258686 0.08423259 0.1271825 -0.04085019 -0.12317087 0.11666659 0.066095985
-0.28201297 -0.14796904 -0.075760886 -0.22035633 -0.04921898 -0.15347096 -0.011452756 0.028435279
0.12412475 -0.30269948 -0.007926571 0.02404078 -0.11133898 -0.15232344 -0.11701207 -0.14261425
0.07678185 0.3430641 -0.078549996 -0.15595591 0.19520177 0.039469242 0.1050308 -0.30124494
0.14210062 0.076817565 -0.030466678 -0.101324365 0.009252127 -0.034646202 -0.18357149 0.20415197

actor.4.weight f4 [6, 64]
00000000: c834 41be 482f f5bd 3003 553b e72c 5abe
00000010: 7c76 debc 2322 693d e3c2 99bd 03af a43d
00000020: d7a4 983d 2ae1 a4bd ddc6 babd 465a 163d
00000030: 0f1c d03d 3980 6b3d a040 87bd 618e 36bc
00000040: 1571 043e 2e95 113e 1de6 483d 032d ef3d
00000050: 055d 883b 6110 f8bd 6b72 893d 7f94 103e
00000060: 3ae5 4a3e 6e82 babc e9b3 b13d aa21 82bd
00000070: 67be b6bc 250b d6bd 47d4 063d 800f a7bc
00000080: 6fb9 613d 508a 1c3e 1d8a 3cbd 416f 233d
00000090: 1684 fdbd 1930 8bbc 9d88 d2bd 7ed4 543e
000000a0: fb59 af3d c318 973d b2d1 c43d 259d 263d
000000b0: 530c 5d3e fa55 ce3d dd35 abbc 000f 343d
000000c0: ce66 423d 9b6e 7b3b d093 e3bd 0a00 f43b
000000d0: 5076 91bd 3bb4 7ebd d3df 4bbe fc9c e7bc
000000e0: a37f d13d 472f 20be 0470 303d c895 26bd
000000f0: 2d4d 87bd ee3e 0d3d 2c9e 6f3e e327 09be
00000100: f129 fa3c b90d f73d 5d2b 6fbe 2267 d6bd
00000110: 0432 83bc 636e 74bd 7855 a23d 722f 28bc
00000120: d240 143e 9ef3 5fbd ddff ce3d 909b 973c
00000130: bd5b 2cbe 4f57 67bc e840 8d3d 1a8a ee3b
00000140: 197c ae3d a0c8 d1bc 753b 733d e487 a2bd
00000150: c1e1 2bbd 63f7 043e 192f 83bd 1ad3 0fbe
00000160: 5714 323d c97f 0e3d d57d af3d 37a0 71bc
00000170: 30c5 09be 75d2 45bd 052f 0dbe bcd1 d93b
00000180: abe0 203d 92f6 26bc c9c2 ec3d 2e41 a2ba
00000190: ba98 3bbd 96d8 8bbd 9ba2 a9bd b348 ca3d
000001a0: 894a 503e 8599 c9bd 142e 85be bf6b 4e3c
000001b0: f2f3 ab3d 98f5 033e fa2e 863d 0b51 4dbc
000001c0: 9796 083e 681e e63c bb3b 4a3d 87b4 0b3e
000001d0: 5f58 39bc 78e8 c1bb df51 153d 0d5a 15bd
000001e0: 0f67 52bd bbe3 8a3d 6c84 aebd b104 f6bd
000001f0: 32fe af3d 01a5 3c3d f286 36bd 1be2 0b3d
00000200: 5ea4 413c fcf5 863d a498 80bd 605d 443d
00000210: aac9 1e3d e45f 143d 58a6 01bb d519 1b3e
00000220: 7296 88be be9a b63d e08f b03d 9f6b 7fbe
00000230: 107d ecbd 8dbc 4cbe 9a8b c03c 4f02 d03d
00000240: 9559 51bd 0086 39be 5de1 bb3d bfed 2fbe
00000250: b225 9e3d f53b 94bd cba2 0abe 22dc a5bd
00000260: 7041 dbbd 4eaa fe3d 7a1f ad3d e805 8a3d
00000270: f25e 81be 9a4d 1fbd 12b7 c93d d621 bb3d
00000280: ca2c 50bc d44b 42be eefe 853c bff0 24be
00000290: 0e04 fcbc 9562 f23b 20c3 bebb 1d0a babd
000002a0: b56b 823c 1a2e 3fbe a672 c1bb 40f9 c63d
000002b0: bf83 123d bd96 20bd 6b3d 4ebd f53b 8abd
000002c0: 006a 0e3e 807f f53d 1b6b e5bd cfaa e4bd
000002d0: 7779 d93d 4a0e a63d b25b fa3c acbb 39be
000002e0: 0c92 fa3d 60bf b33d d01e f03c 1eed 76bd
000002f0: 9c02 47bd 3904 413d 6f04 1fbe 3c33 3e3d
00000300: 8008 b4bd 75be 8a3e 4d8a cdbd e20a 9c3d
00000310: ea4f 6ebd 2ae6 833d 7bce 86bc 3911 85bd
00000320: ccaa 173e 91af bebd d59c bf3d 03fc 523e
00000330: 8c1e d43d a032 2fbe 0d12 903d d127 903d
00000340: a80c 4cbd 7cc1 34be de65 01be b8a9 22be
00000350: 415f f5bd 370b e03d 7005 50bd c76b f9bd
00000360: 4237 98bd d994 1fbd f128 a4bd 66c6 b13d
00000370: 98e2 983d ba7e 673d becd ed3d 0c45 26bd
00000380: 412e 0cbe 2eac eb3b 1a9a bbbd 8c60 d93d
00000390: de75 a0bd c925 06bd 9347 91bc 6bc2 803e
000003a0: f3b5 973d fce6 063d 6190 6e3e 92d8 17be
000003b0: 162e 913d 8495 0fbe 56bf 7abe b86c 893e
000003c0: 45e4 98bc 12a9 a63d 6d3e adbc 1048 87be
000003d0: 3421 e0bc 5fb6 793c 5ccf d83d dd92 f0bd
000003e0: c56a 383e 85f2 43bc 47ee fbbc ace6 a8bd
000003f0: b29d 4bbd 4360 a7bd 36f5 09be 5a6f 20bd
-0.1886779 -0.11971909 0.003250312 -0.21306191 -0.027156107 0.05691732 -0.07507875 0.08041193
0.07453316 -0.08050759 -0.091199614 0.036707185 0.10161602 0.05749533 -0.06604123 -0.011142344
0.12933762 0.14217064 0.049047578 0.11678507 0.0041614794 -0.12112499 0.067112766 0.14119147
0.19814005 -0.022767272 0.08676893 -0.06354077 -0.022307588 -0.104513444 0.032917287 -0.020393133
0.055108484 0.15287137 -0.046030153 0.039901022 -0.12378709 -0.016990708 -0.10279963 0.20784184
0.08562084 0.0737777 0.09610309 0.04067721 0.21586733 0.100749925 -0.020899707 0.043959618
0.047461323 0.0038365487 -0.11112177 0.0074462937 -0.071026444 -0.0621836 -0.19909601 -0.028273098
0.10229423 -0.15643035 0.043075576 -0.040670186 -0.06606517 0.034483843 0.23400182 -0.13394122
0.030537577 0.12063164 -0.23356386 -0.1046889 -0.01601506 -0.059675585 0.07926458 -0.010265218
0.14477852 -0.05467569 0.10107396 0.018506795 -0.1683187 -0.014119937 0.068971455 0.0072796466
0.085197635 -0.02560836 0.059382875 -0.07936075 -0.041963343 0.12984996 -0.064054675 -0.14045373
0.04347643 0.034789834 0.085689224 -0.014747671 -0.13454127 -0.04829641 -0.13787468 0.0066473167
0.03927676 -0.010190623 0.1156059 -0.0012379044 -0.04579995 -0.0682842 -0.08282968 0.098771475
0.20340933 -0.09843735 -0.26011717 0.012598931 0.08396138 0.12886655 0.06551929 -0.012531529
0.13338695 0.02809067 0.04937337 0.13643084 -0.011312573 -0.005917605 0.03645503 -0.036462832
-0.051367816 0.067817174 -0.08521351 -0.120126136 0.08593406 0.046055797 -0.044562288 0.034151178
0.011818973 0.065898865 -0.06279114 0.04794061 0.03876654 0.03622426 -0.0019782986 0.15146573
-0.2667728 0.089162335 0.08621192 -0.24943398 -0.11547291 -0.19993801 0.023504067 0.1015669
-0.051110823 -0.18117523 0.09173844 -0.17180537 0.077220336 -0.072379984 -0.13538663 -0.080986276
-0.107058406 0.12434827 0.08453269 0.06739408 -0.2526775 -0.038892366 0.09849371 0.09137313
-0.012705991 -0.18974239 0.016356912 -0.16107462 -0.030763652 0.007397006 -0.0058216006 -0.0908396
0.0159205 -0.1866993 -0.0059035597 0.097155094 0.035770174 -0.039206255 -0.05035154 -0.06749717
0.13907623 0.11987209 -0.11202069 -0.11165392 0.10618871 0.08108194 0.030561302 -0.18137997
0.122348875 0.08776736 0.029311568 -0.060284726 -0.048586473 0.047123168 -0.15529035 0.04643558
-0.08790684 0.27098432 -0.100361444 0.07619263 -0.05818168 0.06440385 -0.01645588 -0.064974256
0.14811248 -0.093108304 0.09356085 0.20603947 0.10357389 -0.17109156 0.07034693 0.070388444
-0.049816757 -0.17651933 -0.12636515 -0.15885055 -0.11981059 0.10939639 -0.050786436 -0.1217876
-0.074324146 -0.03896031 -0.080156215 0.086804196 0.07465094 0.05651734 0.11611508 -0.040593192
-0.1368952 0.0071921563 -0.09160252 0.10614118 -0.078349814 -0.03275088 -0.017734325 0.2514833
0.07407751 0.032935128 0.23297264 -0.14828709 0.07088868 -0.1402188 -0.24487051 0.26840758
-0.018663535 0.08137716 -0.021147931 -0.26422167 -0.027359582 0.015241235 0.10586426 -0.11746762
0.1800948 -0.011959677 -0.030753268 -0.08247122 -0.049710937 -0.08172657 -0.13472447 -0.039168693

actor.4.bias f4 [6]
00000000: 039b 18be a026 e63c 0050 da3d 0073 373e
00000010: d802 773d b028 ad3d
-0.14902882 0.02809459 0.1065979 0.17914963 0.060305446 0.08455026

critic.0.weight f4 [64, 43]
00000000: 6450 193f 5555 30bf dd72 1dbf 461a 11be
00000010: ef8f 9e3d 9537 dd3e 1434 6dbe c093 e53d
00000020: 9d7a f6bd 5640 933d b37a 293d ec35 1c3d
00000030: fec3 723e 49eb f33c 085d 9fbd 0f0d 863d
00000040: 6d86 90bd 9fc4 85bc 477a 933c 73e5 03bc
00000050: 0630 da3e dfd2 473f d3dc 08be 44ae af3e
00000060: a327 2fbf 91b1 093e 191a 06bf 7a1c bdbe
00000070: a771 333e ae91 a0be 298a 973f b769 363e
00000080: b38d 39bf c2cd 83be 7e2e ae3e e9df d0be
00000090: a9c1 46bf a2d4 7a3f 37c7 733e c860 4fbf
000000a0: f993 fabe 6ef7 6a3e bf82 c0bc 4b4d ba3e
000000b0: f923 24bf a92b d0be 3b32 88be e145 2d3d
000000c0: 0e01 063e 4e2a 53be 561a bd3e 55b1 a3bd
000000d0: 184d c5bc d10f 3dbd 481f 59bd 5627 273e
000000e0: 72e0 fbbe 022d b2be 5ce8 61be 7cf7 183e
000000f0: bca0 a93d f07d 5a3c 68c1 25bb e0a9 453f
00000100: 8078 e93e f9b9 afbe 2e3f 263d 7c64 f7be
00000110: a1a7 fd3e 6634 1bbf 35b1 8dbe 7747 16bd
00000120: 82e7 a5be ffb6 f73f 0999 e93d 8443 60bf
00000130: 3cba f0be 50ac 4f3f 3eb9 28be 456b e2be
00000140: 7397 ee3f 3c53 3bbd c51d 84bf d647 41bf
00000150: 0687 c43d 529c 59be 47ad 743e 3e6e acbe
00000160: 7452 0dbe 1af2 abbd cfee 94bd 61e2 993e
00000170: 3c73 973c 5d71 a0bd c308 21bd de37 babb
00000180: 03d3 753d 6384 afbb db41 e7bc 7e81 f33d
00000190: baa9 3d3d 4e32 39be ad29 4ebe 34b5 803b
000001a0: 85b3 003b 92b4 b3bc 7ce5 85bd 232e 813f
000001b0: 62b3 063f 996c 813f 8d10 ff3d f978 6abe
000001c0: d479 973d d8bf 673e 7cd8 253f 0fb4 c73c
000001d0: b0ed 12c0 849f 2140 4a7a 96bf 01cc 26be
000001e0: 3b6f c4be 6e25 773c 227f 3c3e 5aab 10c0
000001f0: f797 2140 7d13 a5bf 073d c93d e4a9 b8bd
00000200: 0081 2a3e bc91 6b3d 7016 80be 6fa9 89bd
00000210: c65d 4d3e 6323 79bc 8f56 e1bd 4a27 583c
00000220: 5236 da3c 01bd 3c3e 996b 23bc 393d 95bd
00000230: 548d e03c 3cc7 96bd 72e4 cebc f0c6 d53d
00000240: 2c95 523e f0ac 0f3e d9e4 f6bd 3258 2f3b
00000250: 1fc8 ce3b 4daa 6bbf ae75 b43f 1174 f93e
00000260: b57e 6c3f 218e 4ebf d413 863f 19b9 543e
00000270: aaed 5fbe cd6d 713f 919c 423e 5bae 983e
00000280: 8624 27bf 4a42 9ebe 9b88 83bc 0438 cdbe
00000290: 8728 323e 31b7 d3bc a698 483e e2a4 1abf
000002a0: dad3 f6be 7d7b 223f 47f9 03bf 9d57 9fbe
000002b0: 273e 193f c551 33bd 9d08 5e3d 1ec5 673d
000002c0: 9c81 913c 9919 723e c0e8 00be aa22 043d
000002d0: bd44 92bd f892 943d 352d 7dbc ad39 5dbd
000002e0: aee7 dd3e fce7 ccbc 05f9 16bd a6e8 7cbe
000002f0: c5f6 1e3d e14a 593e a390 903b e4ab b4bb
00000300: 8974 1ebf dc03 86bf 3b36 8ebf 445d 833e
00000310: d144 513f 26bc 7d3f f77d cf3d 6b79 0b3e
00000320: 4f83 20bf 9eb6 cabd 1dba 83bf 24ef c9be
00000330: 0f08 38bf c882 06be 9478 27bf 5d96 9ebd
00000340: b655 8c3e 3823 60bf b9d3 f6be 9561 43bf
00000350: 5f6d acbe e5a5 47be 9b45 c53c ee07 e23a
00000360: 4719 f5bc 8a4e 0abd 77d4 ddbd 2277 b63d
00000370: fd9e e6bc 019a b03d cc94 92bd 79d9 b2bd
00000380: 58b4 453d dc23 ca3b 70dc 1abc beda d8bd
00000390: 207b 773d 9e1f 2f3d 8815 04be fe5b 83bd
000003a0: 3fc1 743d b0a4 35bb 9838 2f39 e42f 77bd
000003b0: 9c1a 923f 58a9 92bf 5505 93bf 0858 aabf
000003c0: ad84 0a40 62c1 2b3e b065 06bf bfe1 e0be
000003d0: e587 373c ec55 c9bd 2f29 473e f732 f93e
000003e0: e22a a03e cb21 a03d 7d54 b43e 2cc0 03be
000003f0: 3f0d c2bb 5f2c be3e 1ad9 c93e e69e adbe
0.5988829 -0.68880206 -0.6150339 -0.14170179 0.07742297 0.43206468 -0.23164397 0.11209822
-0.120351054 0.071900055 0.04137678 0.03813736 0.23707578 0.029775279 -0.07781416 0.065454595
-0.0705689 -0.016329108 0.018002642 -0.00805031 0.42614764 0.7805614 -0.13365488 0.34312642
-0.68419856 0.13446642 -0.5238357 -0.36935788 0.17523824 -0.31361145 1.1839038 0.17813765
-0.7248184 -0.25742918 0.34019846 -0.4079583 -0.7763925 0.979807 0.23806463 -0.8100705
-0.4894102 0.2294595 -0.023499845 0.36387095 -0.6411739 -0.4065831 -0.26600823 0.04230297
0.1308634 -0.20621607 0.36934155 -0.07992808 -0.024084613 -0.04615766 -0.053008348 0.16323599
-0.49194676 -0.34799963 -0.22061294 0.14938158 0.08282611 0.01333569 -0.002529228 0.77212334
0.45599747 -0.34321573 0.040587597 -0.4831885 0.49541953 -0.6062683 -0.2767426 -0.036689248
-0.3240319 1.9352721 0.11406142 -0.8760302 -0.47017086 0.81122303 -0.16476914 -0.44222465
1.8639969 -0.045733675 -1.0321585 -0.7550024 0.09596066 -0.21251038 0.23894225 -0.33677858
-0.13800985 -0.083957866 -0.072721116 0.30055526 0.018487565 -0.07834122 -0.039314996 -0.0056829294
0.06001569 -0.005356358 -0.028229645 0.11889933 0.046304442 -0.18085596 -0.20133086 0.003927851
0.0019638252 -0.021936689 -0.06537911 1.0092205 0.52617466 1.0111266 0.12454329 -0.2289771
0.07396284 0.22631776 0.64783454 0.02437785 -2.2957573 2.525361 -1.175607 -0.16288759
-0.38366112 0.0150846075 0.18407872 -2.2604585 2.5249002 -1.2896572 0.09826093 -0.09016779
0.16650772 0.05751203 -0.25017118 -0.0672177 0.20055303 -0.015206191 -0.11002838 0.013192961
0.02663723 0.18431474 -0.009974384 -0.07287068 0.02741114 -0.0736222 -0.025255416 0.10438335
0.20564717 0.14030814 -0.12055368 0.002675545 0.0063104774 -0.92056733 1.4098413 0.48721364
0.9238084 -0.8068562 1.0474801 0.20773734 -0.21868005 0.9430817 0.19005038 0.29820523
-0.65290105 -0.3090995 -0.01605635 -0.400818 0.17398272 -0.025844188 0.19589481 -0.6040784
-0.48208505 0.6346968 -0.5155224 -0.3112153 0.5986046 -0.043779153 0.054207433 0.05658447
0.017761998 0.23642577 -0.12588787 0.03225962 -0.07142017 0.072545946 -0.015452673 -0.054010082
0.4334082 -0.025012963 -0.036858577 -0.24698123 0.038809557 0.2121997 0.0044117733 -0.005513655
-0.6189657 -1.0469928 -1.11103 0.25657094 0.8174563 0.99115217 0.10131448 0.13620536
-0.6270036 -0.09898113 -1.0291172 -0.39440262 -0.71887296 -0.13135827 -0.6541836 -0.07743523
0.27409142 -0.8755374 -0.48208407 -0.76320773 -0.33677194 -0.19496877 0.024081042 0.0017244795
-0.02991928 -0.033766307 -0.1083154 0.089094415 -0.028151983 0.08623124 -0.07157287 -0.08732886
0.048267692 0.0061688256 -0.00945197 -0.10588597 0.060420156 0.042754762 -0.12898839 -0.064140305
0.059754606 -0.002771657 0.00016710383 -0.060348406 1.141437 -1.145793 -1.1486002 -1.3308115
2.164348 0.16772988 -0.5249891 -0.4392223 0.011201833 -0.098308414 0.19449304 0.48671696
0.31282717 0.078189455 0.3522071 -0.12866277 -0.005921989 0.37143227 0.39423448 -0.33910292

critic.0.bias f4 [64]
00000000: 7353 83be 1c6c a6be 0421 2f3e a88b c83e
00000010: 10e3 2bbd 7321 b93c f05a 7c3d 2470 d7bc
00000020: 3686 2e3e 9996 dfbd e72c 283e ded3 bcbe
00000030: 207c e1bd e215 b83d e39d 96be 8ca2 e93e
00000040: 2679 acbe 2cfd 8abe 9dc3 c43e 5714 90bd
00000050: 83fd c2be 0270 22be 318e a13e 03e7 d8bd
00000060: 8470 0c3d 2cdf d33c e640 b7be 5863 493d
00000070: 8832 163e 1305 193e c7ec 993e 760c 0cbe
00000080: 6b3b 13be 0b8d 5a3e c00c a43d 3f32 b8be
00000090: a244 c5be 57bb b33d d7a7 453d 2faa 583e
000000a0: f59a da3e 40a5 143e 5687 8dbc 768c 41bd
000000b0: 6b23 44bc 2d55 04be 391a 31be c2c3 573e
000000c0: da60 af3d 000e abbe 50d8 12be ead2 063e
000000d0: 4cdf 1ebd 63ec 7b3e 2cc6 aa3e 5397 f33d
000000e0: b176 db3d f185 3e3d 7aa5 96be ec0a c8be
000000f0: 4026 c3bd 7e6f 08be 0091 2dbd 5551 2bbe
-0.25649604 -0.32504356 0.17102438 0.3916905 -0.04196459 0.022598958 0.061610162 -0.02629859
0.17043385 -0.10917396 0.16423379 -0.36880392 -0.11010003 0.08988549 -0.29417333 0.45631826
-0.3368618 -0.2714628 0.3843049 -0.070351295 -0.3808404 -0.1586304 0.31553796 -0.10590937
0.03428699 0.025863253 -0.357917 0.049167007 0.14667714 0.14943342 0.3006346 -0.13676628
-0.14378135 0.21342866 0.08010244 -0.35975835 -0.38528925 0.087759666 0.048255768 0.2115867
0.42696348 0.14516163 -0.017276447 -0.047253095 -0.011971335 -0.12923117 -0.1729516 0.2107077
0.08563395 -0.3340912 -0.14340329 0.13166395 -0.03878717 0.24601893 0.33354318 0.11894097
0.10715998 0.046514455 -0.29423124 -0.39070833 -0.0952878 -0.13323781 -0.04237461 -0.16730244

critic.2.weight f4 [64, 64]
00000000: c88c 663d 2ebf 4c3e e230 1abc d5b5 fcbd
00000010: f1e7 16bd 9c9c a4bd a6e8 283d f203 7fbd
00000020: 4bcb 98be 559f dbbc c164 6ebe ae27 073d
00000030: d1ce 14bd e64e 673d 820c 103e 4c29 c83d
00000040: 7b06 f73d b8d8 853d e4f5 253d 88ea 273d
00000050: 6df7 173e 23e1 e33c 0e9d 6bbe f041 403d
00000060: ff53 49be 586f 8fbd dee0 8d3e da66 03be
00000070: 2091 7cbd d1f5 e5bc 1806 cd3b e107 3c3c
00000080: 2f11 8fbc b47b 0abd 768a b7bd d052 d93d
00000090: 7af7 283d b67d 883c 452e 74bd d4c8 2dbe
000000a0: 622f 80be b0ad 41be 0fd5 a63d 18f8 333e
000000b0: 9570 6cbd f46f 703c 4c29 a8bd 39c7 dfbd
000000c0: 9ecf 53bd 9eb4 123c 2994 cd3d 31b0 32be
000000d0: 9238 72be f5cc 6e3d dea4 333d e52f 47be
000000e0: a817 72bd 81c1 8dbd 7b15 493b 452b eb3c
000000f0: ce63 9c3d c08b e4bc ec53 8bbd 3b01 b0bd
00000100: 2211 27be cb77 51be 9baf 523d 568a 2bbe
00000110: bdc1 b6bd d17a 27bd f593 d53d 6480 26bd
00000120: 2903 f23d e60c 013c ef2d f13d 906e 78bc
00000130: ba2d 1dbe f574 b83d b219 23be 2026 29be
00000140: 9621 4a3e c593 13be e9bf d3bd 8487 233e
00000150: ff3a 82bd b8e1 6abd 286d 55bd 5871 84bd
00000160: 0a27 dcbc 52cf 14be 3ae0 20be 4986 fb3d
00000170: a444 ddbc 28a1 463d 5e02 a83d bec5 5f3c
00000180: f5b6 173d b781 0e3e 1db4 e73b 04e0 53bd
00000190: 5e89 50be 19bb 51be 3519 b23d 67de 53be
000001a0: 5180 70bd f8c8 ec3d 2c29 b4bd c1a4 1ebe
000001b0: 20ed c63a cfe2 b13b edfb 9ebd cdbf 93bd
000001c0: 7199 24be 3eeb 4bbe ddbe 2e3d dd94 a73c
000001d0: f55a bdbd be8f 183e c5a1 b7bd 314d f8bd
000001e0: bf3f 62bd 36c4 153e 2a31 353d 6cd2 00be
000001f0: 9b93 683d 39df 13be 1af0 ddbd 0e16 3cbd
00000200: f72d 4dbe 6ab2 65be 2d5b 3abe afc3 abbd
00000210: 41e9 153e ded8 2e3d ef87 d1bd c8e7 67bb
00000220: ebd4 233e b2e2 c2bd a559 603e 203c 113e
00000230: 7b02 4ebd e4e8 db3c 4d5e dd3a b708 303d
00000240: fc85 813e 00fb c23c 922d 1fbe 685d 20be
00000250: 9db2 c1bd 2833 a63d fe14 47bd 7709 843c
00000260: 561c 09bd a971 91bd 18ff 57be f370 83bb
00000270: 439d e73c 11dd 4fbe 01b5 ca3d 640e 1f3d
00000280: 990f a13b 7c3a df3d 8153 4dbb 5956 e1bd
00000290: 5fa6 5b3d 74e7 f7bd ddef f0bd 2894 a0bd
000002a0: ea95 62bd fab7 5dbc af7b cbbb 9656 9abc
000002b0: a89e bcbd 2990 4bbd 0829 ba3d 5b90 99bd
000002c0: 7c03 6a3d 0f2e e6bc 10e9 a8bd 6179 05be
000002d0: f8eb 14be 2846 a63d ffb2 6cbe f851 ff3d
000002e0: ccea ebbc 473b 033e bef6 07bd 25f6 e93c
000002f0: 3f48 b73d 75a4 ba3d 9672 8abd 2f31 fbbd
00000300: 0126 1fbe efa2 1dbe bf42 87bd 66c1 1abd
00000310: 6f97 0e3e b0fb 573e 5705 39be b3dd 2abe
00000320: 1b73 9b3d e6ff 363c 3c12 4f3e d3eb f73d
00000330: aec4 f23d 2d69 2fbe 36af 393b dc3f 073e
00000340: dcfb 9e3d 043a dbbd 9662 63be 4b89 15be
00000350: c407 f23d 2a0f 65be fead 50bc 433e 69be
00000360: 0ce9 3abb fa58 1ebe 7ad6 293e 2d9e fcbd
00000370: f53f 7abc ee41 87be 27f4 a93c 3424 42be
00000380: 76b9 7ebd fbf8 943d 2f65 b8bd 1f1a 47bd
00000390: f15b cdbc de9b b4bd a826 9ebd 079d 103d
000003a0: 808d 26be aa33 b9bd 9d5a ce3c 78fe df3b
000003b0: 55ff 38bd 449e 943b 5684 8bbc 5884 aa3d
000003c0: e8de 8dbd ece5 ebbd 2dc9 2fbe e7a1 a1bd
000003d0: f4e7 53bd d675 ecbc cc94 4fbd 7ce3 f5be
000003e0: a5a3 a93c 8792 23bd 0d8d 323d 73f5 22be
000003f0: 6527 60be 1786 84bd 6d4e 153d 4d9f 2dbd
0.056286603 0.19994804 -0.009411069 -0.12339369 -0.03684229 -0.08037683 0.041237496 -0.062259622
-0.298426 -0.026809374 -0.23280622 0.032996826 -0.036330048 0.056471728 0.14067271 0.09773502
0.12061783 0.065354764 0.040517703 0.04099515 0.14840479 0.027817314 -0.2300913 0.046937883
-0.19660948 -0.07003659 0.27710623 -0.12832204 -0.06166184 -0.028071316 0.00625683 0.011476488
-0.017464248 -0.03380938 -0.08961956 0.10611498 0.041251637 0.016661506 -0.05961444 -0.16971141
-0.2503615 -0.18913913 0.081461065 0.17575109 -0.057724554 0.014675129 -0.08211002 -0.109266706
-0.05171167 0.008954195 0.10038025 -0.17450024 -0.23654392 0.05830093 0.0438584 -0.19451864
-0.05910459 -0.069216736 0.003068297 0.028707156 0.07636224 -0.02789867 -0.06803116 -0.08593985
-0.1631513 -0.20455854 0.051437 -0.1675199 -0.089236714 -0.04088861 0.10428611 -0.040649787
0.11817009 0.00787661 0.11776339 -0.015163079 -0.15349475 0.09006683 -0.1592777 -0.1651845
0.19739375 -0.14411838 -0.10339338 0.15969664 -0.06358909 -0.05734417 -0.052106053 -0.06466931
-0.026874084 -0.14532211 -0.15710536 0.12281472 -0.02701027 0.048493534 0.082035765 0.013657985
0.037039716 0.1391667 0.0070710317 -0.05172731 -0.20364901 -0.20481528 0.08696214 -0.20690309
-0.058716122 0.11561769 -0.087969154 -0.15492536 0.001517687 0.005428649 -0.07762895 -0.072143175
-0.16074158 -0.19913957 0.04266249 0.020456726 -0.09245864 0.14898583 -0.08966402 -0.12124098
-0.055236574 0.1462563 0.04423634 -0.1258027 0.056781393 -0.14440621 -0.10836811 -0.04591947
-0.20037065 -0.22431341 -0.18198843 -0.08386933 0.1463976 0.04268729 -0.102310054 -0.0035385955
0.1599919 -0.09515895 0.21909197 0.14183092 -0.050295334 0.02684445 0.0016889066 0.04297706
0.25297534 0.023801327 -0.15544727 -0.15660632 -0.09457896 0.08115226 -0.048604004 0.016117794
-0.03347429 -0.07101757 -0.21093404 -0.0040112673 0.02827323 -0.20299174 0.09897805 0.038832083
0.0049151895 0.10899827 -0.003133029 -0.11002798 0.05362546 -0.12104693 -0.117645 -0.078407586
-0.05531875 -0.013532633 -0.0062098126 -0.018840116 -0.09209949 -0.04969803 0.09089857 -0.07498237
0.05713223 -0.028098134 -0.08247578 -0.13034584 -0.1454314 0.0811885 -0.23115157 0.12466806
-0.028798483 0.12815581 -0.033194296 0.028559754 0.08949327 0.09113399 -0.06760137 -0.122652404
-0.15541841 -0.15394185 -0.06604528 -0.037782095 0.13924955 0.21092105 -0.18068443 -0.16686134
0.07590314 0.011169409 0.202218 0.12105527 0.1185392 -0.17129965 0.0028333194 0.13207954
0.07762882 -0.10704425 -0.22205576 -0.14603154 0.118178874 -0.22369066 -0.0127367955 -0.22777657
-0.0028520254 -0.1546363 0.16585723 -0.12334857 -0.015274038 -0.26417488 0.020746304 -0.18959123
-0.062188588 0.07274052 -0.09003674 -0.048608895 -0.025068255 -0.08818792 -0.07722217 0.035306003
-0.16264915 -0.09043057 0.025189692 0.006835755 -0.04516538 0.0045354683 -0.017030876 0.08326024
-0.069272816 -0.115184635 -0.17166586 -0.078922085 -0.05173488 -0.028864782 -0.050679013 -0.4802512
0.020707915 -0.03993466 0.043591548 -0.15913944 -0.21890028 -0.06470888 0.036451746 -0.04238825

critic.2.bias f4 [64]
00000000: 3342 c8bc 6c64 22bd b59f c6bd 599d 673c
00000010: eeec f93d eabb 23bb 49e2 d4bd d1a4 65bd
00000020: df11 d13d 43a5 8f3e f3ce 7f3d 4843 213e
00000030: 5412 b9bd a82f 39bd 69fa 133e 9d74 01be
00000040: 8f55 1ebe ae1c 533d fca5 d3bc 68e5 753e
00000050: 7f06 68bd c0dc 75bd 708b f8bd c861 3f3d
00000060: 8fd5 3a3d beb4 1a3e f2cb cfbd 35ba 963e
00000070: f1a7 95bc 6594 a3be fab0 26be 0497 1ebd
00000080: 2751 8a3d 1863 e9bd 8646 b63d d0fb 60bd
00000090: 3b24 3bbd 8bae 993d b2e4 073d 03ba ac3c
000000a0: a71d 8dbd 940f 9fbc 97a8 c33d eac1 0d3e
000000b0: ea6a 293c 32ec 5fbd 6db7 eabd a857 853d
000000c0: a11a 8dbe 85a3 c73d c7a2 72be e5e3 4fba
000000d0: c98c 3ebd 8c46 a0bb a8af 56be e0fa 3abd
000000e0: 6ecb f4bd 8e2e 373d d877 1ebd 6b41 303d
000000f0: b39d 993d ceac d83c 51f2 933d 6996 e9bc
-0.024445629 -0.03964655 -0.096984304 0.014136636 0.12203394 -0.0024983832 -0.10394723 -0.056065384
0.10208487 0.28055772 0.06245322 0.15748322 -0.09036699 -0.045211464 0.14450993 -0.1264214
-0.15462326 0.051541023 -0.025835983 0.24013293 -0.05664682 -0.060024977 -0.121359706 0.04672411
0.04561382 0.1510801 -0.10146321 0.2943894 -0.018268557 -0.31949154 -0.16278449 -0.03871824
0.0675376 -0.11395854 0.0890017 -0.054927647 -0.04568885 0.075039946 0.033177085 0.021084791
-0.06890421 -0.019416608 0.0955364 0.13843504 0.010340432 -0.054668613 -0.11460767 0.0651086
-0.2755938 0.09747986 -0.23694907 -0.0007930382 -0.046520982 -0.0048912223 -0.20965445 -0.04564941
-0.11952864 0.044722132 -0.03868851 0.043031137 0.07500782 0.026449587 0.072239526 -0.028514104

critic.4.weight f4 [1, 64]
00000000: 192d 55bd ce3c ba3d a043 d73d 1f52 a73d
00000010: 3e74 b23e d5a3 9abd c94c 833e 81d8 163f
00000020: 2e1b 103e 9bbc 403e a610 e33c 0b49 d03d
00000030: dc52 15be 8b81 253e dda5 ff3d 787a 833e
00000040: c3a5 90be 93a6 cdbd a586 013e 3f18 893e
00000050: 8f9d 203e fd86 aebe d66b 133e 8d8f ec3d
00000060: 43cf 2ebd c76c 453e a11d dbbd ccec 383e
00000070: c5aa c5be cce2 cebe 0628 b03d 6dd7 eabd
00000080: 7007 d6be 1e0b a0be 2ee2 05bf a2e2 0dbe
00000090: 6e78 993e 4daa e33d b920 d73d 0bd4 bc3d
000000a0: 124e 18bd 032e cd3d 2335 cbbd 588e 5d3e
000000b0: 1672 0f3e c7ab aebd 2a0e a4bd 2e49 033e
000000c0: 15a7 a23e 5fde 683e 2151 183e 3635 c63d
000000d0: 3b5a 2bbe ade1 3abf ed22 8fbd f938 d7bd
000000e0: 592b 56bf 8c6e 2f3e 34ee ce3d 573c a33e
000000f0: a30f 603e 56ff db3d 64d3 8d3e 518f d0bd
-0.05204496 0.09093629 0.10510945 0.0816996 0.3485431 -0.0755078 0.2564452 0.5892411
0.14072868 0.18821947 0.0277179 0.10170182 -0.1458239 0.16162698 0.12482808 0.25679374
-0.28251466 -0.10041537 0.12649019 0.2677631 0.15685104 -0.34087363 0.14396605 0.11550818
-0.04267813 0.19279777 -0.10699011 0.18059081 -0.3860685 -0.40407407 0.08601384 -0.114668705
-0.4180255 -0.31258482 -0.5229825 -0.13855985 0.29974693 0.11116467 0.10504288 0.092201315
-0.03718383 0.10018542 -0.099222444 0.21636331 0.14008364 -0.08528858 -0.08010514 0.12820885
0.31768098 0.22741078 0.14874698 0.09678118 -0.16733639 -0.73000604 -0.069890834 -0.105089135
-0.83659893 0.17132014 0.101040274 0.31881973 0.21880965 0.10742061 0.2770034 -0.101835854

exp_avg f4 [6]
00000000: 7057 7bb9 8529 5539 9063 02ba bb9d bb39
00000010: 42a5 9f38 6b2b 1bb9
-0.00023969798 0.0002032873 -0.00049739424 0.00035784938 7.6124925e-05 -0.00014798126

exp_avg_sq f4 [6]
00000000: 84f4 f537 944b 9138 4513 a438 f391 3337
00000010: a6b8 0837 900d 1135
2.9320137e-05 6.928216e-05 7.8237186e-05 1.0703213e-05 8.1492235e-06 5.4036445e-07

exp_avg f4 [64, 43]
00000000: 21e6 b6b7 a9a7 e937 93d6 8b38 5a0f 55b8
00000010: 2dca 7738 d42d 7837 acd1 2ab7 fbf1 b737
00000020: 9812 bab8 0e19 c4b8 a5aa 6038 e688 8638
00000030: 46b6 33b8 4ad4 c138 5005 e438 3e0a d2b8
00000040: 3eb4 0139 2d21 bd37 c32c 06ba e28a 3aba
00000050: 0374 9ab5 206e f131 f2aa 3835 34e5 0a34
00000060: c8fb da36 d65a 70b6 bc4c 2d35 5ae4 da36
00000070: 69f2 41b6 eb11 5035 a388 6337 d6e0 06b7
00000080: ab5b 3a36 4574 d536 e68d 4c37 15c5 e5b5
00000090: b6a8 a8b6 a388 6337 d6e0 06b7 ab5b 3a36
000000a0: b03a 6f37 1cf8 6f36 63c2 f037 34a8 7738
000000b0: a104 83b7 8029 f0b8 b66e 3e36 609e a3b7
000000c0: f43d ff37 91e8 5ab8 6da1 95b7 1c21 80b8
000000d0: bb7c a736 dc04 4f37 485c a5b8 0609 c838
000000e0: 4c73 5137 80f5 7eb9 390e 8137 bcb9 5ab8
000000f0: fe3b 3038 2243 043b ddae 25bb 2363 11b6
00000100: f24a 0cb7 c1bb b6b7 206e 19b5 2e69 64b6
00000110: 95f9 f5b5 6aab 6732 0932 45b7 0e10 c6b7
00000120: 8a91 15b5 2f48 4434 a0e1 12b7 b146 9436
00000130: 875a f2b7 909a d8b7 e4d7 14b8 1dc6 02b7
00000140: 2f48 4434 a0e1 12b7 b146 9436 8a22 69b6
00000150: ffb2 bbb6 e8b5 eab6 7aa0 a436 7a99 9ab7
00000160: 00f3 8fb7 0037 69b7 30d4 4bb8 90ea 9237
00000170: 8bba 5038 3c40 16b8 0d12 18b7 a7f4 e836
00000180: 66d0 3638 47f2 a8b7 44da 0638 6ae3 92b7
00000190: 3f11 dbb7 1db4 62b8 a1d7 bab8 d802 7238
000001a0: 719e 2e3a 53f7 05ba 448a 82b5 47d2 4136
000001b0: fedc 4ab6 e35d 1834 0709 76b6 f1be 5eb5
000001c0: c2df 7eb4 c012 51b5 df5c 81b6 c3c2 ccb3
000001d0: 6f99 7536 f030 0635 227a 4635 1f02 bcb5
000001e0: 4b8a 79b7 2be3 47b6 4426 5f35 6f99 7536
000001f0: f030 0635 227a 4635 f197 2137 4d4b 8437
00000200: 3908 2937 dfe1 6738 e960 05b8 b9fc f0b8
00000210: 0bd9 5d38 7449 b8b7 c96f db37 579e 80b7
00000220: 465f 0db8 2cae 52b7 ecc8 8db7 477c 0837
00000230: 42df 08b8 93ad b438 3d0a 80b8 ff51 66b9
00000240: a21c d638 127f 1bb8 d5d5 8f38 c51e 9d38
00000250: 3783 2cba 278e 0636 04a6 7f36 196b d7b6
00000260: ed4d f0b4 7c06 8db7 d881 b836 f3db 19b5
00000270: b131 5ab7 ec8b 76b5 b5e1 88b5 3fec 6d36
00000280: c40e ef36 b2bc d0b6 b464 72b7 cb66 ab35
00000290: 5283 92b7 9966 65b7 3fec 6d36 c40e ef36
000002a0: b2bc d0b6 ab9b 5bb6 e353 de35 9f62 6137
000002b0: bef4 bdb5 3dab c337 0967 b837 0f4c 93b7
000002c0: 5def c137 63b6 a2b6 f187 fb36 8054 8437
000002d0: 803b 9bb8 2027 4c38 3822 0038 5c21 e2b7
000002e0: ab9c 8737 e3c9 2837 736c 0338 3411 b8b7
000002f0: 9ab1 5e38 ceb4 db36 7a3e 7fba 8bfa 023b
00000300: 03c2 0137 0609 abb6 c123 d9b5 39a5 3034
00000310: 40c2 0e36 930b 7536 196f 58b4 88a0 46b6
00000320: e376 0836 f298 1fb3 a2b9 5236 5c98 7c36
00000330: 437d 2bb6 3f72 2135 69c3 6837 60b2 5237
00000340: 4d0b 5eb4 a2b9 5236 5c98 7c36 437d 2bb6
00000350: 9151 9ab4 ee14 2db7 06d8 26b7 bc1a 9636
00000360: 1705 1438 b04f 9b38 9ad2 26b8 e435 5636
00000370: 00c9 70b7 719c 1f37 9c26 16b8 05b8 bcb7
00000380: 14c6 67b8 b86f 8a38 3a4b d5b8 0ecb 4037
00000390: 96da ad38 476c 2839 e9c5 aeb8 6ba6 c536
000003a0: 65bc 1eb7 5cc5 853a ea3b a8ba f908 ccb6
000003b0: 35b7 0137 7dac e4b4 57eb d5b4 e34a e836
000003c0: 786a b036 a28e b535 8415 7637 9321 a236
000003d0: 2a19 8035 4d1a f335 a993 1236 d117 4436
000003e0: acb6 1a38 24b3 8cb7 f6bc 0038 b8bc 1e37
000003f0: 4d1a f335 a993 1236 d117 4436 b734 24b7
-2.1803253e-05 2.7853837e-05 6.668004e-05 -5.0797455e-05 5.907768e-05 1.4792622e-05 -1.0181608e-05 2.1927981e-05
-8.8726345e-05 -9.350675e-05 5.3564687e-05 6.415117e-05 -4.284668e-05 9.242499e-05 0.00010872877 -0.00010015488
0.00012369544 2.2546004e-05 -0.00051183644 -0.0007116032 -1.1507658e-06 7.026543e-09 6.87941e-07 1.2935635e-07
6.5262175e-06 -3.581566e-06 6.4559185e-07 6.52349e-06 -2.8900342e-06 7.751211e-07 1.3562068e-05 -8.039371e-06
2.7769518e-06 6.36143e-06 1.2192386e-05 -1.7119188e-06 -5.0264307e-06 1.3562068e-05 -8.039371e-06 2.7769518e-06
1.4259174e-05 3.5758194e-06 2.8700748e-05 5.904604e-05 -1.5618572e-05 -0.00011451822 2.8376649e-06 -1.9504863e-05
3.0427218e-05 -5.2191845e-05 -1.7837354e-05 -6.109683e-05 4.9915084e-06 1.2339293e-05 -7.885002e-05 9.538424e-05
1.2484215e-05 -0.00024314784 1.5384621e-05 -5.214823e-05 4.2017542e-05 0.0020181616 -0.0025281229 -2.166439e-06
-8.3621e-06 -2.178352e-05 -5.7157195e-07 -3.403587e-06 -1.832656e-06 1.3484945e-08 -1.1753765e-05 -2.3610915e-05
-5.571861e-07 1.8280183e-07 -8.754811e-06 4.4189733e-06 -2.8890803e-05 -2.582118e-05 -3.5487014e-05 -7.794731e-06
1.8280183e-07 -8.754811e-06 4.4189733e-06 -3.473981e-06 -5.593872e-06 -6.99492e-06 4.906263e-06 -1.8429699e-05
-1.7160084e-05 -1.3900688e-05 -4.8596587e-05 1.7513783e-05 4.9764796e-05 -3.582261e-05 -9.064109e-06 6.94262e-06
4.3586268e-05 -2.013998e-05 3.2151365e-05 -1.7510454e-05 -2.6114865e-05 -5.4050342e-05 -8.909335e-05 5.7699945e-05
0.0006661183 -0.00051104015 -9.725995e-07 2.8881639e-06 -3.022898e-06 1.4190259e-07 -3.6662111e-06 -8.29793e-07
-2.3736996e-07 -7.788585e-07 -3.855311e-06 -9.534917e-08 3.6597155e-06 4.9990103e-07 7.3938475e-07 -1.4007709e-06
-1.4873755e-05 -2.978554e-06 8.312966e-07 3.6597155e-06 4.9990103e-07 7.3938475e-07 9.631724e-06 1.577069e-05
1.0075099e-05 5.528505e-05 -3.1799926e-05 -0.00011491165 5.2892643e-05 -2.1968714e-05 2.6158888e-05 -1.5332522e-05
-3.370575e-05 -1.2557528e-05 -1.6902071e-05 8.135167e-06 -3.263285e-05 8.6153996e-05 -6.105423e-05 -0.00021965055
0.000102096485 -3.7073223e-05 6.858601e-05 7.492075e-05 -0.0006580832 2.00503e-06 3.8094595e-06 -6.419967e-06
-4.4760182e-07 -1.681153e-05 5.498743e-06 -5.731701e-07 -1.3005382e-05 -9.1845754e-07 -1.0198479e-06 3.5453265e-06
7.124474e-06 -6.22085e-06 -1.4447771e-05 1.277041e-06 -1.7465707e-05 -1.36733515e-05 3.5453265e-06 7.124474e-06
-6.22085e-06 -3.2724154e-06 1.6564703e-06 1.3434007e-05 -1.4152827e-06 2.332555e-05 2.1982489e-05 -1.7559183e-05
2.3118855e-05 -4.849209e-06 7.4962086e-06 1.5774975e-05 -7.402059e-05 4.8673828e-05 3.0549447e-05 -2.6956834e-05
1.6166208e-05 1.0060586e-05 3.1333835e-05 -2.194252e-05 5.309433e-05 6.547757e-06 -0.0009736788 0.001998576
7.734171e-06 -5.0972476e-06 -1.6178166e-06 1.6451385e-07 2.1272717e-06 3.6514582e-06 -2.0156985e-07 -2.959774e-06
2.033478e-06 -3.7159175e-08 3.140049e-06 3.763961e-06 -2.5553898e-06 6.0143424e-07 1.3873775e-05 1.2558507e-05
-2.0679472e-07 3.140049e-06 3.763961e-06 -2.5553898e-06 -2.8744083e-07 -1.0316477e-05 -9.944668e-06 4.4734606e-06
3.529069e-05 7.405819e-05 -3.9773622e-05 3.1919853e-06 -1.4351914e-05 9.513563e-06 -3.5798745e-05 -2.2497037e-05
-5.5259166e-05 6.601162e-05 -0.000101706435 1.1491369e-05 8.289998e-05 0.00016062065 -8.33383e-05 5.890431e-06
-9.461398e-06 0.0010205912 -0.0012835239 -6.0807183e-06 7.731655e-06 -4.259381e-07 -3.9845574e-07 6.9228568e-06
5.2576033e-06 1.3527062e-06 1.4667752e-05 4.831885e-06 9.544067e-07 1.8112565e-06 2.1841645e-06 2.922014e-06
3.6886588e-05 -1.677272e-05 3.069356e-05 9.461473e-06 1.8112565e-06 2.1841645e-06 2.922014e-06 -9.787435e-06
