2026-01-29_07-44-49_Fase2_Empuje_V1/model_1650.pt (torch, 189045 bytes, 36 tensors)

std f4 [6]
000000 10 44 bd 3e ed 4c c7 3e c0 83 8b 3e 0e 74 40 3f
       0.3696599 0.38925877 0.27248955 0.75177085
000010 4d 95 3c 3f ed c8 20 40
       0.73665315 2.5122635

actor.0.weight f4 [64, 43]
000000 f2 c9 2b 3c 58 fb a8 3e c2 e1 83 bd 0e ce 4d 3d
       0.010485159 0.3300426 -0.06439544 0.050245337
000010 b0 95 91 be 0a ac ac be dc aa d4 bd e7 5b 6f be
       -0.28434515 -0.33725005 -0.10384151 -0.23374902
000020 5c f4 81 ba 2b 9b 7c 3d 2e b6 d8 bc f4 3c a2 3d
       -0.0009914744 0.061671417 -0.026454058 0.07921782
000030 ff 63 19 3e 8f f6 5f 3e c1 29 f4 ba 23 2d e8 bd
       0.14979552 0.21871398 -0.0018628166 -0.11336734
000040 cb 46 1e be b1 68 7b be 8d 1a fd bc dc 67 fc 3b
       -0.15456693 -0.24551655 -0.03089645 0.0077028107
000050 44 6e 47 3f 4c 8c 49 3f d1 3d 5f 3e 42 30 5d bd
       0.77902627 0.787297 0.21800925 -0.0540011
000060 cb 44 11 bf dc 7f c4 be 76 34 1b be 23 69 68 be
       -0.56745595 -0.383788 -0.15156731 -0.22696356
000070 53 69 02 3d 50 6a 85 be 56 83 94 3e 28 40 99 3d
       0.031838726 -0.26057673 0.2900645 0.0748294
000080 99 82 c6 3e d6 83 06 bf 11 c7 89 3d b6 bb 57 3e
       0.38771513 -0.52544916 0.06727422 0.210677
000090 ed ac 92 3e cf 5f 8e 3e 60 52 68 3e eb 74 61 3e
       0.28647557 0.2780747 0.22687674 0.22017257
0000a0 bc a4 db be b5 7b 5b be e4 1e b9 3e 70 17 62 bd
       -0.4289912 -0.21433909 0.3615638 -0.055198133
0000b0 6a 40 67 3e a7 48 9c 3e 73 9c 20 3f 89 d8 1b bf
       0.22583166 0.3052418 0.6273872 -0.6087728
0000c0 34 74 1a be 15 ff e5 3d 4c 46 3b bf d1 65 31 be
       -0.1508339 0.11230294 -0.7315414 -0.17323996
0000d0 e4 a9 8d bd 3e 9e 1b 3e 90 3f 6e 3b 0c 85 f6 3d
       -0.0691717 0.15197083 0.0036353804 0.120370954
0000e0 73 d6 9a bd bd a6 a8 bc 17 8b f2 3e 70 da 27 bf
       -0.07560434 -0.02058732 0.47371742 -0.65567684
0000f0 da 5f 35 be 4e b1 0d bd 99 cb cc 3b e6 9f 27 bf
       -0.17712346 -0.03459292 0.0062498567 -0.6547836
000100 d2 79 7d 3f 2c 08 ca 3e 48 87 8b 3e d0 8c 4f bf
       0.9901401 0.3945936 0.2725165 -0.8107424
000110 1a 74 63 bf a8 a7 83 3d d9 a1 c9 bd 00 41 01 3e
       -0.8884903 0.06428462 -0.09845323 0.12622452
000120 3d a3 9a 3e 42 fc 8f be b5 53 e3 bd 15 4e d0 3e
       0.30202666 -0.28122145 -0.1109995 0.40684572
000130 03 d2 0e be 49 1d ba be f5 74 9c 3e bb 58 d7 3e
       -0.139473 -0.36350468 0.3055798 0.42059883
000140 2f 69 6b be 7b 04 3d bd 7c f1 1b 3f 67 1d d5 3d
       -0.22989343 -0.04614685 0.6091535 0.10405999
000150 55 48 23 3f b7 7d d5 bd c8 c8 c5 be c0 3d 2f be
       0.63782245 -0.10424369 -0.38629746 -0.171134
000160 4f 3d 87 be 08 4b f2 3c 11 47 25 bc 28 d3 9f be
       -0.26413962 0.029576793 -0.010087744 -0.31215787
000170 6b 5e a3 3e 14 05 85 bd 2c 29 ce be 35 67 34 be
       0.31907973 -0.06495109 -0.40265787 -0.17617495
000180 1a 11 42 3c 43 71 80 3d 86 47 20 be ac 95 0b be
       0.011844898 0.06271603 -0.15652284 -0.13631314
000190 a8 79 aa be 0a 9b ee 3d 39 6d 06 bd b7 d4 8b be
       -0.3329594 0.11650665 -0.032819007 -0.27310726
0001a0 aa c0 ba 3b 01 55 a8 ba d3 7e bb be 5e 4b b6 be
       0.005699237 -0.0012842716 -0.36620197 -0.35604376
0001b0 a6 2a f2 bc b9 5d b3 be 16 e7 b9 bd 05 87 63 be
       -0.029561352 -0.35032442 -0.09077279 -0.22219475
0001c0 9f be 82 3d f9 88 da be be 91 e8 bd 80 32 b8 bd
       0.06384014 -0.42682627 -0.11355923 -0.08994007
0001d0 71 94 44 be 6a 6d 81 3e e4 ff fa 3e aa 73 97 be
       -0.19197251 0.2527879 0.49023354 -0.29580432
0001e0 ab 03 63 bd bd d7 c0 bd b0 6c 17 bf 42 c7 a7 be
       -0.05542342 -0.09416149 -0.5915022 -0.3276921
0001f0 91 f5 91 3e bf c8 f0 3e e3 36 14 bf a3 b4 78 bd
       0.28507665 0.47028157 -0.5789625 -0.060719144
000200 c4 ae f4 3e dd 77 cd bc f9 58 5b 3d 4b 2d 21 3e
       0.47789586 -0.02508157 0.053551648 0.15739934
000210 74 1c f3 be 25 a7 a9 3e 89 f9 85 3d a5 b4 dd 3c
       -0.47482646 0.33135334 0.06541736 0.027063677
000220 a5 7a 77 be 9f 74 7a 3e 1a 83 a1 3d c8 6b d5 bd
       -0.24167879 0.2445855 0.07886334 -0.10420948
000230 09 eb b1 3d 49 51 b8 bd 6b 99 98 3d 51 3a 5b 3d
       0.086874075 -0.08999879 0.07451137 0.05352241
000240 5b dd 8b be 50 b0 4c 3e 22 a5 00 3e dd 41 14 3d
       -0.27317318 0.19989133 0.12562993 0.036195625
000250 64 54 0d 3b 63 09 cc bd 83 75 bd be e8 31 fb bd
       0.0021565193 -0.09962728 -0.37003717 -0.12265378
000260 f3 ce 2c 3e 59 ab e1 bd 81 d3 47 3e 1b b4 54 be
       0.1687582 -0.1101901 0.19514276 -0.2077183
000270 9e 1e 0a bc e1 c6 74 3c c0 13 50 bc a9 d8 18 bd
       -0.008430151 0.014939995 -0.012700021 -0.037316
000280 18 8e d3 bd ac 1b 96 3e c6 d3 a7 bd 83 9b 41 bd
       -0.103298366 0.29317987 -0.081946895 -0.04726745
000290 61 16 8e bd e0 66 07 3d 19 1a d2 bc 51 ab ed bd
       -0.06937862 0.033057094 -0.02564721 -0.11604942
0002a0 ce 74 98 3e 56 5f d7 3d ab 2b ab bd 6a 1b f7 be
       0.29776615 0.10516231 -0.083579384 -0.48263103
0002b0 83 3d 31 3e 5c af fc be ff b9 03 bf 8e 91 a5 bc
       0.17308621 -0.4935254 -0.5145568 -0.020211007
0002c0 c4 45 4a 3c f3 08 98 3e c0 de 13 3e 15 2d 8d 3e
       0.012345735 0.29694328 0.14440441 0.27573457
0002d0 9e 72 ae 3e 75 46 ef 3d 11 67 f4 bc 71 5d 35 bd
       0.3407182 0.116833605 -0.029834302 -0.044278566
0002e0 f3 39 17 3e 90 53 86 bd 30 0d 38 bd a6 c3 6e 3d
       0.147682 -0.06558907 -0.04493445 0.058292054
0002f0 4a 23 95 3b 80 bb 3c 3e ad ea 06 3c 78 ca 28 bc
       0.004551326 0.184309 0.008234662 -0.010302179
000300 c5 d2 88 3d c2 45 cd 3e c5 38 27 3d 6f be 8c be
       0.06680826 0.40092283 0.040825624 -0.2748904
000310 41 fa 2c be 8a c9 81 bc ab 2d 20 bd cf ee 04 bd
       -0.1689234 -0.015843172 -0.039106052 -0.032454308
000320 92 b9 03 be dd f6 19 be 58 80 31 be 74 27 9e 3e
       -0.12863758 -0.15035577 -0.17334116 0.30889475
000330 f7 e7 3e be cc 1c b0 be e9 f6 9d bc 03 fd 62 be
       -0.18643175 -0.3439697 -0.019282775 -0.22166829
000340 5e 34 ab be 48 8a 81 be f2 bd b2 3e 4e 6a de bd
       -0.3343839 -0.25300813 0.34910542 -0.1086012
000350 f9 f5 6f 3e 73 18 85 bf 10 9f a7 3e 3d 10 9c bd
       0.23433675 -1.0398086 0.32738543 -0.07620285
000360 f4 08 9f bd a5 11 bb bd 54 3a 79 bd 83 5d 3b 3e
       -0.077653795 -0.09134225 -0.06084664 0.1829739
000370 bd c1 e3 bd 6c 35 90 3e 33 04 5e bf 25 43 9d 3d
       -0.11120937 0.28165758 -0.8672516 0.076788224
000380 d6 dc 81 bd 7d 90 9e 3d 46 da 08 bd e5 b8 19 be
       -0.06340949 0.07742403 -0.033411287 -0.15011938
000390 f7 81 98 be 25 2e 7f be 4a e9 7e be 32 8e df 3e
       -0.29786655 -0.24919946 -0.2489368 0.43663174
0003a0 3c 64 10 3e 27 22 1e 3d b0 c6 22 bc 27 6c 2a be
       0.14100736 0.03860679 -0.009935066 -0.1664282
0003b0 9f b0 1a bf 62 68 fa ba 7a bb bf 3e 2c 30 18 be
       -0.6042575 -0.0019104595 0.3744772 -0.14862126
0003c0 1b da a7 be 5e e5 89 be 1d 57 3d be 7b 9f 14 be
       -0.3278359 -0.26932806 -0.18490262 -0.14513962
0003d0 e1 08 13 be 7a 75 6f be e2 f5 29 be f6 9f 41 3e
       -0.14358856 -0.23384658 -0.16597703 0.18908677
0003e0 7b e1 a9 bb ff 8a 52 3e 41 c7 46 bd 9f aa cd be
       -0.00518435 0.20560835 -0.048529867 -0.40169236
0003f0 62 aa 18 be 78 ae 0d be 28 ab c0 3d 5a 6b 14 bf
       -0.14908746 -0.13836086 0.094076455 -0.57976305

actor.0.bias f4 [64]
000000 bb c7 2b 3d 26 c0 78 3e df b8 4d 3d 3a a1 e9 bd
       0.041938525 0.24292049 0.050225135 -0.11407705
000010 dd 7d 42 3d b9 76 9b bd 02 25 ad 3d 27 ad 82 3a
       0.047483314 -0.07591004 0.08454324 0.0009969816
000020 20 38 aa bd 2f 92 cd 3d 76 3e d4 be f5 90 4a 3e
       -0.08311486 0.10037648 -0.41453904 0.19781859
000030 09 04 87 be 86 2b 62 be 01 f5 19 3d 9c 6c ab bb
       -0.26370266 -0.22086915 0.03758717 -0.005231453
000040 8d 11 ce bb 0a 00 bb bd d7 62 b4 be 14 88 9e bd
       -0.0062887133 -0.09130867 -0.3523166 -0.077407986
000050 54 08 d3 be fc f1 d3 3c 49 b6 3a be 2c 78 55 be
       -0.4121729 0.025872223 -0.18233599 -0.20846623
000060 db b4 49 be fb 66 b3 3d fd 9c 0e be 32 e9 51 bd
       -0.19697897 0.08759876 -0.13927074 -0.051247783
000070 72 b1 9b 3c 56 2a ab be d7 79 9d 3e 84 3e b6 3d
       0.019005511 -0.33430737 0.3075702 0.08898643
000080 f3 4a 8d bd cc c6 e7 3d 77 4e 79 be 30 82 b2 3c
       -0.06899061 0.11317214 -0.24346338 0.021790594
000090 fd e8 1c 3e 8e 98 91 be 59 00 24 be fb 62 b6 be
       0.15323253 -0.28436702 -0.16015758 -0.3562239
0000a0 3c 2c fb bd 8a e4 6e be 9e 7f 1a bd 1b 17 ac bd
       -0.122642964 -0.23329368 -0.03771936 -0.084028445
0000b0 22 cb 7b bd 05 41 cb 3d cc 2a ec 3d d1 0f 58 be
       -0.06147302 0.09924511 0.115316 -0.21099783
0000c0 cc 79 43 be 0a 2b b1 3b 5d 26 bb 3d 9b d3 f5 bd
       -0.1908943 0.005406742 0.091381766 -0.12003251
0000d0 1c 4e 09 be 89 46 35 be d5 19 39 bd f2 02 4c 3c
       -0.13408703 -0.17702688 -0.04519065 0.012451874
0000e0 fc 9c a3 3e fe 84 26 3d f0 39 34 3d d8 01 d3 be
       0.31955707 0.040654175 0.044000566 -0.41212344
0000f0 4f cf b1 be 16 6a d3 3d 53 c2 38 be 3d fe 28 be
       -0.34728476 0.10322969 -0.18042879 -0.16503234

actor.2.weight f4 [64, 64]
000000 4a ab f7 3c 23 bd 06 3c 9d 47 03 3d c7 93 91 3d
       0.030233044 0.008223805 0.032050718 0.071082644
000010 a6 6c 47 3d 9e ed 33 3d 4e 79 22 3d 43 40 c0 3d
       0.0486876 0.04392778 0.039666466 0.09387257
000020 c8 77 00 be f8 11 e0 3c 17 5e 55 3d 1b 46 be bc
       -0.12545693 0.027352318 0.052091684 -0.023226788
000030 81 f9 8c 3d f3 cd e3 bd 56 8f 97 3e 99 ba 89 be
       0.068835266 -0.11123266 0.29601544 -0.26900175
000040 fa db 0f be 64 d0 47 3e 1b 54 97 3b b0 32 5f 3c
       -0.14048758 0.19513088 0.0046181805 0.013622925
000050 3d d4 98 3d ec f2 f7 bd cd 06 74 be a2 39 0d 3d
       0.07462356 -0.121068805 -0.2383072 0.03447879
000060 9e 04 f5 3d c1 de 78 3c 3a de 53 3d 78 61 cd 3d
       0.11963771 0.015189827 0.051725604 0.10028356
000070 54 1a 20 3e 04 99 73 bd 25 73 69 3d e3 8c 2e 3e
       0.15635043 -0.0594721 0.056994576 0.17045932
000080 70 bd 26 3e 83 c5 03 3e 05 c5 c4 bd 5d f4 8c 3d
       0.16283202 0.12868313 -0.09607891 0.06882546
000090 29 17 06 be 04 b7 98 3c 0f 53 ae 3e f7 a9 87 3d
       -0.13094772 0.018641956 0.34047744 0.06624215
0000a0 d0 77 a4 3c ae b0 80 bd c5 7d cf bd 7f 5e 4b bd
       0.020076662 -0.06283699 -0.101314105 -0.049650665
0000b0 56 d4 b3 3d fc aa 24 be b9 7f 00 3e 46 ed 1c 3e
       0.08780734 -0.1608085 0.12548722 0.15324888
0000c0 eb fe 39 bd 41 99 8c bb d4 0c 92 3c d8 62 0c be
       -0.045409124 -0.00429073 0.017828383 -0.13709581
0000d0 57 32 d1 3d bb 3c 0d be 9f 12 3a 3d 48 ca 44 3e
       0.1021468 -0.13792698 0.045427915 0.19217789
0000e0 e9 84 03 bd 02 f4 51 3d 22 1c f5 bd 7d 30 f1 3c
       -0.032109175 0.051258095 -0.119682565 0.029442066
0000f0 7b 43 06 3d 90 5f 38 3e 0e b5 0b be 0d be a0 bd
       0.0327792 0.18005204 -0.13643286 -0.07848749
000100 d0 60 a4 be d8 14 68 be 3e eb 21 3d c3 36 a5 bd
       -0.32105112 -0.22664201 0.039530985 -0.080670856
000110 19 66 65 3d 27 04 88 3e de 21 5d 3d 50 a1 2d be
       0.05600557 0.26565668 0.053987376 -0.16956067
000120 30 dd ab bd 66 97 df be 0e 5e f1 3c 4e 51 87 bd
       -0.083917975 -0.43670195 0.029463794 -0.066073045
000130 04 92 6d bd ed 25 73 3c fb f3 aa be 37 cc 55 be
       -0.05800058 0.014840585 -0.33389267 -0.20878683
000140 92 e5 60 3d 93 55 4c 3e ae f8 9a 3e ce 61 41 3d
       0.054906435 0.19954519 0.30267853 0.047212414
000150 60 22 a3 3d 8f 90 1f 3c 79 d4 14 3e 4d e6 f8 3d
       0.07965541 0.009739055 0.14534177 0.121533014
000160 f3 51 22 bc c9 fc a2 3d 1a ee a0 be 7b a2 a3 3c
       -0.0099072335 0.07958371 -0.31431657 0.019974938
000170 b9 17 2e 3d 19 3e d3 3d e6 de e5 bd 7b 29 aa 3d
       0.042503092 0.103145786 -0.11224155 0.08308693
000180 e9 7f dc 3d 7a 7b 04 be a1 81 66 3d d4 a8 c2 3c
       0.107665844 -0.12937728 0.056275968 0.023762144
000190 49 47 57 be 38 a0 ba 3e 07 c3 af 3d 00 96 fa 3d
       -0.21023287 0.36450362 0.085821204 0.122356415
0001a0 41 dd 29 3e 93 cb 1a 3e 15 ca 7f 3d f7 ae 53 3e
       0.16588308 0.1511672 0.06244858 0.20672213
0001b0 59 e9 e6 be c8 17 8f bd 54 08 16 bf a5 bd 60 bc
       -0.45099905 -0.06986958 -0.5860646 -0.01371709
0001c0 59 5f 54 3e ca ca c3 bc 7f cc 0e 3e 1d 59 86 b9
       0.20739497 -0.023900408 0.13945197 -0.00025624866
0001d0 3a 55 21 3d 68 2c 41 3d 17 d0 b8 bc b1 d5 9e be
       0.03938792 0.04716149 -0.022560162 -0.3102241
0001e0 0c 2d 40 3e d3 8c ac 3c 33 09 d4 bd c9 01 56 3d
       0.18767184 0.021063244 -0.10353317 0.052247796
0001f0 d8 76 a4 bd d8 72 83 3e 18 1a f6 be 4e 43 50 3e
       -0.0803048 0.25673556 -0.48066783 0.20338175
000200 bf 21 01 bc 09 67 f0 bc 3f 36 49 bd 2c 4e 2d 3e
       -0.007881581 -0.029346006 -0.049124 0.16924351
000210 83 ff 65 3d ed 23 17 3c fe a9 b1 3d 16 c4 7e be
       0.056151878 0.009224874 0.086750016 -0.24879488
000220 cd 21 e3 3c 88 2e 00 3e ef 45 80 be c7 38 f6 3d
       0.027726078 0.1251775 -0.25053355 0.12022548
000230 7c 38 b6 bb d6 a5 d4 bc 72 9d cf 3d ff 07 9b 3c
       -0.0055609327 -0.025957983 0.10137452 0.018924711
000240 8f 0b ef bb 5d 0e 33 bd 95 bc 37 bd 60 fa 55 3e
       -0.007295079 -0.04371487 -0.04485758 0.20896292
000250 7d 1d dd bb 17 23 1a be 04 0d 36 3c 1e 2a 4a be
       -0.0067479 -0.15052448 0.011111502 -0.19742629
000260 87 73 4a bd e9 3d a2 bd 0f cd c1 bc 0b 4f 36 bf
       -0.04942658 -0.07921965 -0.02365735 -0.7121436
000270 f3 86 79 3d 17 af 48 bb 2c fa b9 be ec 92 1c 3b
       0.060919713 -0.003062194 -0.36323678 0.0023891283
000280 d5 25 4a be 77 e1 cd 3c 75 6a 1f 3e 56 71 9c bc
       -0.19740994 0.025131924 0.15567954 -0.019097012
000290 f4 4b 1b bb 77 93 aa bc d9 c8 af bd 64 10 24 3c
       -0.0023696395 -0.02082227 -0.085832305 0.010013673
0002a0 5f d7 7b bd a9 43 47 3d ee c8 44 bd b9 a9 37 3c
       -0.06148469 0.04864851 -0.048043184 0.011209899
0002b0 ea 98 d9 bd 6f 63 63 be 92 a3 8e be e4 c0 6f be
       -0.10624869 -0.222059 -0.2785917 -0.23413426
0002c0 fb b4 04 3d 43 aa d9 bd 75 77 24 3e c4 fd 8e be
       0.03239916 -0.10628178 0.16061194 -0.27927983
0002d0 70 ab e0 bc c8 fe 30 bc 25 83 97 bd d3 17 f8 bd
       -0.027425498 -0.010802932 -0.07398061 -0.12113919
0002e0 2d f7 2d 3e 99 1d a3 3d de f6 fe bb eb 9b 5f be
       0.16988821 0.0796463 -0.0077808937 -0.21836822
0002f0 dc ce 76 bc c0 1a bd 3c f3 49 8a be f2 4e c3 3c
       -0.015063968 0.023084044 -0.27009544 0.023841355
000300 e8 54 08 3c b8 1f 9b 3b f7 16 8a bd 76 86 97 3d
       0.0083210245 0.004734006 -0.067426614 0.07398693
000310 df 8a 28 3d 35 eb 46 3e 62 51 86 3c 97 02 6d bd
       0.041148063 0.19425662 0.016396228 -0.057863798
000320 d3 78 84 3c 0a 33 4b 3d 66 52 c5 3d 50 cf 89 bd
       0.016170895 0.04960922 0.09634857 -0.06728995
000330 94 5f 31 bc 08 08 e6 bd 8e 49 27 3e 14 e5 21 be
       -0.01082601 -0.112320006 0.16336653 -0.15810043
000340 0f e4 17 bd ac ff 83 bc f2 87 73 3d e2 a1 a3 3c
       -0.037082728 -0.016113125 0.05945582 0.019974653
000350 5b fe ef bd d2 1e fe bd 10 a9 39 3d 11 bf a2 bd
       -0.11718436 -0.12408222 0.045327246 -0.07946599
000360 72 2a a7 3d dd 92 23 3d 5d de 06 3e 74 df cf 3d
       0.08162393 0.03993498 0.13170762 0.10150042
000370 c9 56 98 39 03 44 02 3d 2e 23 3c be fa 68 3e bd
       0.0002905636 0.031803142 -0.18372795 -0.046486832
000380 a4 97 1c 3e c5 0f 1e bc b2 cd 18 bd 28 f7 05 3e
       0.15292221 -0.009647314 -0.03730554 0.13082564
000390 e3 77 26 be 05 92 d5 3d 40 2c a6 3e f7 09 76 3d
       -0.1625667 0.10428242 0.32455635 0.060068097
0003a0 0a a1 84 bd c7 ed 08 be 5f 4b a0 3d 2e 06 91 3d
       -0.06476028 -0.13371955 0.07826876 0.07081257
0003b0 87 08 32 3e ad 45 96 3d 56 0c d1 3c 8a 16 40 3e
       0.17386065 0.07337508 0.025518578 0.18758598
0003c0 b6 fc b4 3c f4 c0 fe bc 20 96 bb bd 50 1b 16 3e
       0.022093158 -0.031097867 -0.091594934 0.14658856
0003d0 c0 14 b5 bc 44 59 18 3e 62 2a a0 bd 02 6f 45 3e
       -0.022104621 0.14877802 -0.07820584 0.19280627
0003e0 ac dc 7b be 3d fc 02 be 18 78 1b 3e 8d a0 0e bd
       -0.24595898 -0.12791534 0.15182531 -0.034821082
0003f0 53 5a e7 3d 18 4e d3 3d 42 08 af bc 7f 74 3c bd
       0.11296525 0.103176296 -0.021366242 -0.046009537

actor.2.bias f4 [64]
000000 fe 28 ee bd f1 af 3a 3d 30 f8 8d 3d 56 78 02 3e
       -0.116289124 0.045577947 0.06932104 0.12741217
000010 75 89 eb 3b 0b 8f be 3c 7b ec 53 bd 6b e3 7e 3e
       0.007188017 0.023261568 -0.051739197 0.2489144
000020 a7 88 b1 bd 47 51 d9 bd cd 4f ae 3e 8b d0 c4 bd
       -0.086686425 -0.106112055 0.34045258 -0.09610089
000030 b5 1a 3b 3d 99 59 7f be 44 aa 2f 3d 60 be 81 3e
       0.045679767 -0.24936523 0.042886987 0.25340557
000040 91 16 06 bc 8c 7e 95 be f4 fc d7 bc 28 8a 20 be
       -0.008184091 -0.2919811 -0.026365735 -0.15677702
000050 fc 38 87 3d 13 bf 89 bd 34 17 2c be fb 36 01 bd
       0.06602666 -0.06725898 -0.16805726 -0.031546574
000060 95 2c 9b 3c 1d 7b 8a 3e 01 19 a8 3d 33 c3 01 3e
       0.018942157 0.27047053 0.08207894 0.12672119
000070 e7 28 0c bd 35 e2 0c be 9d a8 e5 3d 4b 9a 93 3d
       -0.034218695 -0.13758166 0.11213801 0.072071634
000080 b4 21 8f be c4 a5 06 be 8b fc a4 bd c1 12 62 be
       -0.279554 -0.13149172 -0.08055981 -0.22077467
000090 73 93 91 bd e3 ce 02 be f2 75 0b bd fc 2f e1 3c
       -0.07108202 -0.12774234 -0.03404803 0.027488701
0000a0 f2 18 ec 3d 18 92 93 be 3b d5 e4 bb 54 14 94 3c
       0.115281954 -0.28822398 -0.006983427 0.0180761
0000b0 89 7e bc bd 65 89 20 be 0e 76 0c be 75 15 0f be
       -0.09203822 -0.15677412 -0.1371691 -0.13973029
0000c0 05 08 8e 3d 03 46 af 3e 07 85 9e bd df ab 24 be
       0.06935123 0.34233102 -0.07740217 -0.16081189
0000d0 30 c8 50 3e 98 b8 37 3d 75 01 c8 3d f3 81 96 be
       0.20388865 0.044853777 0.09765903 -0.29396018
0000e0 1b 2c 15 3e 45 bc a2 3d 2d 0f 3c bd 7f 2e d1 bd
       0.14567606 0.07946066 -0.04591291 -0.102139466
0000f0 3b c3 59 3b 70 87 1e bd 2c b1 3a be 3b 12 52 3e
       0.0033227939 -0.038703382 -0.18231648 0.20514767

actor.4.weight f4 [6, 64]
000000 1b 62 32 be fd d8 d9 bd a9 bf 6b 3c 45 04 38 be
       -0.17420237 -0.1063709 0.014388957 -0.17970379
000010 e1 d4 90 bd 51 29 45 3d e8 db c0 bd 67 b4 4c 3d
       -0.070718534 0.048135106 -0.09416944 0.049976733
000020 51 2f a6 3d 78 e3 dd bd b7 1a a7 bc bb c1 25 3d
       0.08114494 -0.10834402 -0.02039848 0.04046796
000030 b8 0a a2 3d ae 0e 68 3d 31 b1 81 bd be 3c 16 bd
       0.07912201 0.056654625 -0.06332625 -0.036679022
000040 45 7e 1d 3e 4c 7a 3c 3e 42 cf 47 3d 02 90 f6 3d
       0.15380199 0.18406028 0.04878164 0.12039186
000050 4b a9 9a 3b 89 b1 0a be f6 e8 8e 3d 8b 85 10 3e
       0.0047198883 -0.13544287 0.069780275 0.14113443
000060 1a 13 18 3e 99 4b be bc ad 7e af 3d 0d 63 95 bd
       0.14851037 -0.023229407 0.08569083 -0.07294283
000070 0d 8e c9 bc e6 88 4c be 62 1b 11 3c 33 b8 fc bc
       -0.024603868 -0.19974098 0.008856626 -0.030849552
000080 e9 7e 38 3d f6 bf 1f 3e 02 33 19 bd b2 41 87 3d
       0.045042906 0.15600571 -0.03740216 0.06604327
000090 72 a8 8b bd 50 43 80 ba ae 3d 7a be f9 36 52 3e
       -0.06819238 -0.0009785686 -0.24437591 0.20528783
0000a0 a5 f8 e2 3d a9 cc 96 3d 33 e4 08 3d ec 12 89 bd
       0.110825814 0.073632546 0.033420753 -0.06693062
0000b0 97 67 8b 3e 9e 00 c1 3d 1a ac 2d bd 3f 98 15 3d
       0.2722747 0.09423946 -0.042400457 0.036522146
0000c0 71 f4 52 3d ff 57 08 bc 40 4a d2 bd f6 9a 40 3d
       0.05150265 -0.008321761 -0.10268068 0.047022782
0000d0 f7 f0 18 be 60 17 93 bd 59 8b 76 be eb e0 b9 bc
       -0.14935671 -0.07182193 -0.24076594 -0.022690257
0000e0 71 42 a6 3d df 91 16 be 63 c8 ff 3c 4a 41 46 bd
       0.081181414 -0.14704083 0.031223482 -0.04840211
0000f0 7f e2 78 bd 75 f4 46 3c e6 e1 82 3e 9b 03 02 be
       -0.06076288 0.012143244 0.25562972 -0.12696688
000100 d2 99 56 3d ad 7e 04 3e 02 ae 79 be 55 83 9b bd
       0.05239279 0.12938948 -0.24382785 -0.07593409
000110 3e d1 d6 3c 28 30 86 bd 5c 10 d0 3d a9 d5 7a bc
       0.026222821 -0.06552154 0.1015937 -0.01530973
000120 01 84 19 3e 52 7b 80 bd 76 18 c1 3d bf 18 d4 3c
       0.14991762 -0.062735215 0.09428494 0.025890706
000130 fc d5 27 be 1f 65 bf bc 23 17 73 3d ce c2 bc bc
       -0.16390222 -0.023363648 0.059348237 -0.023042109
000140 c5 d0 b8 3d b9 9c a6 bc 7e 0f 8c 3d ca df 99 bd
       0.09024195 -0.020338403 0.068388924 -0.075133875
000150 fc a1 61 bd fd 91 16 3e ad ea 77 bd 59 c6 1b be
       -0.05508612 0.14704128 -0.06052654 -0.15212382
000160 54 c2 46 3c a7 50 ac 3c 33 13 9f 3d c9 d6 9e bc
       0.012131292 0.021034552 0.07767334 -0.019389527
000170 13 fc 03 be 69 15 68 bd c3 69 1c be 2b 55 ae 3b
       -0.12889127 -0.056661043 -0.1527472 0.0053202114
000180 3f 60 19 3d c2 77 fb bb 58 5e e8 3d f3 9c 57 3b
       0.037445303 -0.0076741884 0.1134612 0.0032899946
000190 80 5e 2a bd 3c a2 92 bd 60 ff bf bd d5 88 a8 3d
       -0.04159403 -0.0715985 -0.09374881 0.08229224
0001a0 3f 79 3e 3e 91 8a a8 bd 99 73 8b be 18 f5 be 3c
       0.18600939 -0.082295544 -0.27236632 0.02331023
0001b0 42 20 b1 3d b9 6d b9 3d 0d 76 85 3d 58 26 a1 bc
       0.08648731 0.09054131 0.06516657 -0.019671604
0001c0 b8 bd 0e 3e 35 64 25 3c ee 85 23 3d 23 5d 16 3e
       0.1393956 0.010094692 0.039922647 0.14683966
0001d0 42 1a 71 3d 1e 0a bd 3c 15 c0 f7 3c 7e 75 dc bc
       0.058862932 0.023076113 0.030242959 -0.026911493
0001e0 75 b6 73 bd c1 da 9b 3d b4 5e a1 bd 47 57 08 be
       -0.059500176 0.07610083 -0.07879391 -0.13314544
0001f0 e9 23 a2 3d 7b ee 1b 3d ea 3e d2 bc b5 fd d1 3c
       0.079170056 0.03806923 -0.025664765 0.025633672
000200 c5 9e 14 bc 49 f1 8c 3d ab 60 85 bd 26 61 4d 3d
       -0.009071057 0.06881959 -0.065125786 0.050141476
000210 2d 93 0c 3d ff 4c f7 3c f6 bb 88 bb 61 41 0a 3e
       0.034320045 0.030188082 -0.0041727973 0.13501503
000220 63 d7 84 be 78 ef a9 3d 0a d6 82 3d fa 21 81 be
       -0.25945577 0.08297628 0.06388481 -0.25221235
000230 8c 78 04 be 91 9a 53 be 88 4f 3c ba b7 aa b6 3d
       -0.1293661 -0.20664431 -0.0007183482 0.0891928
000240 1b d2 79 bd 0f 0a 26 be 71 3b b0 3d 93 9f 35 be
       -0.060991388 -0.16214775 0.086050875 -0.17736654
000250 df f2 96 3d 89 0c b6 bd 21 a0 10 be e1 d6 a6 bd
       0.07370543 -0.0888911 -0.14123584 -0.08146454
000260 d2 e4 fa bd eb 55 01 3e 7a 71 9e 3d d3 98 62 3d
       -0.12250675 0.12630431 0.07736488 0.055321526
000270 66 27 84 be 8d b3 ab bd 3c 33 c9 3d c9 8f c4 3d
       -0.2581131 -0.08383856 0.09824225 0.09597737
000280 f7 9e b2 bb b4 83 47 be 17 80 a3 3b 7b 6b 2b be
       -0.005451079 -0.19483835 0.0049896347 -0.1674022
000290 ce f6 4d bd a8 e1 3d 3c fc 30 83 bd 34 cc a4 bd
       -0.0502842 0.011589445 -0.064058274 -0.08046761
0002a0 ef 65 37 3c 70 24 47 be ee fb 4f bc 3b 25 c3 3d
       0.011193736 -0.19447494 -0.012694342 0.095285855
0002b0 c9 4e 3f 3c 14 78 53 bd 79 65 85 bd 65 1d 88 bd
       0.011676499 -0.051628187 -0.06513495 -0.066462316
0002c0 2f f7 0a 3e 16 fd e6 3d 3b 60 dc bd 72 3e f1 bd
       0.13570856 0.11278741 -0.10760542 -0.117794886
0002d0 b9 80 f3 3d 9d c8 be 3d e4 09 0a 3c f5 49 40 be
       0.11889786 0.09315608 0.00842521 -0.18778212
0002e0 ca 93 00 3e 70 c3 bc 3d fe 2c 77 3c eb 35 64 bd
       0.12556377 0.09216964 0.015086411 -0.055715483
0002f0 71 d4 11 bd c6 a7 51 3d ce 49 4c be 10 77 43 3d
       -0.03560299 0.05118539 -0.19950029 0.04772097
000300 41 79 b1 bd 29 b5 61 3e e5 53 e3 bd 46 05 42 ba
       -0.086657055 0.22041763 -0.11099986 -0.00074012985
000310 84 e3 d4 bc 74 2a 91 3d 20 c7 b8 bb 92 7a 65 bd
       -0.025987394 0.070881754 -0.005638972 -0.056025095
000320 41 d0 c5 3d d5 7c e8 bd 2f c0 f8 3d 75 2b 3f 3e
       0.09658862 -0.11351935 0.12146031 0.18668921
000330 2b bb 7f 3d c6 45 44 be 71 83 a6 3c 40 e7 ba 3d
       0.062434357 -0.19167241 0.020326348 0.09126139
000340 c0 7e 2d bd 88 15 0f be 83 03 0d be 2b 30 2d be
       -0.042357206 -0.13973057 -0.13770871 -0.16912906
000350 41 0e 00 be 11 b1 0c 3d 36 ba 85 bd 98 46 1e be
       -0.12505437 0.03434855 -0.065296575 -0.15456617
000360 ee e8 50 be f1 fe f1 bc 9a b0 a8 bd 48 58 bc 3d
       -0.20401356 -0.02954051 -0.08236809 0.09196526
000370 a3 e4 60 3d 80 c5 a7 3d 8e a7 54 3d 39 aa c8 bc
       0.054905545 0.08191967 0.051917605 -0.024495231
000380 ff 47 0d be bb 02 08 bc 4d 3c e3 bd 23 94 2a 3e
       -0.13796996 -0.008301432 -0.11095486 0.16658072
000390 33 5d 5e bd b8 59 b1 bc 27 e4 2d bd e9 9e cc 3e
       -0.0542881 -0.021649227 -0.04245391 0.3996499
0003a0 fc 88 ae 3d 8c 21 c8 bb 9b c8 3e 3e 40 5f 64 be
       0.085222214 -0.0061075147 0.18631212 -0.2230196
0003b0 44 03 93 3d 17 57 1c be f6 6d 80 be e4 b2 a4 3e
       0.07178357 -0.15267597 -0.25083894 0.32167733
0003c0 80 13 9e bc 6f 28 c6 3d e7 13 f0 3c 04 97 94 be
       -0.019296408 0.09675681 0.029306365 -0.29021466
0003d0 a3 45 2a bd c0 b4 41 3d 2a 1d 16 3d 74 a3 05 be
       -0.041570317 0.047291517 0.036648907 -0.13050634
0003e0 f2 73 3f 3e 0b a9 ec bc 68 c4 8f bd ab 75 e7 bd
       0.18696573 -0.0288892 -0.070198834 -0.1130174
0003f0 a6 c6 25 bc f2 e9 c9 bd 30 bb b2 bd a8 77 17 bd
       -0.010118162 -0.09859075 -0.087271094 -0.036979347

actor.4.bias f4 [6]
000000 90 23 1d be d3 f6 ba 3c 0b ab e4 3d a0 d3 47 3e
       -0.15345597 0.022822773 0.11165436 0.19514322
000010 12 15 98 3d 36 85 a5 3d
       0.07425894 0.080820486

critic.0.weight f4 [64, 43]
000000 dc 4d e8 3e a0 ba 6b bf c9 f7 4b bf 33 03 2e be
       0.45371902 -0.9208164 -0.79674965 -0.16993408
000010 de 72 d5 3d dd a4 cf 3e eb 96 51 be 08 d9 ea bd
       0.104223 0.40555468 -0.20467727 -0.11467177
000020 01 30 2d bd f8 de 56 bc 30 7e 12 bd 06 f1 a8 bc
       -0.04228211 -0.013114683 -0.035764873 -0.020622741
000030 9b 85 40 3e cb c0 03 3d a2 c2 9d be 75 a9 8c 3d
       0.18800966 0.032166284 -0.30812556 0.06868259
000040 46 11 aa bd d9 89 b3 3d fc 6a 21 bb ae bc ae bb
       -0.08304076 0.08766527 -0.0024630418 -0.005332551
000050 bf 4e 92 3e 09 44 c1 3e 56 78 cd bd 1b 5a 6f 3a
       0.28575704 0.3774722 -0.10032718 0.0009130553
000060 8b f5 3d bf c3 b0 8c be 93 89 06 bf 66 07 11 bf
       -0.74202794 -0.27478608 -0.5255367 -0.56651914
000070 1b 9f d7 bd bc 45 fc be c6 ca 8e 3f 0c 26 2f bc
       -0.10528394 -0.49271953 1.1155632 -0.010690223
000080 62 d0 f4 be 02 b0 37 bd ac 04 df 3c 3a e0 d5 be
       -0.47815233 -0.04484559 0.027223907 -0.41772634
000090 84 d9 4d bf 83 2c 6b 3f 04 bc 43 3d cd 5c 11 bf
       -0.8041003 0.91864794 0.047786728 -0.5678223
0000a0 6e d9 17 bf e5 27 10 bd d5 c2 bd bb 6f ff 8f 3e
       -0.59316146 -0.035194296 -0.005791048 0.28124568
0000b0 cf 00 30 bf 08 80 f9 be 51 47 02 be b9 ea 2b 3d
       -0.68751234 -0.48730493 -0.12722518 0.041971896
0000c0 2b 8f 90 3d 91 57 f0 ba c7 c7 61 3e 1e 32 00 3e
       0.07058557 -0.0018336644 0.22048865 0.12519118
0000d0 66 a7 c6 3c 8a ee 27 bd 73 40 0a bc 5c 38 59 bd
       0.024249744 -0.040998973 -0.008438217 -0.053032264
0000e0 84 ea d1 be c7 21 c4 be 75 a8 88 bd af 15 ef 3d
       -0.40999234 -0.3830702 -0.06672756 0.11674058
0000f0 47 a0 a4 3c 83 b0 91 3c 8e 76 6c ba b9 28 35 3f
       0.020095957 0.017784363 -0.00090203516 0.7076526
000100 56 ed 6e 3e 7b ab ac be 3b db 5d bf e5 35 03 bf
       0.23332724 -0.3372458 -0.86662644 -0.5125411
000110 f7 15 a3 3e 06 35 b4 be 35 e9 c1 be 74 a3 85 be
       0.31852695 -0.35196704 -0.37873235 -0.26101267
000120 fa 53 f2 be 45 5d 07 40 f3 06 a3 3e 98 4e 31 3d
       -0.47329694 2.1150677 0.3184124 0.043287843
000130 19 dd 8f be 08 b4 1b 3f 5a 31 34 3e 95 c7 34 bd
       -0.28098372 0.6082158 0.17596951 -0.04413565
000140 79 2f 04 40 9d 94 2f 3e 84 42 02 be 97 25 b2 be
       2.0653975 0.17146535 -0.12720686 -0.34794304
000150 73 b2 5f 3e ca 17 33 be 29 ca 10 3f 82 4f c1 be
       0.21845417 -0.17489544 0.5655847 -0.37755972
000160 1c 07 1b be 33 57 21 3d e8 6b aa bd d3 0e ab 3e
       -0.15139431 0.0393898 -0.08321363 0.33409747
000170 02 1f 71 bd 57 5b 84 3c d2 5e e8 3a 93 8c a9 3c
       -0.058867462 0.016156835 0.0017728454 0.020696914
000180 9e ac 38 3d ec 7c fb 3b f7 a3 3b 3e c6 d4 d9 3d
       0.045086496 0.007674804 0.18324266 0.106362864
000190 46 aa 38 bc df 2b 65 bd b4 88 47 be 3f 6e 13 bd
       -0.011271065 -0.05595004 -0.19485742 -0.03599381
0001a0 1c d9 06 bc 1c 64 b3 3a b7 f5 8b bc a4 c0 fe 3f
       -0.008230474 0.0013686451 -0.01708494 1.9902539
0001b0 20 6f f4 3e 91 a6 82 3e ed a0 f8 3c a7 89 07 be
       0.47741032 0.25517705 0.030350173 -0.13236104
0001c0 2e de 1a 3e 73 64 ae 3e e3 fc 2f 3f 3f 0c 8a bc
       0.15123817 0.34061012 0.6874525 -0.016851543
0001d0 6d 17 05 c0 ac 56 1d 40 69 6a 8b bf f0 c2 8c be
       -2.0795548 2.458415 -1.0891849 -0.27492476
0001e0 b8 34 c8 be 41 be 8f 3c 34 69 7d 3e 3a d5 02 c0
       -0.3910272 0.017546775 0.24747163 -2.0442643
0001f0 63 6b 1d 40 9a 03 9a bf 71 ba 6b 3e 8e 40 cb 3c
       2.4596794 -1.2032349 0.2302034 0.024811056
000200 bf 1a 97 3d 15 3c 31 3e 85 80 5f be 5e 04 df bd
       0.07378148 0.17308076 -0.2182637 -0.10889505
000210 6b 2f 15 3e e3 80 67 3d 26 cd c2 bb 73 35 b6 3d
       0.1456887 0.0565194 -0.0059448658 0.088969134
000220 68 8d 86 3b 5b f7 eb 3d c2 ee a5 bc e4 4f 3f bd
       0.0041062124 0.11521789 -0.02025545 -0.04670705
000230 bc 6f 78 3c 5d b7 5e bd 7c f6 61 bd 1d f9 31 3d
       0.015163358 -0.054374088 -0.055166706 0.043450464
000240 ee b2 12 3e e0 6f 3f 3e ef f2 2a bd bd 33 e2 3b
       0.14326069 0.1869502 -0.041735586 0.0069031403
000250 b4 bd 75 ba d4 b7 89 bf 1e 0a 2a 40 e9 a8 b1 3f
       -0.0009374276 -1.0759225 2.6568675 1.3879672
000260 02 60 31 3f 43 d0 8c bf 6b 18 eb 3e 0d 26 70 3e
       0.6928712 -1.1001056 0.45917067 0.23452015
000270 53 ac 19 be 1d 4f ac 3f d5 bc 3b 3e 21 ed 23 3e
       -0.15007143 1.3461643 0.18333752 0.16008426
000280 a0 0c 1d bf 86 b1 78 3b 61 38 ca bc a6 5e b9 be
       -0.6134739 0.003794761 -0.024685087 -0.36205024
000290 52 48 c2 3d 00 88 75 3d 01 03 67 3d 10 a1 10 bf
       0.0948645 0.059944153 0.05639935 -0.5649576
0002a0 84 41 2d be 0a de 1f 3f 4c cc 51 be 02 24 73 be
       -0.16919523 0.6244818 -0.2048809 -0.23744205
0002b0 cd 0b 23 3f 3e f6 1a 3d 38 74 df 3d bf c8 0b 3e
       0.6368988 0.03783249 0.10910839 0.13650797
0002c0 cc 98 24 3e 5d 3c 86 bc 16 60 1c bd 03 e4 3d bc
       0.16073912 -0.016386205 -0.038177572 -0.011590007
0002d0 26 d5 eb bc d2 6b 17 3d e4 80 12 bd 68 bc 76 bb
       -0.02878816 0.03696806 -0.03576745 -0.003764892
0002e0 48 cd 88 3e 25 96 8b 3d ed 0d 8b 3b 5d 91 3c be
       0.26719117 0.06815747 0.0042436034 -0.18414827
0002f0 c4 df 5e 3e f2 ba 2c 3c 7d 8b 68 bc 12 45 5d 3b
       0.21765047 0.010542618 -0.014193413 0.0033763093
000300 3f c5 04 bf 69 55 e6 bf bc 98 1b c0 5b 5b 2e 3f
       -0.51863474 -1.7994815 -2.4311972 0.6810815
000310 19 f7 82 3f d6 79 b9 3f 2a a3 e9 3d 34 3c 37 3e
       1.0231658 1.4490306 0.11408074 0.1789406
000320 eb a3 8c bf 4f b8 b7 bc 68 6e 21 bf 7e cf 99 3c
       -1.0987524 -0.022426752 -0.6305909 0.018775698
000330 b7 ed 6a bd 59 c9 9f bd 18 74 ca be ee dd 11 be
       -0.05735561 -0.07802076 -0.39541698 -0.14244816
000340 e9 30 65 3e 5b 41 f6 be 5c 03 8e bd b9 52 bd bd
       0.22381939 -0.48096737 -0.069342345 -0.09244294
000350 4b 4e d3 bd 38 2b 1e bd e0 72 cf bd d0 1e 91 3c
       -0.103176676 -0.038615435 -0.101293325 0.017714888
000360 ee 5e ba 3c ad af da bc 91 21 2c bd 46 28 3e 3d
       0.022750344 -0.026695097 -0.0420242 0.046425126
000370 c5 0c 14 bd cd 94 56 3d cb 92 36 bd b2 28 fc bc
       -0.03614499 0.052388 -0.044573586 -0.030781124
000380 86 36 34 3b 4a aa 54 3c 21 8e 9f 3a 0f 6f ba bd
       0.0027498319 0.012980053 0.0012173095 -0.09103214
000390 80 31 7a 3d 26 c1 1a 3d f9 13 8f bd 9e 91 58 bd
       0.061082363 0.037781857 -0.06986231 -0.052873246
0003a0 0e 22 83 bb be 09 93 bb 6f e6 87 3a cb 97 80 3d
       -0.0040018624 -0.0044872453 0.0010368357 0.06278952
0003b0 9e 7e 11 40 62 98 0b c0 21 ed 90 bf e4 cd af bf
       2.273353 -2.1811757 -1.1322366 -1.3734708
0003c0 01 71 0a 40 fa 43 62 3e a8 1a a3 be 0f 47 c7 bf
       2.1631472 0.22096244 -0.31856275 -1.556856
0003d0 e4 04 9a 3d 39 9b 3f be d5 b2 85 3e 01 a4 68 3f
       0.07520464 -0.18711556 0.26113 0.9087525
0003e0 61 a7 a0 3e a9 2a 2a 3d b4 b2 b8 3e a1 6b d9 bd
       0.313777 0.04154459 0.3607384 -0.10616232
0003f0 5b 24 b2 bd f1 c4 de 3e 3d 50 50 3f 99 e2 39 be
       -0.086983405 0.4350963 0.81372434 -0.18152846

critic.0.bias f4 [64]
000000 fc 85 df be 92 0b f3 be 59 e2 04 3e fa 1b c5 3e
       -0.4365691 -0.47469765 0.1297697 0.38497907
000010 d8 cb 0d 3d 74 60 b1 3d 20 5d b3 3d c4 d5 59 bd
       0.03461823 0.08660975 0.087579966 -0.05318238
000020 78 81 61 3e 06 0c c2 bc 0c f3 54 3e 6c f4 99 be
       0.22022045 -0.023687374 0.2079584 -0.30069292
000030 b2 70 12 bd 48 19 79 3d 1c d6 8f be 2f 8e 13 3f
       -0.035752006 0.060815126 -0.2809304 0.5763883
000040 db 84 92 be 2c d8 b0 be 11 28 b8 3e 78 95 21 bd
       -0.28616986 -0.34539926 0.35968068 -0.039449185
000050 d6 9c b5 be f4 0c 98 bd e0 4a de 3e 08 e4 dc bd
       -0.3547122 -0.074243456 0.434165 -0.10785681
000060 48 f1 3d 3c c8 d6 e8 3d 48 8c c7 be fa 22 12 3e
       0.01159317 0.11369091 -0.38974214 0.14271155
000070 7b f4 44 3e 08 10 17 3e 6f f2 e8 3e 57 12 42 be
       0.19233887 0.14752209 0.45497462 -0.18952309
000080 2b 5d 56 be e1 b9 60 3e 5b b9 ed 3c 1b f4 c1 be
       -0.20933978 0.21945907 0.029019048 -0.3788155
000090 a4 99 db be 77 a1 41 3e b2 8c a4 3d 1e 20 62 3e
       -0.42890656 0.1890925 0.08034648 0.22082564
0000a0 0f 71 f3 3e 0c 33 74 3e 3d 8b de 3c 84 80 12 3e
       0.47547194 0.23847598 0.027166003 0.14306837
0000b0 36 07 b7 3c 85 b9 a3 be b7 7a 69 be 1c 2f 67 3e
       0.022342306 -0.31977478 -0.22800718 0.22576565
0000c0 b5 04 06 3e 16 e6 ae be f8 56 13 be 1e 53 31 3e
       0.13087733 -0.34159917 -0.14388645 0.17316863
0000d0 c8 71 89 bd 09 6e 10 3e 0b e6 c6 3e a8 0c 3e 3e
       -0.06711155 0.14104475 0.38847384 0.18559515
0000e0 c4 a1 ab 3c 89 a8 d7 3d ae 2e cf be f1 00 23 be
       0.02095116 0.105301924 -0.404653 -0.15918328
0000f0 94 9f 64 bd bf 86 c1 be db 69 70 bd d8 40 2f be
       -0.055816248 -0.37798116 -0.0586947 -0.1711458

critic.2.weight f4 [64, 64]
000000 c0 28 8d 3c 40 63 fd 3d 56 ee 65 3d e7 2e 25 be
       0.017231345 0.12372446 0.056135498 -0.16131173
000010 b6 00 b4 bb e0 79 b1 bd 26 3a 35 3d c0 ea 5e bd
       -0.005493249 -0.08665824 0.044244908 -0.054423094
000020 2f 41 b9 be 77 69 0f 3d c7 7c 70 be f1 f5 b6 3c
       -0.36182544 0.03501269 -0.23485099 0.02233407
000030 c9 00 88 bd b8 81 a5 3d d6 82 55 3d b2 ad ff 3d
       -0.06640775 0.080813825 0.052126728 0.124843016
000040 17 c3 92 3e 04 88 24 bc 95 eb 29 bd c3 57 1c 3e
       0.28664467 -0.010042194 -0.041484434 0.15267853
000050 ed 10 43 3e c8 5f a0 3d 74 09 8a ba ba af 96 3d
       0.19049425 0.07830769 -0.0010531382 0.07357736
000060 1a 3a 69 be 01 0d 9d bd 2e 7f 79 3e e9 49 a9 bd
       -0.2277607 -0.07668496 0.24364921 -0.0826605
000070 c4 a8 84 bd fb 95 8a bc 36 ca a1 bd f0 48 0e bd
       -0.06477502 -0.01691722 -0.07899897 -0.034737527
000080 5a 61 b3 3b e1 1a 4c 3c 06 2b d0 3b 63 90 00 3e
       0.0054742517 0.01245758 0.006352785 0.12555079
000090 c3 ea da bc 10 2b 52 3e b2 0f 26 be 8a 8a 2d be
       -0.026723271 0.2052424 -0.16216925 -0.1694738
0000a0 f5 6c 99 3d 9d 91 80 bd 0c 02 12 3e ed 15 2a 3e
       0.07491485 -0.062777735 0.14258593 0.16609927
0000b0 96 e0 08 3b b3 6d 92 3c 9d 65 0c be 95 7a 32 be
       0.0020885817 0.017874574 -0.13710637 -0.17429574
0000c0 5c 00 c6 bd 77 fd d3 bb 74 08 13 3d 26 f8 05 be
       -0.09668037 -0.0064694243 0.035896733 -0.13082942
0000d0 47 74 58 be bd 5c af bb fe 04 15 3e 9d 56 40 be
       -0.21138106 -0.0053516314 0.14552686 -0.1878304
0000e0 c2 be 73 be 3b 04 2d bd cd 23 7d 3d 2d 41 29 bd
       -0.23803237 -0.042240363 0.06180172 -0.041321922
0000f0 aa 98 ae 3d 41 3d 16 bd cd 27 cf bd 2c c4 27 be
       0.08525212 -0.03667951 -0.10115013 -0.16383427
000100 43 c4 27 be 7c 52 46 be f0 39 a9 bd 66 3c b1 bd
       -0.16383462 -0.19367403 -0.08263004 -0.08654098
000110 45 96 72 be 9c 80 f0 bd a9 c0 30 3e d2 4c 0b ba
       -0.23690136 -0.1174328 0.17260994 -0.00053138763
000120 35 8e 65 3c 0a 53 96 3c 06 0d 8e 3c 5e 7a 05 be
       0.014010956 0.018350143 0.017340194 -0.1303496
000130 9b 02 a4 bd 42 e7 f7 3d 11 e9 06 be e2 f5 9f be
       -0.080083095 0.12104656 -0.13174845 -0.3124228
000140 7a 97 87 be 2a 5f 73 bd 7e b5 8a 3d 6c 9e ce 3e
       -0.26482755 -0.059416927 0.06772898 0.4035524
000150 a1 fd 19 be d2 5e 8c bd b5 f1 22 3d 88 f8 67 bd
       -0.15038158 -0.06854023 0.03978129 -0.056633502
000160 06 26 13 bd 1f 7d 0a be b9 9d 11 be 82 e1 68 3e
       -0.035924934 -0.13524292 -0.14220323 0.22742274
000170 9d 70 1d 3c 2a b9 49 3e 7c d1 12 3e 70 7a 8f bd
       0.009609369 0.1969954 0.14337724 -0.07005775
000180 c8 2c c0 bd b8 45 09 3e 2c 64 c4 bc 3d 5e 96 bd
       -0.09383541 0.13405502 -0.023973547 -0.07342193
000190 fb c4 a4 bd bf 2f 23 be 6c 43 0b 3e d8 a7 03 bd
       -0.080453835 -0.15936182 0.13599938 -0.03214249
0001a0 eb 58 18 be 05 d4 ea 3d 49 e7 1f bd 35 2e 0a be
       -0.1487767 0.11466221 -0.03903893 -0.13494189
0001b0 39 76 cd 3a 99 6f 21 3b fb 68 8c bd ed 8d 38 be
       0.0015675492 0.0024633168 -0.06855961 -0.1802289
0001c0 29 1d bf bd e3 8b 17 be 9b 0a e1 3d bb bc 47 3d
       -0.09331734 -0.14799456 0.10988351 0.04876397
0001d0 e4 12 31 3d 51 59 94 3d 21 fe 4a bb 01 4c 7a be
       0.043230906 0.07243598 -0.0030974227 -0.24443056
0001e0 4d 92 2c 3c d6 1a 02 3e ca 0c 40 3d bb 09 0a be
       0.010532928 0.1270555 0.046887197 -0.13480274
0001f0 09 e2 96 3d 66 94 78 be a2 a6 5e bd cf f4 f9 bc
       0.073673315 -0.2427536 -0.054358132 -0.030512242
000200 0f 82 6e be ae 42 86 be 40 67 a1 be a9 1c b3 bd
       -0.23291801 -0.26222748 -0.31524086 -0.08745701
000210 bc cc dc 3d 82 d1 8a be af 9a 9f bd d5 02 86 3d
       0.107812375 -0.27112967 -0.077931754 0.06543509
000220 cc c6 0b be 49 a6 e2 bd 06 fc 5b be 07 4c 19 3e
       -0.13650054 -0.110668726 -0.21482858 0.14970408
000230 c4 ee 89 bc 53 db 31 bd ee 3d 3c 3c 23 82 c0 b7
       -0.016837485 -0.043422054 0.011489375 -2.2948783e-05
000240 2e f8 7f 3d d1 88 b7 3d 09 2e 87 be a0 18 74 bd
       0.062492542 0.089616425 -0.2640231 -0.059593797
000250 79 e4 ea bc bd 39 ee 3d 31 0a 6d be 67 95 0b 3e
       -0.028673397 0.116321065 -0.23148419 0.13631211
000260 c3 f7 4e bc 73 71 b4 be af 50 47 3d b9 77 42 bb
       -0.012632313 -0.35242805 0.04866093 -0.002967341
000270 9f ee c5 bd 0a ae 89 be 37 2b 06 3e 65 df 33 3b
       -0.09664654 -0.26890594 0.13102423 0.0027446386
000280 82 95 0b 3d a2 2d 0c 3e 75 3c a2 bd 2b df 3a 3c
       0.03407813 0.13689283 -0.079216875 0.011405746
000290 1e a1 81 3d 3a f5 94 be 5c dc b0 bd b2 85 f1 bd
       0.06329559 -0.29093343 -0.0863578 -0.117930785
0002a0 96 15 40 be 76 06 b7 be c4 9c 23 bd 67 93 a2 bc
       -0.18758234 -0.35747117 -0.039944425 -0.019845678
0002b0 c3 25 1e be 8d aa 02 3d f7 0b f7 3d f6 76 12 be
       -0.15444092 0.03190093 0.12062829 -0.14303192
0002c0 b3 f8 d1 3d 59 85 4d 3d 20 1a 43 3d 02 85 1e be
       0.10252514 0.050176 0.047632337 -0.15480426
0002d0 ce bf c1 be a7 70 14 3e 52 df 94 be c3 72 5c bd
       -0.37841648 0.14496098 -0.2907663 -0.053820383
0002e0 22 8a 16 3e 22 54 e5 bd 0a 86 60 bd 7e 64 7f 3d
       0.14701131 -0.11197688 -0.05481533 0.062351696
0002f0 c7 ab df 3d 20 ec 65 3d 97 76 92 bd 4f 56 af bd
       0.10921436 0.05613339 -0.071515255 -0.08561384
000300 3d 9b 21 be 2a 78 27 be 84 3f 0f be 60 ef 32 bd
       -0.15781875 -0.16354433 -0.13989073 -0.043685317
000310 b6 65 8d bb c1 8f f6 bd 8d 16 3f be bc 93 76 be
       -0.0043151034 -0.12039138 -0.18660946 -0.24079794
000320 01 a7 7f be 70 03 ff bc ef 19 25 be c0 55 a6 3d
       -0.2496605 -0.031129569 -0.16123174 0.08121824
000330 cf 63 30 3e 65 53 64 be 72 3c d5 3c eb f0 75 3d
       0.17225574 -0.22297437 0.0260298 0.06004421
000340 bb 60 1b be 31 24 4b bc a2 24 4b be fb 13 8e 3d
       -0.15173618 -0.012398765 -0.19838193 0.06937405
000350 8c 38 2d 3e 40 97 67 be 94 70 ba ba 80 f2 fb bd
       0.16916102 -0.22616291 -0.0014224225 -0.123021126
000360 48 38 f1 3c 0e 13 9a be c3 5c a7 3e 2d 62 b5 bd
       0.029445782 -0.30092663 0.3268796 -0.08856616
000370 94 03 79 be 2d 29 6c be 74 ac 8b 3d f2 c0 82 be
       -0.24317771 -0.23062582 0.06820002 -0.2553783
000380 6a fb 20 bd 83 d1 b9 3d ba 49 1e be 44 d3 37 bd
       -0.039302267 0.09073164 -0.15457812 -0.044879213
000390 c0 3b b7 3c b0 eb 1a be 3a 30 39 bd cb c0 a1 3d
       0.022367358 -0.1512897 -0.045212008 0.078981005
0003a0 09 21 88 be b4 8c c4 be 7f 65 6a bd a7 a4 16 bd
       -0.26587704 -0.38388598 -0.0572257 -0.03677812
0003b0 07 9b e4 bd ae cc 4a 3d 0e 1b 01 bc 5f 14 dd bd
       -0.111623816 0.049511604 -0.0078799855 -0.10794901
0003c0 e2 c2 8d 3b 05 a8 fd bd 92 c1 24 bd 73 f9 14 be
       0.0043262104 -0.12385563 -0.040223666 -0.14548282
0003d0 c0 ec 48 bd 33 88 8b ba a2 a7 5f 3c 9f 4a 36 bf
       -0.049053907 -0.0010645449 0.013650807 -0.7120761
0003e0 c7 c6 3e 3e 5c 2b f6 be c1 db c2 3c b4 54 19 be
       0.18630515 -0.48079956 0.023786427 -0.14973718
0003f0 7c 21 87 be 25 ef f8 bc 9b ae 8a 3d d0 35 4f bd
       -0.26392734 -0.03038747 0.067715846 -0.05058843

critic.2.bias f4 [64]
000000 30 ae 18 3c 7a f6 26 bd f1 68 41 bd 27 c4 e5 3c
       0.009318873 -0.040762402 -0.04721922 0.028047634
000010 44 10 42 3e 27 5f 78 3a 13 6a f7 bd 58 a5 d3 3c
       0.18951517 0.0009474628 -0.12080779 0.025835678
000020 64 a0 14 bd b7 d0 8d 3e a6 16 4e 3d 2d 14 32 3e
       -0.036285773 0.276983 0.050314568 0.17390509
000030 4d 1c d2 bd a2 7a 87 bb 1f 50 2d 3e ea c2 5f bd
       -0.10259304 -0.004134492 0.16925095 -0.054629244
000040 e5 db 41 be 12 84 24 3d 1a f9 34 bd 18 bd db bb
       -0.1893154 0.040165015 -0.044182874 -0.0067058913
000050 9a 5c e1 bd ea 2d 8e bd 9d 1d 3c be 10 73 4a 3c
       -0.110039905 -0.06942351 -0.18370672 0.012356535
000060 51 fe a6 3d f3 92 e7 3d df 96 88 bd a6 8e 85 3e
       0.08153976 0.11307325 -0.066694014 0.26085395
000070 c6 36 fd bd dd 57 bc be d4 54 0a be 77 75 fd bd
       -0.12363963 -0.36785784 -0.13508922 -0.1237592
000080 09 e2 44 3d 4b 64 2c be 23 b5 b1 3d e9 d8 f5 bd
       0.048067126 -0.16835134 0.08677127 -0.12004263
000090 90 e2 f0 bc 5c 7b 59 3d ed 75 99 3d bc 8a 0e 3d
       -0.029404908 0.05309616 0.07493196 0.034800276
0000a0 e9 cd 66 3d 5c 91 15 3c 68 b7 d7 3d 4a 4c c5 3d
       0.056348715 0.009128895 0.10533029 0.096336916
0000b0 fc 1d 11 bd a5 53 61 bd a5 02 ef bd ea e2 59 3d
       -0.035428986 -0.05501141 -0.11670426 0.053194918
0000c0 33 5b ea bd ab ac 06 3e 7c 8d 51 be 63 c2 b3 bd
       -0.11443176 0.13151805 -0.20464128 -0.08777311
0000d0 df 83 ad bb 23 e8 5c bd f1 25 33 be ed 55 c0 bc
       -0.0052952613 -0.05393232 -0.17494942 -0.023478473
0000e0 1a 72 5a bd 6b 30 82 3d d8 31 3a bd 67 b9 d9 3d
       -0.053331472 0.06356891 -0.04545769 0.10631066
0000f0 f2 32 15 3e 81 cd ca 3c b4 c5 14 3e f9 3c 3d bc
       0.14570215 0.024756195 0.14528543 -0.011550182

critic.4.weight f4 [1, 64]
000000 ee 85 94 bd a4 1f f8 3d 1e 49 48 3e a2 44 45 3e
       -0.072521076 0.1211541 0.19559142 0.19264463
000010 34 59 03 3f 3f 77 59 be 17 3a 7a 3e bf cb 5f 3f
       0.5130799 -0.21236895 0.24436222 0.87420267
000020 e4 46 0b 3e 43 8f 2f 3e a7 96 d0 3d 10 f4 13 3e
       0.13601261 0.17144494 0.10184985 0.14448571
000030 d1 a8 e9 bd 49 19 dd 3e ce 9e 6c 3e cd 90 b3 3e
       -0.11409152 0.43183354 0.23107454 0.35071412
000040 70 1f 18 bf c0 1a 3a be 30 a2 f8 3d 0e ef 52 3f
       -0.5942297 -0.18174267 0.1214031 0.8239602
000050 42 e2 b7 3d 57 01 e8 be a9 0f e0 3e f6 90 df 3d
       0.08978702 -0.45313522 0.43761948 0.10916321
000060 98 d1 d2 bd a9 c5 01 3e 4a 30 98 be d8 9d f5 3d
       -0.10293883 0.12673058 -0.29724342 0.11992997
000070 c2 b6 8e bf 6b 8e 0b bf 40 bc d8 3d 8b bc b2 be
       -1.1149523 -0.5451419 0.10582781 -0.34909472
000080 aa fd ed be d4 4d 0e bf 0f ce 90 bf 6e f7 31 bf
       -0.46482593 -0.55587506 -1.1312884 -0.6951817
000090 70 e0 ab 3e 56 63 17 3e 17 79 66 3e ee 22 07 3e
       0.3356967 0.14783987 0.2250713 0.13196918
0000a0 f8 b7 79 be 68 bb a3 3e 58 21 35 be 94 b5 ff 3d
       -0.24386585 0.31978917 -0.17688501 0.12485805
0000b0 67 d6 14 3e a7 16 05 be c8 43 04 be 00 ed ff 3d
       0.14534913 -0.12996922 -0.12916481 0.12496376
0000c0 d4 3c 23 3f c0 61 68 3e cb 99 33 3e b2 d7 45 3f
       0.6376469 0.22693539 0.17539136 0.7728225
0000d0 29 21 12 bf 1c 1f 5e bf fe 8b bd be ed c2 4c be
       -0.5708185 -0.8676622 -0.37020868 -0.19996233
0000e0 e3 e0 91 bf bc 25 49 3e 82 a0 a7 3d 3f 0e 56 3f
       -1.1396755 0.19643301 0.08184911 0.8361549
0000f0 64 b7 ad 3e 71 e0 70 3d 67 ab 22 3f b8 ff a1 be
       0.33928978 0.058807794 0.6354279 -0.3164041

exp_avg f4 [6]
000000 9f 5e b9 39 3b 09 1e 39 0b 5d 07 3a a8 bd 1c b9
       0.00035356448 0.00015071493 0.0005163706 -0.00014947972
000010 81 9c 72 b8 b4 0b 8b b8
       -5.784305e-05 -6.6302164e-05

exp_avg_sq f4 [6]
000000 16 5a c1 36 d8 3c 54 36 11 0b 1a 37 7d 64 8d 35
       5.7623356e-06 3.1625877e-06 9.181692e-06 1.0534565e-06
000010 f9 83 79 35 85 ba af 33
       9.2951774e-07 8.183e-08
