2026-01-29_07-44-49_Fase2_Empuje_V1/model_1400.pt (torch, 189045 bytes, 36 tensors)

std f4 [6]
0.17899548 0.15421318 0.09996161 0.3444125 0.4056796 1.463253
00000000: 974a 373e 0fea 1d3e acb8 cc3d d656 b03e
00000010: 3db5 cf3e e04b bb3f

actor.0.weight f4 [64, 43]
0.008589201 0.2730035 -0.06612087 0.03460819 -0.24507356 -0.32950062 -0.0039360994 -0.22830023
0.073461644 0.023544775 -0.043140195 0.08579381 0.1855796 0.15410426 -0.00086352613 -0.13041353
-0.12330615 -0.26242432 -0.04044334 -0.00088161655 0.7149628 0.12441565 -0.11385063 -0.07015992
-0.40625313 -0.03410546 -0.1620457 -0.25005785 -0.04780119 -0.27820727 0.2280546 0.08797668
0.45200053 -0.55433977 0.100893095 0.16326818 0.24914117 0.21298887 0.23285939 0.2861686
-0.38232774 -0.02900914 0.3478539 0.0102030495 0.14487681 0.26759878 0.6365658 -0.5799864
-0.11386907 0.08729286 -0.7471366 -0.10376231 -0.12165718 0.046093337 0.011604559 0.1877374
-0.17317934 -0.057271514 0.46054524 -0.65980303 -0.15480994 -0.024983922 0.017841304 -0.62323827
0.6229448 0.13510482 0.23507471 -0.75149375 -0.6239054 0.02502434 -0.15244791 -0.01189074
0.26128584 -0.42409956 -0.076241456 0.4126527 -0.21930823 -0.36252195 0.28227538 0.36975706
-0.37748942 -0.030857062 0.61286813 0.083679795 0.66472244 -0.054032456 -0.39978987 -0.15224877
-0.23108031 0.045608256 0.0064312415 -0.34061408 0.3053909 -0.06163554 -0.413112 -0.18265823
0.03526354 0.061236527 -0.1746715 -0.12356196 -0.2969159 0.12705177 -0.01635108 -0.28916362
-0.007181332 0.00069017266 -0.40213272 -0.4835513 -0.10812379 -0.3037532 -0.029556764 -0.051382236
0.06475777 -0.3918198 -0.11378538 -0.06118241 -0.35279772 0.21152537 0.44110793 -0.24915564
-0.09011471 -0.070540175 -0.47621563 -0.48012963 0.24068281 0.41784772 -0.63118726 -0.0758177
0.51368725 0.015585992 0.090555556 0.14796862 -0.44709554 0.331385 0.05759152 0.03750594
-0.17591122 0.15016392 0.11583321 -0.059891004 0.09957615 -0.054757874 0.122813284 0.040717613
-0.24692799 0.20544842 0.14026019 0.05920947 -0.0021378333 -0.086254336 -0.11919832 -0.001928767
0.11678343 -0.18101302 -0.005243377 -0.18868263 -0.008356016 0.065336645 -0.004711521 -0.028761797
-0.14982724 0.21025652 -0.096710846 -0.060316283 -0.054095984 -0.00019492864 -0.015653351 -0.1551022
0.21074423 0.115760885 -0.10205064 -0.4788256 0.17858772 -0.5455195 -0.52432483 -0.0076461686
0.025827587 0.2740152 0.14860983 0.2504848 0.3123353 0.1080697 -0.025199864 -0.07391655
0.16148503 -0.13160615 -0.061689243 0.0654774 0.012176398 0.19101703 -0.026545044 -0.015110094
0.10189856 0.15875389 -0.096768744 -0.21888813 -0.14977078 0.09942942 -0.07305331 -0.06140297
-0.19852406 -0.17440844 -0.24755941 0.2939178 -0.24620399 -0.34222436 0.015556185 -0.22048178
-0.31540948 -0.3244937 0.33135206 -0.16821083 0.2451407 -1.0162243 0.40388086 -0.023832627
-0.06591124 -0.087263316 -0.022871528 0.21183366 -0.1295159 0.34182543 -0.87088424 0.059972323
-0.08923009 0.10298999 -0.029367957 -0.09084638 -0.27215406 -0.24611664 -0.19262235 0.4499786
0.13048764 0.039322667 -0.0047238017 -0.21053156 -0.38435054 0.04481214 0.18856953 -0.21140844
-0.43238008 -0.21294008 -0.18076448 -0.14161624 -0.12242809 -0.28436887 -0.19659145 0.15256312
-0.061537612 0.21737063 -0.04609497 -0.3904343 -0.20394412 -0.17142288 0.0553222 -0.39029378
00000000: b8b9 0c3c 1dc7 8b3e 616a 87bd 51c1 0d3d
00000010: 90f4 7abe 4eb4 a8be 65fa 80bb 89c7 69be
00000020: 0f73 963d f9e0 c03c c6b3 30bd aab4 af3d
00000030: 9408 3e3e 82cd 1d3e 425e 62ba 208b 05be
00000040: ef87 fcbd 7b5c 86be eaa7 25bd 491c 67ba
00000050: cd07 373f a2cd fe3d 852a e9bd 01b0 8fbd
00000060: 6900 d0be 2bb2 0bbd 4fef 25be 9507 80be
00000070: 2ecb 43bd 2f71 8ebe 2587 693e 1e2d b43d
00000080: 9d6c e73e 36e9 0dbf 0aa1 ce3d c62f 273e
00000090: dd1e 7f3e c119 5a3e b172 6e3e b184 923e
000000a0: 76c0 c3be 93a4 edbc e819 b23e b12a 273c
000000b0: 965a 143e b502 893e faf5 223f fd79 14bf
000000c0: 3034 e9bd 99c6 b23d 5844 3fbf 5681 d4bd
000000d0: 6627 f9bd 5ecc 3c3d 0c21 3e3c 3c3e 403e
000000e0: ed55 31be 8995 6abd 96cc eb3e dae8 28bf
000000f0: 7f86 1ebe 15ab ccbc ed27 923c 8b8c 1fbf
00000100: 4f79 1f3f eb58 0a3e 6db7 703e e561 40bf
00000110: 44b8 1fbf d8ff cc3c 4e1b 1cbe 61d1 42bc
00000120: 42c7 853e 9423 d9be 7b24 9cbd 3747 d33e
00000130: 5692 60be 7a9c b9be 6686 903e cc50 bd3e
00000140: 4b46 c1be f3c7 fcbc ede4 1c3f 5060 ab3d
00000150: 402b 2a3f 2351 5dbd 42b1 ccbe 1ae7 1bbe
00000160: 51a0 6cbe b9cf 3a3d 2abd d23b f864 aebe
00000170: 325c 9c3e 8c75 7cbd 6b83 d3be c20a 3bbe
00000180: 8070 103d 27d3 7a3d 16dd 32be 0e0e fdbd
00000190: 5c05 98be dc19 023e b3f2 85bc 410d 94be
000001a0: 6151 ebbb b4ec 343a 57e4 cdbe 0994 f7be
000001b0: 0170 ddbd 8a85 9bbe 0721 f2bc 2e76 52bd
000001c0: b99f 843d 9b9c c8be 4f08 e9bd 689a 7abd
000001d0: e7a1 b4be 1b9a 583e e6d8 e13e a822 7fbe
000001e0: 108e b8bd 5e77 90bd 89d2 f3be 8dd3 f5be
000001f0: 8e75 763e 23f0 d53e 7d95 21bf 4f46 9bbd
00000200: 0281 033f 635c 7f3c 3175 b93d 1685 173e
00000210: b5e9 e4be 4bab a93e 16e5 6b3d d49f 193d
00000220: 1222 34be 92c4 193e f639 ed3d 4550 75bd
00000230: 95ee cb3d cb49 60bd 8885 fb3d 83c7 263d
00000240: b1da 7cbe 1261 523e 5ea0 0f3e a185 723d
00000250: e41a 0cbb 1da6 b0bd 401e f4bd aece fcba
00000260: 272c ef3d 7a5b 39be a2d0 abbb 0536 41be
00000270: ace7 08bc 38cf 853d 1a63 9abb dc9d ebbc
00000280: 506c 19be 7c4d 573e 5610 c6bd 350e 77bd
00000290: c093 5dbd c265 4cb9 753b 80bc 1cd3 1ebe
000002a0: 56cd 573e 0b14 ed3d edff d0bd a128 f5be
000002b0: b3df 363e 2aa7 0bbf 273a 06bf b68c fabb
000002c0: 6094 d33c b84b 8c3e 2d2d 183e 8b3f 803e
000002d0: 6aea 9f3e a653 dd3d f26f cebc 8f61 97bd
000002e0: 555c 253e c3c3 06be dcad 7cbd 0419 863d
000002f0: 847f 473c f899 433e fe74 d9bc 5490 77bc
00000300: 31b0 d03d 6190 223e b12e c6bd 3624 60be
00000310: 835d 19be a7a1 cb3d f99c 95bd ae81 7bbd
00000320: e449 4bbe 2098 32be 3780 7dbe 657c 963e
00000330: e61c 7cbe 0838 afbe 5edf 7e3c fac5 61be
00000340: 5a7d a1be 0a24 a6be faa6 a93e 763f 2cbe
00000350: 2a06 7b3e a313 82bf 79c9 ce3e a43c c3bc
00000360: 79fc 86bd 1cb7 b2bd 125d bbbc ecea 583e
00000370: d19f 04be be03 af3e 45f2 5ebf 8aa5 753d
00000380: 44be b6bd 6aec d23d 1295 f0bc ab0d babd
00000390: c757 8bbe 0006 7cbe cb3e 45be 9863 e63e
000003a0: 8d9e 053e ce10 213d 1fca 9abb 9695 57be
000003b0: 98c9 c4be ef8c 373d 5f18 413e 747b 58be
000003c0: ec60 ddbe f70c 5abe 531a 39be d903 11be
000003d0: 94bb fabd cc98 91be 454f 49be 8239 1c3e
000003e0: dd0e 7cbd 6896 5e3e 14ce 3cbd 01e7 c7be
000003f0: bad6 50be 7b89 2fbe 8899 623d 96d4 c7be

actor.0.bias f4 [64]
0.024292223 0.20213881 0.07902354 -0.106083475 0.023261733 -0.05472303 0.07947364 -0.0034517553
-0.097509146 0.10124804 -0.38687798 0.18623175 -0.26450703 -0.20285517 0.05475196 -0.009539633
0.0032143036 -0.09278856 -0.33633843 -0.08777065 -0.42605427 0.018225769 -0.16922337 -0.20377164
-0.17097606 0.081215754 -0.14308158 -0.0606409 0.02319351 -0.32031792 0.30887768 0.07030789
-0.0634036 0.11225536 -0.2632237 0.019381791 0.1523526 -0.30300537 -0.14738409 -0.35241958
-0.1259348 -0.25702456 -0.04013938 -0.09352961 -0.07476316 0.07517184 0.118907355 -0.19003986
-0.17738369 0.02014679 0.05749902 -0.12486971 -0.15204442 -0.17066187 -0.035049833 0.010575315
0.32292065 -0.019695805 0.03477929 -0.43156537 -0.33137277 0.094756745 -0.18612505 -0.16991284
00000000: 7c00 c73c 7afd 4e3e 18d7 a13d 4b42 d9bd
00000010: 648f be3c 4225 60bd 13c3 a23d d836 62bb
00000020: e0b2 c7bd 225b cf3d df14 c6be 89b3 3e3e
00000030: 776d 87be 44b9 4fbe 9743 603d 1f4c 1cbc
00000040: 11a7 523b ee07 bebd 8d34 acbe 19c1 b3bd
00000050: c923 dabe 354e 953c e448 2dbe 83a9 50be
00000060: 5914 2fbe 7254 a63d fa83 12be 9862 78bd
00000070: 5100 be3c b600 a4be 3725 9e3e 95fd 8f3d
00000080: bfd9 81bd 23e6 e53d 42c5 86be 90c6 9e3c
00000090: 5202 1c3e 8523 9bbe dbeb 16be 5770 b4be
000000a0: 0df5 00be b998 83be 3169 24bd 748c bfbd
000000b0: 6d1d 99bd b2f3 993d b385 f33d cf99 42be
000000c0: 12a4 35be e20a a53c 1884 6b3d b1bb ffbd
000000d0: 88b1 1bbe fcc1 2ebe 6a90 0fbd 1644 2d3c
000000e0: db55 a53e 1959 a1bc bb74 0e3d 23f6 dcbe
000000f0: b1a9 a9be d30f c23d 9197 3ebe a2fd 2dbe

actor.2.weight f4 [64, 64]
0.053376425 -0.030451959 -0.010202629 0.07069885 0.034360357 0.03396144 0.060717035 0.08939733
-0.11209399 0.039327756 0.051729452 -0.012586034 0.06376039 -0.10640069 0.331883 -0.25036407
-0.09254562 0.1775697 -0.009743432 0.0075307563 0.06767629 -0.12233619 -0.21611291 0.033756245
0.119798355 0.0012024152 0.056553073 0.10482917 0.1440446 -0.07323367 0.06673074 0.1713126
0.13802601 0.11940653 -0.11175614 0.060527176 -0.13548097 0.016137969 0.22965613 0.06530322
0.019145912 -0.06849851 -0.10969209 -0.03795859 0.080033824 -0.1793969 0.13545132 0.09490284
-0.047706272 0.0056372816 0.028187532 -0.13949667 0.093117505 -0.1434959 0.038327776 0.2229374
-0.059340354 0.07234407 -0.120639786 0.01033025 0.028743666 0.15475251 -0.13260345 -0.0688147
-0.31525883 -0.18201014 0.09309581 -0.10206952 0.009871086 0.22993262 0.060310043 -0.118032
-0.106444746 -0.46650034 0.12843592 -0.01619491 -0.054860502 0.040761 -0.29525763 -0.1699376
0.003875288 0.26186225 0.2686017 0.047254737 0.036756605 -0.01147256 0.14072241 0.055559944
-0.008746225 0.05934154 -0.21573138 0.06976199 0.114692725 0.16246033 -0.08421299 0.0867023
0.14048763 -0.13838182 0.005203875 0.097390056 -0.1929355 0.24200433 0.12931888 0.07553011
0.19322188 0.14594527 0.0913321 0.22002865 -0.41599455 -0.07504658 -0.6580102 0.09861997
0.16400161 -0.0151624475 0.016177442 0.014757645 -0.013637921 0.06826044 -0.0765167 -0.331126
0.19218805 0.039830074 -0.066496074 0.049406033 -0.08629644 0.3045822 -0.5769544 0.13341922
-0.019887222 -0.03362545 -0.070880465 0.18878469 0.057086892 0.08238488 0.077431284 -0.16401897
0.01699669 0.1352006 -0.26263765 0.12442212 0.0060351747 -0.012916652 0.08874085 0.047257587
0.056340955 -0.06037612 -0.009383507 0.22216508 -0.019578194 -0.1321737 0.015612586 -0.16957983
-0.04261491 0.00072795176 -0.0013478197 -0.6214596 0.029575137 -0.017325884 -0.3513321 -0.0051722443
-0.1836952 0.05407481 0.1630567 -0.038888846 0.021853223 0.025750203 -0.06859189 0.032759212
-0.060392775 0.06363412 -0.014667121 0.039809424 -0.12740272 -0.19412622 -0.2534435 -0.22471812
0.07879406 -0.08072222 0.17704304 -0.25524318 -0.057501927 0.018571408 -0.054577112 -0.13312642
0.1558568 0.11338039 0.037640855 -0.20161863 0.012065183 0.026317175 -0.19751339 0.057292096
0.007310741 -0.026724739 -0.072578244 0.07492644 0.039237443 0.18949954 0.016566074 -0.07314998
0.027791964 0.043568335 0.111836515 -0.06584493 -0.028011335 -0.100303225 0.19633424 -0.16006331
-0.0022860914 -0.007440554 0.06996385 0.020717992 -0.11819083 -0.110370435 0.06943024 -0.0826094
0.08037292 -0.006187373 0.14778024 0.10029921 -0.04199729 0.0099248905 -0.17689593 -0.09118357
0.12255285 -0.0115154665 -0.047046192 0.16952595 -0.16102879 0.114394896 0.25029206 0.05653615
-0.083273776 -0.13244432 0.058407456 0.07840676 0.15324396 0.040162433 0.023091458 0.19747947
0.025308955 -0.056307085 -0.07564095 0.13834925 -0.027883433 0.15009218 -0.07983539 0.21446224
-0.30295062 -0.1622197 0.13802409 -0.018178655 0.11055372 0.07593869 -0.03779967 -0.03982545
00000000: 3da1 5a3d 6376 f9bc ed28 27bc 8fca 903d
00000010: 72bd 0c3d 271b 0b3d 6db2 783d f315 b73d
00000020: 8991 e5bd 2416 213d 43e2 533d a735 4ebc
00000030: cf94 823d 9be8 d9bd 92ec a93e b82f 80be
00000040: 8f88 bdbd d5d4 353e eaa2 1fbc 90c4 f63b
00000050: de99 8a3d 658b fabd b44c 5dbe fd43 0a3d
00000060: d758 f53d 5c9a 9d3a 32a4 673d adb0 d63d
00000070: 6d80 133e 89fb 95bd 20aa 883d 926c 2f3e
00000080: b156 0d3e 698b f43d 67e0 e4bd 58eb 773d
00000090: 86bb 0abe c633 843c fa2a 6b3e b2bd 853d
000000a0: e3d7 9c3c f248 8cbd 3fa6 e0bd 777a 1bbd
000000b0: c6e8 a33d d2b3 37be c0b3 0a3e 6c5c c23d
000000c0: a767 43bd f2b8 b83b 8ae9 e63c 37d8 0ebe
000000d0: 64b4 be3d 97f0 12be 96fd 1c3d b449 643e
000000e0: df0e 73bd 2129 943d fe11 f7bd 3540 293c
000000f0: d677 eb3c 7177 1e3e 33c9 07be b9ee 8cbd
00000100: 9b69 a1be de60 3abe 04a9 be3d d309 d1bd
00000110: 56ba 213c 7573 6b3e aa07 773d c3ba f1bd
00000120: b4ff d9bd 22d9 eebe b584 033e 30ab 84bc
00000130: 68b5 60bd 02f5 263d 022c 97be 1f04 2ebe
00000140: 8bf8 7d3b cf12 863e 2986 893e 2f8e 413d
00000150: 188e 163d 68f7 3bbc 8919 103e d392 633d
00000160: 544c 0fbc 1d10 733d b0e8 5cbe 60df 8e3d
00000170: 05e4 ea3d 005c 263e dc77 acbd fa90 b13d
00000180: fddb 0f3e f7b3 0dbe 4485 aa3b 7074 c73d
00000190: e290 45be fccf 773e 2b6c 043e 88af 9a3d
000001a0: f5db 453e ad72 153e 530c bb3d 314f 613e
000001b0: 3dfd d4be 05b2 99bd 5b73 28bf 44f9 c93d
000001c0: 0af0 273e ea6b 78bc 8e86 843c 0dca 713c
000001d0: 9671 5fbc 21cc 8b3d cab4 9cbd 5989 a9be
000001e0: f2cc 443e dc24 233d 182f 88bd fb5d 4a3d
000001f0: 30bc b0bd 33f2 9b3e 49b3 13bf 0c9f 083e
00000200: 87ea a2bc d7ba 09bd c729 91bd c650 413e
00000210: f2d3 693d 67b9 a83d 4b94 9e3d 97f4 27be
00000220: a43c 8b3c 0772 0a3e 7178 86be 06d1 fe3d
00000230: b7c2 c53b 5da0 53bc c3bd b53d 2c91 413d
00000240: c6c5 663d f34c 77bd 48bd 19bc 3e7f 633e
00000250: 7362 a0bc 8b58 07be efcb 7f3c 56a6 2dbe
00000260: f98c 2ebd 04d4 3e3a 53a9 b0ba fa17 1fbf
00000270: 8f47 f23c 03ef 8dbc cde1 b3be ee7b a9bb
00000280: 981a 3cbe 8c7d 5d3d 56f8 263e e949 1fbd
00000290: 8805 b33c 17f2 d23c e879 8cbd 862e 063d
000002a0: 6a5e 77bd 9b52 823d 5d4e 70bc 350f 233d
000002b0: dc75 02be 06c9 46be 59c3 81be 821c 66be
000002c0: c85e a13d b151 a5bd c54a 353e 3caf 82be
000002d0: 2487 6bbd 1123 983c 408c 5fbd 4b52 08be
000002e0: ed98 1f3e fa33 e83d 4c2d 1a3d 1d75 4ebe
000002f0: 0cad 453c 1e97 d73c f340 4abe 1eab 6a3d
00000300: f18e ef3b d7ed dabc e7a3 94bd 0973 993d
00000310: 71b7 203d 2b0c 423e 93b5 873c a8cf 95bd
00000320: f9ab e33c b674 323d 8b0a e53d b5d9 86bd
00000330: 0778 e5bc c76b cdbd d80b 493e a3e7 23be
00000340: 40d2 15bb e4cf f3bb 3549 8f3d c7b8 a93c
00000350: 090e f2bd e509 e2bd 7131 8e3d 1e2f a9bd
00000360: 8f9a a43d 72bf cabb b453 173e ac69 cd3d
00000370: 5a05 2cbd 029c 223c 3524 35be 74be babd
00000380: fdfc fa3d 5eab 3cbc 82b3 40bd 3698 2d3e
00000390: bbe4 24be df47 ea3d 4826 803e 7392 673d
000003a0: 718b aabd 7c9f 07be a83c 6f3d b993 a03d
000003b0: fceb 1c3e 5d81 243d 4c2a bd3c 0f38 4a3e
000003c0: ba54 cf3c 42a2 66bd a4e9 9abd 6dab 0d3e
000003d0: cc6b e4bc c4b1 193e bd80 a3bd fd9b 5b3e
000003e0: 581c 9bbe ec1c 26be 3056 0d3e 67eb 94bc
000003f0: fd69 e23d be85 9b3d d4d3 1abd 0320 23bd

actor.2.bias f4 [64]
-0.10183876 0.08328614 0.08706097 0.12901238 0.008610593 0.023394197 -0.05061466 0.2500627
-0.08890665 -0.0888072 0.35147184 -0.097478285 0.046513822 -0.26830515 0.054185253 0.2473139
-0.020961992 -0.29487455 -0.018338144 -0.20798518 0.06821083 -0.051985875 -0.23936525 -0.046755318
0.023377262 0.2637855 0.08322464 0.12763637 -0.03605072 -0.12245428 0.11756432 0.06520688
-0.2803073 -0.1509097 -0.075760506 -0.22186649 -0.05008718 -0.1386195 0.0015439192 0.018894712
0.1265684 -0.30748865 -0.012115038 0.021076256 -0.091783 -0.1535688 -0.11645938 -0.15939367
0.0768905 0.34253976 -0.07028649 -0.15803336 0.20067483 0.040144067 0.10711398 -0.30286407
0.14055733 0.08069146 -0.031477284 -0.09612002 0.017257582 -0.035845656 -0.18171738 0.20824097
00000000: d790 d0bd ec91 aa3d 064d b23d d21b 043e
00000010: 7213 0d3c 30a5 bf3c 5151 4fbd 3808 803e
00000020: b114 b6bd 8de0 b5bd 1ef4 b33e b2a2 c7bd
00000030: 4785 3e3d 4b5f 89be 5bf1 5d3d db3f 7d3e
00000040: 7cb8 abbc ccf9 96be e039 96bc 11fa 54be
00000050: 1fb2 8b3d 24ef 54bd 2a1c 75be 8182 3fbd
00000060: ac81 bf3c e50e 873e ae71 aa3d 1cb3 023e
00000070: eba9 13bd 4fc9 fabd 90c5 f03d 2f8b 853d
00000080: 7084 8fbe 1388 1abe 5328 9bbd f830 63be
00000090: 3728 4dbd 45f2 0dbe 555d ca3a 15c9 9a3c
000000a0: 269b 013e 276f 9dbe 277e 46bc 1da8 ac3c
000000b0: baf8 bbbd 2441 1dbe 4182 eebd 1838 23be
000000c0: c478 9d3d 5f61 af3e 5df2 8fbd 7fd3 21be
000000d0: b47d 4d3e 1b6e 243d 935e db3d 0011 9bbe
000000e0: 43ee 0f3e 9041 a53d 53ee 00bd 93da c4bd
000000f0: c65f 8d3c e5d2 12bd 1f14 3abe 1f3d 553e

actor.4.weight f4 [6, 64]
-0.18637928 -0.11295984 0.009051698 -0.21360639 -0.03819959 0.052478418 -0.07097028 0.07611497
0.07342139 -0.09611836 -0.05049404 0.04269685 0.09822143 0.06273106 -0.0504588 -0.015941234
0.1344344 0.14754505 0.048385635 0.12112274 0.005326701 -0.11104905 0.07177163 0.14187475
0.17524777 -0.02265826 0.083399974 -0.065386996 -0.01976809 -0.11811108 0.032205895 -0.025994899
0.0509492 0.15775166 -0.03930404 0.037977345 -0.11577144 -0.015553035 -0.14150259 0.18531217
0.10004775 0.0745575 0.08170048 -0.026090736 0.22736712 0.09835306 -0.037472628 0.044399966
0.039234046 -0.00071872416 -0.119352095 0.014144947 -0.13515489 -0.074448824 -0.21237914 -0.02181095
0.09259102 -0.15692191 0.03309144 -0.049610417 -0.06360396 0.028149802 0.24655525 -0.13056415
0.04279588 0.12247754 -0.23764402 -0.098627806 -0.013173186 -0.059783734 0.081745125 -0.004415726
0.1457225 -0.06336115 0.11404449 0.018486613 -0.16708922 -0.015226287 0.06666443 0.0066382154
0.084139794 -0.027740933 0.061124533 -0.079995506 -0.041279748 0.13107643 -0.06483573 -0.14528823
0.034764677 0.03272823 0.084416285 -0.017544126 -0.13561834 -0.05474319 -0.1358159 0.0031694013
0.04816571 -0.0111641325 0.111908056 -0.0026355414 -0.04488628 -0.07790514 -0.093038246 0.090420246
0.20664123 -0.098004855 -0.25802445 -0.01300982 0.091496214 0.12935467 0.05994177 -0.012407096
0.13287833 0.027796289 0.04105138 0.14789851 -0.02370777 -0.0068619708 0.03999018 -0.03635562
-0.055424053 0.06355454 -0.08995274 -0.12207837 0.08277591 0.042526133 -0.02284886 0.03327139
0.0036568039 0.06404297 -0.06338601 0.04721694 0.03889419 0.037420433 -0.0077238474 0.14506648
-0.26757666 0.087959185 0.08594091 -0.24978234 -0.11890987 -0.2006368 0.01673965 0.103693016
-0.051109046 -0.17225786 0.08850546 -0.1724485 0.07774125 -0.07453326 -0.13596542 -0.08318297
-0.11474925 0.12477535 0.08061725 0.067004226 -0.25331786 -0.04088245 0.093942694 0.091976054
-0.010701769 -0.19026299 0.01422063 -0.16170125 -0.032903824 0.008687778 -0.016041523 -0.08757546
0.018105505 -0.18803906 -0.010355344 0.09739996 0.03386672 -0.03922734 -0.05373252 -0.07011078
0.13826108 0.11835109 -0.109563105 -0.11292326 0.10364792 0.080219075 0.026794292 -0.18158247
0.12368544 0.08748593 0.0262754 -0.061849535 -0.04603192 0.045948718 -0.16664189 0.04652557
-0.07761666 0.27507076 -0.112546414 0.07815414 -0.049924742 0.06979365 0.004375042 -0.063603096
0.13485567 -0.12056849 0.071333274 0.20416957 0.11031647 -0.17268254 0.064642 0.044975832
-0.059152484 -0.1909102 -0.1437816 -0.15997486 -0.11743291 0.13263816 -0.052341115 -0.1280287
-0.09641507 -0.032992564 -0.07995531 0.09310444 0.0735577 0.08811758 0.110035084 -0.035707552
-0.14064136 0.0059001492 -0.084972106 0.14506921 -0.07795022 -0.040468507 -0.037432823 0.28649086
0.09194742 0.029724404 0.23574775 -0.1521478 0.066300325 -0.13346435 -0.26140442 0.26563376
-0.021564227 0.0834144 -0.00050508213 -0.27010825 -0.0355353 0.011950318 0.09899971 -0.116783656
0.18246613 0.0050016833 -0.0476123 -0.082497545 -0.047231555 -0.091518044 -0.1307225 -0.03959015
00000000: 36da 3ebe 7d57 e7bd 934d 143c a2bb 5abe
00000010: 2c77 1cbd 9cf3 563d de58 91bd 2ae2 9b3d
00000020: f45d 963d b4d9 c4bd d7d2 4ebd e4e2 2e3d
00000030: 5128 c93d 2479 803d e3ad 4ebd 3197 82bc
00000040: 2ca9 093e 0d16 173e 0430 463d 330f f83d
00000050: 9b8b ae3b af6d e3bd 01fd 923d 9d47 113e
00000060: 2774 333e d19d b9bc 9bcd aa3d 9ee9 85bd
00000070: b1f0 a1bc 39e4 f1bd 54ea 033d 41f3 d4bc
00000080: 1cb0 503d a789 213e 46fd 20bd 228e 1b3d
00000090: 9419 edbd 28d2 7ebc 0ee6 10be 79c2 3d3e
000000a0: d6e5 cc3d 9ab1 983d 9552 a73d 3dbc d5bc
000000b0: edd2 683e 546d c93d e67c 19bd bddc 353d
000000c0: e1b3 203d c368 3cba df6e f4bd 35c0 673c
000000d0: 0b66 0abe a078 98bd eb79 59be e1ac b2bc
000000e0: 5ca0 bd3d 23b0 20be e48a 073d 4b34 4bbd
000000f0: cb42 82bd 6a9a e63c fb78 7c3e 9cb2 05be
00000100: bc4a 2f3d 81d5 fa3d f458 73be 60fd c9bd
00000110: 59d4 57bc cadf 74bd fd69 a73d cbb1 90bb
00000120: 4738 153e 7ec3 81bd 2890 e93d 3d71 973c
00000130: 7019 2bbe ad77 79bc 5c87 883d 6385 d93b
00000140: 7c51 ac3d f440 e3bc b85d 7a3d afd4 a3bd
00000150: f414 29bd e638 063e 98c8 84bd 70c6 14be
00000160: 6865 0e3d 090e 063d 72e2 ac3d b3b8 8fbc
00000170: 89df 0abe 653a 60bd 5313 0bbe bbb5 4f3b
00000180: 6849 453d c4e9 36bc 0d30 e53d 0cb9 2cbb
00000190: adda 37bd bb8c 9fbd d68a bebd 402e b93d
000001a0: c299 533e c5b6 c8bd c81b 84be 2427 55bc
000001b0: 5e62 bb3d 8d75 043e 8085 753d 2247 4bbc
000001c0: 4211 083e 0bb5 e33c 7e25 283d b572 173e
000001d0: cc36 c2bc 62da e0bb becc 233d a1e9 14bd
000001e0: 5504 63bd e228 823d 2439 b8bd 3904 fabd
000001f0: 6b86 a93d e22f 2e3d 882d bbbc 9547 083d
00000200: fda6 6f3b f628 833d 86d0 81bd 8d66 413d
00000210: 844f 1f3d 2b46 193d 5418 fdbb 4f8c 143e
00000220: cfff 88be f223 b43d ca01 b03d f1c6 7fbe
00000230: 0587 f3bd bc73 4dbe 9721 893c 015d d43d
00000240: b857 51bd 5d64 30be 5a42 b53d 5796 30be
00000250: ce36 9f3d e5a4 98bd 853a 0bbe d55b aabd
00000260: a801 ebbd 388a ff3d a81a a53d 8339 893d
00000270: e1b2 81be 5b74 27bd 0765 c03d f15d bc3d
00000280: 7956 2fbc 4dd4 42be a5fd 683c 0395 25be
00000290: 29c6 06bd 2f57 0e3c 8369 83bc c35a b3bd
000002a0: ff51 943c 508d 40be 76a9 29bc a179 c73d
000002b0: d4b7 0a3d d9ac 20bd a216 5cbd 3e96 8fbd
000002c0: 5094 0d3e 0e62 f23d 9f62 e0bd 4f44 e7bd
000002d0: 5c45 d43d e649 a43d b47f db3c c1f0 39be
000002e0: cb4e fd3d d32b b33d 823f d73c f055 7dbd
000002f0: f78b 3cbd b934 3c3d 2ca4 2abe 9991 3e3d
00000300: 7cf5 9ebd 13d6 8c3e bc7e e6bd 470f a03d
00000310: e37d 4cbd f9ef 8e3d 835c 8f3b 5742 82bd
00000320: 9b17 0a3e 9dec f6bd 2e17 923d d411 513e
00000330: 9aed e13d b1d3 30be 0663 843d 9438 383d
00000340: e049 72bd f77d 43be 7c3b 13be 73d0 23be
00000350: aa80 f0bd 4cd2 073e a363 56bd f519 03be
00000360: 4475 c5bd 3623 07bd 9cbf a3bd 8aad be3d
00000370: 6ba5 963d fd76 b43d 135a e13d 1542 12bd
00000380: 4a04 10be 0a56 c13b db05 aebd 068d 143e
00000390: 5da4 9fbd 4ec2 25bd 2953 19bd eeae 923e
000003a0: ee4e bc3d 9880 f33c dc67 713e a2cc 1bbe
000003b0: 77c8 873d e1aa 08be cdd6 85be 2601 883e
000003c0: 76a7 b0bc 2bd5 aa3d 7d67 04ba a14b 8abe
000003d0: 768d 11bd 44cb 433c 5cc0 ca3d 452c efbd
000003e0: 67d8 3a3e 29e5 a33b 1d05 43bd 79f4 a8bd
000003f0: e075 41bd d06d bbbd 1edc 05be 4829 22bd

actor.4.bias f4 [6]
-0.1539003 0.029065447 0.107133195 0.18072627 0.065300085 0.07823486
00000000: 0a98 1dbe a91a ee3c a668 db3d 4f10 393e
00000010: 0dbc 853d 9939 a03d

critic.0.weight f4 [64, 43]
0.5174638 -0.61773646 -0.67796326 -0.15199919 0.1887953 0.32445937 -0.34346905 -0.24984704
-0.19727479 0.0409954 -0.07003563 0.007983689 0.16379371 0.1085349 -0.11979429 0.10595368
-0.0017577221 -0.015980182 -0.0072657336 0.0019760786 0.3705899 0.4465763 -0.17082596 0.26984572
-0.652998 -0.048610315 -0.6013651 -0.44442677 0.060727637 -0.397203 1.3434904 0.11209484
-0.8193191 -0.14408292 0.2680817 -0.23050259 -0.53304994 1.1384898 0.16884032 -0.90457124
-0.8020676 -0.17509598 0.056101225 0.3445638 -0.548012 -0.353108 -0.38397443 0.15507749
0.15651025 0.025042305 0.19571534 0.03614454 0.060766537 -0.053981666 0.010365595 0.13970165
-0.4147963 -0.28185537 -0.31614104 0.244756 -0.06888836 0.00011179119 0.004542264 0.7764201
0.07755249 -0.4001297 -0.15524645 -0.3904196 0.5982491 -0.5660248 -0.28419414 -0.06163276
-0.33642036 2.2128048 0.27446553 -0.61784387 -0.30626163 0.7507549 0.080088556 -0.07822614
2.1413872 0.11496884 -0.77397203 -0.6421464 0.31695205 -0.26750067 0.3478721 -0.35243592
-0.14896588 -0.06238393 -0.15901707 0.3945685 0.03009047 -0.014935033 0.0142121315 -0.0028915887
0.11559585 -0.01268016 0.071552 0.11792578 0.038586505 -0.1523855 -0.28156587 0.05669704
0.005226852 -0.009270791 -0.107608676 1.2555043 0.5004995 1.0794322 0.063044205 -0.046022005
0.052410103 0.2274835 0.74821734 0.0103302095 -2.0900373 2.519458 -1.0914445 -0.2694728
-0.4934442 0.0094621675 0.1988309 -2.0548296 2.5191522 -1.2054948 0.2869635 -0.04660709
0.106425315 0.04279755 -0.2467288 -0.06861839 0.19511826 -0.009465876 -0.121354215 0.0025798157
-0.03885471 0.16421856 -0.008600071 -0.090360954 0.030841326 -0.07155209 -0.022424206 0.10668684
0.21122226 0.14459127 -0.12912251 -0.0051080952 0.0153393205 -0.97619903 1.3732848 0.4314881
1.031115 -0.833547 1.1291363 0.20215277 -0.24347124 0.9680982 0.19360532 0.086087644
-0.5993101 -0.1985791 -0.049006715 -0.40705016 0.17078435 -0.06493745 -0.016226659 -0.55051136
-0.37156424 0.6676213 -0.34754288 -0.29456925 0.7206312 0.04244762 0.08725133 0.022679174
0.099937335 0.17066507 -0.17163306 -0.049121954 -0.105434455 0.09473184 -0.05914225 -0.03181119
0.453397 0.06720484 -0.012069196 -0.2826596 0.11974642 0.12206203 -0.012207166 0.0032481744
-0.61315185 -0.9164214 -1.2729633 0.29798362 0.88425565 0.9851197 0.16067876 0.20482913
-0.7056808 -0.039561395 -1.2086058 -0.3124466 -0.32650676 -0.05954652 -0.69285345 -0.08504724
0.3436756 -1.0548397 -0.39946 -0.37084165 -0.22182085 0.020226602 0.3740334 0.04011726
-0.018105417 -0.06133685 -0.09488684 0.058893017 0.02048756 0.00517423 -0.039117236 -0.0522154
0.039423663 0.013986579 -0.015012662 -0.06346389 0.061442688 0.012950485 -0.12399954 -0.09080479
0.08389204 -0.004196022 -0.0041068024 0.020043772 1.622607 -1.327359 -1.3256183 -1.3978155
2.076559 0.18781334 -0.5129823 -0.7017089 0.009163091 -0.1847822 0.16110641 0.54550457
0.2896399 -0.03217063 0.34039748 -0.064149015 -0.09237462 0.33751628 0.45302296 -0.34051314
00000000: 8278 043f fa23 1ebf 008f 2dbf ada5 1bbe
00000010: 8e53 413e 8a1f a63e 2ddb afbe e7d7 7fbe
00000020: 6702 4abe cbea 273d d76e 8fbd 05ce 023c
00000030: 8ab9 273e 8c47 de3d b556 f5bd 3efe d83d
00000040: 5e63 e6ba dfe8 82bc 6415 eebb 1981 013b
00000050: f6bd bd3e a6a5 e43e 00ed 2ebe 3829 8a3e
00000060: e02a 27bf 9c1b 47bd 10f3 19bf e88b e3be
00000070: 8bbd 783d 315e cbbe 7ef7 ab3f fb91 e53d
00000080: e6be 51bf 798a 13be 0142 893e df08 6cbe
00000090: f675 08bf 09ba 913f 7ae4 2c3e fb91 67bf
000000a0: 4d54 4dbf 5c4c 33be 66ca 653d ab6a b03e
000000b0: 844a 0cbf 92ca b4be 4c98 c4be a2cc 1e3e
000000c0: 3944 203e 8525 cd3c 9a69 483e 4c0c 143d
000000d0: 55e6 783d e11b 5dbd 75d4 293c f30d 0f3e
000000e0: 2e60 d4be 594f 90be 3ddd a1be 51a1 7a3e
000000f0: 5715 8dbd 7071 ea38 46d7 943b 78c3 463f
00000100: d7d3 9e3d cddd ccbe edf8 1ebe 14e5 c7be
00000110: da26 193f 00e7 10bf e581 91be a272 7cbd
00000120: 4a3f acbe 989e 0d40 bf86 8c3e 042b 1ebf
00000130: 53ce 9cbe 7931 403f 7805 a43d 0735 a0bd
00000140: 7d0c 0940 c874 eb3d 0823 46bf b563 24bf
00000150: 8a47 a23e d9f5 88be 4b1c b23e 7b72 b4be
00000160: 838a 18be 4b86 7fbd 5fd5 22be e204 ca3e
00000170: 4a80 f63c 12b2 74bc 00da 683c cf80 3dbb
00000180: 84bd ec3d 72c0 4fbc db89 923d 1283 f13d
00000190: e20c 1e3d f20a 1cbe 6729 90be 283b 683d
000001a0: 0346 ab3b 84e4 17bc f061 dcbd 5db4 a03f
000001b0: bc20 003f d62a 8a3f 521d 813d 9281 3cbd
000001c0: faab 563d 6ff1 683e 2c8b 3f3f 0a40 293c
000001d0: 2cc3 05c0 cd3e 2140 74b4 8bbf 57f8 89be
000001e0: b8a4 fcbe 3507 1b3c 549a 4b3e 5482 03c0
000001f0: ca39 2140 a74d 9abf e1ec 923e 13e7 3ebd
00000200: 84f5 d93d 7c4c 2f3d 79a6 7cbe cc87 8cbd
00000210: 15cd 473e c316 1bbc 8f88 f8bd 2012 293b
00000220: 1e26 1fbd e928 283e 50e7 0cbc 2a0f b9bd
00000230: f3a6 fc3c e789 92bd f8b2 b7bc a17e da3d
00000240: a64a 583e bc0f 143e b138 04be cf61 a7bb
00000250: c651 7b3c 2ee8 79bf ccc7 af3f 02ec dc3e
00000260: 94fb 833f 5663 55bf 8a87 903f 2301 4f3e
00000270: 8650 79be 49d5 773f 7940 463e b84e b03d
00000280: 636c 19bf 5258 4bbe 44bb 48bd e168 d0be
00000290: 18e2 2e3e edfd 84bd c5ed 84bc 50ee 0cbf
000002a0: ab3d bebe 3be9 2a3f 24f1 b1be c8d1 96be
000002b0: 497b 383f 8edd 2d3d d3b0 b23d adc9 b93c
000002c0: f2ab cc3d d3c2 2e3e 94c0 2fbe 1a34 49bd
000002d0: 05ee d7bd c402 c23d 253f 72bd 734c 02bd
000002e0: a723 e83e b1a2 893d e1bd 45bc c2b8 90be
000002f0: 9c3d f53d a8fb f93d 9100 48bc 53df 543b
00000300: 85f7 1cbf 989a 6abf 76f0 a2bf 4f91 983e
00000310: 945e 623f ce30 7c3f f988 243e babe 513e
00000320: 7fa7 34bf 210b 22bd 98b3 9abf 00f9 9fbe
00000330: e52b a7be 0de7 73bd d85e 31bf 3f2d aebd
00000340: 40f6 af3e fd04 87bf 0586 ccbe f5de bdbe
00000350: 0125 63be 42b2 a53c 4e81 bf3e ff51 243d
00000360: d051 94bc 593c 7bbd 0854 c2bd ce39 713d
00000370: 87d5 a73c 968c a93b 6539 20bd d1df 55bd
00000380: b57a 213d f727 653c abf7 75bc 5bf9 81bd
00000390: 54ab 7b3d 452e 543c 79f3 fdbd ddf7 b9bd
000003a0: 97cf ab3d c97e 89bb 5b92 86bb d632 a43c
000003b0: 96b1 cf3f e6e6 a9bf dcad a9bf 9eeb b2bf
000003c0: 58e6 0440 2452 403e cf52 03bf 32a3 33bf
000003d0: ca20 163c 8c37 3dbe 14f9 243e 30a6 0b3f
000003e0: ae4b 943e 5ac5 03bd 9448 ae3e 8f60 83bd
000003f0: e82e bdbd efce ac3e a0f2 e73e bd57 aebe

critic.0.bias f4 [64]
-0.34092632 -0.33764917 0.15696515 0.39524657 0.017481677 0.020561023 0.092610806 -0.0062968666
0.189366 -0.06164293 0.17992581 -0.3746778 -0.12700868 0.08514717 -0.324884 0.49085748
-0.3297758 -0.25864935 0.37750182 -0.07130693 -0.4138444 -0.14624119 0.35696658 -0.0936811
-0.034976803 0.06487394 -0.36891156 0.074795455 0.1712432 0.14553477 0.35476086 -0.17596571
-0.18147388 0.19265117 0.07377568 -0.38709196 -0.39928395 0.13375874 0.043010645 0.21125166
0.43343246 0.16568618 -0.009442428 -0.011444469 0.011162529 -0.20583476 -0.20686714 0.2106095
0.10387178 -0.33250684 -0.16367997 0.1815675 -0.037438553 0.21243393 0.3256367 0.1329233
0.08051944 0.07470164 -0.32952508 -0.32392696 -0.07270111 -0.15898223 -0.04518007 -0.19567473
00000000: e58d aebe 5ae0 acbe 79bb 203e c25d ca3e
00000010: bc35 8f3c 976f a83c bcaa bd3d f255 cebb
00000020: 29e9 413e 4c7d 7cbd 793e 383e c5d5 bfbe
00000030: 900e 02be a461 ae3d 3257 a6be ac51 fb3e
00000040: 60d8 a8be b06d 84be eb47 c13e 5e09 92bd
00000050: 6ae3 d3be 40c0 15be 53c4 b63e e0db bfbd
00000060: d643 0fbd a1dc 843d fae1 bcbe 5c2e 993d
00000070: 615a 2f3e 1107 153e 37a3 b53e 5b30 34be
00000080: 4ad4 39be 5946 453e b417 973d eb30 c6be
00000090: f26e ccbe 0df8 083e ee2b 303d 5b52 583e
000000a0: dcea dd3e a3a9 293e 6ab4 1abc 9581 3bbc
000000b0: 0ae3 363c 59c6 52be fbd4 53be 04aa 573e
000000c0: baba d43d 563e aabe b99b 27be d5ec 393e
000000d0: 2b59 19bd 4888 593e dbb9 a63e 0c1d 083e
000000e0: 60e7 a43d 2cfd 983d 83b7 a8be c1d9 a5be
000000f0: 52e4 94bd 3dcc 22be bd0e 39bd f55e 48be

critic.2.weight f4 [64, 64]
0.048105244 0.19017346 -0.0058750864 -0.099844486 -0.09335735 -0.12113574 0.06215253 -0.041271586
-0.3897731 0.02774189 -0.2912752 0.02262351 -0.07088501 0.13273065 0.11058617 0.12399202
0.12551597 0.034635454 0.05531951 0.061028134 0.06224664 0.0927951 -0.13882123 0.06306467
-0.23193888 -0.065418415 0.28446487 -0.12057818 -0.02688137 0.0032191838 -0.026050687 -0.0020615205
-0.0032999613 -0.020863049 -0.009731805 0.100550584 0.0013980258 0.08448694 -0.078183606 -0.14149165
-0.21072897 -0.18669294 0.08457623 0.19119923 -0.025238467 0.028994061 -0.09803001 -0.13189945
-0.08697754 -0.04165094 0.10221108 -0.11795373 -0.25899985 0.051878754 0.076683 -0.18783551
-0.116404824 -0.04989487 0.0187672 0.019741504 0.099384636 -0.08839416 -0.078102686 -0.09526678
-0.1633272 -0.20651294 0.031603422 -0.19652402 -0.056359734 -0.03878269 0.10199659 -0.038086675
0.148113 0.013953868 0.1311767 -0.046313517 -0.1736396 0.09149596 -0.17451318 -0.2063032
0.17161243 -0.17588934 -0.084277645 0.19249207 -0.08161845 -0.06043657 -0.06925912 -0.05533986
-0.0468516 -0.11977276 -0.1504349 0.115786776 -0.018809682 0.08713572 0.056587275 -0.03144427
0.041257493 0.13599202 -0.013930297 -0.039444167 -0.1844621 -0.20273602 0.066644944 -0.1713078
-0.054393634 0.1317124 -0.052339125 -0.15829803 0.00886197 -0.01425738 -0.048806 -0.10284832
-0.21122752 -0.17645083 0.07816134 0.024717955 -0.044243902 0.15531114 -0.085147664 -0.15711448
-0.06557359 0.15500395 0.06741118 -0.13673222 0.05656683 -0.21935447 -0.09030779 -0.056341518
-0.21294877 -0.24350195 -0.2345652 -0.09334778 0.1534469 -0.10383754 -0.1238284 0.0030030366
-0.04609691 -0.10497291 0.023311006 0.13851632 -0.053290114 0.02357424 -0.0058766645 0.012334254
0.16002269 0.054091796 -0.16403769 -0.17615896 -0.124349065 0.075709686 -0.138742 0.04614566
-0.047943443 -0.15302669 -0.18132362 -0.004855247 0.013314193 -0.23735493 0.099301025 -0.035289995
0.05128368 0.09684788 -0.031083936 -0.15922411 0.021450931 -0.15644532 -0.116599105 -0.107800744
-0.08809785 -0.19688141 0.013643632 0.0025022235 -0.119849846 0.0014789627 0.08357033 -0.08924183
0.062207814 -9.024391e-05 -0.042547926 -0.14962278 -0.25505635 0.07504767 -0.30417585 0.079044946
-0.018822338 0.108949274 -0.042784333 0.0028235456 0.090198226 0.09235791 -0.08442996 -0.15170866
-0.15712903 -0.16223532 -0.061647862 -0.046690878 0.14363082 0.15863444 -0.25950426 -0.16609825
-0.04905079 -0.009758067 0.1064439 0.115747206 0.13766785 -0.18131354 0.03393365 0.1601838
-0.004961126 -0.058614265 -0.25656548 -0.11589297 0.1161646 -0.22767372 -0.01574968 -0.23309876
0.0068289554 -0.17025496 0.16591676 -0.116748594 -0.03715947 -0.25377655 0.044030763 -0.24806829
-0.060141116 0.07314147 -0.111961514 -0.13962117 -0.0034252612 -0.10978595 -0.05824408 0.059188772
-0.16780508 -0.1705173 -0.03805711 -0.0024068689 -0.08593234 0.027661074 -0.027378745 0.021653725
-0.036254488 -0.12759125 -0.15298054 -0.100879155 -0.08058073 -0.038697083 -0.04269578 -0.49963334
-0.0015451732 -0.23856755 0.03917848 -0.14177702 -0.25476635 -0.13851835 0.04609976 -0.066423826
00000000: 010a 453d d5bc 423e cc83 c0bb 447b ccbd
00000010: 2332 bfbd 0416 f8bd a793 7e3d 650c 29bd
00000020: 5790 c7be f642 e33c 0622 95be f054 b93c
00000030: 292c 91bd 8bea 073e 007b e23d 87ef fd3d
00000040: 4287 003e e8dd 0d3d b696 623d a3f8 793d
00000050: 55f6 7e3d 5b0b be3d 2727 0ebe 0d28 813d
00000060: 6381 6dbe 17fa 85bd 61a5 913e b1f1 f6bd
00000070: 5236 dcbc f1f8 523b 4068 d5bc 931a 07bb
00000080: 2a44 58bb fce8 aabc 2672 1fbc 77ed cd3d
00000090: f63d b73a 7d07 ad3d ba1e a0bd 30e3 10be
000000a0: 56c9 57be 6f2c 3fbe 4d36 ad3d bbc9 433e
000000b0: e7c0 cebc f484 ed3c f5c3 c8bd a610 07be
000000c0: 4821 b2bd 2d9a 2abd 0b54 d13d ba91 f1bd
000000d0: a19b 84be d17e 543d fa0b 9d3d f457 40be
000000e0: a765 eebd 905e 4cbd acbd 993c efb8 a13c
000000f0: 2c8a cb3d ff07 b5bd 4df4 9fbd 3b1b c3bd
00000100: 3f3f 27be 2178 53be 9772 013d 983d 49be
00000110: 77d9 66bd 99da 1ebd 97e3 d03d c600 1cbd
00000120: efaa 173e c49e 643c 2f53 063e 3eb3 3dbd
00000130: 94ce 31be 3c62 bb3d 95b3 32be 2541 53be
00000140: 2bbb 2f3e 561c 34be c299 acbd a41c 453e
00000150: 9327 a7bd 568c 77bd bad7 8dbd 0dac 62bd
00000160: 77e7 3fbd 6c4b f5bd 9b0b 1abe 9e21 ed3d
00000170: c316 9abc 3674 b23d 0fc8 673d b5cb 00bd
00000180: 9efd 283d 7e41 0b3e e73b 64bc 3590 21bd
00000190: a2e3 3cbe 089a 4fbe 257d 883d 506b 2fbe
000001a0: dccb 5ebd 9edf 063e 8d61 56bd e118 22be
000001b0: cc31 113c c997 69bc cde8 47bd 24a2 d2bd
000001c0: 074c 58be 87af 34be 0d13 a03d 4f7d ca3c
000001d0: 1839 35bd e209 1f3e e661 aebd 9ee2 20be
000001e0: 724b 86bd 5bb9 1e3e df0e 8a3d 8803 0cbe
000001f0: 9fb2 673d 759e 60be 4af3 b8bd 5dc6 66bd
00000200: 3e0f 5abe 9358 79be dc31 70be 1f2d bfbd
00000210: 2f21 1d3e c7a8 d4bd bf99 fdbd 98ce 443b
00000220: 1dd0 3cbd 09fc d6bd b9f6 be3c 39d7 0d3e
00000230: bc46 5abd c41e c13c 0991 c0bb 9c15 4a3c
00000240: fddc 233e 5c8f 5d3d 7ff9 27be 0463 34be
00000250: b9aa febd ae0d 9b3d 6212 0ebe 3b03 3d3d
00000260: 5860 44bd 07b3 1cbe e6ac 39be c418 9fbb
00000270: c623 5a3c 2c0d 73be 565e cb3d 3e8c 10bd
00000280: d60e 523d 2e58 c63d bda3 febc a50b 23be
00000290: ddb9 af3c 3433 20be 83cb eebd a3c6 dcbd
000002a0: a56c b4bd 489b 49be 8a89 5f3c 58fc 233b
000002b0: d673 f5bd c1d9 c13a ec26 ab3d 6cc4 b6bd
000002c0: 9fcd 7e3d 5541 bdb8 bc46 2ebd b736 19be
000002d0: bf96 82be 98b2 993d f0bc 9bbe 51e2 a13d
000002e0: 4e31 9abc cc20 df3d a03e 2fbd 3c0b 393b
000002f0: d9b9 b83d 2526 bd3d 9de9 acbd 8459 1bbe
00000300: 6fe6 20be 0421 26be 7882 7cbd ef3e 3fbd
00000310: f513 133e 1171 223e bedd 84be a915 2abe
00000320: 7be9 48bd 4de0 1fbc 42ff d93d df0c ed3d
00000330: cdf8 0c3e 42aa 39be 03fe 0a3d 3907 243e
00000340: f190 a2bb 8315 70bd 8d5c 83be 4b59 edbd
00000350: b5e7 ed3d 4d23 69be 7905 81bc 71b1 6ebe
00000360: 6ec5 df3b 5157 2ebe 15e6 293e e319 efbd
00000370: 8734 18bd 00ef 81be 9a59 343d 9d05 7ebe
00000380: 8856 76bd 32cb 953d 144c e5bd daf8 0ebe
00000390: 597a 60bb 75d7 e0bd 5891 6ebd ed6f 723d
000003a0: 18d5 2bbe 169c 2ebe c6e1 1bbd 8fbc 1dbb
000003b0: 4bfd afbd 7a99 e23c 6449 e0bc 2763 b13c
000003c0: 967f 14bd 48a7 02be eea6 1cbe bb99 cebd
000003d0: 8307 a5bd d580 1ebd c5e1 2ebd f1cf ffbe
000003e0: 6987 caba 0d4b 74be 9d79 203d ff2d 11be
000003f0: bc70 82be c1d7 0dbe 1ad3 3c3d 3709 88bd

critic.2.bias f4 [64]
-0.016573854 -0.03749594 -0.08282734 0.017910581 0.13280599 -0.0036656982 -0.0972306 -0.04631806
0.09139758 0.30387554 0.08720111 0.18141998 -0.10835206 -0.052850194 0.16533324 -0.13441625
-0.16658583 0.033635497 -0.017639676 0.23426335 -0.059131317 -0.051258873 -0.13194235 0.053656053
0.03796373 0.15689497 -0.099177256 0.31337136 -0.0827342 -0.32446823 -0.13587418 -0.070738755
0.06513452 -0.13429457 0.099751614 -0.085149065 -0.048308115 0.08792254 0.03269396 0.040365048
-0.042500187 -0.023608575 0.088462785 0.13443469 0.011782564 -0.063928 -0.12135856 0.09053403
-0.22186574 0.09545011 -0.22885354 -0.0012850139 -0.063401334 -0.031116314 -0.2179694 -0.050781764
-0.09889728 0.055455383 -0.016470455 0.06736542 0.08158999 0.036662307 0.06503725 -0.03752866
00000000: e4c5 87bc 5895 19bd 61a1 a9bd 36b9 923c
00000010: 4bfe 073e 363c 70bb d620 c7bd 02b8 3dbd
00000020: a82e bb3d 9395 9b3e 7f96 b23d 29c6 393e
00000030: afe7 ddbd 7279 58bd 1e4d 293e 6aa4 09be
00000040: 7a95 2abe 60c5 093d 1581 90bc bbe2 6f3e
00000050: ae33 72bd d3f4 51bd e51b 07be 73c6 5b3d
00000060: db7f 1b3d 13a9 203e 721d cbbd 3672 a03e
00000070: 8c70 a9bd b320 a6be 9a22 0bbe 7bdf 90bd
00000080: 3f65 853d 8484 09be 934a cc3d a262 aebd
00000090: bbde 45bd bc10 b43d 1aea 053d d255 253d
000000a0: ad14 2ebd c566 c1bc fa2b b53d 3fa9 093e
000000b0: a80b 413c afec 82bd d68a f8bd e869 b93d
000000c0: c630 63be 597b c33d 9558 6abe e96d a8ba
000000d0: 8fd8 81bd a4e7 febc 5f33 5fbe 8a00 50bd
000000e0: a88a cabd 2f25 633d 0ced 86bc e2f6 893d
000000f0: a718 a73d 372b 163d 4032 853d a7b7 19bd

critic.4.weight f4 [1, 64]
-0.072433524 0.09429511 0.11297125 0.093890555 0.40606454 -0.10092135 0.25529817 0.62321484
0.12254831 0.1777336 0.04472282 0.10338044 -0.12820762 0.20211668 0.13826415 0.27953935
-0.41372758 -0.0848161 0.11607061 0.32707667 0.11966538 -0.38699377 0.20236884 0.11968037
-0.036864553 0.16441265 -0.1706559 0.18079363 -0.5930673 -0.4469708 0.07705092 -0.1109541
-0.45335373 -0.4095465 -0.56903934 -0.18531004 0.40449044 0.11354917 0.15727066 0.1017833
-0.07523584 0.13939005 -0.050826564 0.18158284 0.14478052 -0.10994441 -0.083202 0.12288771
0.3810013 0.22331141 0.14403455 0.21603383 -0.2373373 -0.8234333 -0.10022071 -0.14233063
-0.9027302 0.16690712 0.097601846 0.3992176 0.17264178 0.092315696 0.35174924 -0.092086196
00000000: 0758 94bd cb1d c13d 795d e73d b149 c03d
00000010: b1e7 cf3e daaf cebd 71b6 823e 028b 1f3f
00000020: 9cfa fa3d ccff 353e 472f 373d 20b9 d33d
00000030: dc48 03be adf7 4e3e 1e95 0d3e c81f 8f3e
00000040: 1ad4 d3be 10b4 adbd 6eb6 ed3d 9876 a73e
00000050: 1f13 f53d 0c24 c6be c739 4f3e fb1a f53d
00000060: 49ff 16bd ca5b 283e 6cc0 2ebe f721 393e
00000070: 42d3 17bf 5bd9 e4be dfcc 9d3d e73b e3bd
00000080: fb1d e8be 14b0 d1be 90ac 11bf eac1 3dbe
00000090: 5f19 cf3e 788c e83d 8f0b 213e c373 d03d
000000a0: 4015 9abd 44bc 0e3e 842f 50bd daf0 393e
000000b0: 5841 143e 892a e1bd cf65 aabd 8dac fb3d
000000c0: 9a12 c33e bfab 643e cb7d 133e f937 5d3e
000000d0: 8d08 73be 86cc 52bf 8440 cdbd 1fbf 11be
000000e0: 5419 67bf b3e9 2a3e 7ae3 c73d 4066 cc3e
000000f0: 02c9 303e 0310 bd3d 7a18 b43e b097 bcbd

exp_avg f4 [6]
0.00029094005 0.00010986188 0.0020028006 -0.00024179921 0.00015435183 -9.423685e-05
00000000: 5089 9839 a665 e638 6b41 033b 7b8b 7db9
00000010: 81d9 2139 06a1 c5b8

exp_avg_sq f4 [6]
8.431089e-06 1.2203319e-05 2.453298e-05 1.987123e-06 1.7618656e-06 1.3856123e-07
00000000: 4073 0d37 dbbc 4c37 2ccc cd37 835a 0536
00000010: 3e79 ec35 6cc7 1434

exp_avg f4 [64, 43]
-3.6273006e-05 8.278618e-05 0.0002918251 -0.00010177866 6.19546e-05 -1.6543354e-05 -8.6991284e-05 -1.6545904e-05
-2.0637794e-05 6.485568e-05 -0.00022163008 -0.0003032323 -9.8515455e-05 0.00014793637 0.0005734951 -0.00022454544
8.407714e-05 -0.00013487735 -0.0014172171 -0.0003117156 -1.9425284e-05 -3.1558247e-06 4.1337457e-06 3.7066437e-07
4.9491995e-05 2.1280834e-05 2.7787025e-06 4.632768e-05 2.5410463e-05 3.1478683e-06 -1.36751505e-05 9.378227e-06
-3.896238e-06 8.023532e-05 -1.8355075e-05 4.3433483e-05 7.306979e-05 -1.3675149e-05 9.378248e-06 -3.896238e-06
-1.1794195e-05 1.1217935e-05 9.644519e-06 1.2322056e-05 4.3307733e-05 0.00013116389 -2.339216e-05 1.185031e-05
-1.8557483e-05 -2.9164015e-05 2.5941308e-05 -1.0087094e-05 -0.00011372981 4.82196e-05 -0.00015337951 -6.2307145e-06
8.641789e-05 0.0002556565 -0.00011134159 4.3873504e-05 -8.7284505e-05 -0.0028136116 -0.00025279188 -3.879023e-06
-2.4847463e-06 -8.853743e-06 -7.161422e-08 2.1166132e-05 1.6874112e-05 1.353428e-06 1.866989e-05 8.023112e-06
1.2812534e-06 4.817367e-06 2.8580556e-05 -3.6827275e-06 3.225386e-05 -9.557754e-06 2.2918905e-05 5.479624e-05
4.817989e-06 2.8585211e-05 -3.6827275e-06 -3.8450726e-05 2.1457756e-05 -1.3258926e-05 1.9752635e-05 -2.1721684e-05
-0.00010950812 1.9839343e-05 -1.457063e-05 6.410186e-06 -0.000104087216 -4.383156e-06 -4.2248445e-05 0.00027831824
-3.1075102e-05 -0.000112333895 -1.0111987e-05 -3.50596e-05 -0.00021785316 0.00010365099 -2.79249e-05 -1.5882883e-05
0.0010308461 0.0005134273 2.6949033e-06 -1.0326334e-05 -3.982047e-06 1.8914648e-07 -2.959021e-06 -4.4134754e-06
-1.1813581e-06 -1.32813575e-05 -8.3954355e-06 -9.920122e-07 8.85518e-06 -2.3286726e-05 -1.1483793e-05 -3.0305715e-05
-5.0269514e-06 -2.9759516e-05 -2.4816183e-05 8.85525e-06 -2.3286204e-05 -1.1483793e-05 -2.7087437e-05 -2.3592576e-05
-2.4643727e-05 8.5979256e-05 -0.00010123512 -0.0002903566 0.00013831879 -6.350798e-05 4.2040076e-05 -5.795119e-05
-7.38024e-05 7.002768e-05 0.00018390197 -1.8986497e-05 0.0001619704 0.0001536552 -0.00020706964 -0.0005435569
0.00031048534 -0.00012565513 9.907432e-05 -0.00074946124 0.0008096114 4.2016677e-06 -4.0710156e-06 -1.5828018e-05
-1.0291159e-07 -3.4307643e-05 -6.1270007e-06 -2.6092393e-06 -3.8370556e-05 -2.1952306e-05 -2.710959e-06 -5.6486797e-06
-6.848697e-06 -7.4050445e-07 -6.9597634e-05 -3.7125099e-06 -4.2063228e-05 -3.1811338e-05 -5.649048e-06 -6.851461e-06
-7.4050445e-07 1.3674421e-05 -1.0493072e-05 1.374776e-06 -2.5974603e-05 -6.1572214e-06 2.8025795e-05 1.7941364e-05
-4.37689e-05 -3.9414976e-05 -0.0001416471 2.8690163e-05 2.5824094e-05 -9.287332e-05 -6.355933e-05 7.921187e-05
-7.618051e-05 -2.0814135e-05 5.0066574e-05 4.9487902e-05 -9.776306e-05 -7.0813156e-05 -1.02847525e-05 0.00014116245
-4.9460173e-06 4.812745e-07 1.2093573e-06 2.2365819e-07 4.2681254e-06 -2.1173623e-06 1.1992802e-07 4.744001e-06
-9.13962e-07 3.4343222e-07 2.8102752e-06 -5.702384e-06 7.999931e-07 7.436348e-06 -1.1157943e-05 3.8189305e-06
2.4802996e-06 2.8102834e-06 -5.702317e-06 7.999931e-07 8.7366925e-06 -6.678772e-05 -3.879174e-06 4.7825015e-06
4.7445395e-05 8.7070526e-05 -2.627434e-05 4.9599108e-05 -1.935476e-05 0.0001329969 -1.052976e-05 -5.0103743e-05
5.5375953e-05 0.00014157902 -0.00045212437 4.1786214e-05 8.273542e-05 0.00019318819 -5.354525e-05 0.00010672924
-0.00013576674 -0.001259399 -0.0025672475 -5.960308e-06 -2.9412897e-08 1.2207031e-06 -1.2858504e-07 1.4993345e-05
2.8957786e-06 1.2677599e-06 1.49488e-05 4.121078e-06 1.1389038e-06 2.4455592e-05 3.2855176e-05 -3.173482e-06
2.8866529e-05 8.672988e-08 2.1400605e-05 2.1779571e-05 2.445563e-05 3.2855485e-05 -3.173482e-06 1.7598377e-05
00000000: d823 18b8 7e9d ad38 1a00 9939 0172 d5b8
00000010: 9fed 8138 95c6 8ab7 176f b6b8 0fcc 8ab7
00000020: 531f adb7 2103 8838 5f65 68b9 26fb 9eb9
00000030: 159a ceb8 5e1f 1b39 9b56 163a f573 6bb9
00000040: 9252 b038 dd6d 0db9 eac1 b9ba c26d a3b9
00000050: 7bf3 a2b7 a8c8 53b6 9bb4 8a36 b9ff c634
00000060: a095 4f38 3e84 b237 bf79 3a36 f84f 4238
00000070: 8e28 d537 f73f 5336 536e 65b7 2e57 1d37
00000080: 6ebc 82b6 0244 a838 39f9 99b7 592c 3638
00000090: 0b3d 9938 516e 65b7 4557 1d37 6ebc 82b6
000000a0: afdf 45b7 aa34 3c37 e5ce 2137 d4ba 4e37
000000b0: 53a5 3538 0a89 0939 483a c4b7 b2d0 4637
000000c0: e4ab 9bb7 3fa5 f4b7 899c d937 bd3b 29b7
000000d0: 3a82 eeb8 673f 4a38 80d4 20b9 6e11 d1b6
000000e0: 403b b538 a209 8639 1080 e9b8 d104 3838
000000f0: 830c b7b8 9264 38bb 2789 84b9 8e28 82b6
00000100: 9ebf 26b6 898a 14b7 55ca 99b3 ec8d b137
00000110: e18c 8d37 6fa7 b535 499d 9c37 019b 0637
00000120: 88f7 ab35 dea4 a136 47c0 ef37 c724 77b6
00000130: 5248 0738 3e5a 20b7 f941 c037 04d5 6538
00000140: 36aa a136 46ca ef37 c724 77b6 2746 21b8
00000150: 2e00 b437 a772 5eb7 76b2 a537 f636 b6b7
00000160: b9a7 e5b8 aa6c a637 6174 74b7 1417 d736
00000170: 6649 dab8 0613 93b6 ec33 31b8 3eeb 9139
00000180: a356 02b8 cd94 ebb8 a7a6 29b7 f50c 13b8
00000190: 836f 64b9 345f d938 4440 eab7 3b3c 85b7
000001a0: 751d 873a 8697 063a 16da 3436 443f 2db7
000001b0: 869d 85b6 3018 4b34 9893 46b6 7717 94b6
000001c0: 288f 9eb5 ffd2 5eb7 1fda 0cb7 4825 85b5
000001d0: b590 1437 dd57 c3b7 84aa 40b7 0739 feb7
000001e0: 2fad a8b6 13a4 f9b7 592c d0b7 0291 1437
000001f0: be56 c3b7 84aa 40b7 d439 e3b7 ace8 c5b7
00000200: 00ba ceb7 c34f b438 314e d4b8 013b 98b9
00000210: ab09 1139 962f 85b8 3054 3038 9e10 73b8
00000220: 5dc6 9ab8 d3db 9238 cfd5 4039 3145 9fb7
00000230: 99d6 2939 811e 2139 d520 59b9 7c7d 0eba
00000240: a3c8 a239 4bc2 03b9 1fc6 cf38 7e77 44ba
00000250: 1a3c 543a 0dfc 8c36 c299 88b6 69c6 84b7
00000260: 3f00 ddb3 8de5 0fb8 8996 cdb6 641a 2fb6
00000270: 12f0 20b8 3826 b8b7 eced 35b6 ca89 bdb6
00000280: dccd e5b6 14c7 46b5 f2f4 91b8 6f24 79b6
00000290: 0c6d 30b8 2a6d 05b8 f48c bdb6 9ae5 e5b6
000002a0: 14c7 46b5 316b 6537 670b 30b7 f284 b835
000002b0: 09e4 d9b7 219a ceb6 f018 eb37 c980 9637
000002c0: 8094 37b8 8251 25b8 1b87 14b9 a8ab f037
000002d0: d2a0 d837 fcc4 c2b8 284b 85b8 8d1e a638
000002e0: 1ac3 9fb8 049a aeb7 93fe 5138 3b91 4f38
000002f0: 2506 cdb8 8681 94b8 ad8c 2cb7 0205 1439
00000300: f7f5 a5b6 ef30 0135 3351 a235 b226 7034
00000310: eb36 8f36 0218 0eb6 90c5 0034 a92e 9f36
00000320: fe56 75b5 f760 b834 2998 3c36 1b57 bfb6
00000330: 1bbf 5635 be85 f936 0033 3bb7 5d24 8036
00000340: 3973 2636 4d98 3c36 8856 bfb6 1bbf 5635
00000350: cf93 1237 6210 8cb8 da29 82b6 6079 a036
00000360: 1b00 4738 a299 b638 b767 dcb7 a308 5038
00000370: 085c a2b7 1575 0b39 faa8 30b7 7c26 52b8
00000380: 7a43 6838 d474 1439 1b0b edb9 9b43 2f38
00000390: 3e82 ad38 8f92 4a39 c695 60b8 d3d3 df38
000003a0: 9b5c 0eb9 6b12 a5ba 443f 28bb a8fe c7b6
000003b0: a5a7 fcb2 0ad7 a335 3011 0ab4 ed8b 7b37
000003c0: 1955 4236 e627 aa35 9bcc 7a37 ca47 8a36
000003d0: 70dc 9835 fc25 cd37 facd 0938 01f8 54b6
000003e0: 6626 f237 4140 ba33 7385 b337 46b3 b637
000003f0: 1126 cd37 4fce 0938 01f8 54b6 3aa0 9337
