2026-01-29_07-44-49_Fase2_Empuje_V1/model_1500.pt (torch, 189045 bytes, 36 tensors)

std f4 [6]
000000 a8 9f 6f 3e 2a 48 6e 3e 4e 36 1d 3e 4f 86 01 3f
       0.23400748 0.23269716 0.15352747 0.50595564
000010 c6 b3 12 3f 6a 54 eb 3f
       0.5730556 1.8385136

actor.0.weight f4 [64, 43]
000000 4b 96 c6 3c a1 e3 90 3e 46 6f 96 bd 72 32 0e 3d
       0.024241587 0.28298667 -0.073454425 0.034716077
000010 3a 2f 89 be 79 21 a6 be 6b 73 0e bd 24 03 82 be
       -0.26793844 -0.32447413 -0.03477804 -0.2539302
000020 f7 11 5a 3d 45 0b 69 3d c4 3e 41 bd 66 17 93 3d
       0.05323979 0.056895513 -0.047179 0.07182197
000030 5d 8d 44 3e 2e 5c 28 3e ca 48 09 bc 12 04 05 be
       0.19194551 0.16441414 -0.008379171 -0.12989834
000040 28 91 0f be ef 77 84 be b0 47 0c bd 99 b5 04 bb
       -0.14020216 -0.25872752 -0.034248054 -0.0020249842
000050 a7 15 44 3f 33 6b c1 3e bf 76 c0 3c 07 c7 00 bd
       0.7659554 0.377771 0.023494123 -0.031439807
000060 89 13 f2 be 9f ae 46 be a0 a6 34 be 50 90 83 be
       -0.4728053 -0.1940255 -0.17641687 -0.2569604
000070 68 04 f6 bc c0 82 91 be 87 4b 8f 3e c3 9a dd 3d
       -0.030031398 -0.28420067 0.2798731 0.10820534
000080 10 e6 ba 3e 16 fb 11 bf ac 17 80 3d e8 0d 30 3e
       0.3650365 -0.5702375 0.06254515 0.17192805
000090 77 84 73 3e 3a 99 87 3e 44 9c 82 3e 29 fc 4b 3e
       0.23781 0.2648409 0.25509846 0.1992041
0000a0 5e 27 ce be 01 2c 8f bd ac 54 b8 3e a7 44 b2 bc
       -0.4026441 -0.06990815 0.360021 -0.021761252
0000b0 bb a5 31 3e a5 5d 8c 3e e8 92 27 3f c4 cb 0e bf
       0.17348377 0.27415195 0.65458536 -0.5577967
0000c0 f2 26 04 be 74 89 08 3e 6e 16 35 bf d3 b8 d2 bd
       -0.12905481 0.13333684 -0.7073735 -0.10289159
0000d0 89 f8 0e be 5c 6f d9 3d 26 46 cd 3a 0f 5b 28 3e
       -0.13961996 0.10616943 0.0015661165 0.16440986
0000e0 f7 b5 0b be 8e 40 44 bd 31 72 f2 3e 1d 8b 1e bf
       -0.13643633 -0.047913127 0.47352746 -0.6193102
0000f0 ac e7 1c be ea 38 45 bd b0 c4 46 3c 88 f4 1d bf
       -0.15322751 -0.04814998 0.012131855 -0.6170125
000100 c5 03 3d 3f 34 06 76 3e 65 56 80 3e 6c d1 45 bf
       0.73833877 0.24025804 0.25065914 -0.7727268
000110 c9 8f 3f bf 1b 4c 06 3d 3f 24 11 be 05 08 67 3c
       -0.74828774 0.032787424 -0.14173983 0.014101033
000120 8e 10 8b 3e 46 43 a1 be 0f a4 1d bc 91 34 bd 3e
       0.27161068 -0.31496638 -0.009621634 0.36954167
000130 3f c1 55 be 0e 2e a1 be f6 5b 93 3e 3f 76 af 3e
       -0.20874499 -0.3148045 0.28781098 0.34269902
000140 df 68 89 be 41 45 17 3d 9e db 11 3f 37 b7 1e 3e
       -0.26837823 0.03693128 0.56975734 0.15499578
000150 8d 12 33 3f 48 95 de bd e7 f9 cb be dc 43 0c be
       0.6995018 -0.10868317 -0.39839098 -0.13697761
000160 77 25 6e be 27 2f 22 3d 6f cb 63 3c 18 aa ae be
       -0.23256479 0.03959575 0.013903483 -0.34114146
000170 41 43 a8 3e ea 4d a7 bd df 79 bc be fb 3d 46 be
       0.3286381 -0.08169158 -0.3681173 -0.19359581
000180 92 f6 03 3d a4 d7 58 3d 33 02 2a be 7b 57 ee bd
       0.03221757 0.052940026 -0.16602401 -0.11637779
000190 c0 1e 98 be 8d fd f4 3d 36 80 3f bc 48 21 9a be
       -0.2971096 0.119624235 -0.011688283 -0.30103517
0001a0 33 8a e7 bb 6f a5 d4 ba e6 21 ba be 86 65 ae be
       -0.007066035 -0.001622362 -0.36353987 -0.3406183
0001b0 54 e1 17 bd 27 62 99 be 2e 42 91 bd 34 c5 4d be
       -0.037080124 -0.29957697 -0.07092701 -0.20094758
0001c0 00 da 81 3d aa 15 cb be c6 a3 d3 bd 84 9c 7a bd
       0.06340408 -0.39664966 -0.10333972 -0.06118442
0001d0 bc 82 77 be 6d d4 86 3e 4e 1b f3 3e f1 42 7c be
       -0.24170965 0.26333943 0.4748177 -0.24634911
0001e0 21 15 8b bd c8 63 4a bd a2 02 06 bf 6f f3 bc be
       -0.067911394 -0.049411565 -0.5234777 -0.36904475
0001f0 85 ae 94 3e 8b 32 e7 3e 96 42 17 bf b3 fc 43 bd
       0.29039398 0.4515575 -0.5908598 -0.047848415
000200 e2 99 05 3f 0b b0 cd 3b f6 1a b2 3d 1a 91 20 3e
       0.5218793 0.0062770895 0.08696549 0.15680352
000210 38 27 ee be f4 70 b0 3e d8 68 65 3d d8 a6 c1 3c
       -0.46514297 0.34461176 0.05600819 0.023639128
000220 f3 35 48 be 82 8e 0d 3e ec 5b d2 3d 68 7a a3 bd
       -0.1955183 0.13823894 0.10271439 -0.079823315
000230 f8 b9 a5 3d 9c d8 7e bd 14 6b ed 3d 77 a2 48 3d
       0.08092111 -0.062218294 0.11592689 0.048983064
000240 66 da 87 be 6d a7 59 3e 2a 67 00 3e 00 98 53 3d
       -0.26533812 0.21255274 0.12539354 0.05165863
000250 ed 8e d0 bb 63 24 d6 bd d4 2f 7c be cf 57 94 bd
       -0.0063646943 -0.10456159 -0.2462762 -0.07243311
000260 70 7d d0 3d b2 05 14 be e0 09 02 3e 16 35 3c be
       0.10180175 -0.14455298 0.1269908 -0.18379626
000270 b7 5e 8f bb 21 63 49 3d 4d b2 fc ba 70 1d 59 bd
       -0.0043753046 0.049166802 -0.0019279212 -0.05300659
000280 22 ce 10 be 25 d0 92 3e 4a 06 af bd 33 f0 71 bd
       -0.14141133 0.28674427 -0.085461214 -0.059066962
000290 30 4d 73 bd f8 eb 29 3c 97 e8 23 bd 60 8f 17 be
       -0.059399784 0.010371201 -0.040016737 -0.14800787
0002a0 12 10 93 3e 9a 83 90 3d 9f 34 e0 bd af f5 db be
       0.28723198 0.07056351 -0.10947537 -0.4296088
0002b0 83 47 39 3e 55 9e 0f bf 6c 07 08 bf 01 d7 48 3c
       0.18093686 -0.5610097 -0.53136325 0.012258292
0002c0 87 44 a0 3c 9c 20 92 3e ce 67 07 3e 9c 25 80 3e
       0.019563926 0.28540504 0.13223192 0.25028694
0002d0 79 84 aa 3e 57 cd 01 3e d8 d9 0a bd 15 70 8b bd
       0.33304194 0.12675987 -0.03389916 -0.06808487
0002e0 64 d8 1f 3e 46 82 0e be 9a 97 84 bd fc 87 aa 3d
       0.1560989 -0.13916883 -0.06474228 0.08326718
0002f0 f7 e2 98 3b 26 51 41 3e 1a f4 96 bc 63 2d 2b bc
       0.004665728 0.18878612 -0.018426944 -0.010447833
000300 66 0f c7 3d ad df 74 3e af 84 80 bd 76 66 6a be
       0.09719734 0.2391345 -0.062753074 -0.22890648
000310 9d 2a 24 be a0 6e 7d 3d 09 cf 99 bd 59 3f 7e bd
       -0.1603188 0.06187308 -0.07510192 -0.06207213
000320 6b d9 45 be 3c bb 35 be 16 8e 7f be 90 cc 9f 3e
       -0.1932122 -0.17747205 -0.24956545 0.31210756
000330 6b 82 80 be 0f 6b b3 be 5e 20 ef 3b 48 ac 5a be
       -0.250995 -0.35042617 0.0072975596 -0.21354783
000340 1e f9 a0 be de 2a a7 be f7 a1 b3 3e 86 27 31 be
       -0.3144006 -0.32649893 0.35084507 -0.17300233
000350 94 a4 8c 3e 02 59 83 bf 6c 7a b6 3e 6a 0d 34 bd
       0.27469313 -1.0261538 0.35640275 -0.043958105
000360 b5 11 9e bd 54 63 b5 bd 35 2d 10 bd a9 af 4e 3e
       -0.07718221 -0.08856836 -0.035199363 0.20184197
000370 59 ff fd bd 93 80 a9 3e 04 fd 57 bf 6b de 05 3d
       -0.12402219 0.33105907 -0.84370446 0.032682817
000380 04 ed 93 bd 4c 85 d8 3d 59 c6 6e bc 10 1d e1 bd
       -0.072229415 0.10572299 -0.014573657 -0.10991871
000390 ff 76 91 be 95 1d 7d be 2d 8b 53 be 7a 4b e3 3e
       -0.284111 -0.24718316 -0.2065856 0.44393522
0003a0 25 de 10 3e 13 f3 12 3d 90 d8 1c bb 58 75 5a be
       0.14147241 0.035876345 -0.0023932792 -0.21333826
0003b0 12 c9 f9 be a8 8f 85 3c 90 15 92 3e ee 31 3f be
       -0.48786217 0.016303852 0.28532076 -0.1867139
0003c0 e5 99 bc be 51 11 70 be fc 13 40 be 1b 40 15 be
       -0.36836162 -0.23444106 -0.18757623 -0.14575236
0003d0 31 26 07 be 02 b8 82 be 73 00 1d be 94 11 21 3e
       -0.13198163 -0.25531012 -0.15332203 0.15729362
0003e0 0d c4 3c bd 1b 75 61 3e 43 c6 44 bd 0b 09 dd be
       -0.046085406 0.22017328 -0.04804064 -0.43170962
0003f0 85 32 33 be 73 ea 01 be da f9 75 3d 12 0b ee be
       -0.1749974 -0.12687092 0.06005273 -0.4649282

actor.0.bias f4 [64]
000000 e8 e1 95 3c 64 93 59 3e 0f d6 a1 3d 74 8d d3 bd
       0.018296197 0.21247631 0.079021566 -0.103297144
000010 3a 6b a5 3c 60 a8 83 bd 52 87 93 3d 6f 9e 03 bb
       0.020192731 -0.06428599 0.07203545 -0.0020083447
000020 06 ed c1 bd f0 b0 d2 3d ba 76 cb be 99 59 47 3e
       -0.09469037 0.102876544 -0.3973902 0.19467773
000030 48 90 84 be a8 f5 54 be c6 fa 2d 3d 4b 47 0f bc
       -0.25891328 -0.20796835 0.042475484 -0.008745025
000040 d2 86 f0 3b 6e 77 d6 bd c0 e9 ad be ff 4a a6 bd
       0.0073402906 -0.10471998 -0.339674 -0.08119773
000050 ce 72 d8 be 1e de a1 3c bf 7d 2f be 03 df 55 be
       -0.4227509 0.019759234 -0.17137812 -0.20885853
000060 c7 d1 16 be 48 6d 9a 3d 9f 1e 1a be f8 0a 69 bd
       -0.14728461 0.07540375 -0.15050744 -0.056895226
000070 64 32 00 3c 8d a4 a1 be 9a 1e 9f 3e 45 fc ad 3d
       0.007824514 -0.31570855 0.31078035 0.08495382
000080 b7 fb 81 bd b8 6c 01 3e 2a 2a 87 be d7 0d dd b9
       -0.06346839 0.12639129 -0.26399356 -0.00042162716
000090 cf 45 1b 3e af dc 96 be 16 e8 1d be ea 74 b2 be
       0.15163349 -0.29465243 -0.15420565 -0.34854823
0000a0 6f 64 f9 bd 81 29 82 be fb f0 06 bd 06 37 be bd
       -0.12177359 -0.2542229 -0.03294466 -0.09287839
0000b0 82 e0 9a bd 83 43 ac 3d 1c 2b ef 3d 7e 88 4b be
       -0.07562353 0.08411314 0.11678144 -0.19876286
0000c0 b8 ba 3c be 7d 76 17 3c 83 0f 84 3d cb 93 01 be
       -0.18430603 0.009244558 0.06448271 -0.12654035
0000d0 de 25 0f be d1 70 38 be a5 17 11 bd f2 86 d2 3b
       -0.13979289 -0.18011786 -0.03542294 0.006424778
0000e0 1a 69 a3 3e eb 4f b0 bb 0f 7c fa 3c 4a 74 d8 be
       0.31916124 -0.0053806207 0.030576734 -0.42276222
0000f0 f7 a4 a6 be f4 7f b3 3d c5 d4 36 be 4e 75 2f be
       -0.32547733 0.087646395 -0.17854603 -0.17134592

actor.2.weight f4 [64, 64]
000000 e2 5f ea 3c 66 c3 be bc 26 6d b2 ba d8 de 96 3d
       0.028610174 -0.023286533 -0.0013612851 0.07366723
000010 32 65 37 3d fd 50 36 3d a8 ca 20 3d dc f9 b2 3d
       0.04477424 0.04451083 0.039255768 0.08739063
000020 02 81 ee bd 9d 26 95 3c d2 7a 5a 3d fe 9e 0a bd
       -0.116457 0.018206889 0.053339787 -0.033843033
000030 49 28 70 3d 68 88 e7 bd 18 d8 9b 3e f3 bf 83 be
       0.05863217 -0.11305314 0.30438304 -0.25732383
000040 79 1d d7 bd a2 69 39 3e 63 2a c8 ba a9 1f 00 3c
       -0.10503668 0.18106702 -0.0015271421 0.007820048
000050 0f c3 9c 3d 0b f5 e2 bd 0e f5 5c be 15 18 21 3d
       0.07654392 -0.110818945 -0.21577856 0.039329607
000060 ed 21 00 3e e8 da e5 3c 92 c7 35 3d 68 b8 ca 3d
       0.12512942 0.028058484 0.04437978 0.09898454
000070 87 c9 05 3e 3e 6b 91 bd 9e 3b 7c 3d 80 72 1e 3e
       0.13065158 -0.07100533 0.061580293 0.15473366
000080 dd e5 06 3e 8e 12 03 3e 6e 22 c9 bd 98 b5 95 3d
       0.13173623 0.12800047 -0.0982102 0.07310027
000090 37 7e 0d be 9b a1 c6 3c dc 57 9c 3e 71 4e 93 3d
       -0.13817678 0.024246981 0.3053578 0.07192696
0000a0 6c 07 c0 3c fa 77 69 bd 1f 96 d5 bd 1f 9e 13 bd
       0.023441039 -0.056999184 -0.10429024 -0.036039468
0000b0 df fb 89 3d 05 13 42 be a0 f0 0c 3e 60 3e f8 3d
       0.06737494 -0.18952568 0.13763666 0.12121272
0000c0 ec 49 1b bd 0e c9 5b bc 8a 3c 00 3d f3 af 16 be
       -0.037912294 -0.013414634 0.031307735 -0.14715557
0000d0 0a 6c d5 3d 92 cf 0d be ae 52 56 3d 3d c2 5b 3e
       0.104209974 -0.13848713 0.052324943 0.21460815
0000e0 56 a5 83 bd 23 62 68 3d f1 13 12 be 83 7b f9 3c
       -0.0642802 0.056734215 -0.1426542 0.030454403
0000f0 4d 9e 0c 3d 21 4a 2e 3e 1b 5e 13 be 58 73 af bd
       0.034330655 0.17020465 -0.14391367 -0.08566922
000100 48 18 9e be 48 81 30 be d7 d2 b3 3d 43 9f c8 bd
       -0.308779 -0.17236817 0.08780449 -0.09796002
000110 9e 8b de 3c 07 86 5b 3e 86 e9 81 3d 7d cd 07 be
       0.027166184 0.21437846 0.06343369 -0.13261981
000120 ec ca 8f bd ba f4 ec be bd 1f 94 3d 8f 45 10 bd
       -0.07021126 -0.46280462 0.07232616 -0.035222586
000130 79 60 8f bd 3f 3f a4 3c e8 7b 9e be cc 3e 41 be
       -0.070008226 0.02004969 -0.30953908 -0.18871611
000140 ce 06 a2 bc 4e a0 92 3e cf 73 80 3e 78 03 19 3d
       -0.019778635 0.28637928 0.25088355 0.037356824
000150 2a f5 25 3d 2b ef c9 3b 14 5f 19 3e d3 30 92 3d
       0.04051701 0.0061625442 0.14977676 0.07138219
000160 b8 2c 07 bd 89 87 64 3d d8 4d 71 be ab 91 55 3d
       -0.03300163 0.05579332 -0.23564851 0.052140873
000170 fd 41 f0 3d 11 b2 02 3e 2e 96 b8 bd 33 11 b8 3d
       0.11731336 0.1276324 -0.090130195 0.089876555
000180 af 51 f5 3d 3a 06 1c be aa 5f 97 3c 00 fe 9a 3d
       0.119784705 -0.1523675 0.018478233 0.07567978
000190 c7 de 51 be 64 04 8c 3e 47 be 18 3e 3f a0 76 3d
       -0.20495139 0.273471 0.14916335 0.060211416
0001a0 06 e1 27 3e 04 92 02 3e a2 cf d6 3d 25 46 35 3e
       0.16394433 0.12751013 0.104888216 0.1770254
0001b0 34 c8 d8 be e7 d1 9a bd e1 63 25 bf 39 98 c6 3d
       -0.42340243 -0.07559567 -0.6460553 0.09697003
0001c0 97 76 26 3e 1b 77 b9 bb 78 df a6 3c 2d 82 e2 3c
       0.16256176 -0.0056599504 0.02037023 0.027649963
0001d0 54 44 26 bc f4 da 84 3d cb fe a0 bd b0 3b a3 be
       -0.010148127 0.064870745 -0.07861098 -0.31881475
0001e0 ae bf 4b 3e ee 5e c0 3c ac 60 80 bd 02 62 1b 3d
       0.19897339 0.023482766 -0.06268439 0.037935264
0001f0 bf 51 c4 bd be ea 99 3e a3 80 16 bf df 1f 1c 3e
       -0.09585904 0.30061907 -0.58790034 0.15246533
000200 9e 82 03 bc c3 23 08 bd e1 4b 76 bd b6 ad 3e 3e
       -0.008026747 -0.03323723 -0.060130958 0.18620953
000210 15 c4 82 3d 37 7e 92 3d b7 2a a3 3d ed 5e 36 be
       0.06385056 0.0715298 0.079671316 -0.17809649
000220 9e 4c a9 3c f8 ca fb 3d 96 f9 82 be dc 20 e3 3d
       0.020666417 0.122945726 -0.25581044 0.11090252
000230 dc 2d ad 3c ee cf d2 bb 01 c3 a5 3d b3 db 30 3d
       0.021140032 -0.0064334786 0.08093835 0.04317827
000240 53 fe 33 3d c8 3f 62 bd f0 41 22 bc 31 54 76 3e
       0.043943714 -0.055236608 -0.009903416 0.24055554
000250 07 c4 7d bc cc 3c 03 be f1 e2 b3 3c 06 62 2a be
       -0.015488631 -0.12816161 0.0219588 -0.16638955
000260 29 40 f6 bc 30 cd bf bb ad 9e ef 39 6b d8 1f bf
       -0.03005989 -0.0058533177 0.00045703855 -0.624396
000270 72 8a b5 3c 19 33 e1 ba bf 65 b3 be de d9 f3 bb
       0.022160742 -0.0017181366 -0.35038564 -0.0074417433
000280 76 d4 3e be 21 bc 4c 3d dc 52 1e 3e 8a 3e 9f bc
       -0.18635735 0.0499841 0.15461296 -0.019439
000290 ec 2c 77 3c ff 27 de 3c 25 c7 35 bd d8 66 0d 3d
       0.015086394 0.027118681 -0.044379372 0.034521908
0002a0 89 c7 72 bd 8b cd 67 3d 22 88 a8 bc c3 e7 55 3d
       -0.059272323 0.056592505 -0.020572726 0.05222298
0002b0 35 76 fe bd 13 fa 4f be a3 d8 81 be d9 b7 55 be
       -0.1242489 -0.2031024 -0.25360593 -0.20870914
0002c0 28 66 83 3d b1 02 ad bd da 7f 2e 3e c6 ac 85 be
       0.06415969 -0.08447779 0.17040959 -0.26108378
0002d0 af 14 40 bd d3 ac 5d 3c be ae 51 bd 6c 52 e7 bd
       -0.046894725 0.013529974 -0.051192038 -0.112950176
0002e0 9b 63 1f 3e bd 04 d3 3d e9 c5 f6 3c 82 25 3a be
       0.1556534 0.10303638 0.030123668 -0.1817837
0002f0 e1 c8 92 3c 50 d1 51 3c ab c1 55 be 19 c5 65 3d
       0.017918052 0.012806252 -0.2087466 0.05609617
000300 33 79 8e bc a4 4f 1c bc 35 79 83 bd f3 d9 98 3d
       -0.017391777 -0.009540472 -0.06419603 0.074634455
000310 25 d2 41 3d c8 b6 57 3e 9c 6a aa 3c 0e ef 91 bd
       0.04731955 0.2106582 0.020802788 -0.07125674
000320 f0 bd 0b 3d f4 1e 14 3d 9d 09 df 3d db 92 9e bd
       0.034116685 0.03616233 0.108905055 -0.07742854
000330 25 24 f0 bc 35 88 e3 bd cf ec 3f 3e c7 fe 23 be
       -0.02931411 -0.11109964 0.18742679 -0.16015159
000340 cb fa 70 bc 2b a0 8d 3b b8 cb 91 3d 34 f4 4e 3c
       -0.014708231 0.004322072 0.071189344 0.012631465
000350 d0 14 e1 bd eb de fd bd 5c f7 b6 3d 3c 36 9c bd
       -0.10990298 -0.12396034 0.08933899 -0.07627532
000360 d4 64 ac 3d 80 59 0f 3c bc 69 1f 3e e3 c4 c9 3d
       0.08417669 0.008749366 0.15567678 0.09852006
000370 28 ee cd bc 92 27 91 3c 87 6f 3c be ce 25 98 bd
       -0.025137976 0.017719064 -0.1840192 -0.07429086
000380 62 6a 0a 3e 26 03 5a bc 4f f4 14 bd 3b 24 34 3e
       0.13517144 -0.013306415 -0.036365803 0.17591946
000390 ad 22 2a be 9c 7f f9 3d be 40 a7 3e e2 36 8d 3d
       -0.1661479 0.12182543 0.32666582 0.06895234
0003a0 2d 29 81 bd c8 2b fe bd fa f2 7b 3d dc f8 9b 3d
       -0.06306682 -0.12410694 0.061511017 0.076158255
0003b0 0e af 1d 3e 89 08 49 3d 11 6c c0 3c 63 44 5b 3e
       0.1539881 0.049080405 0.02348903 0.21412806
0003c0 4f 3c fc 3c f8 93 64 bd f0 09 91 bd 1d 07 0c 3e
       0.030790476 -0.055805176 -0.070819736 0.13674589
0003d0 aa 85 91 bc 2e be 15 3e 7e 3f 99 bd 98 79 50 3e
       -0.017763931 0.14623329 -0.07482813 0.20358884
0003e0 b7 1e 90 be b4 42 1e be 31 ef 0e 3e 48 4c 46 bd
       -0.28148434 -0.15455133 0.13958432 -0.04841259
0003f0 26 f1 e1 3d be 4b b7 3d 7a ae 31 bd e2 0d 04 bd
       0.110323235 0.089499936 -0.043379284 -0.032239802

actor.2.bias f4 [64]
000000 ee 1c e4 bd fb 49 9e 3d 22 42 9d 3d 89 76 f8 3d
       -0.111383304 0.077289544 0.076786295 0.12131984
000010 f4 1e 7e 3c ed 9c a9 3c 2d ed 3f bd 07 fe 7b 3e
       0.0155103095 0.02070471 -0.046857048 0.24608622
000020 6b 32 ac bd 97 9e c0 bd fc f1 b2 3e af ca c4 bd
       -0.08408054 -0.094052486 0.34950244 -0.09608971
000030 d2 48 4e 3d d4 05 73 be 17 0f 5d 3d ae fa 77 3e
       0.050362416 -0.23732692 0.05396947 0.2421672
000040 78 11 bb bc a2 11 97 be ea eb a7 bc 8b f7 51 be
       -0.022835478 -0.2950564 -0.020498235 -0.20504586
000050 80 ac 8b 3d f6 7f 6a bd 4c 1d 6c be e4 d5 5a bd
       0.06820011 -0.05725094 -0.23058051 -0.05342664
000060 37 76 dd 3c 15 5b 87 3e 05 84 a3 3d 69 e2 04 3e
       0.027033908 0.26436678 0.07984165 0.12976994
000070 0e 6a 06 bd af 0d 0f be f0 2a e6 3d 47 c5 89 3d
       -0.032815985 -0.13970064 0.112386584 0.06727081
000080 14 ef 8e be af 0b 12 be ae 65 9e bd 6f 99 64 be
       -0.27916777 -0.1426227 -0.077342376 -0.22324155
000090 8b 0f 6d bd 10 4c 0f be d1 24 a6 3a f6 50 86 3c
       -0.05787615 -0.1399386 0.0012675767 0.016396027
0000a0 f1 2d f7 3d 0d 35 99 be 29 9f 89 bc 1d f7 ab 3c
       0.120693095 -0.29923287 -0.016799526 0.020991856
0000b0 02 20 ac bd 44 2e 20 be 28 04 f2 bd 22 bd 2b be
       -0.084045425 -0.15642649 -0.11817199 -0.16771367
0000c0 4d f7 9d 3d f2 b5 ae 3e 92 9c 96 bd a6 4a 1e be
       0.077131845 0.34123188 -0.07354082 -0.15458164
0000d0 bf 44 51 3e 67 ed 24 3d 84 01 d5 3d 8f 7b 9c be
       0.20436381 0.040265467 0.1040068 -0.30563018
0000e0 7d d3 0f 3e ec ab a6 3d ce a2 0b bd d6 eb cc bd
       0.1404552 0.0813826 -0.03409081 -0.1000592
0000f0 97 03 90 3c 73 48 14 bd 0f f4 3a be 4c c2 54 3e
       0.017579837 -0.036201905 -0.18257163 0.20777243

actor.4.weight f4 [6, 64]
000000 c0 c3 39 be 69 37 dc bd 1e 85 43 3c 96 d7 50 be
       -0.18141079 -0.10752756 0.011933593 -0.2039474
000010 49 0c 82 bd 81 1b 4f 3d ac 50 ba bd dc cd 32 3d
       -0.063499995 0.05056334 -0.09097418 0.043653354
000020 2e d1 9c 3d 5c ad d4 bd 03 d4 79 bc 27 ee 37 3d
       0.07657085 -0.10384628 -0.015248301 0.044904854
000030 5a 04 b9 3d f0 de 83 3d 8f e8 5b bd c2 4f 0e bd
       0.09034033 0.06439006 -0.053688582 -0.03474403
000040 30 56 08 3e dd 1e 2f 3e e4 9e 56 3d 6a 27 fc 3d
       0.13314128 0.17101617 0.052397624 0.12312205
000050 73 4e ec 3b f8 f4 f6 bd e7 43 97 3d e6 d7 15 3e
       0.0072115003 -0.12058443 0.07385998 0.1463314
000060 79 fd 10 3e 74 ac c0 bc 65 5e 98 3d 2c 07 90 bd
       0.14159192 -0.023519732 0.07439879 -0.07032618
000070 29 f9 a9 bc b8 e3 0f be 28 35 c5 3c 39 21 02 bd
       -0.020748692 -0.14051712 0.024073198 -0.031769965
000080 63 83 63 3d 11 e9 23 3e de 74 17 bd f5 2d 70 3d
       0.055545222 0.16006877 -0.036976688 0.058637578
000090 1f 0c 9f bd de b1 2e bb 35 8c 54 be 52 67 4d 3e
       -0.07765984 -0.002665631 -0.2075661 0.20058945
0000a0 30 13 d1 3d 91 f1 96 3d 30 36 80 3d a9 f9 87 bd
       0.10208738 0.07370294 0.062603354 -0.06639416
0000b0 29 55 7d 3e 37 1e bc 3d d7 fd 41 bd 39 42 4f 3d
       0.24739517 0.091854505 -0.04736122 0.050600264
0000c0 3b 54 23 3d 13 8f d7 bb 12 8a d9 bd 7e ee 14 3d
       0.03987525 -0.006578335 -0.10622038 0.036360256
0000d0 20 a6 30 be b7 e0 a6 bd ae 4b 59 be f2 09 b5 bc
       -0.17250872 -0.0814833 -0.21220276 -0.022099469
0000e0 15 d0 aa 3d 9d 8a 16 be 28 f9 07 3d ff d8 46 bd
       0.0834047 -0.14701314 0.0331966 -0.048546787
0000f0 7b a4 65 bd 1b a6 a3 3c d1 bb 82 3e cf a3 02 be
       -0.056065064 0.019976666 0.25533918 -0.127578
000100 37 53 44 3d f0 9a 02 3e d6 16 70 be 7d 6b ca bd
       0.047930922 0.12754416 -0.23446211 -0.09883783
000110 b6 84 e6 ba 32 b2 7e bd 4a f6 a5 3d 97 b7 04 bc
       -0.0017587158 -0.06218166 0.081036165 -0.008100412
000120 e9 58 15 3e 73 ea 78 bd 75 63 ce 3d 91 49 ae 3c
       0.14584698 -0.060770463 0.10077564 0.021275314
000130 f4 3e 29 be 77 2a 5e bc 73 c5 7c 3d ea 80 27 bc
       -0.16527921 -0.013559929 0.06171174 -0.010223607
000140 4c c4 b3 3d 2b 2f 10 bd 52 98 92 3d a7 18 a0 bd
       0.08777675 -0.035201233 0.07157959 -0.07817202
000150 4a 8d 2f bd 3d 11 0c 3e 71 09 81 bd 87 52 13 be
       -0.042859353 0.13678451 -0.06300629 -0.1438695
000160 b5 46 d1 3c e2 7c f6 3c 22 be 9c 3d 22 8e 7f bc
       0.025546411 0.030088846 0.076534525 -0.015597852
000170 d3 81 09 be 5f 7b 43 bd 6d 8d 09 be a8 ae 12 3b
       -0.1342843 -0.047725078 -0.13432856 0.0022381935
000180 f4 80 5c 3d ee 3e 1c bc c6 62 ee 3d 07 1b 8c bb
       0.053833917 -0.009536488 0.11639933 -0.004275683
000190 9f 23 48 bd 54 71 9d bd 3c 08 a7 bd 15 ff a3 3d
       -0.048862096 -0.07687631 -0.081558675 0.080076374
0001a0 fd 89 53 3e 67 b6 c3 bd 17 ad 81 be ed 34 9b ba
       0.20658107 -0.09556275 -0.2532737 -0.0011841335
0001b0 ab 42 c3 3d d1 34 f3 3d 18 9b 88 3d 9d b4 45 bc
       0.095342 0.11875308 0.06670207 -0.012066987
0001c0 69 4b 08 3e 78 7b af 3c 7f 67 30 3d 11 f6 14 3e
       0.13310017 0.02142118 0.04306745 0.14546992
0001d0 2f eb cd bc fe 1e e1 bb d9 b4 33 3d 9b ee 01 bd
       -0.025136558 -0.0068701496 0.04387364 -0.031721693
0001e0 91 bd 6e bd cf e6 83 3d 3f 1f b1 bd 36 2b ec bd
       -0.058286253 0.064405076 -0.08648538 -0.11531679
0001f0 67 f7 a1 3d 4a 1c 0c 3d 82 59 a0 bc 1a b2 f7 3c
       0.079085164 0.034206666 -0.01957393 0.030236293
000200 aa e6 92 3a 3f e0 83 3d 45 53 7b bd 67 f5 4c 3d
       0.0011207659 0.06439256 -0.06135871 0.05003872
000210 10 0a 1a 3d d5 92 13 3d 77 3f 12 bc 89 f6 11 3e
       0.037607253 0.0360287 -0.008926264 0.14254202
000220 c4 7f 88 be fc 45 b2 3d d2 a2 9f 3d d9 eb 7f be
       -0.26659977 0.08704755 0.077947274 -0.24992312
000230 5b 76 f7 bd 5a 89 4e be 46 80 3b 3c 00 fd cc 3d
       -0.120831214 -0.20169583 0.011444157 0.100091934
000240 36 6b 58 bd 63 e1 2d be 18 80 af 3d c5 13 31 be
       -0.05283662 -0.1698051 0.08569354 -0.17292698
000250 6b 33 9d 3d 9f 42 98 bd cc 8c 0b be d9 7f a8 bd
       0.07675823 -0.07434582 -0.13627928 -0.0822751
000260 3e 2d ed bd 88 a5 fe 3d 86 75 a5 3d 36 0a 87 3d
       -0.11580895 0.12433916 0.080790564 0.065937445
000270 ca e1 81 be bd d4 27 bd 06 f1 c2 3d 3a 96 bc 3d
       -0.25367576 -0.040974367 0.09518628 0.09208341
000280 43 b4 e4 bb 2e 27 43 be 06 05 1c 3c a4 92 2a be
       -0.0069794967 -0.19057915 0.009522682 -0.16657501
000290 5b 11 14 bd e0 57 10 3c a6 f2 12 bd 32 d2 ba bd
       -0.036149364 0.0088100135 -0.03587594 -0.09122123
0002a0 18 02 8e 3c c9 a2 41 be 7c 5b 2c bc ae 36 b0 3d
       0.017334983 -0.18909754 -0.010519858 0.08604179
0002b0 80 77 03 3d 9b 0d 26 bd 92 84 72 bd e0 be 8e bd
       0.032096386 -0.04054032 -0.05920846 -0.0697
0002c0 85 2f 10 3e 3a c0 ed 3d aa 7b e0 bd 2a 09 d8 bd
       0.14080627 0.1160893 -0.10961087 -0.10548623
0002d0 ad 84 ca 3d 22 96 a0 3d f6 78 c5 3c d1 2f 3a be
       0.09888587 0.078411356 0.02410553 -0.18182303
0002e0 ca 69 f8 3d 5c e7 b0 3d 48 ce 9e 3c b5 84 69 bd
       0.12129553 0.08637878 0.019385472 -0.057011325
0002f0 9a 58 39 bd 81 8c 3c 3d c0 f9 2e be 19 1a 40 3d
       -0.045250513 0.046032432 -0.1708746 0.04689989
000300 f1 90 8c bd 58 0e 8c 3e 76 63 ca bd ce 7e b3 3d
       -0.06863583 0.27354693 -0.09882252 0.087644204
000310 3a 1f 96 bc 8e d4 9d 3d ed 4a c8 bb e9 71 30 bd
       -0.018325437 0.07706557 -0.0061124475 -0.043077383
000320 08 6f 11 3e 45 89 bd bd 6f 12 6e 3d 7c a1 4d 3e
       0.14202511 -0.09254698 0.05812305 0.20081133
000330 93 3a af 3d 2f db 33 be 15 e1 a5 3d 37 c6 9d 3d
       0.08556094 -0.1756408 0.080995716 0.07703822
000340 ad c1 8f bd 38 77 15 be 24 9e 06 be ac 9e 25 be
       -0.070193626 -0.1459626 -0.13146263 -0.1617381
000350 ae ef c9 bd a8 18 06 3e 0b e4 5f bd b7 6d 03 be
       -0.098601684 0.13095343 -0.054660838 -0.12834822
000360 a3 5d e1 bd f6 9a b7 bc 07 5d 88 bd e5 c6 f4 3d
       -0.11004188 -0.022412758 -0.066583686 0.119519986
000370 9c bf 84 3d ba 8b d6 3d 08 44 c3 3d 1d 56 fa bc
       0.06481859 0.104758695 0.0953446 -0.03055864
000380 c9 7b ea bd c2 ec 62 3b 48 ed be bd a4 53 14 3e
       -0.114493914 0.0034625982 -0.093226016 0.14485031
000390 9c 8a 19 bd df 6c 35 bc c7 31 64 bc b0 cb a7 3e
       -0.037485704 -0.01107332 -0.0139278835 0.3277259
0003a0 2f 97 e8 3d 16 b0 20 3c 4c 51 6a 3e c5 0b 2f be
       0.11356961 0.009807607 0.22882575 -0.17094333
0003b0 d8 4e ea 3c 43 c4 ea bd 77 88 5d be df 09 8c 3e
       0.028602049 -0.11463215 -0.21634088 0.2735128
0003c0 a6 7e 0c bd 4e 87 b8 3d 89 37 ff ba bd 42 a6 be
       -0.03430047 0.09010182 -0.0019471507 -0.32472792
0003d0 cc a7 88 bd b1 42 87 3c e6 b7 00 3e 25 fe ec bd
       -0.0667263 0.016511293 0.12570152 -0.11571912
0003e0 e6 03 3a 3e d2 f1 82 bc d1 79 6a bd 3a 77 d7 bd
       0.1816555 -0.01598445 -0.05724508 -0.105207875
0003f0 e6 df d2 bc 56 ec b3 bd 57 2c 05 be cb 7c d5 bc
       -0.025741529 -0.08785312 -0.13005196 -0.026060482

actor.4.bias f4 [6]
000000 25 a0 1f be 34 31 e0 3c 62 fb db 3d 5f 94 3b 3e
       -0.15588434 0.027367212 0.10741307 0.18318318
000010 99 83 8c 3d 65 35 bf 3d
       0.06861038 0.09336356

critic.0.weight f4 [64, 43]
000000 fd 29 f1 3e a4 54 20 bf 27 aa 2c bf 11 d7 e2 bd
       0.47102347 -0.6262915 -0.6744713 -0.11076177
000010 96 e1 5c 3e 19 c1 c5 3e fe 9b 8b be a4 ff 3f be
       0.21570429 0.38623884 -0.2726745 -0.18749863
000020 47 b4 57 be b8 b9 28 bd 56 6a 8e bd 3e 25 5c bc
       -0.21064864 -0.04119274 -0.06953876 -0.013436614
000030 f8 4d 48 3e 56 d7 a8 3d 4c cd 17 be d7 a0 76 3d
       0.19560993 0.08244197 -0.14824408 0.060211983
000040 41 d6 d4 3c cc b9 47 3d 9a e9 53 3c 43 de d1 ba
       0.02598107 0.048761174 0.012934113 -0.0016011674
000050 29 cb 02 3f 9d 98 79 3e 01 d9 dc be 89 90 18 3e
       0.5109125 0.24374624 -0.4313431 0.14898886
000060 dc 19 2a bf 9e 90 73 3d 52 46 26 bf c5 f1 0c bf
       -0.6644571 0.05946409 -0.6495105 -0.5505641
000070 46 c9 8f bd 4b c1 fa be f9 e8 a1 3f a8 9f f6 3d
       -0.07020812 -0.48975596 1.2649223 0.12042171
000080 07 fa 29 bf 23 98 36 be 84 08 d3 3e 5d 52 54 be
       -0.66397136 -0.17831473 0.41217434 -0.20734544
000090 20 27 c5 be 8c ae 87 3f b1 2b 34 3e 1c cd 3f bf
       -0.38506413 1.0600142 0.17594792 -0.7492235
0000a0 cf 65 4c bf 57 dd b3 bd 26 24 49 bd d2 10 a7 3e
       -0.7984285 -0.087824516 -0.04910674 0.3263002
0000b0 2c 27 12 bf 9c fe c0 be 37 6c 80 be a5 dc e3 3d
       -0.5709102 -0.37694252 -0.2508256 0.11126069
0000c0 16 45 8f 3d d2 3e 9e bb 20 1c 29 3e b0 51 33 3e
       0.06995599 -0.004829266 0.16514635 0.1751163
0000d0 8f 4d d0 3c 44 ce 36 bd d1 5d a3 3c d1 73 1f 3d
       0.025427608 -0.044630304 0.019942196 0.03892881
0000e0 84 7b cb be ab 96 90 be 27 82 3d be 6a bc 46 3e
       -0.39742672 -0.2823995 -0.1850668 0.19407812
0000f0 8e 99 a1 bd 85 97 92 3c d4 a0 b4 bb 83 61 35 3f
       -0.07890616 0.017894516 -0.0055123363 0.70851916
000100 c2 7b 80 3d 64 62 e1 be d5 07 fd be 62 69 ca be
       0.06273605 -0.4402038 -0.49420038 -0.39533526
000110 8c 37 0e 3f 85 3c f3 be 08 54 95 be e0 ae 02 be
       0.5555351 -0.4750711 -0.29165673 -0.12762022
000120 7c cb b6 be 92 cb 10 40 dc 32 9d 3e 3a 6d b1 be
       -0.3570212 2.262425 0.30702865 -0.34653646
000130 3d c0 96 be ce 2a 36 3f a4 4d fa 3d 70 c5 fb 3c
       -0.2944354 0.71159065 0.1222184 0.030733794
000140 f6 39 0c 40 29 48 19 3e 91 ae 00 bf 24 ba 0d bf
       2.1910377 0.14968933 -0.5026637 -0.55362153
000150 48 97 7a 3e 03 fa d1 be 7a 72 df 3e fa d1 ac be
       0.24471772 -0.41011056 0.43642026 -0.3375395
000160 9a 1c 21 be 9d 72 a9 3c 00 84 2f be b6 a1 a6 3e
       -0.15733567 0.020684535 -0.17140198 0.3254525
000170 16 10 49 bc 1b a4 f5 3b 13 b1 6a 3d aa 9c a9 bb
       -0.012271902 0.0074963695 0.057297777 -0.0051761465
000180 8c 54 a7 3d e7 a7 d8 3b 6b ba 0a 3e 9f 5f ec 3d
       0.08170423 0.0066118124 0.13547675 0.11541676
000190 0c 40 a2 3c f8 10 c4 bd 10 ab 98 be 68 1e 38 bd
       0.01980593 -0.09573549 -0.2981801 -0.044950873
0001a0 ee 11 0c 3d 66 1d 4e bc 9a f0 d8 bc 69 63 c6 3f
       0.034196787 -0.012580251 -0.026481915 1.5499088
0001b0 c5 65 ce 3e 8a 88 52 3f 3a 4e a2 3c 45 98 2d bc
       0.4031202 0.8223959 0.019812692 -0.010595386
0001c0 10 61 8b 3d ca 9b 73 3e 27 ab 2e 3f c0 78 1b bc
       0.068056226 0.23789898 0.6822991 -0.009489238
0001d0 f0 70 f9 bf 86 7c 24 40 1e 79 92 bf d7 e7 96 be
       -1.9487591 2.5701003 -1.1443212 -0.29473755
0001e0 85 6e d4 be a8 93 a9 3c 2c eb 8f 3e 47 ef f4 bf
       -0.4149057 0.02070029 0.2810911 -1.9135522
0001f0 20 7d 24 40 51 12 a1 bf 6f df a5 3e 8c 77 a7 bd
       2.570137 -1.2583715 0.3239703 -0.08177099
000200 cd 8f d4 bd 85 0b cf 3d 6e ac 87 be ed ad 92 bd
       -0.1037899 0.10109619 -0.2649874 -0.0716208
000210 29 fd 49 3e 2d ff c1 3b 3d 4d 20 bd b5 58 e7 3c
       0.19725479 0.005920312 -0.03913616 0.028240541
000220 50 95 b2 3c fd 5b 10 3e a3 ce 55 bc 1a 37 5b bd
       0.021799713 0.1409759 -0.013049754 -0.053519346
000230 ce aa b0 3c d8 5d 05 bd ff cf 4f bd 2f bb d2 3d
       0.021565821 -0.0325602 -0.05073547 0.10289609
000240 c4 53 50 3e 1c 0b 25 3e f8 5e b0 bd db b1 1b bc
       0.20344454 0.16117519 -0.08611864 -0.009502853
000250 39 eb e6 3b 36 26 7e bf ae 67 ed 3f eb 14 4e 3f
       0.0070470837 -0.99277055 1.8547266 0.8050067
000260 cb a7 5c 3f c2 b1 6c bf ba e1 5c 3f 56 4f 58 3e
       0.8619353 -0.92458737 0.8628193 0.21124014
000270 aa 57 58 be 0b 57 85 3f 1c c4 3a 3e bf 62 f7 3d
       -0.21127191 1.0417188 0.18238872 0.12079381
000280 c7 26 12 bf 8f 4e 11 be dd 73 6e bd b2 a0 d2 be
       -0.5709042 -0.14190124 -0.058215965 -0.41138226
000290 4e bf 29 3e cb c7 d8 bb d6 60 97 3c 05 a7 05 bf
       0.16576883 -0.006615614 0.018478792 -0.52207977
0002a0 a6 38 a1 be d5 95 24 3f 1d 66 b3 be cd 7e 95 be
       -0.31488532 0.64291126 -0.35038844 -0.29198304
0002b0 0a 88 3e 3f 08 a7 7b 3c 45 c9 a2 3d b9 fa 6a 3d
       0.7442633 0.015359648 0.07948545 0.057368014
0002c0 b2 ab 1e 3e ef 4c bf 3d f6 b5 04 be 5f eb 5d 3c
       0.15495184 0.09340846 -0.12960038 0.013544886
0002d0 be ff 13 bd 07 62 02 3d 5f 87 07 bd c2 30 71 bc
       -0.036132567 0.031831767 -0.033088084 -0.014721097
0002e0 8e 41 e9 3e 0d da 06 3d 2c 11 b3 bc 74 3e 7d be
       0.45557827 0.032922793 -0.021858774 -0.24730855
0002f0 0e 05 3d 3e f1 b3 68 3d 2c cb 03 bd 29 00 bd 3a
       0.1845896 0.05681223 -0.03217618 0.0014419603
000300 2c 76 15 bf d5 76 a9 bf 53 6c e5 bf bd 94 de 3e
       -0.5838344 -1.323939 -1.7923683 0.43472853
000310 11 7f 77 3f 06 a7 99 3f 0c 27 0d 3e e4 20 5d 3e
       0.9667826 1.2004097 0.13784426 0.21594578
000320 28 56 50 bf 35 3f 34 bd be c3 4d bf 41 df 56 3c
       -0.81381464 -0.04400559 -0.80376804 0.013114751
000330 75 52 36 be e1 5a 8d bd 7b 18 05 bf 78 f4 17 be
       -0.17804892 -0.069020994 -0.5199048 -0.14839351
000340 0f 53 7e 3e 9a 66 26 bf 29 54 93 bd 9b b8 63 be
       0.24836372 -0.6500031 -0.07193787 -0.2223839
000350 0e f4 08 be 62 e5 cf 3c bd d8 8d 3d 5e bf 33 3d
       -0.1337435 0.025377933 0.06926105 0.043883674
000360 a1 84 95 bc a1 06 53 bd 08 e7 ba bd 3e 75 65 3d
       -0.018251719 -0.051519994 -0.09126097 0.056020014
000370 8e 24 1a 3c 10 70 b6 3b 45 89 d2 bc aa ea 80 bd
       0.009408129 0.005567558 -0.02570022 -0.062947586
000380 8b d6 9b 3c ef 04 97 3c 27 ac 91 bc 2c 4e a1 bd
       0.0190232 0.01843497 -0.017782284 -0.07876238
000390 fa 70 0a 3d 2c ca 8e 3c f7 3e fa bd e6 ce b2 bd
       0.03379915 0.017430387 -0.12219041 -0.08730869
0003a0 f4 00 8d 3d 1d 8a 35 bc b8 ec 33 3a 7d c0 5e 3d
       0.068849474 -0.011080292 0.0006863582 0.05438279
0003b0 61 aa f3 3f 5f 63 bd bf c3 a1 97 bf 1d 99 b1 bf
       1.903637 -1.4795951 -1.1846241 -1.3874851
0003c0 97 28 03 40 b4 60 41 3e 39 e0 d9 be b7 b9 58 bf
       2.0493524 0.18884546 -0.4255388 -0.8465838
0003d0 fd c4 d4 3c 6b 0b 4a be 8d 84 2a 3e ce 1d 2e 3f
       0.025972838 -0.19730918 0.16652127 0.6801423
0003e0 d6 3f 90 3e b6 e1 e5 bb cf e1 b4 3e e6 95 a7 bd
       0.28173703 -0.007015432 0.35328528 -0.08182888
0003f0 61 d9 d6 bd 00 df af 3e da 70 16 3f 73 8b b1 be
       -0.104906805 0.34349823 0.5876595 -0.34676704

critic.0.bias f4 [64]
000000 5c 14 de be fc 6f b7 be 61 6c 0c 3e 44 9f c4 3e
       -0.43374908 -0.35827625 0.13713218 0.3840276
000010 93 9a 55 3c 2d 14 19 3d ba 1b c0 3d 5c 89 5a bd
       0.013037342 0.037372757 0.093802884 -0.053353652
000020 c2 94 48 3e bd 58 2f bd dd 95 40 3e 5d ca b5 be
       0.19587997 -0.042809237 0.18807168 -0.35505953
000030 1e da df bd f1 f9 bc 3d a7 9a 91 be fe e9 12 3f
       -0.109302744 0.0922736 -0.28438303 0.57388294
000040 01 11 a4 be 10 d8 ac be 2c 44 b2 3e d9 ab 97 bd
       -0.32044223 -0.33758593 0.34817636 -0.07405824
000050 3e 8c c9 be f4 6c c0 bd 03 d0 c1 3e dc c2 cc bd
       -0.3936481 -0.09395781 0.37854013 -0.09998104
000060 b3 53 0d bd e0 81 ae 3d 01 b8 c5 be 6b 11 b1 3d
       -0.03450365 0.085208654 -0.38616946 0.086459
000070 2b b4 37 3e ca 46 16 3e 9a c8 c7 3e 08 3d 2d be
       0.17939822 0.14675441 0.39020234 -0.16917813
000080 b7 67 3b be 13 24 3c 3e 00 6b 35 3d 35 02 cc be
       -0.18301283 0.18373136 0.044291496 -0.39845434
000090 04 fe d4 be f1 5a 21 3e 16 62 72 3d 07 80 5b 3e
       -0.4160005 0.15757348 0.059175573 0.21435557
0000a0 d4 55 e3 3e 7c 83 3a 3e b4 5f 80 bb c2 45 7c 3d
       0.4440142 0.1821422 -0.0039176587 0.061589964
0000b0 27 3a 88 3c 32 42 96 be 3d 8f 5e be af 23 52 3e
       0.016629292 -0.29347378 -0.21734329 0.20521425
0000c0 a5 45 c6 3d 5d fc a3 be 7e fd 12 be 6c cc 3d 3e
       0.096812524 -0.32028475 -0.14354512 0.18535012
0000d0 2b d3 be bc 69 cc 24 3e 50 dc b2 3e b4 0b 0a 3e
       -0.023294052 0.16093601 0.3493371 0.13481027
0000e0 d3 87 89 3d cb ae 97 3d 82 9f bb be ad 24 5a be
       0.067153595 0.07406386 -0.36645132 -0.21303053
0000f0 e7 fe 7f bd ef fe 83 be 06 a8 2b bd 64 8b 31 be
       -0.062498953 -0.25780436 -0.041908287 -0.1733833

critic.2.weight f4 [64, 64]
000000 5e cc d4 3c f3 11 1f 3e 0a 9f 8b 3d 95 8a 4a bd
       0.025976356 0.15534191 0.06817444 -0.04944857
000010 3a 35 a7 bd bc 50 08 be ed dc 50 3d c9 4d 4b bd
       -0.08164449 -0.13312048 0.05099194 -0.04963473
000020 42 40 c7 be fb db 14 3d a6 52 8a be e7 d6 26 bb
       -0.38916212 0.036342602 -0.2701618 -0.0025457682
000030 3b bd e6 bd ff e9 15 3e 7d ed ac 3d 51 99 32 3e
       -0.112665616 0.14640044 0.08443735 0.17441298
000040 11 aa 18 3e b4 cf 5e bb d0 43 94 3d ae 95 8b 3d
       0.14908625 -0.0033998312 0.07239497 0.068156585
000050 e9 45 02 3e c3 d2 ac 3d 92 8e 59 bd 82 6f 80 3d
       0.12721981 0.08438637 -0.05311448 0.062712684
000060 23 fe 5c be 98 3c 65 bd 1c eb 8c 3e e5 7f 05 be
       -0.2158132 -0.05596599 0.27523124 -0.13037069
000070 2e 8c f9 bc 36 fe b0 3b 5d 65 09 bd 40 ab 5d bc
       -0.03046235 0.005401398 -0.033543933 -0.013529599
000080 e6 a5 72 bc ce 55 05 bc c4 72 33 3c 5b 71 cd 3d
       -0.014810061 -0.008138133 0.010952655 0.100313865
000090 f4 4b 78 bc 69 37 0a 3e 75 23 00 be 41 26 15 be
       -0.015154827 0.134977 -0.12513526 -0.14565374
0000a0 d5 7d a1 bd 8a 12 14 be 65 5f c3 3d 2f 7d 40 3e
       -0.07885329 -0.14460197 0.095396794 0.18797754
0000b0 2a 04 9d bc 50 6c 52 3d bc ec a1 bd ca 41 fd bd
       -0.019167025 0.051372826 -0.079064816 -0.12366064
0000c0 d7 d9 d8 bd 19 8b bb bd 3b 37 bf 3d 97 14 d5 bd
       -0.10588425 -0.0915739 0.09336706 -0.10404318
0000d0 3a 40 44 be 35 1e 90 3d 16 59 ba 3d 3c c7 44 be
       -0.19165125 0.070370115 0.09099023 -0.19216627
0000e0 79 f6 df bd ba 55 0e bd fc 60 44 3d 11 1a 02 3c
       -0.10935683 -0.034749724 0.047944054 0.007940785
0000f0 5c 38 c5 3d 7a 46 ba bd 1a 28 89 bd 68 03 fa bd
       0.0962989 -0.090954736 -0.06697102 -0.12207681
000100 43 24 29 be 44 03 57 be 43 30 75 3b c6 98 e2 bd
       -0.16517739 -0.2099734 0.00374128 -0.110642955
000110 0e 8a 14 be ac 7a c0 bd 9b e7 05 3e 23 01 f4 bc
       -0.14505789 -0.09398398 0.13076632 -0.029785698
000120 2d 6d 82 3d 63 68 ba 3c ab c8 4e 3d a9 d6 e2 bd
       0.0636848 0.022754854 0.05048434 -0.110760994
000130 ee f5 dd bd 8d 1d d7 3d a4 7f 30 be 37 39 7e be
       -0.10837923 0.10503683 -0.17236191 -0.24826513
000140 9c 76 c2 3c 3b 0f 14 be a8 be 09 3c e8 a5 96 3e
       0.023738198 -0.14458935 0.008407272 0.2942345
000150 04 8e 29 be 1f 57 5e bd 7e f0 3b 3d 4f 75 7a bd
       -0.16558081 -0.054282304 0.045883648 -0.06114703
000160 87 9d 3e bc 9f 52 ca bd ad a3 1c be 05 92 32 3e
       -0.011634237 -0.0987904 -0.15296812 0.17438515
000170 95 d0 1e bb 0c f8 35 3e 4f 2c 13 3e 42 e7 76 bd
       -0.0024233211 0.17770404 0.14372371 -0.06027914
000180 12 b0 94 bd ad 65 14 3e 7e 81 70 bb 25 a0 72 bd
       -0.07260145 0.14491911 -0.0036698277 -0.059234757
000190 dd ee c6 bd a7 73 34 be f4 68 f1 3d 21 09 9c bd
       -0.09713528 -0.17622243 0.11787596 -0.07618929
0001a0 99 88 d9 bd db c2 d4 3d 79 38 72 bd e4 01 12 be
       -0.10621757 0.10388728 -0.059135888 -0.14258534
0001b0 a7 64 a8 3c 31 67 5f bc 56 b2 16 bd 54 85 0f be
       0.020555807 -0.013635443 -0.03679117 -0.14015704
0001c0 17 f3 05 be d8 a8 50 be 19 f9 f0 3d 69 65 1c 3d
       -0.13081013 -0.20376909 0.117662616 0.03818265
0001d0 5e fa 8d 3c 52 04 0a 3e bd 41 3b bd d3 ba 4e be
       0.017331298 0.1347821 -0.04571699 -0.20188455
0001e0 e4 65 ae bc 99 75 1e 3e ee 72 8f 3d a2 9a 0e be
       -0.02128882 0.15474547 0.07004343 -0.13926175
0001f0 b9 37 86 3d 87 d0 5b be 73 85 90 ba 18 15 68 bd
       0.06553597 -0.21466266 -0.0011026099 -0.05666074
000200 ae 95 53 be 58 f5 82 be f4 04 90 be 17 27 b4 bd
       -0.20662567 -0.25577807 -0.2812878 -0.08796518
000210 14 89 ea 3d 29 c7 85 be 01 9c e7 bd ec 14 fb 3b
       0.11451927 -0.2612851 -0.11309052 0.007662406
000220 8a 12 80 be 31 39 f5 bd 65 f6 54 be 0d ac d9 3d
       -0.25014144 -0.11973799 -0.20797117 0.10628519
000230 2d bd ff bc 12 4d 6d bc 17 30 aa bc e5 27 15 bd
       -0.031218136 -0.014483707 -0.020774884 -0.036415
000240 16 9b 6d 3c 38 1e 51 3d 0b 4d 6e be 71 ed 07 be
       0.014502307 0.05105421 -0.23271577 -0.1327417
000250 d5 9c e8 bd 9d 94 a9 3d 7b 6a 1e be 71 a1 aa ba
       -0.11358038 0.08280299 -0.15470307 -0.0013018084
000260 01 2a ee bc bd e4 89 be aa 9c 0d be 05 49 8a bb
       -0.029072763 -0.26932326 -0.13829294 -0.0042201304
000270 68 eb 9a bd 12 fc 90 be c3 1d 05 3e 9e ca 6c bd
       -0.075644314 -0.28317314 0.12999634 -0.05781042
000280 3e c0 b5 3b 51 32 cc 3d a9 7e 59 bd fc 9e 17 be
       0.0055465987 0.099705346 -0.05309931 -0.14806741
000290 82 25 41 3d 56 29 5e be 71 81 d0 bd 4f 67 17 be
       0.04715491 -0.21695456 -0.10180939 -0.14785503
0002a0 7e 41 16 be 51 38 ae be da 28 77 bd d3 87 d9 bc
       -0.14673421 -0.3402734 -0.060341693 -0.026554024
0002b0 05 d1 15 be 95 a1 a3 3b 30 d0 b2 3d 49 fb 2c be
       -0.14630516 0.0049936273 0.08731115 -0.16892733
0002c0 ab e0 c7 3d 40 11 92 bb d3 75 52 3a e5 16 22 be
       0.09759649 -0.0044576228 0.00080284214 -0.15829046
0002d0 2e be 93 be e5 69 bd 3d ed 0b 9a be f1 18 64 bc
       -0.28856033 0.092487134 -0.30087224 -0.013921962
0002e0 df 6b c2 3d 73 0d 27 bd 9e 34 49 bd 1b c4 f0 3c
       0.09493231 -0.04078431 -0.049122445 0.029390385
0002f0 1e 6b 39 3d db b0 ad 3d 10 33 54 bd 68 76 12 be
       0.04526817 0.08480998 -0.05180651 -0.14302981
000300 56 77 34 be 39 0a 4e be d1 9f b2 bd ad c2 e5 bc
       -0.17623648 -0.20121087 -0.08721889 -0.02804693
000310 77 5f b2 3d e7 2c 0a bd 0b dc 4a be b3 7e 4c be
       0.08709615 -0.03373423 -0.19810502 -0.19970207
000320 71 c1 70 be 28 eb 4a bd 8c 39 e3 bd 88 07 9c 3d
       -0.23511292 -0.04954067 -0.110949606 0.07618624
000330 ec 97 20 3e 7d 06 5d be b4 37 46 3b fc 6a df 3d
       0.15682954 -0.21584506 0.0030245604 0.109090775
000340 60 6b 0c be 27 88 99 bd 9a f8 32 be 95 0f 92 bd
       -0.13712835 -0.07496672 -0.17477646 -0.07131878
000350 e2 ba fb 3d cb 7c 83 be ef 24 14 3d f2 b6 8c be
       0.122915044 -0.25681147 0.036168035 -0.27483326
000360 6c 3c b7 3c 35 43 78 be e9 4a 73 3e 3c 15 c0 bd
       0.022367679 -0.24244387 0.23759045 -0.0937905
000370 1b 58 d5 bd 9e aa 73 be c2 4b 9e 3d 9c 54 96 be
       -0.104171954 -0.23795554 0.077292934 -0.29361427
000380 bf fd 7b bd fa 76 b2 3d 5e d8 20 be e6 c6 1b be
       -0.061521288 0.08714099 -0.15707538 -0.15212592
000390 8b d0 8e 3c 44 94 2d be 03 c4 38 bd 35 8e 5a 3d
       0.017433425 -0.1695109 -0.045108806 0.053358275
0003a0 f6 b0 5b be 0d db a3 be 0d ef ef bd 05 81 88 bb
       -0.21454224 -0.3200306 -0.11715517 -0.004165771
0003b0 ce 5e 04 be 95 b2 6a 3d ce b9 3e bc 60 2f fd bb
       -0.1292679 0.057299215 -0.011640979 -0.007726595
0003c0 29 72 07 bc 2f db 0e be f4 0a 5f bd 00 c4 11 be
       -0.008266964 -0.139508 -0.054453805 -0.14234924
0003d0 c6 c6 99 bd 22 50 11 bc 47 ca fa bb b5 1d 17 bf
       -0.07508616 -0.008869203 -0.007653508 -0.59029704
0003e0 8a 61 3b 3e 4c a5 9d be bd 37 8d 3b 57 25 06 be
       0.18298927 -0.30790174 0.004309623 -0.13100182
0003f0 76 6c 9b be 0e 3f bf bd 1b d8 ba 3d 87 93 cd bd
       -0.30356187 -0.093381986 0.0912325 -0.10037904

critic.2.bias f4 [64]
000000 e9 55 fb 3a 81 df 0c bd f4 4e 9e bd 37 99 52 3d
       0.0019175383 -0.034392837 -0.07729903 0.05141565
000010 04 d3 17 3e 4b 40 88 bc c3 cf f6 bd c4 f1 c4 bc
       0.1482659 -0.01663222 -0.12051346 -0.024041064
000020 4b b4 2d 3d ca d2 9f 3e 4f 3d bf 3d 8e 41 4a 3e
       0.04240827 0.31215507 0.093378656 0.1975157
000030 f9 33 e2 bd ed 0c e2 bc a7 cd 29 3e 91 b5 ea bd
       -0.11045069 -0.027594054 0.16582356 -0.11460412
000040 8b 7b 36 be a9 2c 58 3c 9c 94 d1 bc 2d 13 40 3e
       -0.17820565 0.013194242 -0.025583558 0.18757315
000050 9c 77 b3 bd 8c c3 65 bd 52 4c f7 bd 86 5f 1a 3d
       -0.08763048 -0.05609469 -0.12075104 0.037688754
000060 da 54 35 3d 10 d5 0b 3e e2 86 8a bd 2c e9 8f 3e
       0.044270374 0.13655496 -0.06764008 0.28107584
000070 22 84 a1 bd c5 1f ab be 27 24 03 be 84 c4 c8 bd
       -0.078865305 -0.33422676 -0.1280676 -0.098031074
000080 6d b2 56 3d be d7 22 be 39 70 a5 3d 9c 8a b6 bd
       0.052416254 -0.15902612 0.080780454 -0.089131564
000090 65 a6 94 bd 17 7f 98 3d ce 74 81 3d e3 84 44 3d
       -0.072583 0.074461155 0.06321107 0.047978293
0000a0 54 67 b9 3b 50 b2 75 bb a9 0a a2 3d b6 74 ee 3d
       0.0056580696 -0.0037490316 0.079121895 0.116433546
0000b0 7f 31 2c bc 66 cc 4e bd 24 2d 0d be 0b 7d 9e 3d
       -0.010509848 -0.0504879 -0.13786751 0.07738694
0000c0 18 03 1f be 08 b5 eb 3d d4 14 5c be b9 40 bf bc
       -0.15528524 0.11509138 -0.2149232 -0.023346292
0000d0 5d 4a 4c bd 4b 90 59 bd fd cf 4c be fe 8d 66 bd
       -0.049875606 -0.053116124 -0.20001216 -0.056287758
0000e0 be 23 8c bd 2c 8a 5f 3d 28 ae 46 bc fd 39 a6 3d
       -0.06842755 0.05457513 -0.012126483 0.08116529
0000f0 65 69 bc 3d dc 57 ed 3c 25 40 ab 3d e4 1b 37 bd
       0.0919979 0.028972559 0.08361844 -0.044704333

critic.4.weight f4 [1, 64]
000000 2f 16 94 bd 27 ea d5 3d 8e 38 13 3e f5 c6 30 3e
       -0.07230794 0.10445052 0.14377043 0.17263396
000010 ee 9e bf 3e 78 c1 41 be a2 36 72 3e 66 c0 15 3f
       0.3742594 -0.18921459 0.23653653 0.584967
000020 24 e7 1d 3d 43 01 35 3e 05 61 8e 3d d5 5d 02 3e
       0.03855051 0.17676263 0.06952099 0.12731107
000030 b0 81 dd bd 58 1c a3 3e 8f dc 30 3e ef 2f 88 3e
       -0.108157516 0.31857562 0.17271636 0.2659907
000040 90 ae 02 bf a6 be 31 be c4 1f e2 3d f8 18 c7 3e
       -0.5104761 -0.17357883 0.11041215 0.38886237
000050 20 d6 b5 3d bc c5 b6 be 74 d1 72 3e bf 61 da 3d
       0.08878732 -0.35697734 0.23712713 0.10663175
000060 20 bb ab bd 8b 79 fe 3d 1f 0c 7b be 06 0a ff 3d
       -0.08385301 0.12425526 -0.24516343 0.12453084
000070 53 c7 5a bf dd 5d 04 bf 60 97 b1 3d 5f a0 20 be
       -0.85460395 -0.51705724 0.086714506 -0.15686177
000080 9d ac ed be 0e 92 00 bf d5 2c 3a bf a2 74 a0 be
       -0.46420756 -0.5022286 -0.7272466 -0.31338984
000090 b6 6a b4 3e fd d0 be 3d 59 8a 41 3e 35 e9 e6 3d
       0.35237664 0.09317205 0.18900432 0.112749495
0000a0 df 81 03 be eb 7c 6f 3e 98 69 16 be 37 f4 cc 3d
       -0.1284251 0.23387496 -0.14688718 0.10007518
0000b0 9d 34 0f 3e 25 38 f4 bd 4b 88 06 be 4a cb e4 3d
       0.13984914 -0.11924771 -0.13137929 0.11171587
0000c0 1e 6a d3 3e 3a 8e 45 3e 60 cc 1b 3e 8b 6f d0 3e
       0.41291898 0.19292536 0.15214682 0.407101
0000d0 44 98 0b bf e9 60 4f bf b1 6d b4 be 28 2f 5e be
       -0.54529214 -0.8100725 -0.35239938 -0.21697676
0000e0 21 00 7c bf 79 bd 34 3e ab 40 a9 3d b0 7c be 3e
       -0.98437697 0.17650403 0.082642876 0.37204504
0000f0 84 11 03 3e c2 6d 91 3d 37 aa dd 3e b0 39 8d be
       0.1279965 0.07101013 0.43293926 -0.27583075

exp_avg f4 [6]
000000 bf 0e d0 38 89 03 a9 38 2e bf 9c 39 f3 4b f4 b8
       9.9209596e-05 8.0592064e-05 0.0002989708 -0.00011648973
000010 c4 4b 5a b8 02 66 8b b8
       -5.2045812e-05 -6.647037e-05

exp_avg_sq f4 [6]
000000 63 7b d3 36 76 19 24 37 5f a4 97 37 6c 52 c0 35
       6.302654e-06 9.78109e-06 1.8077144e-05 1.4329103e-06
000010 ca ba b0 35 e7 47 1d 34
       1.3167385e-06 1.4647922e-07
