2026-01-29_07-44-49_Fase2_Empuje_V1/model_1250.pt (torch, 189045 bytes, 36 tensors)

std f4 [6]
0.1468125 0.091214985 0.08745936 0.2360837 0.26315078 1.1030642
00000000: 0456 163e ecce ba3d e51d b33d edbf 713e
00000010: b3bb 863e 3531 8d3f

actor.0.weight f4 [64, 43]
0.0051220832 0.2732149 -0.05752444 0.017821588 -0.2555574 -0.31369492 -0.017222801 -0.2132234
0.077392176 0.028448956 -0.00274709 0.06256018 0.17995402 0.15755044 0.008553814 -0.1424541
-0.1332545 -0.26083028 -0.037459996 -0.005079511 0.681451 0.13027611 -0.13453141 -0.11162742
-0.40967047 -0.029626964 -0.14860801 -0.24857812 -0.07096233 -0.26946032 0.3207845 0.106968105
0.47399 -0.55947304 0.052944977 0.16644686 0.25476846 0.30627507 0.25318363 0.30815807
-0.28549156 -0.033424154 0.33457202 0.031903088 0.16554521 0.28157035 0.6157729 -0.58633435
-0.08539582 0.07394613 -0.6947067 -0.113008626 -0.112032115 0.11931828 0.02166331 0.2052598
-0.15024038 -0.04028554 0.4413125 -0.64867836 -0.13292898 -0.037316717 0.021235304 -0.6514252
0.57782435 0.069641985 0.18034251 -0.7228556 -0.5735506 0.053968776 -0.14413418 -0.06301518
0.28329384 -0.41819003 -0.008902602 0.46893418 -0.2297441 -0.42696685 0.28457496 0.39311185
-0.37108684 0.03839698 0.66915095 0.13266355 0.6470216 -0.09263044 -0.4121133 -0.14925292
-0.2276312 0.02169793 -0.0009721305 -0.33955282 0.23190367 -0.085110724 -0.4054523 -0.15961395
0.04093718 0.07668922 -0.19039044 -0.12855083 -0.29355943 0.0942753 -0.009266467 -0.28323635
-0.003220958 -5.4775806e-05 -0.3975332 -0.61975104 -0.107894816 -0.14250031 0.018346066 -0.034787096
0.038951773 -0.39446595 -0.105045415 -0.06261014 -0.438367 0.13206625 0.32612136 -0.25569072
-0.08292033 -0.06828385 -0.55573094 -0.5655517 0.16157928 0.30286115 -0.68751276 -0.14774773
0.5284086 0.0339718 0.08931444 0.1333382 -0.44058987 0.31186897 0.056667812 0.03866836
-0.19187562 0.14006896 0.12510058 -0.07073087 0.11828284 -0.040096868 0.12835105 0.025591295
-0.23826142 0.19225252 0.14956646 0.06324525 0.0051373937 -0.046423808 -0.024016706 -0.011087058
0.033075254 -0.24128586 0.027445417 -0.19513208 -0.027587673 0.067003936 -0.017970458 -0.07055618
-0.123563744 0.12645324 -0.0971673 -0.0922408 -0.051670432 -0.01323968 -0.05797152 -0.13118969
0.12694097 0.07086507 -0.07807965 -0.4583953 0.17914361 -0.53927314 -0.51567274 -0.029613668
0.041110642 0.27873182 0.14557046 0.23161869 0.3045955 0.11842995 -0.0142080905 -0.091022834
0.1623735 -0.1247869 -0.05362919 0.05872907 0.029866539 0.1960913 -0.031867478 -0.01340503
0.09589898 0.14077938 -0.101091266 -0.18106137 -0.13701405 0.12212564 -0.06790902 -0.0538443
-0.1951109 -0.16585612 -0.25872338 0.22221969 -0.21909924 -0.33085012 0.0030204044 -0.21170405
-0.31076398 -0.33564454 0.2600489 -0.1411059 0.2427858 -0.99900776 0.40459445 0.0041240323
-0.07232434 -0.08872097 -0.025464142 0.16434793 -0.109072335 0.3081989 -0.87994224 0.041095708
-0.06441971 0.1273087 -0.03277321 -0.064704016 -0.27095655 -0.2485901 -0.18259884 0.397807
0.14521572 0.04378266 -0.000996808 -0.19941702 -0.32666165 0.007576688 0.0022732671 -0.2548597
-0.3884149 -0.20151517 -0.19493347 -0.17258526 -0.12861355 -0.32714042 -0.21865308 0.06273365
-0.06687241 0.18862845 -0.046062943 -0.33445352 -0.24671398 -0.19293165 -0.03450726 -0.3509068
00000000: 26d7 a73b d3e2 8b3e bf9e 6bbd 94fe 913c
00000010: 6bd8 82be 9f9c a0be d516 8dbc 3c57 5abe
00000020: ca7f 9e3d c90d e93c 8608 34bb 8d1f 803d
00000030: de45 383e e754 213e 4c25 0c3c 7ddf 11be
00000040: de73 08be 8c8b 85be a76f 19bd 0772 a6bb
00000050: 9373 2e3f 1a67 053e 9ac2 09be eb9c e4bd
00000060: 54c0 d1be 3fb4 f2bc b32c 18be 438b 7ebe
00000070: b354 91bd b4f6 89be de3d a43e 1812 db3d
00000080: d1ae f23e a039 0fbf d5dc 583d 0c71 2a3e
00000090: 0371 823e 16d0 9c3e 49a1 813e e5c6 9d3e
000000a0: f32b 92be c4e7 08bd 064d ab3e d0ac 023d
000000b0: af84 293e fd29 903e 4ba3 1d3f 021a 16bf
000000c0: 01e4 aebd 1271 973d 4cd8 31bf 1171 e7bd
000000d0: 1871 e5bd 245d f43d 4177 b13c a02f 523e
000000e0: 9dd8 19be 7302 25bd b6f3 e13e c90f 26bf
000000f0: 891e 08be 6ad9 18bd a9f5 ad3c cdc3 26bf
00000100: 4cec 133f 75a0 8e3d b5ab 383e 110d 39bf
00000110: 36d4 12bf 5d0e 5d3d e997 13be 1a0e 81bd
00000120: e40b 913e 011d d6be 38dc 11bc 2418 f03e
00000130: 0a42 6bbe 669b dabe cfb3 913e f545 c93e
00000140: 18ff bdbe 2746 1d3d 7a4d 2b3f f4d8 073e
00000150: 35a3 253f 07b5 bdbd 8400 d3be c2d5 18be
00000160: 2718 69be dbbf b13c 93d6 7eba ded9 adbe
00000170: 2878 6d3e 884e aebd 7297 cfbe d771 23be
00000180: bfad 273d 3d0f 9d3d b6f5 42be d4a2 03be
00000190: 6c4d 96be 6913 c13d 61d2 17bc 5b04 91be
000001a0: b516 53bb 13bf 65b8 7989 cbbe 01a8 1ebf
000001b0: f5f7 dcbd 9aeb 11be 7d4a 963c ea7c 0ebd
000001c0: e58b 1f3d 71f7 c9be 0d22 d7bd bf39 80bd
000001d0: a471 e0be 603c 073e 61f9 a63e e5e9 82be
000001e0: 22d2 a9bd 67d8 8bbd 6244 0ebf ffc7 10bf
000001f0: 0a75 253e 9e10 9b3e d600 30bf 2e4b 17be
00000200: c945 073f 0426 0b3d 7dea b63d cf89 083e
00000210: ff94 e1be 4aad 9f3e 821c 683d b762 1e3d
00000220: 0b7b 44be 3d6e 0f3e 5e1a 003e 59db 90bd
00000230: 463e f23d 9d3c 24bd 756e 033e d6a4 d13c
00000240: cdfa 73be d8dd 443e f327 193e ba86 813d
00000250: 9557 a83b e426 3ebd afbe c4bc 7ea6 35bc
00000260: eb79 073d a413 77be 36d5 e03c b4d0 47be
00000270: 8bff e1bc 5c39 893d c836 93bc c27f 90bd
00000280: fd0e fdbd f57c 013e a6ff c6bd bfe8 bcbd
00000290: 60a4 53bd 3eeb 58bc 8b73 6dbd 9756 06be
000002a0: d0fc 013e b521 913d 39e8 9fbd cab2 eabe
000002b0: 6c71 373e ce0d 0abf 2103 04bf 5d98 f2bc
000002c0: a263 283d f0b5 8e3e 6c10 153e 732d 6d3e
000002d0: f1f3 9b3e 678b f23d 0dc9 68bc 2e6a babd
000002e0: 3d45 263e 4690 ffbd 48aa 5bbd e58d 703d
000002f0: acaa f43c 28cc 483e 7987 02bd c5a0 5bbc
00000300: af66 c43d 7828 103e f008 cfbd 2768 39be
00000310: 694d 0cbe 021d fa3d e213 8bbd d78b 5cbd
00000320: 27cb 47be 30d6 29be 6477 84be 8f8d 633e
00000330: 8d5b 60be 3065 a9be faf1 453b f2c8 58be
00000340: 751c 9fbe 9ad9 abbe 2125 853e 117e 10be
00000350: d79c 783e f9be 7fbf 0127 cf3e e422 873b
00000360: c91e 94bd 57b3 b5bd 2d9a d0bc d34a 283e
00000370: 5161 dfbd 3fcc 9d3e e543 61bf f953 283d
00000380: 7bee 83bd 365d 023e 343d 06bd 8a83 84bd
00000390: d1ba 8abe 678e 7ebe 31fb 3abe 5cad cb3e
000003a0: 6eb3 143e 7255 333d 54a7 82ba fa33 4cbe
000003b0: 3240 a7be de45 f83b 18fb 143b f87c 82be
000003c0: 51de c6be fe59 4ebe a49c 47be 31ba 30be
000003d0: 45b3 03be f37e a7be 98e6 5fbe 807a 803d
000003e0: 67f4 88bd d127 413e 7fac 3cbd 7e3d abbe
000003f0: 97a2 7cbe e08f 45be 7c57 0dbd 0eaa b3be

actor.0.bias f4 [64]
0.033043403 0.22415295 0.077585235 -0.11935001 0.031821106 -0.060910285 0.0843756 -0.008538537
-0.08167647 0.1005817 -0.38985732 0.18454647 -0.28432912 -0.20279616 0.05886729 -0.0111860465
0.0034181383 -0.072957985 -0.33329788 -0.10962209 -0.4139878 0.016999723 -0.15977809 -0.20808761
-0.16965413 0.0721438 -0.13859253 -0.06250282 0.016916202 -0.31823552 0.3115313 0.03505475
-0.06502062 0.08772464 -0.2661564 0.04067025 0.15075994 -0.30771828 -0.15550785 -0.36456853
-0.113381274 -0.26426706 -0.04095305 -0.09250619 -0.06822667 0.078756385 0.12161888 -0.15575266
-0.16953245 -0.0013822046 0.058176294 -0.13439468 -0.14059962 -0.16730416 -0.038530234 0.013749651
0.3138809 -0.025854116 0.029961843 -0.43436936 -0.33950877 0.075423844 -0.1924858 -0.18461329
00000000: 8558 073d 5a88 653e 02e5 9e3d c76d f4bd
00000010: d956 023d 107d 79bd 1dcd ac3d 38e5 0bbc
00000020: fe45 a7bd c7fd cd3d 619b c7be c0f9 3c3e
00000030: 9693 91be cca9 4fbe d41e 713d ae45 37bc
00000040: d802 603b ff6a 95bd 05a6 aabe 8c81 e0bd
00000050: 35f6 d3be 0143 8b3c de9c 23be eb14 55be
00000060: d0b9 2dbe 21c0 933d 33eb 0dbe 7a01 80bd
00000070: d993 8a3c c4ef a2be 0881 9f3e 9295 0f3d
00000080: 8829 85bd faa8 b33d a745 88be d995 263d
00000090: d060 1a3e 408d 9dbe 733d 1fbe baa8 babe
000000a0: 7134 e8bd 034e 87be 63be 27bd e373 bdbd
000000b0: 6dba 8bbd 074b a13d 5213 f93d a07d 1fbe
000000c0: ea99 2dbe 172b b5ba 444a 6e3d c29e 09be
000000d0: 59f9 0fbe c851 2bbe e1d1 1dbd 3746 613c
000000e0: ffb4 a03e 03cc d3bc 8a72 f53c a965 debe
000000f0: 18d4 adbe d177 9a3d ff1a 45be 440b 3dbe

actor.2.weight f4 [64, 64]
0.07105544 -0.051768236 -0.033234987 0.06539784 0.028012192 0.018486755 0.06985315 0.1020344
-0.1133162 0.05631534 0.0462998 0.015717715 0.055946283 -0.10158136 0.3532507 -0.24391547
-0.059854563 0.17832835 -0.016411759 -0.017526362 0.059874825 -0.108330496 -0.23421912 0.040744454
0.11386597 -0.021694735 0.11299746 0.12451354 0.15294243 -0.08272945 0.07264109 0.17677703
0.14230753 0.10781522 -0.12849514 0.038488433 -0.11634391 0.008246436 0.15153864 0.04893591
0.013710708 -0.080264285 -0.13206972 -0.04148666 0.07711021 -0.17321719 0.14949554 0.08496967
-0.056871545 0.018034648 0.016588364 -0.12504928 0.08675235 -0.13299793 0.025549697 0.21896146
-0.04876419 0.100319356 -0.08866847 -0.057180293 0.02141027 0.1076262 -0.12871951 -0.053375527
-0.30129206 -0.23015484 0.07646212 -0.098605484 -0.02445523 0.23160869 0.08037526 -0.095531724
-0.15983441 -0.38931233 0.08732868 0.0042200326 -0.060147405 0.042967863 -0.30319327 -0.12142976
0.01579812 0.24427155 0.24223438 0.026179451 0.0024953058 -0.02401836 0.124530055 -0.0002581294
-0.009792465 0.028547578 -0.18108967 0.08901709 0.14722195 0.15828522 -0.07109781 0.08390959
0.13605194 -0.12782176 -0.026930049 0.04364913 -0.15612565 0.20931602 0.1514168 0.06319627
0.15987942 0.14312062 0.09789595 0.20028116 -0.42215025 -0.062679656 -0.6699725 0.092204295
0.13739124 -0.02159178 0.01897682 0.034815166 -0.028943826 0.08501428 -0.0682835 -0.33113062
0.17685537 0.004821332 -0.06721598 0.06785126 -0.07828189 0.3359231 -0.49937755 0.114393264
0.0128109325 -0.021489287 -0.071788564 0.1723465 0.066640556 0.06236127 0.09471511 -0.14581464
0.034143552 0.14375086 -0.2602478 0.13343139 -0.010978688 -0.025004828 0.08094226 0.05423679
0.038253155 -0.037682664 -0.00050556345 0.18979412 -0.014639142 -0.12410322 0.0332502 -0.16287182
-0.07096471 -0.035393193 0.00076913537 -0.60701305 0.025296114 -0.033056494 -0.34427625 0.004048467
-0.1967477 0.040645085 0.16181391 -0.04846584 0.032475255 0.028658094 -0.07531354 0.030367365
-0.061879043 0.067303784 0.0047555957 0.040519588 -0.10882741 -0.17348339 -0.23056914 -0.22092089
0.0990681 -0.07657549 0.15633379 -0.2524155 -0.05282256 0.034341656 -0.076380104 -0.14614262
0.16458714 0.10818612 0.05123607 -0.20285785 -0.002685659 0.027101029 -0.17905428 0.07014878
0.0323665 -0.07957269 -0.08331948 0.07032044 0.035404433 0.1667639 0.04795449 -0.06945413
0.036118463 0.06569762 0.10260303 -0.022974744 -0.035981245 -0.08718274 0.21283565 -0.15439096
0.013273812 -0.0050781127 0.056909442 -0.0063434765 -0.12477119 -0.10368563 0.06889112 -0.07587298
0.078036666 -0.028406424 0.20153521 0.11317891 -0.01853539 -0.002457677 -0.17026249 -0.06853642
0.116796866 -0.021273484 -0.058000952 0.13055608 -0.14614049 0.106270194 0.2189853 0.03917512
-0.08768664 -0.14996213 0.04334599 0.07940153 0.13972954 0.0523551 0.026077114 0.21432437
0.016131151 -0.011597916 -0.092264034 0.15078533 -0.034536924 0.16185948 -0.096203186 0.21357252
-0.27272925 -0.11273241 0.14290126 -0.034529492 0.10230134 0.059499387 -0.03888077 -0.008000421
00000000: 8485 913d ee0a 54bd 6921 08bd 4eef 853d
00000010: d379 e53c 8971 973c 2b0f 8f3d 69f7 d03d
00000020: 5312 e8bd eaaa 663d dca4 3d3d 70c2 803c
00000030: ee27 653d e309 d0bd 47dd b43e fac4 79be
00000040: 0f2a 75bd b59b 363e f471 86bc 7293 8fbc
00000050: 4e3f 753d 61dc ddbd 23d7 6fbe a8e3 263d
00000060: 9032 e93d 28b9 b1bc 366b e73d f400 ff3d
00000070: f19c 1c3e 0f6e a9bd dac4 943d 0a05 353e
00000080: 11b9 113e 3ace dc3d 3b94 03be 0ca6 1d3d
00000090: b745 eebd 0f1c 073c f22c 1b3e 0571 483d
000000a0: e1a2 603c 9a61 a4bd 493d 07be eaed 29bd
000000b0: f5eb 9d3d d95f 31be 5c15 193e 9404 ae3d
000000c0: 23f2 68bd 66bd 933c 52e4 873c eb0c 00be
000000d0: 37ab b13d 9c30 08be 994d d13c 6f37 603e
000000e0: f6bc 47bd 3c74 cd3d d197 b5bd e235 6abd
000000f0: 9764 af3c 206b dc3d 0ccf 03be 4ca0 5abd
00000100: f442 9abe b6ad 6bbe 2c98 9c3d acf1 c9bd
00000110: 5656 c8bc d42a 6d3e c99b a43d 23a6 c3bd
00000120: a2ab 23be f253 c7be 61d9 b23d 3348 8a3b
00000130: 205d 76bd 12ff 2f3d 263c 9bbe 2ab0 f8bd
00000140: 0f6b 813c 5222 7a3e 4a0c 783e 4a76 d63c
00000150: 4988 233b 27c2 c4bc 9d09 ff3d 8b55 87b9
00000160: 9370 20bc 9cdc e93c 926f 39be 984e b63d
00000170: 5ac1 163e 8515 223e bb9b 91bd cbd8 ab3d
00000180: 3351 0b3e b5e3 02be 689c dcbc 6ec9 323d
00000190: 67df 1fbe f056 563e 010d 1b3e 0c6d 813d
000001a0: 6eb7 233e 368e 123e ac7d c83d 8116 4d3e
000001b0: 1424 d8be 315e 80bd 5183 2bbf 9bd5 bc3d
000001c0: 4ab0 0c3e 3fe1 b0bc 4775 9b3c 599a 0e3d
000001d0: 9a1b edbc f81b ae3d 38d8 8bbd f489 a9be
000001e0: 9319 353e 44fc 9d3b 88a8 89bd 9af5 8a3d
000001f0: 4152 a0bd 1dfe ab3e 6aae ffbe 0447 ea3d
00000200: f2e4 513c 4d0a b0bc e205 93bd 9a7b 303e
00000210: d87a 883d 886e 7f3d fff9 c13d 6f50 15be
00000220: 1cda 0b3d 6d33 133e 333f 85be 3da2 083e
00000230: f4df 33bc edd6 ccbc 0ec5 a53d 6527 5e3d
00000240: 57af 1c3d 2359 1abd ca87 04ba 6459 423e
00000250: 03d9 6fbc d429 febd 5d31 083d dfc7 26be
00000260: f255 91bd 74f8 10bd cd9f 493a 3565 1bbf
00000270: cc39 cf3c 3f66 07bd fa44 b0be 01a9 843b
00000280: 3b78 49be 767b 263d 8cb2 253e 1e84 46bd
00000290: c604 053d 61c4 ea3c fc3d 9abd fbc4 f83c
000002a0: e174 7dbd 91d6 893d d4d4 9b3b def7 253d
000002b0: e8e0 debd a1a5 31be 511a 6cbe 1639 62be
000002c0: 37e4 ca3d 9cd3 9cbd f715 203e 9b3c 81be
000002d0: 785c 58bd d6a9 0c3d 2c6d 9cbd 69a6 15be
000002e0: 8889 283e af90 dd3d eadc 513d f8b9 4fbe
000002f0: e201 30bb fa02 de3c 015a 37be 2aaa 8f3d
00000300: bc92 043d 02f7 a2bd 67a3 aabd 2a04 903d
00000310: 3d04 113d 28c4 2a3e ed6b 443d f83d 8ebd
00000320: f4f0 133d 798c 863d 8a21 d23d 8835 bcbc
00000330: 1261 13bd dd8c b2bd 97f1 593e aa18 1ebe
00000340: 677a 593c 4c66 a6bb e019 693d f0dc cfbb
00000350: 0a88 ffbd 2259 d4bd ca16 8d3d 4b63 9bbd
00000360: b0d1 9f3d 97b4 e8bc 3f5f 4e3e 58ca e73d
00000370: 88d7 97bc fa10 21bb 4a59 2ebe d35c 8cbd
00000380: 3233 ef3d bb45 aebc 6892 6dbd 7eb0 053e
00000390: daa5 15be 30a4 d93d af3d 603e 1776 203d
000003a0: 0e95 b3bd ac8f 19be 918b 313d 459d a23d
000003b0: 4315 0f3e 4d72 563d ac9f d53c d977 5b3e
000003c0: 7a25 843c 2f05 3ebc edf4 bcbd 7867 1a3e
000003d0: 9776 0dbd 7ebe 253e 2d06 c5bd c1b2 5a3e
000003e0: 2ba3 8bbe 40e0 e6bd b554 123e cc6e 0dbd
000003f0: 5d83 d13d a1b5 733d 7141 1fbd 3314 03bc

actor.2.bias f4 [64]
-0.096764855 0.10583073 0.085285455 0.13433047 0.014071436 0.025868528 -0.05742096 0.2501526
-0.07993679 -0.10066749 0.3491302 -0.09993024 0.053567328 -0.27451527 0.06050448 0.24638683
-0.027767714 -0.28447857 -0.01241702 -0.19170973 0.06826423 -0.050884154 -0.22110537 -0.04711289
0.027458783 0.26075417 0.08327183 0.13021062 -0.04442031 -0.111926876 0.11033128 0.06571332
-0.28039074 -0.14304622 -0.07636896 -0.22593135 -0.04686424 -0.16846025 -0.015348025 0.031167975
0.13041529 -0.294808 -0.004533305 0.022856798 -0.107445285 -0.15084492 -0.11527867 -0.13702615
0.08104194 0.34414282 -0.07719758 -0.1585991 0.19230074 0.038451124 0.105026074 -0.29354763
0.14180791 0.07749989 -0.034552157 -0.1030866 0.005046118 -0.033371773 -0.18572274 0.20430583
00000000: a72c c6bd c8bd d83d 24aa ae3d ed8d 093e
00000010: e18b 663c 3cea d33c 3e32 6bbd 0014 803e
00000020: e6b5 a3bd c22a cebd 32c1 b23e 3aa8 ccbd
00000030: 6a69 5b3d 448d 8cbe 8cd3 773d d44c 7c3e
00000040: 1e79 e3bc 2da7 91be c270 4bbc 8e4f 44be
00000050: 1ece 8b3d e76b 50bd 7269 62be 72f9 40bd
00000060: 3ef1 e03c 9281 853e 6c8a aa3d ef55 053e
00000070: 12f2 35bd eb39 e5bd 5ef5 e13d b594 863d
00000080: 608f 8fbe b57a 12be 5467 9cbd 8c5a 67be
00000090: b8f4 3fbd d880 2cbe 4876 7bbc fb53 ff3c
000000a0: 968b 053e 13f1 96be 1e8c 94bb 2e3e bb3c
000000b0: 460c dcbd 1777 1abe 3917 ecbd 9550 0cbe
000000c0: 51f9 a53d 7d33 b03e c419 9ebd cd67 22be
000000d0: 7cea 443e ed7e 1d3d e917 d73d e04b 96be
000000e0: 1836 113e 43b8 9e3d 9086 0dbd 111f d3bd
000000f0: e859 a53b d7b0 08bd 1a2e 3ebe 8c35 513e

actor.4.weight f4 [6, 64]
-0.19113134 -0.12147695 0.007355283 -0.20836143 -0.025940761 0.054935336 -0.081823036 0.07049482
0.07021725 -0.074030794 -0.11439269 0.035808776 0.10503007 0.05810278 -0.07569851 -0.020151282
0.1299111 0.13043188 0.056725744 0.117376715 0.0031099299 -0.12254563 0.06772353 0.14931102
0.20394303 -0.025344558 0.0829592 -0.066470236 -0.020612549 -0.09501338 0.03891172 -0.021210527
0.060844433 0.15376534 -0.04604225 0.04167082 -0.12832317 -0.014323869 -0.09270397 0.21218772
0.09046879 0.07711359 0.11246717 0.07004922 0.21312615 0.09876073 -0.013490172 0.041071225
0.05141411 0.00118821 -0.11055561 0.0074400036 -0.06471482 -0.06273625 -0.19029185 -0.028863968
0.10178217 -0.15229714 0.043566976 -0.037770562 -0.059035826 0.031260237 0.21687946 -0.13748291
0.028900051 0.118658945 -0.22988091 -0.1022994 -0.014147214 -0.061951984 0.0735965 -0.02018862
0.14252307 -0.048050683 0.085339464 0.018272731 -0.16733225 -0.013521597 0.070416205 0.00088711735
0.08680134 -0.025864271 0.060268097 -0.078550614 -0.041818574 0.13005346 -0.063335896 -0.13681567
0.04660236 0.03473691 0.08104231 -0.016255124 -0.13390692 -0.04284719 -0.13600373 0.0067079253
0.04193942 -0.009349324 0.11837284 0.0024391802 -0.04253052 -0.06233055 -0.074372664 0.09796673
0.20161954 -0.0971382 -0.25637913 0.029970538 0.08160228 0.1303452 0.07603193 -0.013328547
0.13247241 0.027260713 0.05364995 0.13341567 -0.017576583 -0.0075039132 0.041504655 -0.03472463
-0.05326036 0.07579062 -0.08207143 -0.116389066 0.0874099 0.0471265 -0.059621036 0.034033954
0.013066848 0.06415997 -0.06172389 0.046238914 0.037354592 0.0356813 0.0017676436 0.15490322
-0.26501757 0.09027245 0.08807509 -0.24895 -0.11355494 -0.19866833 0.025389763 0.10544589
-0.051125627 -0.18208133 0.09211854 -0.17082134 0.0769489 -0.06976284 -0.13434245 -0.07865882
-0.08677394 0.12366999 0.0882944 0.06662005 -0.25164247 -0.037514605 0.10023753 0.09029273
-0.011811916 -0.18853427 0.018280406 -0.16013427 -0.033344585 0.0059497254 -0.00034879855 -0.09495192
0.011749118 -0.18544757 -0.0030357528 0.097731166 0.037270617 -0.038035177 -0.053718742 -0.06713574
0.14150403 0.12234313 -0.11178797 -0.10941735 0.10809257 0.080110274 0.026495894 -0.18093385
0.12175027 0.086557314 0.029956497 -0.059227947 -0.051138215 0.045935135 -0.14574312 0.046193343
-0.09549692 0.26506436 -0.08885431 0.078464 -0.065312505 0.06947951 -0.02877917 -0.0566119
0.15430766 -0.098657355 0.08030302 0.2045401 0.10184362 -0.17319389 0.07099807 0.06418725
-0.050115604 -0.17872044 -0.13659252 -0.16095783 -0.11702855 0.10376894 -0.052802943 -0.115478136
-0.043174945 -0.036894012 -0.08160021 0.09090672 0.07207989 0.043903254 0.1246432 -0.041420344
-0.14222816 0.0047263885 -0.087580875 0.10342781 -0.0792391 -0.020827947 -0.010426361 0.26569358
0.05703087 0.031919237 0.24033876 -0.13373849 0.07269743 -0.13510276 -0.24503838 0.26631668
-0.021584364 0.079903446 -0.013122137 -0.25383288 -0.043320198 0.015037414 0.08596265 -0.11960547
0.18640225 -0.017367443 -0.022060808 -0.08356687 -0.06098757 -0.08808116 -0.08399946 -0.04030446
00000000: efb7 43be e8c8 f8bd 9604 f13b b35c 55be
00000010: b881 d4bc e003 613d d692 a7bd 975f 903d
00000020: 10ce 8f3d 759d 97bd b746 eabd 39ac 123d
00000030: 011a d73d 2efd 6d3d d207 9bbd 4d14 a5bc
00000040: 6a07 053e ef8f 053e 4159 683d 3463 f03d
00000050: f7cf 4b3b 34f9 fabd a2b2 8a3d fde4 183e
00000060: 71d6 503e 649f cfbc 83e6 a93d 8c21 88bd
00000070: a6db a8bc 6096 c2bd e561 1f3d b3c1 adbc
00000080: 0338 793d a974 1d3e cc96 3cbd 06af 2a3d
00000090: 2667 03be a9ae 6abc 94db bdbd bd47 593e
000000a0: b347 b93d bbed 9d3d 3055 e63d f775 8f3d
000000b0: be3d 5a3e 1143 ca3d e205 5dbc 4d3a 283d
000000c0: 9a97 523d b6bd 9b3a fb6a e2bd 46cb f33b
000000d0: 3489 84bd dd7b 80bd dedb 42be 2174 ecbc
000000e0: 2c73 d03d c8f3 1bbe 4973 323d 4eb5 1abd
000000f0: 8dcf 71bd bc0a 003d a615 5e3e 52c8 0cbe
00000100: cdbf ec3c 7603 f33d e765 6bbe 5982 d1bd
00000110: b7c9 67bc 5dc1 7dbd c3b9 963d 9b62 a5bc
00000120: 91f1 113e cbd0 44bd 75c6 ae3d b2b0 953c
00000130: 2559 2bbe b089 5dbc 5f36 903d 708d 683a
00000140: e7c4 b13d 4fe1 d3bc aedb 763d 25df a0bd
00000150: f449 2bbd bc2c 053e 40b6 81bd 6819 0cbe
00000160: 1ee2 3e3d 4a48 0e3d 83f9 a53d 7729 85bc
00000170: e51e 09be 8980 2fbd 9044 0bbe 28ce db3b
00000180: abc8 2b3d e82d 19bc 766d f23d a7da 1f3b
00000190: 7c34 2ebd 524e 7fbd b250 98bd c8a2 c83d
000001a0: 5a75 4e3e 65f0 c6bd 2044 83be c684 f53c
000001b0: 191f a73d 3679 053e a1b6 9b3d fa5f 5abc
000001c0: d9a6 073e dc51 df3c 0dc0 5b3d 1e9e 083e
000001d0: c4fc 8fbc 63e3 f5bb c900 2a3d 6a3b 0ebd
000001e0: 8927 5abd 1d38 9b3d 1115 a8bd 645d eebd
000001f0: f603 b33d b807 413d 3035 74bd 3067 0b3d
00000200: 5516 563c 4d66 833d 31d2 7cbd 0465 3d3d
00000210: 2101 193d 8e26 123d 47b0 e73a f39e 1e3e
00000220: 62b0 87be c3e0 b83d b660 b43d c0ec 7ebe
00000230: 7e8f e8bd b66f 4bbe 31fe cf3c 04f4 d73d
00000240: 1b69 51bd 8773 3abe a5a8 bc3d caeb 2ebe
00000250: 6397 9d3d d2df 8ebd 1191 09be e017 a1bd
00000260: 89b6 b1bd b146 fd3d b2d3 b43d 1870 883d
00000270: 48d7 80be eaa8 19bd 5649 cd3d 65eb b83d
00000280: c486 41bc 210f 41be cac0 953c 3dfa 23be
00000290: 5594 08bd eaf5 c23b f3de b6b9 2776 c2bd
000002a0: 5f7f 403c f8e5 3dbe 7bf3 46bb 4727 c83d
000002b0: 13a9 183d c6ca 1bbd 2f08 5cbd 767e 89bd
000002c0: 6fe6 103e 098f fa3d 17f1 e4bd 3416 e0bd
000002d0: a35f dd3d db10 a43d eb0d d93c b946 39be
000002e0: 3558 f93d f644 b13d 5467 f53c 0199 72bd
000002f0: 4e76 51bd 7b26 3c3d af3d 15be 3b35 3d3d
00000300: e493 c3bd 84b6 873e 40f9 b5bd bcb1 a03d
00000310: 90c2 85bd 464b 8e3d 4bc2 ebbc e1e1 67bd
00000320: d402 1e3e de0c cabd e975 a43d f672 513e
00000330: 6393 d03d bd59 31be 7067 913d 9b74 833d
00000340: 0546 4dbd 7e02 37be e9de 0bbe 21d2 24be
00000350: aaac efbd cf84 d43d e647 58bd cd7f ecbd
00000360: 36d8 30bd 2d1e 17bd 031e a7bd 4d2d ba3d
00000370: 9f9e 933d e6d3 333d ef44 ff3d 61a8 29bd
00000380: 42a4 11be d2df 9a3b 9a5d b3bd f6d1 d33d
00000390: 1c48 a2bd 5f9f aabc 54d3 2abc fd08 883e
000003a0: 3499 693d bfbd 023d 5d1b 763e bef2 08be
000003b0: 64e2 943d 6158 0abe 57eb 7abe a95a 883e
000003c0: b1d1 b0bc 6ba4 a33d 3bfe 56bc 62f6 81be
000003d0: 8570 31bd 7c5f 763c 300d b03d b6f3 f4bd
000003e0: 3be0 3e3e 2b46 8ebc deb8 b4bc 1b25 abbd
000003f0: 1ace 79bd e563 b4bd e907 acbd 4a16 25bd

actor.4.bias f4 [6]
-0.14953947 0.027512787 0.10549836 0.181132 0.054912206 0.085519984
00000000: e020 19be 7f62 e13c 860f d83d ab7a 393e
00000010: 9feb 603d 1a25 af3d

critic.0.weight f4 [64, 43]
0.60158706 -0.6294139 -0.591938 -0.13874264 0.08147152 0.32762033 -0.1880287 0.21188629
-0.19272147 0.049053907 0.05847738 0.059998304 0.26999682 0.018220522 -0.10325262 0.045464784
-0.05218679 0.026337467 0.0144380815 0.0018763295 0.36802685 0.7902473 -0.05036253 0.38174656
-0.60666656 0.05701508 -0.44865736 -0.31342694 0.23792927 -0.24060857 1.2363502 0.24044336
-0.52583313 -0.22912277 0.27575716 -0.43025157 -0.72597295 1.032252 0.30037 -0.61108524
-0.37898424 0.3323059 0.1225274 0.40738297 -0.58393204 -0.4365925 -0.22030295 0.026780017
-0.015599427 -0.2024582 0.3402603 -0.007155617 -0.061814073 -0.060893837 -0.07076533 0.18500324
-0.43279275 -0.382736 -0.1753582 0.10570123 0.076607965 0.011404704 -0.00040677364 0.7114328
0.4814709 -0.31886393 0.008015391 -0.45387486 0.52359957 -0.5573145 -0.24800448 0.007944054
-0.28365692 1.9737767 0.113727055 -0.9721449 -0.50619745 0.81712663 -0.32219702 -0.4726212
1.9025015 -0.046068124 -1.1282762 -0.6093328 0.10753985 -0.20560424 0.22616631 -0.3354343
-0.14352876 -0.07690124 -0.056857858 0.28898838 0.045972265 -0.0778683 -0.006229313 0.011447286
0.08520156 -0.0040675276 -0.036789242 0.12054617 0.035033572 -0.17933531 -0.18538599 -0.006289074
0.0022936112 -0.008645594 -0.060864717 0.9316976 0.49174818 0.9071488 0.13559599 -0.2370572
0.09032198 0.21066807 0.5986153 0.02867204 -2.2384422 2.6871185 -1.2379957 -0.141407
-0.3801132 0.0024270695 0.15911095 -2.2031434 2.6866577 -1.352046 0.15493375 -0.026598284
0.113918856 0.055999003 -0.2529347 -0.066300094 0.20776217 -1.0460451e-05 -0.10806595 -0.010894046
0.06552695 0.1752736 -0.01876627 -0.059063803 0.026767945 -0.077510804 -0.019297332 0.100131854
0.20567997 0.16939461 -0.11969161 0.00061043934 0.0090875765 -0.90079963 1.3641707 0.45881322
0.84831226 -0.76452386 1.0151479 0.21615611 -0.20844658 0.9076314 0.19113418 0.32042068
-0.74526745 -0.2615979 -0.0077152676 -0.3842432 0.15616195 -0.023194868 0.21811129 -0.6964448
-0.43458346 0.70632184 -0.55843234 -0.32435176 0.44912326 -0.061788827 0.028635995 0.07909121
0.0058099343 0.24220078 0.015678044 0.11450884 -0.08040575 0.051114436 0.006396475 -0.06276876
0.3233181 -0.055489533 -0.0555689 -0.22326885 0.026652409 0.27752292 -0.014425824 0.0063043996
-0.49355927 -0.7904347 -0.7800669 0.059727985 0.6691137 0.82324564 0.077494375 0.134645
-0.4571687 -0.1459928 -1.1461606 -0.31239215 -1.0238819 -0.19444859 -0.4252304 -0.122566536
0.18516853 -0.99257886 -0.40007335 -1.0682167 -0.33132154 -0.17943875 -0.005806677 0.0051975837
-0.029692112 -0.030365424 -0.10312189 0.05920079 -0.059222117 0.08630715 -0.034477435 -0.06437365
0.04954259 0.0059346575 -0.005796974 -0.10928922 0.06124112 0.04917755 -0.123249754 -0.07242565
0.04852762 -0.0006081613 -0.00023276926 -0.07378874 1.2082418 -1.0869249 -0.93483394 -1.3071455
2.1186311 0.13539071 -0.49116623 -0.37500164 0.008022355 -0.092903286 0.18817204 0.43376845
0.30141932 0.08163513 0.35651216 -0.13276862 -0.00051697844 0.3651108 0.34128597 -0.25072077
00000000: 9c01 1a3f 4521 21bf 4089 17bf 8d12 0ebe
00000010: 8ada a63d dabd a73e 988a 40be b8f8 583e
00000020: c758 45be c0ec 483d fa85 6f3d c8c0 753d
00000030: 063d 8a3e 3443 953c 1c76 d3bd 4839 3a3d
00000040: d1c1 55bd acc1 d73c b48d 6c3c 2cef f53a
00000050: 046e bc3e a64d 4a3f f148 4ebd 4974 c33e
00000060: 804e 1bbf a588 693d 6bb6 e5be 7f79 a0be
00000070: bba3 733e 1862 76be b940 9e3f c936 763e
00000080: 009d 06bf 299f 6abe 0b30 8d3e ef49 dcbe
00000090: 5dd9 39bf d520 843f 19ca 993e 1570 1cbf
000000a0: 390a c2be 0024 aa3e a5ef fa3d 8094 d03e
000000b0: 927c 15bf 0d89 dfbe 1997 61be c461 db3c
000000c0: bd94 7fbc 3451 4fbe 9936 ae3e aa79 eabb
000000d0: c130 7dbd d16b 79bd 6aed 90bd 7d71 3d3e
000000e0: 0397 ddbe f9f5 c3be 1a91 33be e379 d83d
000000f0: a3e4 9c3d ccda 3a3c 3c44 d5b9 7620 363f
00000100: 5b83 f63e 2242 a3be fd52 033c 4962 e8be
00000110: 9f0a 063f 2aac 0ebf e3f4 7dbe c727 023c
00000120: 7b3b 91be b7a4 fc3f bbe9 e83d 7dde 78bf
00000130: 2896 01bf 362f 513f 02f7 a4be 68fb f1be
00000140: 2b85 f33f eeb1 3cbd 5b6b 90bf 3cfd 1bbf
00000150: da3d dc3d eb89 52be 2498 673e 0bbe abbe
00000160: 34f9 12be 667e 9dbd c9e3 68bd 49f6 933e
00000170: 6a4d 3c3d 6a79 9fbd 441f ccbb 668d 3b3c
00000180: 287e ae3d e548 85bb 51b0 16bd e9e0 f63d
00000190: 5d7f 0f3d ada3 37be d3d5 3dbe 9414 cebb
000001a0: 6950 163b 40a6 0dbc 484d 79bd bc83 6e3f
000001b0: 6bc6 fb3e e73a 683f add9 0a3e 1fbf 72be
000001c0: bbfa b83d 5fb9 573e da3e 193f a0e1 ea3c
000001d0: a342 0fc0 c0f9 2b40 a576 9ebf ffcc 10be
000001e0: 339e c2be 780f 1f3b fbed 223e 4d00 0dc0
000001f0: 33f2 2b40 d80f adbf f4a6 1e3e a5e4 d9bc
00000200: 4a4e e93d 365f 653d a880 81be 58c8 87bd
00000210: 9bbf 543e 4c7f 2fb7 ae51 ddbd f17c 32bc
00000220: fe32 863d ec7a 333e b8bb 99bc e3ec 71bd
00000230: 7348 db3c fcbd 9ebd 7015 9ebc ee11 cd3d
00000240: c59d 523e c875 2d3e e020 f5bd e405 203a
00000250: 0fe4 143c ce9a 66bf 259d ae3f 91e9 ea3e
00000260: fe2a 593f d6b7 43bf 5ef0 813f 0758 5d3e
00000270: 0573 55be 885a 683f aeb8 433e 2e0e a43e
00000280: d9c9 3ebf 29f0 85be 5bd0 fcbb 86bb c4be
00000290: ebe8 1f3e 2a03 bebc 9158 5f3e 354a 32bf
000002a0: b981 debe 82d1 343f 6cf5 0ebf 6f11 a6be
000002b0: 7cf3 e53e 4816 7dbd 0996 ea3c 93fa a13d
000002c0: 4361 be3b 7b03 783e 3e6f 803c 9c83 ea3d
000002d0: c5ab a4bd 5f5d 513d 8599 d13b e88c 80bd
000002e0: f389 a53e fe48 63bd 379c 63bd 97a0 64be
000002f0: 2756 da3c 7c17 8e3e 4b5a 6cbc 2395 ce3b
00000300: cdb3 fcbe ee59 4abf 77b2 47bf 55a5 743d
00000310: 094b 2b3f 3ac0 523f 5fb5 9e3d 61e0 093e
00000320: 0412 eabe 237f 15be 64b5 92bf ddf1 9fbe
00000330: 900e 83bf 881d 47be cdb7 d9be 2a04 fbbd
00000340: d29c 3d3e a619 7ebf 6ad6 ccbe 53bb 88bf
00000350: faa2 a9be cbbe 37be f045 bebb 7e50 aa3b
00000360: df3c f3bc e9c0 f8bc 9231 d3bd 877c 723d
00000370: e492 72bd cec1 b03d 3638 0dbd 55d6 83bd
00000380: 2ced 4a3d 8477 c23b 8bf4 bdbb 07d3 dfbd
00000390: f8d7 7a3d 666e 493d 5e6a fcbd e653 94bd
000003a0: e6c4 463d 046d 1fba 8613 74b9 8d1e 97bd
000003b0: aba7 9a3f 5b20 8bbf 4751 6fbf 8b50 a7bf
000003c0: a797 0740 dda3 0a3e 247a fbbe 3700 c0be
000003d0: 3270 033c 1444 bebd 2cb0 403e e616 de3e
000003e0: a253 9a3e 5230 a73d c388 b63e 7ff4 07be
000003f0: d685 07ba ceef ba3e 09bd ae3e 795e 80be

critic.0.bias f4 [64]
-0.18270913 -0.28408235 0.17532112 0.39277372 -0.08906185 0.019418929 0.03146064 -0.054212164
0.15832078 -0.11389283 0.14835936 -0.37012926 -0.08185396 0.09045194 -0.2878716 0.41900182
-0.33467126 -0.206136 0.38552192 -0.06772771 -0.38381994 -0.16297553 0.29671288 -0.11286055
0.09865404 0.004808764 -0.35595816 0.044652343 0.13545112 0.15487425 0.30244058 -0.12076243
-0.15355314 0.21225533 0.059855673 -0.3555592 -0.3326598 0.06701262 0.065599926 0.21574646
0.4237802 0.13660118 -0.022700928 -0.06987717 -0.019733388 -0.16060226 -0.1748047 0.20233382
0.16681576 -0.31632128 -0.13498862 0.120656 -0.027083274 0.24813804 0.34268484 0.10721206
0.1150701 0.03374638 -0.29270738 -0.3371949 -0.109459475 -0.12824453 -0.036310293 -0.099934794
00000000: 1a18 3bbe 3e73 91be 6187 333e a319 c93e
00000010: 0f66 b6bd 7214 9f3c dfdc 003d 930d 5ebd
00000020: d81e 223e a540 e9bd 84eb 173e 9581 bdbe
00000030: 0da3 a7bd de3e b93d e863 93be 6887 d63e
00000040: 085a abbe 5115 53be 2163 c53e d3b4 8abd
00000050: 0c84 c4be 0fe3 26be c0ea 973e 6f23 e7bd
00000060: 210b ca3d d692 9d3b 2640 b6be 60e5 363d
00000070: b3b3 0a3e 5b97 1e3e 7ed9 9a3e 4b52 f7bd
00000080: 093d 1dbe 7659 593e 392b 753d db0b b6be
00000090: 6352 aabe ea3d 893d 4159 863d a4ec 5c3e
000000a0: b8f9 d83e 2ee1 0b3e 4cf7 b9bc c31b 8fbd
000000b0: eaa7 a1bc eb74 24be 0100 33be 9930 4f3e
000000c0: c0d1 2a3e ddf4 a1be 753a 0abe 7e1a f73d
000000d0: bedd ddbc e617 7e3e 6374 af3e ff91 db3d
000000e0: dfa9 eb3d a539 0a3d bedd 95be cfa4 acbe
000000f0: 4a2c e0bd 8952 03be 1aba 14bd 9daa ccbd

critic.2.weight f4 [64, 64]
0.044280797 0.18759817 0.009616473 -0.10750247 0.0018891266 -0.061257713 0.03609534 -0.07128218
-0.25139442 -0.03355243 -0.19027394 0.03792904 -0.028738378 0.053260017 0.1397475 0.08702338
0.12344411 0.06525235 0.051372156 0.051077012 0.16260783 0.026387319 -0.22436403 0.04236965
-0.18368098 -0.062128074 0.27223575 -0.11936877 -0.0665646 -0.022843169 0.028762354 0.003546394
-0.006996708 -0.021758204 -0.1121139 0.10705025 0.042822655 0.029998021 -0.036656566 -0.15565534
-0.20800616 -0.13857874 0.09116443 0.16647393 -0.052822977 0.0060984087 -0.07720176 -0.07851813
-0.036845952 0.015977392 0.09549985 -0.1761453 -0.17676288 0.06531018 0.049945563 -0.16656037
-0.056767162 -0.064648554 -0.01178906 0.016560819 0.06841955 -0.03546783 -0.065365225 -0.09649865
-0.14261709 -0.18347321 0.047196046 -0.20498392 -0.0999622 -0.052277483 0.09830044 -0.044513196
0.11407667 -0.002471027 0.115726344 -0.008255278 -0.1934107 0.080220595 -0.18173358 -0.1469334
0.19848764 -0.13520463 -0.12841421 0.14691351 -0.05571123 -0.06583994 -0.059402183 -0.0708576
-0.049525797 -0.15395302 -0.15761694 0.0921753 -0.034005743 0.033393383 0.023318104 0.04226235
0.04184543 0.11946687 0.02029902 -0.055838656 -0.2160549 -0.20825535 0.022157138 -0.23302856
-0.07809651 0.089825355 -0.10150601 -0.15977365 -0.00698559 -0.0014739229 -0.08991352 -0.11583436
-0.18250695 -0.16472864 0.04160468 0.01147588 -0.11195357 0.12961294 -0.09043416 -0.15482393
-0.053333446 0.1362808 0.058035094 -0.10550589 0.0535846 -0.14168759 -0.11885033 -0.026167614
-0.19557999 -0.21767706 -0.17983939 -0.06777612 0.086241625 0.06565603 -0.08325608 -0.0111993095
0.18471569 -0.08697923 0.23905276 0.1288182 -0.047861673 0.035384487 0.003362229 -0.0037338599
0.23433682 0.0301649 -0.10631409 -0.113136955 -0.0795822 0.081257604 0.0074744197 0.015370005
-0.028600026 -0.030529404 -0.2108003 -0.0027412209 0.042162605 -0.12765364 0.09962859 0.054125223
0.016643427 0.11532682 -0.004397195 -0.09716436 0.06091791 -0.10580085 -0.11675008 -0.027866744
-0.032337837 0.025548592 0.00788861 -0.005905486 -0.08072034 -0.06541487 0.094121575 -0.07618953
0.05506061 -0.032627277 -0.05466688 -0.12771377 -0.096371576 0.08560779 -0.19305615 0.13572156
-0.024419626 0.16125987 -0.037639312 0.04110096 0.0952801 0.097456306 -0.06446931 -0.10629765
-0.1362754 -0.13223398 -0.08233794 -0.02910589 0.11077019 0.21822804 -0.16591486 -0.21607172
0.1372894 0.041660402 0.21596378 0.13270307 0.1147426 -0.14875059 -0.00037936337 0.049538735
0.05795766 -0.08949899 -0.1891134 -0.11309319 0.13096413 -0.20238353 0.02068831 -0.25104734
-0.008322418 -0.14440769 0.15054414 -0.13153216 0.009515989 -0.21125254 0.012282033 -0.150296
-0.018187888 0.06439785 -0.08903099 -0.05418541 -0.027584048 -0.0571883 -0.082910724 0.057601333
-0.14370541 -0.02605446 0.051966783 0.026801672 -0.028488329 -0.07084147 -0.03533624 0.06732791
-0.073486425 -0.06897966 -0.15983245 -0.06902352 -0.016726142 -0.043949246 -0.022425512 -0.47499472
-0.012965389 0.009788196 0.057445094 -0.13102591 -0.22767845 -0.03018981 0.03287185 -0.01022373
00000000: c85f 353d bc19 403e 698e 1d3c 412a dcbd
00000010: 929c f73a 5ee9 7abd b5d8 133d 64fc 91bd
00000020: c5b6 80be 466e 09bd 2cd7 42be 7b5b 1b3d
00000030: bf6c ebbc 2d27 5a3d f819 0f3e 5039 b23d
00000040: 44d0 fc3d 06a3 853d 9c6b 523d 2136 513d
00000050: ab82 263e 382a d83c afbf 65be cc8b 2d3d
00000060: de16 3cbe 027a 7ebd 7c62 8b3e 9d77 f4bd
00000070: 0553 88bd 9921 bbbc 079f eb3c 9e6a 683b
00000080: a444 e5bb 433e b2bc f99b e5bd 293d db3d
00000090: cf66 2f3d 69be f53c 3225 16bd 1d64 1fbe
000000a0: 91ff 54be 96e7 0dbe 6bb4 ba3d 2478 2a3e
000000b0: e85c 58bd 29d5 c73b f51b 9ebd 1dce a0bd
000000c0: c8eb 16bd 05e3 823c 6d95 c33d 6f5f 34be
000000d0: 5401 35be 58c1 853d b893 4c3d cd8e 2abe
000000e0: af84 68bd 7666 84bd e726 41bc 8eaa 873c
000000f0: 8d1f 8c3d b746 11bd 34de 85bd 16a1 c5bd
00000100: 370a 12be 67e0 3bbe a450 413d 4ee7 51be
00000110: fbb8 ccbd ea20 56bd be51 c93d 7853 36bd
00000120: 07a1 e93d f4f0 21bb ef01 ed3d 2541 07bc
00000130: 740d 46be b24a a43d 5e18 3abe b675 16be
00000140: 5840 4b3e 1573 0abe 047f 03be 7f70 163e
00000150: 7531 64bd 17d7 86bd b44f 73bd ca1d 91bd
00000160: 90db 4abd dca5 1dbe 5666 21be 67c6 bc3d
00000170: 9b49 0bbd 80c7 083d 9c05 bf3c 491b 2d3d
00000180: 1d66 2b3d 0cab f43d 214a a63c 13b7 64bd
00000190: 7f3d 5dbe e440 55be e382 b53c 0a9f 6ebe
000001a0: 10f1 9fbd 5bf6 b73d 62e2 cfbd b49b 23be
000001b0: 60e7 e4bb a530 c1ba 9424 b8bd 913a edbd
000001c0: 1ae3 3abe a0ae 28be ab69 2a3d 5405 3c3c
000001d0: ea47 e5bd 41b9 043e 8b35 b9bd 2a8a 1ebe
000001e0: 2c74 5abd 328d 0b3e 35b6 6d3d 7913 d8bd
000001f0: 877b 5b3d 8d16 11be cd67 f3bd 775d d6bc
00000200: 1f46 48be bce6 5ebe d127 38be 35ce 8abd
00000210: 739f b03d ab76 863d 2a82 aabd 4f7d 37bc
00000220: 1c26 3d3e 2b22 b2bd 3fca 743e ebe8 033e
00000230: 9a0a 44bd 53ef 103d d858 5c3b c6b3 74bb
00000240: fef5 6f3e 611c f73c 34bb d9bd 59b4 e7bd
00000250: fefb a2bd 636a a63d faeb f43b 79d2 7b3c
00000260: 9a4a eabc cd18 fabc 09dc 57be 0ea6 33bb
00000270: b2b2 2c3d a3b7 02be 130a cc3d 69b2 5d3d
00000280: cc57 883c 7830 ec3d 5816 90bb 1cfe c6bd
00000290: 0f85 793d 1eae d8bd aa1a efbd cc48 e4bc
000002a0: ae74 04bd 484b d13c 3a3f 013c cf82 c1bb
000002b0: b550 a5bd 3bf8 85bd d0c2 c03d 4209 9cbd
000002c0: 3c87 613d 2ea4 05bd 61ea 5fbd 66c7 02be
000002d0: 765e c5bd 2353 af3d 83b0 45be 98fa 0a3e
000002e0: ab0b c8bc 4f21 253e ae2b 1abd 7b59 283d
000002f0: 3722 c33d 2c97 c73d 7c08 84bd 95b2 d9bd
00000300: c78b 0bbe 5868 07be cba0 a8bd 7a6f eebc
00000310: 7bdb e23d 2c77 5f3e 96e5 29be e841 5dbe
00000320: 9895 0c3e 19a4 2a3d 9c25 5d3e 50e3 073e
00000330: 2bfe ea3d 1352 18be 4ae5 c6b9 21e9 4a3d
00000340: 0365 6d3d 3f4b b7bd f1a6 41be 679d e7bd
00000350: 761b 063e a13d 4fbe 887a a93c 4789 80be
00000360: c05a 08bc 9cdf 13be 3e28 1a3e 5eb0 06be
00000370: f3e8 1b3c 9652 58be 953a 493c 32e7 19be
00000380: c4fe 94bc 05e3 833d e155 b6bd 85f1 5dbd
00000390: f1f7 e1bc 473e 6abd 19cd a9bd 60ef 6b3d
000003a0: 8327 13be 2a70 d5bc 1fdb 543d 2e8f db3c
000003b0: 5b60 e9bc 5515 91bd bcbc 10bd 37e3 893d
000003c0: 0d80 96bd 3545 8dbd 1eab 23be 345c 8dbd
000003d0: 4305 89bc 2004 34bd b5b5 b7bc 8232 f3be
000003e0: c86c 54bc ab5e 203c 8c4b 6b3d a82b 06be
000003f0: 8a24 69be 9f50 f7bc a2a4 063d 6e81 27bc

critic.2.bias f4 [64]
-0.0113279335 -0.060869075 -0.10522984 -0.00968177 0.09779885 0.009696888 -0.1206501 -0.06404838
0.09587744 0.25682828 0.03356861 0.14887455 -0.07591219 -0.06718928 0.12202654 -0.14124867
-0.15533155 0.062880665 -0.031833097 0.23367487 -0.0620705 -0.07038916 -0.14074641 0.022450699
0.063474394 0.13235196 -0.10059649 0.29368967 0.007872221 -0.31476983 -0.17191601 -0.013418752
0.077915914 -0.10914576 0.09489724 -0.03577382 -0.060797185 0.06437801 0.013488049 0.007409235
-0.07665681 -0.036654904 0.09912727 0.12848127 0.0030298666 -0.040525027 -0.101279944 0.05882197
-0.30735284 0.090293966 -0.24866979 -0.0072845463 -0.035751585 -0.007684733 -0.17967553 -0.031188253
-0.12426218 0.044923577 -0.063363865 0.017660677 0.09076749 0.013813128 0.060819797 -0.024328025
00000000: cc98 39bc da51 79bd be82 d7bd 49a0 1ebc
00000010: c34a c83d b2df 1e3c 6617 f7bd cc2b 83bd
00000020: 645b c43d ff7e 833e 3d7f 093d 9272 183e
00000030: da77 9bbd 899a 89bd 0de9 f93d 7ea3 10be
00000040: 3c0f 1fbe 94c7 803d 6c63 02bd 7748 6f3e
00000050: a33d 7ebd 3128 90bd d41f 10be 87ea b73c
00000060: ddfe 813d 4687 073e 8805 cebd 7e5e 963e
00000070: 7dfa 003c 8329 a1be c00a 30be 53da 5bbc
00000080: 6192 9f3d d087 dfbd 7c59 c23d 9287 12bd
00000090: 7806 79bd 9ed8 833d fafc 5c3c 2bc9 f23b
000000a0: 3ffe 9cbd 7423 16bd 3d03 cb3d 9890 033e
000000b0: ba90 463b 92fd 25bd dc6b cfbd 4eef 703d
000000c0: 5a5d 9dbe 0bec b83d 4ba3 7ebe 34b3 eebb
000000d0: 4170 12bd 36d0 fbbb ddfc 37be 827e ffbc
000000e0: 2b7d febd c901 383d eac4 81bd 20ad 903c
000000f0: 4ee4 b93d 7550 623c 2e1e 793d 914b c7bc

critic.4.weight f4 [1, 64]
-0.029635431 0.08903805 0.0945431 0.0648283 0.21193464 -0.08936482 0.23221 0.43711463
0.13276698 0.17471467 0.016743248 0.10290794 -0.109796464 0.12411223 0.10858524 0.17129774
-0.21331681 -0.118797794 0.12736563 0.23013285 0.14972547 -0.34030342 0.10737207 0.09000803
-0.066146515 0.18041103 -0.052603364 0.1785659 -0.26976523 -0.35272184 0.09472308 -0.11431567
-0.40803653 -0.27087316 -0.49406973 -0.11986534 0.17339917 0.11580236 0.05416364 0.09118377
-0.011400834 0.09378357 -0.12501228 0.20192164 0.13526379 -0.07754453 -0.08416831 0.13182901
0.20044346 0.19562398 0.15244968 0.106248245 -0.17539331 -0.67719626 -0.07653569 -0.12278461
-0.8111548 0.1793991 0.1010083 0.22182341 0.19836389 0.112852484 0.23853217 -0.1273052
00000000: 01c6 f2bc 9559 b63d d09f c13d b3c4 843d
00000010: 6505 593e e704 b7bd 75c8 6d3e 7dcd df3e
00000020: 11f4 073e 67e8 323e 2329 893c 66c1 d23d
00000030: f8dc e0bd 8e2e fe3d f061 de3d ad68 2f3e
00000040: b96f 5abe 424c f3bd 236c 023e f2a7 6b3e
00000050: a251 193e 403c aebe e3e5 db3d 2156 b83d
00000060: d377 87bd abbd 383e a076 57bd fbd9 363e
00000070: ab1e 8abe f597 b4be 2dfe c13d 561e eabd
00000080: 2aea d0be e3af 8abe b5f6 fcbe f67b f5bd
00000090: 8d8f 313e ca29 ed3d b1da 5d3d 8ebe ba3d
000000a0: 90ca 3abc 9a11 c03d 3803 00be 8cc4 4e3e
000000b0: 9782 0a3e abcf 9ebd 6f60 acbd 2ffe 063e
000000c0: 0d41 4d3e a751 483e c51b 1c3e ae98 d93d
000000d0: 4e9a 33be bc5c 2dbf bebe 9cbd 7f76 fbbd
000000e0: d7a7 4fbf 66b4 373e 71dd ce3d ad25 633e
000000f0: e71f 4b3e 341f e73d c741 743e 4b5c 02be

exp_avg f4 [6]
-0.00015530839 0.00026567775 -0.0017435594 0.00036697424 0.00019874863 -0.0002267718
00000000: 47da 22b9 aa4a 8b39 2588 e4ba 7366 c039
00000010: 2e67 5039 97c9 6db9

exp_avg_sq f4 [6]
5.1771636e-05 0.00013379121 0.00010947289 2.2436685e-05 1.6755306e-05 9.4015155e-07
00000000: 5f25 5938 4e4a 0c39 cf94 e538 6a36 bc37
00000010: bf8d 8c37 b95e 7c35

exp_avg f4 [64, 43]
-0.00029020145 5.4177846e-05 0.00031858432 -2.2505252e-05 9.072055e-05 -0.0001619652 -7.160321e-05 0.00015599387
0.00026474614 -0.00011562431 8.457728e-05 -0.00069829746 -0.0005529614 9.622993e-05 0.0006610658 -0.000114860006
0.00020285988 -0.00034556733 -0.0009892714 -0.004854768 -4.405033e-06 8.078015e-05 9.888052e-05 -7.1299854e-07
-4.0375962e-05 -5.504772e-05 3.6008344e-06 4.0417275e-05 4.3839325e-05 2.889768e-06 -2.4012603e-05 -1.2004361e-06
4.0788716e-05 0.00011612358 6.2336774e-05 0.00014424135 -8.522332e-05 -2.4012603e-05 -1.2004361e-06 4.0788716e-05
7.715693e-06 8.707346e-06 -3.653904e-05 0.00016130136 -0.00011642777 -0.00019673398 7.934829e-05 4.355251e-06
0.00017599945 2.5173984e-05 0.00028796188 -8.8460685e-05 0.00012077402 0.00035490972 -0.0004977399 0.00029458367
-0.00017773466 -0.00050729414 6.058023e-05 7.797619e-05 0.00014616983 0.0021597524 -0.0034086618 4.7981513e-05
-5.804224e-07 -1.7312677e-05 -7.7304543e-07 -5.176562e-05 1.6497379e-05 -2.9241858e-06 -5.2330553e-05 -8.0648016e-07
-3.695206e-06 -2.0880629e-05 -6.0648154e-06 4.0479817e-06 -0.000120146055 5.9281487e-05 1.9497335e-05 -1.10010515e-05
-2.0880629e-05 -6.0648154e-06 4.0479817e-06 2.8176917e-05 -1.8874855e-05 -5.4625714e-05 4.614747e-05 -6.4872445e-05
-0.00015386163 5.8696503e-05 -3.6702768e-05 6.529388e-05 -6.547437e-06 -1.3778494e-05 -4.231178e-05 -4.4013545e-05
0.00022611782 -0.00024435652 0.00010621393 -0.00015566772 -0.00032801132 -2.0601126e-05 1.2601905e-05 3.2904605e-05
0.0008801168 0.0018867594 1.6263522e-05 -7.737726e-06 -1.1353497e-05 -2.7778938e-07 -2.2870025e-05 -5.5255914e-06
-1.9368947e-06 -3.0587555e-05 -1.6874676e-05 -2.214304e-06 -1.4355969e-05 -3.201408e-05 -1.0659705e-05 -3.4888548e-05
2.0849218e-05 -1.5455551e-05 -3.0593714e-05 -1.4355969e-05 -3.201408e-05 -1.0659705e-05 -1.2727788e-05 -3.8487524e-05
-3.3841038e-06 0.00024162163 -0.0002040298 -0.00061909395 0.00025732184 -8.596457e-05 1.657429e-05 -6.753308e-05
-1.47496485e-05 0.00012379565 0.00011249937 0.0002599418 -0.0002540616 0.0003654241 -0.0003458711 -0.0011810354
0.0006293145 -0.00014143866 -3.1316238e-05 -0.0022031732 -0.0026749668 1.41724995e-05 -1.3923554e-05 -5.8805705e-05
-5.8448154e-07 -6.8211135e-05 2.438312e-05 -5.55978e-06 -8.213531e-05 -3.440239e-05 -6.142403e-06 -2.7209692e-06
3.3736117e-07 5.659848e-06 -0.00015235507 -1.32124405e-05 -0.0001525901 -9.755557e-05 -2.7209692e-06 3.3736117e-07
5.659848e-06 4.888117e-06 -6.604508e-05 -1.079654e-05 -9.552183e-05 2.1624715e-05 0.00022088292 6.3732834e-05
7.758673e-06 -8.08943e-05 -0.0002943826 8.635561e-05 0.0003661803 9.9420584e-05 -0.00013843454 -0.00059160875
-0.00024633826 7.767959e-05 0.0005639824 0.00022782643 -9.976982e-06 -0.0002455475 -0.002660796 -0.0024484675
-3.2233893e-05 1.3508466e-05 2.2678449e-05 2.5082554e-07 2.6071055e-05 -4.9947976e-06 2.8338582e-06 3.958838e-05
1.7670867e-05 3.0836195e-06 -2.5724073e-06 5.151884e-06 3.9167467e-06 6.582747e-05 -1.4432049e-05 7.055451e-05
3.9280752e-05 -2.5724073e-06 5.151884e-06 3.9167467e-06 7.092225e-05 -3.9716808e-05 6.6844113e-06 4.501372e-05
-8.86043e-05 -0.00019838328 0.00012338595 -2.233891e-05 -1.8357288e-05 6.790465e-05 2.7240494e-05 0.0001011407
5.9355396e-05 -0.00024775745 -0.00028917438 0.00015796944 -0.00019538206 -0.00037226357 0.00029458446 -8.556088e-05
-0.00026655465 -0.002127946 -0.0024128952 1.078234e-05 6.5163467e-06 -6.0595244e-06 6.550918e-07 -3.165042e-05
-8.204016e-06 -2.8475665e-06 -2.5118474e-05 -1.4256432e-05 -2.1911283e-06 -3.661423e-05 3.991694e-05 4.5480256e-06
-8.747259e-06 -6.69469e-07 -2.4180126e-05 -4.0197392e-05 -3.661423e-05 3.991694e-05 4.5480256e-06 1.1119364e-06
00000000: 2e26 98b9 053d 6338 aa07 a739 a9c9 bcb7
00000010: 3941 be38 34d5 29b9 ae29 96b8 4992 2339
00000020: a0cd 8a39 547b f2b8 155f b138 f30d 37ba
00000030: 9df4 10ba 0dcf c938 604b 2d3a ffe0 f0b8
00000040: c9b6 5439 432d b5b9 71aa 81ba bf14 9fbb
00000050: f2ce 93b6 8368 a938 135e cf38 e364 3fb5
00000060: 5c59 29b8 0ae3 66b8 dda5 7136 b885 2938
00000070: 1ee0 3738 d6ed 4136 ac6e c9b7 ac1e a1b5
00000080: 8d14 2b38 5f87 f338 cdba 8238 7e3f 1739
00000090: ecb9 b2b8 ac6e c9b7 ac1e a1b5 8d14 2b38
000000a0: a672 0137 c415 1237 7f41 19b8 0123 2939
000000b0: af2a f4b8 604a 4eb9 ca67 a638 5223 9236
000000c0: 7e8c 3839 b82c d337 97f9 9639 f883 b9b8
000000d0: 0f48 fd38 2d13 ba39 c27a 02ba 5a72 9a39
000000e0: 495e 3ab9 effb 04ba 8717 7e38 2687 a338
000000f0: 2a45 1939 a28a 0d3b db63 5fbb c23f 4938
00000100: 53ce 1bb5 b13a 91b7 4783 4fb5 e91e 59b8
00000110: da63 8a37 213d 44b6 817d 5bb8 e57c 58b5
00000120: 28fb 77b6 cf28 afb7 5e80 cbb6 e6d3 8736
00000130: ecf6 fbb8 03a5 7838 358e a337 2891 38b7
00000140: cf28 afb7 5e80 cbb6 e6d3 8736 785d ec37
00000150: 7155 9eb7 ea1d 65b8 788e 4138 210c 88b8
00000160: eb55 21b9 e430 7638 4cf1 19b8 63ee 8838
00000170: 0eb2 dbb6 2e2a 67b7 ee77 31b8 2f9b 38b8
00000180: 0a1a 6d39 fa1c 80b9 2bbf de38 bc3a 23b9
00000190: eff8 abb9 95d0 acb7 c56c 5337 0d03 0a38
000001a0: a3b7 663a 244d f73a a66d 8837 48d1 01b7
000001b0: e67a 3eb7 1523 95b4 01d9 bfb7 7868 b9b6
000001c0: 99fb 01b6 234b 00b8 178e 8db7 7499 14b6
000001d0: 6bda 70b7 db46 06b8 16d7 32b7 4b55 12b8
000001e0: 5be5 ae37 8ba6 81b7 c051 00b8 6bda 70b7
000001f0: db46 06b8 16d7 32b7 6f89 55b7 aa6d 21b8
00000200: 761a 63b6 d05b 7d39 d5f0 55b9 b14a 22ba
00000210: 27e9 8639 e147 b4b8 0409 8b37 8ca0 8db8
00000220: 4275 77b7 24cf 0139 a4ed eb38 cc48 8839
00000230: 9233 85b9 6496 bf39 0956 b5b9 f9cc 9aba
00000240: 95f8 243a 274f 14b9 8e59 03b8 1d63 10bb
00000250: 7f4e 2fbb 6cc6 6d37 3699 69b7 25a6 76b8
00000260: 44e5 1cb5 930c 8fb8 5a8a cc37 268e bab6
00000270: 0f40 acb8 494b 10b8 d71a ceb6 e599 36b6
00000280: 911e b534 b9e9 bd36 81c1 1fb9 00ab 5db7
00000290: 9800 20b9 bf96 ccb8 e599 36b6 911e b534
000002a0: b9e9 bd36 9b04 a436 af81 8ab8 c922 35b7
000002b0: e452 c8b8 b966 b537 cf9c 6739 4ea8 8538
000002c0: 3f2b 0237 cca5 a9b8 5d57 9ab9 d119 b538
000002d0: e3fb bf39 0580 d038 bd28 11b9 3116 1bba
000002e0: f626 81b9 eae7 a238 38d8 133a b1e4 6e39
000002f0: d062 27b7 d4bc 80b9 c060 2ebb 7876 20bb
00000300: e132 07b8 6ba2 6237 993d be37 33a9 8634
00000310: 2ab3 da37 fc98 a7b6 502d 3e36 b30b 2638
00000320: e63b 9437 2ef0 4e36 9fa1 2cb6 59de ac36
00000330: 996c 8336 db0c 8a38 2e21 72b7 aaf6 9338
00000340: 63c1 2438 9fa1 2cb6 59de ac36 996c 8336
00000350: 18bc 9438 9995 26b8 a84a e036 1dcd 3c38
00000360: 12d1 b9b8 1b05 50b9 2a61 0139 7264 bbb7
00000370: fafd 99b7 0868 8e38 8482 e437 801b d438
00000380: 5ff4 7838 71e5 81b9 549c 97b9 99a4 2539
00000390: 79df 4cb9 5f2c c3b9 7572 9a39 266f b3b8
000003a0: 5cc0 8bb9 0275 0bbb aa21 1ebb cce5 3437
000003b0: fea6 da36 eb52 cbb6 91d9 2f35 61c0 04b8
000003c0: fba3 09b7 d218 3fb6 83b5 d2b7 e92e 6fb7
000003d0: 4c0b 13b6 3b92 19b8 7d6c 2738 3e9b 9836
000003e0: 31c1 12b7 8fb5 33b5 6dd6 cab7 9f99 28b8
000003f0: 3b92 19b8 7d6c 2738 3e9b 9836 d83d 9535
