2026-01-29_07-44-49_Fase2_Empuje_V1/model_1998.pt (torch, 189045 bytes, 36 tensors)

std f4 [6]
0.9312707 1.0769799 0.51950765 1.5996441 1.3703623 4.614542
00000000: c267 6e3f 7ada 893f 74fe 043f 23c1 cc3f
00000010: 0868 af3f 54aa 9340

actor.0.weight f4 [64, 43]
0.02307138 0.30849206 -0.046974644 0.010463757 -0.33332077 -0.40827698 -0.1255676 -0.18505208
0.009028947 0.031669836 0.00693697 0.109529816 0.13554625 0.21005319 0.023940451 -0.16984282
-0.16353935 -0.15618967 -0.05273615 0.021839423 1.0244687 0.30919063 0.12715262 -0.08616475
-0.54875255 -0.13026783 -0.19169149 -0.2998513 0.14652589 -0.30267674 0.31719536 -0.03141448
0.29594123 -0.5380829 0.0991042 0.3510884 0.17660901 0.29780063 0.124786146 0.13355325
-0.46896175 -0.2486924 0.30626807 -0.07773209 0.1711595 0.30792168 0.63942784 -0.6826397
-0.18740638 0.060658228 -0.6202028 -0.1331774 -0.06631007 0.22653863 0.05586171 0.087967336
-0.12128598 -0.0029256777 0.41569754 -0.64887613 -0.16232634 -0.03928251 0.011075311 -0.77014714
0.9145038 0.54937565 0.43568465 -0.81606096 -0.67714924 -0.021885497 -0.11109297 0.41481254
0.28346795 -0.10194046 -0.21215396 0.230452 -0.10585126 -0.422378 0.3139675 0.62025285
-0.06775997 -0.14427023 0.4489594 0.11893664 0.56972665 -0.20889492 -0.39881298 -0.21506767
-0.31221431 0.07664364 -0.00084147765 -0.19619308 0.27983493 -0.06101963 -0.23491867 -0.29129675
-0.010226387 0.039875098 -0.22459756 -0.18164434 -0.37652224 0.0713699 -0.038682666 -0.26288366
0.017449811 -0.0011498935 -0.4093336 -0.6379833 0.08251621 -0.40471426 -0.03135518 -0.3870221
0.08716328 -0.48752367 -0.1479699 -0.10680481 -0.016932277 0.30218259 0.63763523 -0.30303797
0.02840568 -0.17572618 -0.46125078 -0.1748749 0.32863718 0.6028542 -0.43138257 -0.061701853
0.44917226 0.0427299 0.01752569 0.1398677 -0.44867292 0.36838523 -0.0077638132 0.08450879
-0.26049036 0.26365492 0.2179524 -0.0639267 0.061656542 0.0065861014 0.034500916 0.038739327
-0.22087276 0.2399249 0.15886794 -0.0021984912 0.019003201 -0.14660968 -0.21449387 -0.41694877
0.18205786 -0.13773753 0.18945627 -0.21400855 -0.0061495956 -0.28582618 -0.013685359 -0.05381496
-0.07868183 0.31314933 -0.12899488 -0.1248166 -0.1381803 -0.027063916 -0.050224848 -0.09199004
0.3159848 0.2288906 -0.07369248 -0.5708372 0.21910012 -0.6303851 -0.5815204 0.03553486
0.027915217 0.4768871 0.1671381 0.32916752 0.291807 0.042287894 -0.070240244 0.0009770634
0.18984288 -0.13162698 -0.07416498 0.14536016 0.02324891 0.1923161 0.034636676 0.0048724283
-0.02810514 0.64556783 0.17854549 -0.30828515 -0.29808775 -0.10405172 -0.053218506 -0.04400074
-0.024615554 -0.18611376 -0.19089408 0.27267975 -0.1646163 -0.3502279 -0.047318984 -0.17558421
-0.30234802 -0.27093673 0.29750815 -0.08678521 0.19601756 -1.2084992 0.2622878 -0.07753267
-0.09470965 -0.099353425 -0.05815305 0.20558682 -0.12995225 0.3040714 -0.7940084 -0.048090898
0.02974969 0.060580757 -0.019388143 -0.11196896 -0.3388025 -0.26150835 -0.22592318 0.44527903
0.18195406 0.035164606 0.008347959 -0.21385998 -0.7284344 -0.054851744 0.41534364 -0.088562556
-0.37350744 -0.2914941 -0.17069441 -0.22696547 -0.15051448 -0.15849528 -0.22549143 0.20692104
-0.053258225 0.1072589 -0.16576822 -0.3600303 -0.077950135 -0.19854625 0.11089512 -0.7074916
00000000: 3100 bd3c acf2 9d3e 7c68 40bd 2e70 2b3c
00000010: 05a9 aabe ae09 d1be cb94 00be 4b7e 3dbe
00000020: 26ee 133c 3bb8 013d 864f e33b 2b51 e03d
00000030: a3cc 0a3e 2f18 573e c41e c43c 47eb 2dbe
00000040: dc76 27be 2ff0 1fbe dc01 58bd 97e8 b23c
00000050: ca21 833f 3c4e 9e3e 4c34 023e 2577 b0bd
00000060: 0c7b 0cbf ee64 05be c64a 44be 1c86 99be
00000070: e20a 163e 72f8 9abe 6e67 a23e 78ac 00bd
00000080: 9c85 973e cdbf 09bf 25f7 ca3d dcc1 b33e
00000090: fed8 343e 5379 983e e18f ff3d 2fc2 083e
000000a0: c11b f0be 38a9 7ebe 2bcf 9c3e 0132 9fbd
000000b0: 7044 2f3e e9a7 9d3e 8bb1 233f 7ac1 2ebf
000000c0: 75e7 3fbe c374 783d 9cc5 1ebf a85f 08be
000000d0: 93cd 87bd bef9 673e 40cf 643d 3828 b43d
000000e0: c964 f8bd babc 3fbb 4fd6 d43e bf1c 26bf
000000f0: e038 26be b2e6 20bd 3975 353c 5d28 45bf
00000100: ec1c 6a3f e2a3 0c3f 0f12 df3e 5fe9 50bf
00000110: a759 2dbf 3749 b3bc b684 e3bd 4f62 d43e
00000120: b622 913e 29c6 d0bd e33e 59be 9cfb 6b3e
00000130: 8cc8 d8bd ee41 d8be 59c0 a03e e4c8 1e3f
00000140: bdc5 8abd 93bb 13be 02de e53e 0e95 f33d
00000150: 9bd9 113f 8de8 55be 3731 ccbe b33a 5cbe
00000160: 8eda 9fbe 57f7 9c3d 9c96 5cba d7e6 48be
00000170: 8646 8f3e b8ef 79bd 858e 70be d924 95be
00000180: 938c 27bc 1254 233d e7fc 65be f900 3abe
00000190: 86c7 c0be 622a 923d b771 1ebd b098 86be
000001a0: e8f2 8e3c 06b8 96ba 2c94 d1be e052 23bf
000001b0: 42fe a83d b536 cfbe 4a6e 00bd c327 c6be
000001c0: a982 b23d b49c f9be 6c85 17be 7bbc dabd
000001d0: 8fb5 8abc adb7 9a3e 103c 233f cb27 9bbe
000001e0: 07b3 e83c 90f1 33be 1029 ecbe 6812 33be
000001f0: 2243 a83e a754 1a3f 2dde dcbe 15bb 7cbd
00000200: e8f9 e53e 8c05 2f3d 0992 8f3c 7a39 0f3e
00000210: 75b8 e5be fd9c bc3e 9667 febb f212 ad3d
00000220: fe5e 85be c7fd 863e ea2e 5f3e 00ec 82bd
00000230: 928b 7c3d 39d0 d73b d550 0d3d 21ad 1e3d
00000240: 782c 62be dfae 753e 47ae 223e 9014 10bb
00000250: 9aac 9b3c d920 16be 48a4 5bbe 4f7a d5be
00000260: 606d 3a3e 110b 0dbe d300 423e 0f25 5bbe
00000270: 8c82 c9bb cf57 92be 8e38 60bc 136d 5cbd
00000280: f023 a1bd 1c55 a03e 3c17 04be d89f ffbd
00000290: 237f 0dbe 25b5 ddbc 92b8 4dbd 4665 bcbd
000002a0: c2c8 a13e 4c62 6a3e 15ec 96bd 6322 12bf
000002b0: c85b 603e eb60 21bf 85de 14bf 008d 113d
000002c0: 74ae e43c 8c2a f43e 4026 2b3e a588 a83e
000002d0: ba67 953e 1236 2d3d 1eda 8fbd cf10 803a
000002e0: 2c66 423e 39c9 06be cfe3 97bd 4bd9 143e
000002f0: 8074 be3c 83ee 443e 30df 0d3d e4a8 9f3b
00000300: c03c e6bc ef43 253f a1d4 363e 8dd7 9dbe
00000310: f59e 98be 1119 d5bd a6fb 59bd 1f3a 34bd
00000320: 8fa6 c9bc 9b94 3ebe bd79 43be ae9c 8b3e
00000330: 2d91 28be 1251 b3be 8dd1 41bd 59cc 33be
00000340: 5ccd 9abe 38b8 8abe fd52 983e 72bc b1bd
00000350: d4b8 483e 1ab0 9abf 964a 863e 73c9 9ebd
00000360: 22f7 c1bd cf79 cbbd e431 6ebd 5a85 523e
00000370: 3412 05be 3faf 9b3e 2244 4bbf f6fa 44bd
00000380: 9fb5 f33c 8723 783d e2d3 9ebc fb4f e5bd
00000390: 8577 adbe 6ce4 85be 6858 67be 9dfb e33e
000003a0: 2a52 3a3e c308 103d e1c5 083c 1cfe 5abe
000003b0: ad7a 3abf 39ac 60bd eca7 d43e 4960 b5bd
000003c0: 5e3c bfbe b73e 95be 84ca 2ebe a369 68be
000003d0: 7820 1abe 964c 22be 3ae7 66be 1ce3 533e
000003e0: 4c25 5abd 8eaa db3d 25bf 29be e455 b8be
000003f0: 52a4 9fbd b54f 4bbe fb1c e33d 2b1e 35bf

actor.0.bias f4 [64]
-0.00032426324 0.22423385 0.0333143 -0.115059145 0.011358412 -0.08289675 0.18880332 0.032368
-0.04680647 0.1301729 -0.3567933 0.21963021 -0.31540447 -0.2141675 0.058231402 0.004858282
-0.027437093 -0.05801522 -0.37565944 -0.10129484 -0.5127035 0.10167599 -0.16460663 -0.23684031
-0.24098149 0.1196483 -0.15568233 -0.007487327 0.048456315 -0.33403575 0.3411604 0.13833944
-0.10756085 0.16639045 -0.23396799 0.031052127 0.17642626 -0.3640181 -0.09276535 -0.3906247
-0.12343452 -0.14292656 -0.03390745 -0.09700338 -0.04789843 0.13769396 0.15121964 -0.16505638
-0.2632867 -0.059764706 0.08107817 -0.15121944 -0.13037604 -0.13893417 -0.050016195 0.041112058
0.35947752 -3.572348e-05 0.0143185705 -0.41070613 -0.455017 0.103410296 -0.16607316 -0.16520579
00000000: e001 aab9 8f9d 653e 9374 083d 21a4 ebbd
00000010: a218 3a3c c5c5 a9bd a855 413e 4f94 043d
00000020: 24b8 3fbd 0b4c 053e 9dad b6be bee6 603e
00000030: b27c a1be ba4e 5bbe 0d84 6e3d 3932 9f3b
00000040: c1c3 e0bc 5ea1 6dbd 6f56 c0be ab73 cfbd
00000050: 8940 03bf 803b d03d a48e 28be 4486 72be
00000060: dac3 76be 2b0a f53d 306b 1fbe 4058 f5bb
00000070: 217a 463d bc06 abbe 93ac ae3e dba8 0d3e
00000080: dd48 dcbd 4262 2a3e 4e95 6fbe 0861 fe3c
00000090: 16a9 343e 9560 babe c3fb bdbd f6ff c7be
000000a0: 3dcb fcbd 575b 12be 8ae2 0abd b5a9 c6bd
000000b0: 2531 44bd a5ff 0c3e 52d9 1a3e 8a04 29be
000000c0: 84cd 86be d6cb 74bd 500c a63d 45d9 1abe
000000d0: 4c81 05be c244 0ebe c8dd 4cbd 1e65 283d
000000e0: 700d b83e cbd5 15b8 7098 6a3c 1348 d2be
000000f0: fdf7 e8be c7c8 d33d 150f 2abe b52b 29be

actor.2.weight f4 [64, 64]
0.04415117 0.039167713 -0.044424925 0.07533291 0.011378745 -0.00550543 0.065399356 0.0900559
-0.11897903 0.025450641 0.029012376 -0.062281325 0.10066793 -0.1472083 0.29352033 -0.24874768
-0.16327053 0.203681 -0.013716293 0.045388207 0.058845785 -0.05332623 -0.31602517 0.04634854
0.14191912 0.03982666 0.033734284 0.07694413 0.25834244 -0.084499665 0.08591856 0.151893
0.10347663 0.1682248 -0.13108076 0.033617485 -0.118979245 -0.001026717 0.3165199 0.06682143
-0.011104214 -0.15222126 -0.053506695 -0.106630236 0.09059177 -0.2734687 0.09412395 0.115366615
-0.08538405 -0.027817268 -0.051114786 -0.16656095 0.11521263 -0.20626214 0.018032204 0.22176406
0.060693834 -0.00036452766 -0.14179195 -0.008877571 0.047116436 0.21129398 -0.1163137 -0.122037776
-0.20662072 -0.1440426 0.17156298 -0.06875627 0.1428753 0.22941592 0.114439346 -0.18037844
-0.10995317 -0.42117125 0.02236366 0.13448241 -0.025494374 -0.009204939 -0.27758807 -0.18526734
0.11233234 0.12598102 0.2579131 0.024013985 0.08423154 -0.06458399 0.17780176 0.11102457
0.01978752 0.1725506 -0.3978362 0.036269825 0.048448708 0.10115894 -0.08728564 0.07789276
0.17929113 -0.20866928 0.26746657 -0.07047314 -0.1507068 0.36859727 0.027416581 0.12786418
0.26121008 0.23085395 -0.0031214505 0.4394114 -0.335639 -0.043453425 -0.63729894 -0.040482145
0.25268188 0.009947966 0.1634322 0.0126694525 0.045908157 0.0813637 -0.061078575 -0.3420536
0.27964798 0.09520949 -0.110118605 0.15349872 -0.10177589 0.265359 -0.54453194 0.15495795
-0.018734628 0.019306086 0.06903058 0.05549499 0.11266307 -0.00022377029 0.21790098 -0.23791434
-0.032677684 0.11539096 -0.2426524 0.17563702 -0.023636159 -0.046078056 0.15225661 0.03432194
0.022332635 -0.047172386 -0.0641415 0.19797008 0.0124196205 -0.22235192 0.061564278 -0.26059
-0.042207494 -0.073046766 -0.0039048002 -0.7632119 0.09231989 -0.071529716 -0.25576928 0.109228045
-0.17484279 -0.008963728 0.2554267 -0.029292218 0.00453628 -0.009147551 -0.030333232 0.061868086
0.056026295 -0.030748 -0.10365361 -0.053717114 -0.04016554 -0.140661 -0.32734394 -0.22141464
-0.0023261867 -0.12549737 0.2350493 -0.3763033 -0.05222531 0.045956083 -0.1701714 -0.13550545
0.17165633 0.05630376 -0.12510324 -0.23815516 -0.057558585 0.030315287 -0.39245605 0.15598117
0.007990274 0.030445151 -0.08837439 0.06147013 0.023263305 0.15443294 0.08152183 -0.08457547
0.008414345 0.028010277 0.098812304 -0.043255232 0.022164842 -0.13270736 0.20711747 -0.10891564
-0.009255307 0.018650588 0.040070496 0.040301297 -0.13201614 -0.086545415 0.021311125 -0.041680176
0.08199953 0.06750897 0.08286949 0.106386 -0.01248571 -0.0057984404 -0.18604018 -0.10125331
0.0903456 -0.038498 -0.024453294 0.113874175 -0.17133512 0.09396102 0.30758217 0.069820434
-0.061329532 -0.09880784 0.08183687 0.073779464 0.19948497 0.014029551 0.07999031 0.14877765
0.018012436 -0.04417056 -0.14190172 0.1493674 -0.0028881482 0.16386326 -0.10530989 0.19581263
-0.18036084 -0.13697869 0.108942635 -0.01621516 0.12855823 0.0734441 -0.0068412703 -0.05387035
00000000: dbd7 343d 536e 203d e9f6 35bd 2448 9a3d
00000010: ea6d 3a3c e566 b4bb 19f0 853d 3a6f b83d
00000020: 47ab f3bd dd7d d03c 5dab ed3c b41a 7fbd
00000030: fd2a ce3d c6bd 16be 4c48 963e b6b7 7ebe
00000040: 6430 27be c191 503e 4dba 60bc fce8 393d
00000050: 4708 713d 9b6c 5abd 0dce a1be f7d7 3d3d
00000060: 3f53 113e 4821 233d f62c 0a3d e294 9d3d
00000070: 7645 843e 290e adbd 12f6 af3d d789 1b3e
00000080: 8eeb d33d 1f43 2c3e 093a 06be 7db2 093d
00000090: 64ab f3bd e892 86ba e50e a23e add9 883d
000000a0: 73ee 35bc e4df 1bbe d629 5bbd f460 dabd
000000b0: 2e88 b93d 1704 8cbe 0fc4 c03d 5545 ec3d
000000c0: d5dd aebd 0ae1 e3bc bd5d 51bd f48e 2abe
000000d0: 99f4 eb3d 6236 53be 46b8 933c 1e16 633e
000000e0: 199a 783d 131e bfb9 e931 11be 3b73 11bc
000000f0: 2afd 403d 735d 583e e135 eebd f1ee f9bd
00000100: 6294 53be e77f 13be 35ae 2f3e 16d0 8cbd
00000110: e74d 123e 02ec 6a3e 2d5f ea3d 20b5 38be
00000120: 212f e1bd c2a3 d7be ff33 b73c c2b5 093e
00000130: 94d9 d0bc 50d0 16bc 0620 8ebe b9b6 3dbe
00000140: 7f0e e63d 2b01 013e 300d 843e fab8 c43c
00000150: 9681 ac3d 9c44 84bd aa11 363e da60 e33d
00000160: 7019 a23c 1bb1 303e 30b1 cbbe ab8f 143d
00000170: 2772 463d 6b2c cf3d d0c2 b2bd 3d86 9f3d
00000180: 1898 373e 66ad 55be 61f1 883e 3954 90bd
00000190: e252 1abe c8b8 bc3e bd98 e03c d4ee 023e
000001a0: 54bd 853e fa64 6c3e 4091 4cbb 88fa e03e
000001b0: e0d8 abbe 38fc 31bd 0626 23bf 9bd0 25bd
000001c0: 855f 813e cbfc 223c c55a 273e 8993 4f3c
000001d0: 310a 3c3d 03a2 a63d 872d 7abd a621 afbe
000001e0: 052e 8f3e 31fd c23d dd85 e1bd c52e 1d3e
000001f0: e16f d0bd 23dd 873e 7266 0bbf 4cad 1e3e
00000200: 5d79 99bc cc27 9e3c e85f 8d3d b74e 633d
00000210: e5bb e63d e1a3 6ab9 6f21 5f3e d19f 73be
00000220: 09d9 05bd 1852 ec3d df79 78be 31da 333e
00000230: 9ea0 c1bc 58bc 3cbd 28e9 1b3e 2a95 0c3d
00000240: eef2 b63c d537 41bd 9e5c 83bd abb8 4a3e
00000250: aa7b 4b3c 39b0 63be d32a 7c3d 0d6c 85be
00000260: c4e1 2cbd 8b99 95bd ade7 7fbb db61 43bf
00000270: 3612 bd3d 2c7e 92bd 31f4 82be f4b2 df3d
00000280: fd09 33be 9adc 12bc 4ac7 823e 3cf6 efbc
00000290: 13a5 943b 9cdf 15bc 667d f8bc 6469 7d3d
000002a0: d47b 653d 3be3 fbbc 5848 d4bd 7a06 5cbd
000002b0: 9f84 24bd 7009 10be a099 a7be 85ba 62be
000002c0: f072 18bb 6282 00be c4b0 703e d3aa c0be
000002d0: 35ea 55bd 723c 3c3d 6941 2ebe f1c1 0abe
000002e0: adc6 2f3e c59e 663d 101b 00be f2de 73be
000002f0: 8dc2 6bbd c457 f83c 00f0 c8be 87b9 1f3e
00000300: a3e9 023c 1c68 f93c a2fd b4bd 1ac8 7b3d
00000310: b092 be3c ab23 1e3e ebf4 a63d e735 adbd
00000320: 52dc 093c cf75 e53c 1b5e ca3d 662c 31bd
00000330: 0b93 b53c 70e4 07be 9a16 543e 2a0f dfbd
00000340: 92a3 17bc 1ec9 983c f620 243d f912 253d
00000350: 3d2f 07be b93e b1bd ab94 ae3c d5b8 2abd
00000360: 5fef a73d 2542 8a3d 7bb7 a93d e7e0 d93d
00000370: dd90 4cbc d800 bebb 5181 3ebe e55d cfbd
00000380: 1d07 b93d 14b0 1dbd 4652 c8bc dd36 e93d
00000390: 7972 2fbe a36e c03d 697b 9d3e 04fe 8e3d
000003a0: ad34 7bbd c45b cabd 179a a73d b019 973d
000003b0: ca45 4c3e 34dc 653c f6d1 a33d 2b59 183e
000003c0: d18e 933c 30ec 34bd af4e 11be c5f3 183e
000003d0: 1647 3dbb c5cb 273e b6ac d7bd 1b83 483e
000003e0: 83b0 38be 2444 0cbe 511d df3d a8d5 84bc
000003f0: c5a4 033e dc69 963d bc2c e0bb 28a7 5cbd

actor.2.bias f4 [64]
-0.09710291 0.053098574 0.011883579 0.15555038 0.044867333 0.038534388 -0.04244599 0.2792724
-0.10323775 -0.08208981 0.38450432 -0.14327866 -0.021371212 -0.24770373 0.05976531 0.23568884
0.0076191914 -0.3174431 -0.021457637 -0.12601224 0.051008742 -0.06658406 -0.13490304 -0.031300303
-0.013300414 0.32124153 0.09888401 0.14551696 -0.17652015 -0.16399786 0.13033584 0.1064394
-0.27888972 -0.17114289 -0.048751958 -0.2526579 -0.11859795 -0.13597709 -0.05239224 -0.008510052
0.13972257 -0.3724032 -0.03199017 0.042424303 -0.10175374 -0.18692665 -0.20180002 -0.20998052
0.07506588 0.36376613 -0.079487786 -0.20927465 0.25793535 0.08072709 0.09507836 -0.32454067
0.17388804 0.118356496 -0.050262857 -0.11863424 0.009461548 0.008030656 -0.19544321 0.19984998
00000000: e4dd c6bd e47d 593d 58b3 423c 9948 1f3e
00000010: cfc6 373d 3cd6 1d3d d9db 2dbd cbfc 8e3e
00000020: 506e d3bd b41e a8bd c0dd c43e a4b7 12be
00000030: ae12 afbc 0ca6 7dbe 78cc 743d 6a58 713e
00000040: 69aa f93b e787 a2be edc7 afbc 5a09 01be
00000050: 8bee 503d 395d 88bd 0624 0abe bf34 00bd
00000060: fbe9 59bc c579 a43e b383 ca3d 6602 153e
00000070: b3c1 34be 0eef 27be c276 053e e6fc d93d
00000080: a2ca 8ebe 1540 2fbe 22b0 47bd 605c 81be
00000090: 7be3 f2bd 943d 0bbe 3f99 56bd bf6d 0bbc
000000a0: 6f13 0f3e a2ab bebe 2008 03bd 1bc5 2d3d
000000b0: 4464 d0bd b369 3fbe aaa4 4ebe 2205 57be
000000c0: 24bc 993d 8e3f ba3e 7eca a2bd 184c 56be
000000d0: 1a10 843e 3f54 a53d 71b8 c23d 322a a6be
000000e0: b50f 323e e464 f23d 6de0 4dbd 82f6 f2bd
000000f0: 9c04 1b3c 0393 033c 4422 48be 79a5 4c3e

actor.4.weight f4 [6, 64]
-0.16626659 -0.12592413 -0.011116309 -0.11724642 -0.09074853 0.060863618 -0.12297138 0.043569528
0.053892218 -0.11341798 -0.05463597 0.03649933 0.059393793 0.05075839 -0.10235747 -0.09222724
0.19784002 0.19018929 0.06461232 0.108943574 0.028477205 -0.18044572 0.06469163 0.14144441
0.16385981 0.008696088 0.060784668 -0.09943891 -0.036153913 -0.2858898 0.00028626865 0.0010917207
-0.0009123777 0.1551227 -0.015483909 0.06032092 0.007859567 0.051794432 -0.2578574 0.2397698
0.09208734 0.071312614 0.022208733 -0.05181159 0.30201146 0.083678454 0.015103592 0.068687946
0.03576348 -0.0117371995 -0.097978346 -0.02673287 -0.17762217 -0.04777204 -0.26802772 -0.035876654
0.08839583 -0.09381575 0.012654815 -0.18412797 -0.08995488 0.02687187 0.3172743 -0.111517325
0.07694121 0.11110558 -0.2704956 -0.04059832 0.03573445 -0.050901692 0.10632528 -0.06816831
0.16410017 -0.08733533 0.14114673 0.014585131 -0.17544895 -0.04777456 0.056078482 -0.0045367205
0.092520535 -0.025361419 0.08650166 -0.07680964 -0.017683187 0.12090847 -0.059674703 -0.17191845
-0.032009456 0.01939624 0.030782027 -0.0141557725 -0.13443995 -0.009251728 -0.14312528 -0.0052621006
0.036213618 -0.019031513 0.1343454 0.002363558 -0.014261686 -0.10855601 -0.11691694 0.043627538
0.21193698 -0.07334205 -0.26902425 0.035938166 0.14576936 0.16453637 0.096537694 -0.014202234
0.12173036 0.06744639 0.024952313 0.1452352 0.037417263 0.055235475 0.13050213 -0.023161301
-0.05793053 0.10980184 -0.11794565 -0.1483904 0.1746032 0.012224998 -0.0032305042 0.084280826
-0.0010332548 0.035919085 -0.09124797 0.050360356 0.01936208 0.01294369 0.0033037777 0.1193872
-0.27449107 0.07534973 0.03961021 -0.27614722 -0.17486823 -0.23290679 0.027132798 0.032242276
-0.068813585 -0.18298556 0.092078365 -0.18939243 0.054224644 -0.04983659 -0.15798773 -0.08981409
-0.09937351 0.12542166 0.039434988 0.05607769 -0.29804093 -0.08130697 0.08819554 0.096754245
-0.037749596 -0.21035483 0.003961617 -0.18938652 -0.04986981 0.009335248 -0.04527275 -0.0542746
0.032698262 -0.23366405 -0.012867225 0.09979381 0.013620068 -0.07482496 -0.0688613 -0.07518878
0.11209509 0.09933214 -0.1152821 -0.0870881 0.13172369 0.06281683 0.012192976 -0.22130036
0.11378319 0.10251503 0.03184629 -0.014419858 0.009978099 0.05170788 -0.17340042 0.05658743
-0.08808825 0.21570471 -0.16186567 0.01882675 -0.015722651 0.114095904 -0.054275777 -0.09536437
0.011391488 -0.1164193 0.1195143 0.1816504 -0.006246942 -0.17308687 -0.10671707 0.1282269
0.07414755 -0.21490507 -0.16386749 -0.18629164 -0.110687226 -0.057201315 -0.08303276 -0.0593097
-0.19650462 -0.051977023 -0.05642084 0.15547664 0.0580517 0.13772555 0.13477398 -0.039175097
-0.09980069 0.010425404 -0.1363576 0.123761706 0.023534263 -0.024609333 0.050589845 0.34700242
0.18687047 -0.048147578 0.23138408 -0.27992225 0.045261253 -0.16387266 -0.208724 0.32670632
0.021335222 0.06389488 0.00960137 -0.35897157 -0.053335976 0.11938609 0.07988558 -0.14981285
0.18622293 -0.041533962 -0.1265289 -0.112358354 -0.035264734 -0.14416176 -0.006476856 -0.038464587
00000000: ca41 2abe 41f2 00be 2e21 36bc e41e f0bd
00000010: 5eda b9bd 214c 793d 6bd8 fbbd f675 323d
00000020: 16be 5c3d b047 e8bd f8c9 5fbd 5280 153d
00000030: e846 733d 08e8 4f3d cba0 d1bd a3e1 bcbd
00000040: 9396 4a3e fbc0 423e 7753 843d cf1d df3d
00000050: 0749 e93c c3c6 38be 0c7d 843d ced6 103e
00000060: deca 273e 097a 0e3c 58f9 783d a1a6 cbbd
00000070: 2016 14bd 2660 92be 5416 9639 1118 8f3a
00000080: a22c 6fba 7cd8 1e3e 39b0 7dbc 1213 773d
00000090: 6ac5 003c 6626 543d e305 84be 3786 753e
000000a0: 4a98 bc3d 590c 923d 17ef b53c 6438 54bd
000000b0: 3fa1 9a3e 9c5f ab3d 0e75 773c 44ac 8c3d
000000c0: ba7c 123d 624d 40bc dfa8 c8bd e4fe dabc
000000d0: 96e2 35be 9dac 43bd ee3a 89be 66f3 12bd
000000e0: df08 b53d 7922 c0bd 2456 4f3c 0b8c 3cbe
000000f0: 443a b8bd 6522 dc3c c771 a23e 3263 e4bd
00000100: 5a93 9d3d 538b e33d 667e 8abe 6d4a 26bd
00000110: 495e 123d 4b7e 50bd 12c1 d93d d49b 8bbd
00000120: e009 283e dedc b2bd c588 103e 79f6 6e3c
00000130: e4a8 33be 42af 43bd 8db2 653d c5a8 94bb
00000140: 687b bd3d c0c2 cfbc c827 b13d 5f4e 9dbd
00000150: 55dc 90bc dc9e f73d 766d 74bd 640b 30be
00000160: 591c 03bd dde4 9e3c 972a fc3c 9ded 67bc
00000170: a0aa 09be 8f94 17bc 6f8f 12be b36d acbb
00000180: bb54 143d fae7 9bbc d791 093e ece5 1a3b
00000190: d9a9 69bc 9d52 debd 2672 efbd cab2 323d
000001a0: 0206 593e 5b34 96bd 8cbd 89be e633 133d
000001b0: 9044 153e 397c 283e 8eb5 c53d 7db0 68bc
000001c0: c44d f93d 5521 8a3d cb68 cc3c 89b8 143e
000001d0: d842 193d 983e 623d 5aa2 053e c5bc bdbc
000001e0: 9048 6dbd c9df e03d 7d8d f1bd a7f3 17be
000001f0: 2ecb 323e 5c4b 483c deb6 53bb 6d9b ac3d
00000200: 476e 87ba e41f 133d 37e0 babd a946 4e3d
00000210: 3a9d 9e3c c511 543c 3184 583b 4781 f43d
00000220: 188a 8cbe f650 9a3d 513e 223d 2b63 8dbe
00000230: a810 33be 1e7f 6ebe 9a45 de3c 7a10 043d
00000240: 23ee 8cbd 9160 3bbe 9593 bc3d 17f0 41be
00000250: a91a 5e3d 7421 4cbd 89c7 21be 73f0 b7bd
00000260: 5784 cbbd 896e 003e 9586 213d b8b1 653d
00000270: d298 98be 4584 a6bd dd9f b43d 1727 c63d
00000280: 529f 1abd 4267 57be 74d0 813b 8aee 41be
00000290: 4944 4cbd def2 183c eb6f 39bd 0b4f 5ebd
000002a0: 9dee 053d a145 6fbe 0ed1 52bc b260 cc3d
000002b0: b526 5f3c d43d 99bd 2707 8dbd 93fc 99bd
000002c0: 1c92 e53d a66e cb3d 0619 ecbd 3f5b b2bd
000002d0: 93e2 063e 1ca6 803d 0cc5 473c 909c 62be
000002e0: 2907 e93d 66f3 d13d 4171 023d 4541 6cbc
000002f0: 2e7b 233c a4cb 533d e18f 31be 39c8 673d
00000300: 9d67 b4bd b2e1 5c3e 1dc0 25be 8e3a 9a3c
00000310: cacc 80bc 1dab e93d 4750 5ebd 654e c3bd
00000320: 5da3 3a3c 3e6d eebd eac3 f43d 9002 3a3e
00000330: 26b3 ccbb af3d 31be 7b8e dabd ea4d 033e
00000340: acda 973d 1310 5cbe e1cc 27be 3cc3 3ebe
00000350: fcaf e2bd ed4b 6abd 140d aabd baee 72bd
00000360: 8238 49be dce5 54bd 8a19 67bd 4535 1f3e
00000370: 9fc7 6d3d ed07 0d3e 3102 0a3e 1176 20bd
00000380: 4e64 ccbd 50cf 2a3c 54a1 0bbe c776 fd3d
00000390: edca c03c 8399 c9bc 4c37 4f3d 4daa b13e
000003a0: f95a 3f3e 6536 45bd f3ef 6c3e f851 8fbe
000003b0: dd63 393d 3cce 27be bfbb 55be 0d46 a73e
000003c0: 34c7 ae3c 52db 823d 114f 1d3c 1fcb b7be
000003d0: d376 5abd b280 f43d 0d9b a33d 8a68 19be
000003e0: 39b1 3e3e 841f 2abd cb90 01be 231c e6bd
000003f0: c171 10bd 249f 13be ce3b d4bb 0b8d 1dbd

actor.4.bias f4 [6]
-0.14431417 0.031770412 0.15501612 0.19084863 0.12858608 0.01865369
00000000: 18c7 13be b121 023d 8cbc 1e3e d36d 433e
00000010: 12ac 033e a0cf 983c

critic.0.weight f4 [64, 43]
0.30156642 -1.052521 -1.0306616 0.073046945 0.15619217 0.46449727 -0.15025288 -0.15697555
0.014431814 -0.03443274 0.001329084 0.013568587 0.14495148 0.020923248 -0.14236876 -0.051855426
-0.09479711 0.012922783 -0.0045143333 0.0001634065 0.894569 0.104181126 -0.58436126 -0.2152038
-0.97816306 -0.4325583 -0.7782548 -1.2019957 -0.8426487 -1.0635016 0.86543566 -0.29286075
-0.2805141 -0.27601415 0.41328132 -0.31820086 -0.45596826 0.7031852 -0.2221701 -0.3717406
0.05425673 -0.5051656 0.017994864 0.18154228 -0.85898733 -0.58163255 -0.16683455 -0.04783788
0.071768284 0.059928294 0.08051912 0.08937877 0.024105337 -0.0017858885 0.0023516498 -0.046998955
-0.13989416 -0.1655638 -0.06369506 0.017287735 0.013862234 -0.0005947707 -0.0032119048 1.0085322
0.5820222 -0.38300347 -1.4143828 -0.75918996 -0.13321024 -0.3102298 -0.5034761 -0.78513443
-0.7446993 1.9166723 0.4595893 1.0200195 -0.31108564 0.772642 0.16616327 -0.3636394
1.8739139 0.27928546 0.76246214 -0.06507083 0.12632461 0.14028975 0.83146983 -0.47226343
-0.23781134 -0.05873342 0.093150035 0.29191715 -0.04571531 -0.06075666 -0.054718602 -0.00027426303
0.011099591 -0.002905593 0.0856692 0.09612568 -0.04572147 -0.04413238 -0.0422927 0.0018082894
-0.0002911726 -0.0011227765 -0.14642818 2.7100399 0.77414495 -0.633687 -0.063228264 -0.616148
0.108251676 0.37759772 0.6538168 -0.17967904 -1.9876262 2.486119 -0.4180088 -0.1654783
-0.19948131 -0.115572155 -0.04916637 -1.954652 2.483781 -0.53205895 -0.18022 0.11905885
0.052524175 0.20416473 -0.2931233 -0.109233774 0.0693923 0.05199838 -0.062088028 0.07367827
0.0522963 0.08125839 -0.0028129197 -0.03383549 0.0032358915 -0.048258077 -0.038219936 0.008875038
0.07483667 0.09332163 -0.010125163 0.0076066214 0.00043112645 -1.0425766 4.8379507 2.6251984
1.6962008 -1.0593655 -0.041473404 0.10026293 0.26167476 1.627667 0.1906152 0.058986116
-0.4287905 0.13026771 -0.076025866 -0.3513804 0.08116495 -0.122959025 -0.04731869 -0.38163963
-0.042721953 0.34696218 -0.20766857 -0.007214947 0.46433955 0.029012883 0.11545276 0.16412929
0.1662634 -0.061443556 -0.012294719 -0.030555194 0.040013272 0.01841877 -0.049714368 -0.0028521738
0.09668641 0.079277575 -0.030313525 -0.07220876 0.21322301 -0.0042537665 0.0045582717 -0.001819425
-0.48513916 -2.184068 -4.4885015 0.5289766 1.127093 1.9202825 0.2061977 0.23739749
-1.409148 0.0554152 -0.5372747 0.09027633 -0.033135902 -0.04902354 -0.08084157 -0.04392066
0.08172259 -0.38477245 0.018078083 -0.066475704 0.097224444 -0.060687114 -0.04202944 -0.05044503
0.09089302 -0.0341145 0.0018556446 0.004894357 -0.018396389 0.015449065 -0.04543003 -0.0072987555
-0.0021845086 0.009561762 -0.0002598887 -0.058655076 0.06733473 0.039329782 0.0042271744 -0.014781235
0.0016649191 -0.0024448119 -0.0003129783 0.21244511 4.5115747 -4.251003 -1.6602284 -1.2877599
2.3257468 0.3703915 -0.0043865633 -2.3941932 0.12605375 -0.30372396 0.56295556 1.2507255
0.3155444 0.11953328 0.32186565 -0.05995543 -0.18666373 0.70147014 1.1188419 0.10984832
00000000: ea66 9a3e 02b9 86bf b8ec 83bf a399 953d
00000010: d7f0 1f3e 96d2 ed3e e4db 19be 33be 20be
00000020: 6a73 6c3c 5809 0dbd a934 ae3a c74e 5e3c
00000030: 296e 143e 3b67 ab3c 1ec9 11be 5b66 54bd
00000040: fd24 c2bd 15ba 533c f9ec 93bb 1958 2b39
00000050: 7902 653f ea5c d53d b398 15bf 635e 5cbe
00000060: e568 7abf 4878 ddbe b53b 47bf ffda 99bf
00000070: d3b7 57bf d220 88bf 318d 5d3f d8f1 95be
00000080: 8b9f 8fbe ba51 8dbe 9c99 d33e 39eb a2be
00000090: ac74 e9be f203 343f 8f80 63be c954 bebe
000000a0: 4e3c 5e3d 8852 01bf f769 933c 38e6 393e
000000b0: 98e6 5bbf dfe5 14bf add6 2abe a7f1 43bd
000000c0: 40fb 923d 5f77 753d 35e7 a43d 370c b73d
000000d0: 8e78 c53c 7914 eaba 231e 1a3b fa81 40bd
000000e0: 6a40 0fbe 8f89 29be 8e72 82bd 029f 8d3c
000000f0: 6c1e 633c 63ea 1bba d27e 52bb 9517 813f
00000100: 68ff 143f 0819 c4be 7f0a b5bf 465a 42bf
00000110: 4468 08be 71d6 9ebe cfe3 00bf 92fe 48bf
00000120: 9da4 3ebf 8555 f53f 4a4f eb3e 0090 823f
00000130: 9e46 9fbe decb 453f b426 2a3e f22e babe
00000140: 69dc ef3f 81fe 8e3e b830 433f db43 85bd
00000150: 3d5b 013e 1ea8 0f3e 35db 543f 83cc f1be
00000160: d184 73be 7492 70bd 72c5 be3d 2a76 953e
00000170: fa3f 3bbd fadb 78bd 9d20 60bd f6ca 8fb9
00000180: 0fdb 353c c36b 3ebb 5573 af3d 8add c43d
00000190: 7046 3bbd 28c4 34bd 1c3b 2dbd 2004 ed3a
000001a0: 86a8 98b9 212a 93ba 45f1 15be 4b71 2d40
000001b0: 5d2e 463f 5039 22bf d27d 81bd e0bb 1dbf
000001c0: 0eb3 dd3d 7d54 c13e 8a60 273f c8fd 37be
000001d0: 896a febf 931c 1f40 4005 d6be 2573 29be
000001e0: d444 4cbe 18b1 ecbd ad62 49bd 0932 fabf
000001f0: 45f6 1e40 0435 08bf 978b 38be 20d5 f33d
00000200: 9723 573d 8f10 513e 4214 96be f5b5 dfbd
00000210: 8d1d 8e3d 41fc 543d 0450 7ebd a2e4 963d
00000220: a534 563d cc6a a63d f658 38bb 1597 0abd
00000230: 4011 543b 43aa 45bd 828c 1cbd 9b68 113c
00000240: f843 993d 691f bf3d 03e4 25bc f740 f93b
00000250: d008 e239 2673 85bf 7ed0 9a40 4003 2840
00000260: 1c1d d93f 4a99 87bf 04e0 29bd a756 cd3d
00000270: 3cfa 853e 6457 d03f a230 433e 6d9b 713d
00000280: 6e8a dbbe e664 053e 73b3 9bbd 22e8 b3be
00000290: cf39 a63d f1d1 fbbd 3ed1 41bd 4566 c3be
000002a0: 37fd 2ebd 07a5 b13e 12a7 54be 5d6b ecbb
000002b0: eabd ed3e 6dac ed3c 7f72 ec3d 8211 283e
000002c0: f440 2a3e 3dac 7bbd ca6f 49bc e34e fabc
000002d0: f5e4 233d f6e2 963c 4ba1 4bbd 89eb 3abb
000002e0: 8603 c63d 485c a23d 1254 f8bc 30e2 93bd
000002f0: 2257 5a3e 2e63 8bbb 8e5d 953b c679 eeba
00000300: 2964 f8be c5c7 0bc0 cea1 8fc0 036b 073f
00000310: 9544 903f d1cb f53f 7d25 533e 5418 733e
00000320: f65e b4bf 0cfb 623d d68a 09bf cce2 b83d
00000330: 83b9 07bd e8cc 48bd 4490 a5bd 26e6 33bd
00000340: 2c5e a73d e500 c5be 7d18 943c 6a24 88bd
00000350: 9c1d c73d 0d93 78bd 1027 2cbd 739f 4ebd
00000360: 1f26 ba3d a5bb 0bbd 1a39 f33a d860 a03b
00000370: 06b4 96bc 131e 7d3c d714 3abd 662a efbb
00000380: f929 0fbb f0a8 1c3c ac41 88b9 4e40 70bd
00000390: cae6 893d 4418 213d 1c84 8a3b fe2c 72bc
000003a0: 6a39 da3a 2339 20bb 3d17 a4b9 368b 593e
000003b0: d25e 9040 3708 88c0 5d82 d4bf 51d5 a4bf
000003c0: 09d9 1440 f4a3 bd3e 29bd 8fbb 763a 19c0
000003d0: 3c14 013e b581 9bbe db1d 103f c617 a03f
000003e0: 098f a13e ddcd f43d 93cb a43e d393 75bd
000003f0: c724 3fbe 8c93 333f 3636 8f3f 28f8 e03d

critic.0.bias f4 [64]
-1.016034 -0.7465284 -0.033150118 0.39225978 0.11247236 0.13746293 0.026084132 -0.21008524
0.30042195 0.046691988 0.25768226 -0.23034413 -0.11067498 -0.30296296 -0.28522462 0.6368644
-0.29567483 -0.4541831 0.2985109 -0.003162452 -0.29590237 -0.057419952 0.5222979 -0.17598623
0.062047284 0.088759534 -0.3973079 0.2268642 0.16565442 0.1965169 0.4799862 -0.29440162
-0.4722351 0.34290713 -0.5676645 -0.44743055 -0.5851535 0.11122833 -0.07330069 0.19784844
0.44466677 0.28173754 -0.052968606 0.19756667 -0.021270402 -0.27384496 -0.1623728 0.2563961
0.093326814 -0.48884255 -0.057500858 0.2951794 -0.22858156 0.1810905 0.35614905 0.22515827
0.10446503 0.062285203 -0.5812411 -0.23447588 -0.08743718 -0.6511271 0.023708716 -0.22911775
00000000: 670d 82bf 7c1c 3fbf 6bc8 07bd 46d6 c83e
00000010: e957 e63d 15c3 0c3e 64ae d53c 9620 57be
00000020: e8d0 993e 1940 3f3d eeee 833e 55df 6bbe
00000030: 90a9 e2bd f61d 9bbe f608 92be 8c09 233f
00000040: b162 97be b08a e8be 6cd6 983e 2441 4fbb
00000050: 8480 97be 2f31 6bbd 51b5 053f bc35 34be
00000060: 4b25 7e3d 8fc7 b53d f16b cbbe 174f 683e
00000070: 50a1 293e ba3b 493e c0c0 f53e cfbb 96be
00000080: cdc8 f1be 8691 af3e 7652 11bf 9e15 e5be
00000090: 9fcc 15bf aecb e33d ac1e 96bd c898 4a3e
000000a0: 5dab e33e e73f 903e 9cf5 58bd eb4e 4a3e
000000b0: 443f aebc 6835 8cbe 0e45 26be 5a46 833e
000000c0: 2122 bf3d 9249 fabe 0586 6bbd c121 973e
000000d0: 4911 6abe ca6f 393e 2b59 b63e e48f 663e
000000e0: c3f1 d53d c51e 7f3d 37cc 14bf 721a 70be
000000f0: 4412 b3bd 44b0 26bf c838 c23c d89d 6abe

critic.2.weight f4 [64, 64]
0.111409955 0.13439448 0.031024575 -0.08591518 -0.018888675 -0.1273926 0.058942124 -0.04928846
-0.32562768 0.0898207 -0.24500768 0.0390805 -0.04496519 0.046781465 -0.0075829388 0.018264268
0.13257839 0.055828538 -0.07557631 0.23653191 0.11308671 0.06746757 0.083308436 0.07786604
-0.2546777 -0.062274363 0.20101283 0.07072106 -0.053502277 0.07930048 -0.031671163 -0.0862179
-0.0011999898 0.045349732 0.09515268 0.0789607 0.026814578 0.22794959 -0.15941314 -0.09836193
0.1509054 -0.03554689 0.08659729 0.19538942 0.04542446 0.021658538 -0.1090962 -0.15626717
-0.07619727 -0.048073865 -4.457004e-05 -0.14133994 -0.30288675 -0.0039354586 0.24022813 -0.040287185
-0.18592152 -0.016149899 0.074252896 -0.23971952 0.08664308 -0.02677839 -0.12939952 -0.21759976
-0.34737894 -0.33543167 -0.09208898 -0.031773295 -0.3146056 -0.16021831 0.25674215 -0.0058711735
-0.111512765 -0.0052634208 -0.22186111 -0.19056605 -0.05113415 0.004919886 -0.1448246 -0.41226983
-0.6196501 -0.19117662 0.2273101 0.47816855 -0.15879007 -0.11068597 0.1391601 -0.131814
-0.013334217 -0.0799738 -0.18381931 0.2691309 0.071854286 0.17096971 0.15043637 -0.11056176
-0.2731754 0.14964567 -0.19561453 -0.111765996 -0.076985635 -0.07590209 0.16187224 0.01904968
-0.017250322 0.15746276 -0.14219373 -0.117399 0.03376009 -0.0023751096 -0.15501375 -0.17695847
-0.07839798 0.009580197 0.09297196 0.05280971 0.16017574 -0.022219472 0.16420941 -0.36197704
-0.14126301 0.15304954 -0.021406226 -0.09656958 0.10667375 -0.30144957 -0.068641 -0.09021014
-0.34307402 -0.26670697 -0.27203923 -0.16751388 -0.09146945 -0.29183093 -0.01407401 0.026073959
-0.24900115 -0.18555018 -0.4903616 0.0609495 -0.033878803 -0.105290264 0.019156685 -0.083368115
-0.034001447 0.032438524 -0.11418057 -0.040834676 0.030459808 0.17490144 -0.19265793 0.12989576
0.004328534 -0.34146827 0.12861979 -0.035412308 -0.043199454 -0.27860162 0.06905895 0.0422275
0.036153007 0.1248821 -0.16386175 0.04525006 0.09701607 -0.36913878 -0.13608429 -0.064296596
-0.54224443 -0.5911102 -0.104922816 -0.058410194 -0.2652573 -0.028565843 0.13132298 -0.15102886
0.046920314 0.032112088 0.09499261 -0.23425947 -0.3054748 0.14729954 -0.3777288 -0.38943827
0.023922848 -0.15249516 -0.08119969 0.10285958 0.125779 0.053057 -0.08192478 -0.045647584
-0.21362932 -0.14023457 -0.13617182 -0.17630076 -0.13084604 -0.08775351 -0.18786864 -0.34470725
-0.4301059 -0.09703098 -0.29079926 0.051576845 0.19532977 -0.24834855 0.083613284 0.07377773
-0.15529574 -0.07065279 -0.110241145 0.17106454 0.15667585 -0.13272841 -0.02616858 -0.051532112
0.069879085 -0.21434924 0.4007759 -0.11568193 -0.21335083 -0.27609938 0.0073424326 -0.055577535
0.07489159 0.08192333 -0.20061028 0.048611186 0.12547995 -0.12499802 -0.061170053 0.12384878
-0.39188722 -0.5034446 -0.0053467504 -0.16749834 -0.18723503 -0.008050968 -0.014551364 -0.1184324
-0.008902121 -0.033842444 -0.07381194 -0.24612315 0.092879035 0.053234275 -0.03759214 -0.8525954
0.008778292 -0.47396162 0.025417475 -0.16773368 -0.2678364 -0.0725764 0.04057366 0.024879176
00000000: e72a e43d b59e 093e 4027 fe3c 4cf4 afbd
00000010: 6cbc 9abc 3573 02be 4c6d 713d b2e2 49bd
00000020: acb8 a6be eaf3 b73d 4be3 7abe e012 203d
00000030: 6b2d 38bd ec9d 3f3d 4d7a f8bb f29e 953c
00000040: a1c2 073e 77ac 643d c1c7 9abd 6c35 723e
00000050: 019a e73d 702c 8a3d 9d9d aa3d 3b78 9f3d
00000060: 1e65 82be 6713 7fbd 4fd6 4d3e 34d6 903d
00000070: 3425 5bbd 4a68 a23d 9fb9 01bd 0393 b0bd
00000080: fa48 9dba a4c0 393d 69df c23d 26b6 a13d
00000090: 3faa db3c 9e6b 693e 333d 23be fb71 c9bd
000000a0: f286 1a3e 9e99 11bd ec59 b13d 2a14 483e
000000b0: 000f 3a3d 3f6d b13c d46d dfbd 8004 20be
000000c0: 500d 9cbd 1ae9 44bd b7f0 3ab8 6bbb 10be
000000d0: f913 9bbe 05f5 80bb 5dfe 753e 2d04 25bd
000000e0: 3662 3ebe cb4c 84bc e711 983d 0979 75be
000000f0: ed71 b13d 5b5e dbbc 4f81 04be 79d2 5ebe
00000100: a7db b1be b3bd abbe 2699 bcbd b724 02bd
00000110: fc13 a1be 4510 24be b573 833e f962 c0bb
00000120: ce60 e4bd c678 acbb 8f2f 63be bf23 43be
00000130: 0b72 51bd ff36 a13b e64c 14be 0815 d3be
00000140: 64a1 1ebf cec3 43be fbc3 683e 82d2 f43e
00000150: dd99 22be 53af e2bd fc7f 0e3e 40fa 06be
00000160: c277 5abc 4ec9 a3bd 213b 3cbe 86cb 893e
00000170: 5728 933d af12 2f3e fe0b 1a3e 346e e2bd
00000180: a5dd 8bbe b73c 193e 2d4f 48be 92e5 e4bd
00000190: a5aa 9dbd 8e72 9bbd d6c1 253e 130e 9c3c
000001a0: 8c50 8dbc eb3d 213e 3c9b 11be e36e f0bd
000001b0: 0548 0a3d baa7 1bbb edbb 1ebe 9a34 35be
000001c0: 1f8f a0bd 42f6 1c3c 1568 be3d ff4e 583d
000001d0: 1c05 243e 9c05 b6bc 8326 283e 0e55 b9be
000001e0: 40a7 10be 05b9 1c3e 1c5c afbc 46c6 c5bd
000001f0: c477 da3d 9957 9abe a793 8cbd 18c0 b8bd
00000200: 66a7 afbe d18d 88be ba48 8bbe c288 2bbe
00000210: 5654 bbbd dd6a 95be ad96 66bc 0e99 d53c
00000220: 28fa 7ebe de00 3ebe ad10 fbbe 2fa6 793d
00000230: 80c4 0abd 6ca2 d7bd 7bee 9c3c e7bc aabd
00000240: 1a45 0bbd 42de 043d 81d7 e9bd 4342 27bd
00000250: d986 f93c 5d19 333e 1f48 45be 6503 053e
00000260: 60d6 8d3b eed4 aebe e8b4 033e 7f0c 11bd
00000270: e9f1 30bd dfa4 8ebe c76e 8d3d bef6 2c3d
00000280: 2d15 143d 30c2 ff3d 60cb 27be 2058 393d
00000290: 5cb0 c63d c2ff bcbe ae59 0bbe efad 83bd
000002a0: 88d0 0abf 0053 17bf c6e1 d6bd 873f 6fbd
000002b0: cecf 87be ea02 eabc 8879 063e 4fa7 1abe
000002c0: 842f 403d f787 033d 7c8b c23d b7e1 6fbe
000002d0: 3167 9cbe b1d5 163e ab65 c1be 7464 c7be
000002e0: d9f9 c33c b127 1cbe 064c a6bd 0ba8 d23d
000002f0: 36cc 003e 4c52 593d 2ec8 a7bd f6f8 3abd
00000300: a5c1 5abe a799 0fbe a070 0bbe 3088 34be
00000310: 81fc 05be 1db8 b3bd a360 40be 787d b0be
00000320: d736 dcbe 2eb8 c6bd a4e3 94be 3e42 533d
00000330: 8704 483e 154f 7ebe 713d ab3d c718 973d
00000340: d905 1fbe 69b2 90bd 1cc6 e1bd 8b2b 2f3e
00000350: a26f 203e f5e9 07be 7d5f d6bc 5613 53bd
00000360: c41c 8f3d 5e7e 5bbe 8032 cd3e a6ea ecbd
00000370: a478 5abe e65c 8dbe ca98 f03b 45a5 63bd
00000380: c360 993d 6bc7 a73d c86c 4dbe 861c 473d
00000390: d17d 003e f6fe ffbd 738d 7abd 6ea4 fd3d
000003a0: 71a5 c8be bfe1 00bf cb33 afbb af84 2bbe
000003b0: 8aba 3fbe 35e8 03bc d868 6ebc b08c f2bd
000003c0: 34da 11bc 609e 0abd b72a 97bd b507 7cbe
000003d0: 5d37 be3d 2f0c 5a3d 37fa 19bd b143 5abf
000003e0: d3d2 0f3c 19ab f2be 4f38 d03c 61c2 2bbe
000003f0: da21 89be f0a2 94bd 9130 263d 6acf cb3c

critic.2.bias f4 [64]
-0.08675131 0.14672291 0.06314044 0.08673478 0.308993 -0.09469819 -0.034255505 0.14402878
-0.4784167 0.46101007 0.21924041 0.33076763 -0.2425745 0.18436542 0.34581518 0.07976145
-0.2896357 -0.06592814 0.006908467 -0.20059471 -0.09925669 -0.32697865 -0.07691945 0.11759248
-0.03446402 0.21088047 -0.16272654 0.34913138 -0.24045603 -0.4318381 0.0454618 -0.30924794
-0.08156674 -0.24089748 0.029999007 -0.23088717 0.0269264 0.19013754 0.1197428 0.222207
-0.029595166 0.18757018 0.00048560248 0.24012335 -0.038044207 -0.21510443 -0.24048035 0.14038607
0.077800676 -0.21876559 -0.07401139 -0.1645661 -0.10042606 -0.113749 -0.24140334 -0.12927973
-0.18305388 0.22729626 0.047037095 0.28084025 0.25296146 0.085107416 0.37431398 -0.09463823
00000000: acaa b1bd 883e 163e c64f 813d 01a2 b13d
00000010: 5534 9e3e 20f1 c1bd 804f 0cbd 487c 133e
00000020: 09f3 f4be 8309 ec3e 8f80 603e 605a a93e
00000030: 7365 78be 4aca 3c3e b00e b13e f959 a33d
00000040: 214b 94be 5505 87bd 6c60 e23b b368 4dbe
00000050: 1747 cbbd bf69 a7be f287 9dbd 53d4 f03d
00000060: 252a 0dbd 0df1 573e c9a1 26be 59c1 b23e
00000070: 1b3a 76be e219 ddbe 2736 3a3d bf55 9ebe
00000080: 770c a7bd d4ad 76be 7ac0 f53c b06d 6cbe
00000090: c194 dc3c 6ab3 423e b73b f53d 3b8a 633e
000000a0: 9071 f2bc 6612 403e 7698 fe39 e5e2 753e
000000b0: 3ed4 1bbd 5644 5cbe 7b40 76be 5ec1 0f3e
000000c0: f655 9f3d 1604 60be 4993 97bd 0484 28be
000000d0: 2eac cdbd 3cf5 e8bd 7032 77be e861 04be
000000e0: 7a72 3bbe 5ac0 683e f8a9 403d 4bca 8f3e
000000f0: 2a84 813e cc4c ae3d 15a6 bf3e b0d1 c1bd

critic.4.weight f4 [1, 64]
-0.012170304 0.18305565 0.2018605 0.17162861 0.6066393 -0.24152851 0.121035345 0.99041724
1.0802706 0.25289193 0.18218625 0.18346338 -0.043831136 0.5170963 0.31493986 0.2943906
-0.68809724 -0.22253603 0.019646758 0.9856105 0.07183653 -0.5934633 0.5419415 0.12182245
-0.09320745 0.07682689 -0.28734693 0.052426014 -1.0858356 -0.63273513 0.14279974 -0.49678102
-0.4753058 -0.5915689 -1.2097219 -0.87603176 0.26211596 0.16562127 0.099748105 0.1932811
-0.28799757 0.43518874 -0.20539773 0.2561395 0.09705973 -0.17953315 -0.1583316 0.13819367
0.73772633 0.66390824 0.19264056 1.0315436 -0.60525763 -0.86081177 -0.39359736 -0.1904994
-1.1719487 0.2722394 0.07360881 1.0302716 0.45725194 0.014363328 0.74308664 -0.35822463
00000000: f465 47bc f172 3b3e 85b4 4e3e 69bf 2f3e
00000010: b74c 1b3f 4053 77be 61e1 f73d fc8b 7d3f
00000020: 4f46 8a3f 0d7b 813e 088f 3a3e d3dd 3b3e
00000030: 4788 33bd 6c60 043f cc3f a13e 5dba 963e
00000040: 2427 30bf 7ce0 63be 3df2 a03c f850 7c3f
00000050: 081f 933d 36ed 17bf aebc 0a3f 0c7e f93d
00000060: 8ce3 bebd 6b57 9d3d 231f 93be a9bc 563d
00000070: a9fc 8abf eefa 21bf 183a 123e 155a febe
00000080: 485b f3be 0f71 17bf 2bd8 9abf 9e43 60bf
00000090: 1034 863e 9f98 293e bc48 cc3d 7beb 453e
000000a0: 6b74 93be 0fd1 de3e c853 52be b724 833e
000000b0: 40c7 c63d 8ad7 37be ae21 22be a482 0d3e
000000c0: a2db 3c3f e4f5 293f 9143 453e 9f09 843f
000000d0: 2af2 1abf 295e 5cbf 9885 c9be 4612 43be
000000e0: 6a02 96bf f662 8b3e 37c0 963d f1df 833f
000000f0: ed1c ea3e 2a54 6b3c ed3a 3e3f 3869 b7be

exp_avg f4 [6]
6.632551e-06 -1.884545e-05 1.7735774e-05 -8.893193e-06 3.8221206e-05 -1.43482885e-05
00000000: 2e8d de36 4c16 9eb7 49c7 9437 f933 15b7
00000010: b54f 2038 6eb9 70b7

exp_avg_sq f4 [6]
2.246205e-07 2.1685942e-07 9.577549e-07 1.2104798e-07 1.2250997e-07 1.5070551e-08
00000000: 372f 7134 ddd9 6834 358c 8035 6af9 0134
00000010: 498b 0334 7e74 8132

exp_avg f4 [64, 43]
1.9752095e-07 6.1337666e-08 2.3180125e-06 1.4022507e-07 5.5914743e-06 -2.6602359e-06 2.3302266e-06 -7.462453e-06
-2.1345197e-06 -1.7279747e-06 1.0981458e-05 2.4846556e-06 -6.5577524e-07 3.0079154e-06 3.5517241e-06 -3.0002022e-06
1.2038172e-05 -8.514033e-06 -4.010848e-05 -1.6148717e-05 -2.8114349e-07 6.329756e-07 -5.300087e-07 -2.3539362e-08
-2.4384317e-07 9.738692e-08 4.4336808e-08 3.8932168e-07 -4.3239598e-07 2.0802867e-08 4.3506273e-07 -1.0427207e-06
-2.5612405e-07 7.4056504e-07 2.7267427e-07 -4.2525568e-07 -8.8282593e-07 4.3506273e-07 -1.0427202e-06 -2.5612405e-07
2.2079337e-07 -9.915049e-07 8.0749925e-07 -1.3392131e-06 -4.4942258e-08 1.4063376e-06 1.465945e-07 6.0262487e-06
1.8635418e-06 1.1254906e-05 -7.4264794e-06 -6.8759537e-06 2.489149e-05 7.285464e-06 -2.461974e-05 1.1401049e-05
1.2579603e-06 -1.6286428e-06 4.4643616e-06 8.517047e-06 -8.176312e-06 9.543528e-06 -1.6723845e-05 -3.0147038e-07
4.503681e-07 -2.2568987e-07 -1.1262514e-09 -2.7598487e-08 -2.6730202e-08 2.117696e-08 4.227282e-07 -2.5253647e-07
2.0064775e-08 1.096676e-06 2.6787243e-06 1.5718192e-07 4.1012555e-07 1.5025525e-06 -8.7155615e-07 -6.9204845e-07
1.096676e-06 2.6787259e-06 1.5718192e-07 1.620299e-07 1.9111585e-06 1.8777521e-06 -2.9033783e-06 8.428175e-07
4.836742e-06 2.2182383e-06 1.6368106e-06 -1.2178558e-06 2.860328e-06 2.5996783e-06 -4.2507793e-07 -9.234931e-07
-3.950311e-06 -1.9696836e-05 -2.7495864e-06 4.932911e-06 8.800995e-06 5.6245767e-06 4.905713e-06 -4.8231245e-06
-7.039872e-07 4.1862313e-05 -1.4672361e-07 2.027394e-07 2.9748443e-07 1.0603899e-08 5.49275e-07 -2.169949e-08
4.064456e-08 7.5209937e-07 2.756839e-07 5.122003e-08 8.709423e-07 1.7257261e-06 1.8210402e-07 7.379123e-07
1.1610999e-06 9.2578574e-07 3.1645632e-07 8.7094196e-07 1.7257258e-06 1.8210402e-07 -4.937042e-08 4.5321116e-07
-7.4470876e-07 4.7690094e-07 8.9498634e-08 -1.869075e-06 1.5461391e-07 -2.01854e-06 6.705376e-07 -2.99486e-06
4.786948e-07 1.3205042e-06 7.0809974e-06 1.0073639e-05 -3.862736e-06 4.977826e-07 -6.2064073e-06 -4.05859e-06
2.8989816e-06 -7.8351167e-07 1.3978611e-06 -1.2272846e-05 2.0476475e-05 3.882068e-08 1.380697e-08 3.471537e-07
7.4238264e-09 -2.134769e-07 -1.4892822e-07 -1.7559953e-08 -1.9990742e-07 1.9810584e-07 -1.0135671e-08 -2.120828e-07
6.7004015e-07 -1.2690178e-07 -4.413608e-07 -5.893736e-07 -6.0138416e-07 4.5235552e-07 -2.1208281e-07 6.7004027e-07
-1.2690178e-07 -5.5688054e-07 1.183334e-07 -1.8159817e-07 -2.7710752e-07 2.0632226e-07 -5.680051e-07 2.4406793e-07
-4.0386647e-07 1.2697037e-06 1.1784836e-06 3.1202762e-06 -9.360367e-07 -2.6608332e-06 -2.5990564e-06 -3.399713e-06
-9.9533e-07 2.92818e-06 -4.3753244e-07 -1.6600163e-06 -3.743128e-07 -3.7252587e-06 4.9075497e-06 9.593599e-06
2.3512088e-07 -1.0632763e-07 9.8652606e-08 -1.0276849e-09 -3.227503e-08 -1.5263844e-07 -5.658788e-09 -1.3851232e-07
-5.3931046e-08 -6.68556e-09 -1.7822414e-07 4.217808e-09 5.6363656e-09 -4.2586754e-07 2.9330727e-07 -3.0575396e-07
2.5398745e-07 -1.7822401e-07 4.2179558e-09 5.6363656e-09 9.052958e-07 1.1000416e-06 -1.2864979e-07 -2.2305835e-06
1.4411709e-06 4.451945e-06 6.515112e-07 -8.147357e-08 -2.4840633e-06 -1.8800495e-06 -7.209914e-07 4.9853656e-07
1.6664123e-07 5.8268274e-06 -1.0789719e-05 -5.712012e-06 4.324436e-06 7.2855123e-06 4.375688e-07 5.139767e-06
7.626892e-07 2.9962799e-05 3.2048025e-05 1.5792048e-07 4.0862977e-07 4.71817e-07 1.0471282e-08 2.1508868e-07
-2.1932304e-07 3.5020342e-08 6.234844e-07 2.5216448e-07 4.5469807e-08 4.2451995e-07 2.0770358e-07 1.2237572e-07
1.0747485e-06 2.141177e-07 1.5644729e-06 3.356624e-07 4.2451998e-07 2.0770372e-07 1.2237572e-07 1.0112733e-06
00000000: 2516 5434 bdb8 8333 278f 1b36 c690 1634
00000010: 669e bb36 8186 32b6 fd60 1c36 fc65 fab6
00000020: c53e 0fb6 c2ec e7b5 013d 3837 0fbe 2636
00000030: 8808 30b5 98db 4936 285a 6e36 1557 49b6
00000040: 8ef7 4937 7ed7 0eb7 273a 28b8 1b77 87b7
00000050: 11f0 96b4 c1e9 2935 ec45 0eb5 9b33 cab2
00000060: 8de9 82b4 0723 d133 d66c 3e33 f703 d134
00000070: 0d24 e8b4 fdb1 b232 9192 e934 9cf3 8bb5
00000080: 6c81 89b4 3ecb 4635 1164 9234 b24e e4b4
00000090: 56fb 6cb5 9192 e934 98f3 8bb5 6c81 89b4
000000a0: 3813 6d34 d913 85b5 edc2 5835 03bf b3b5
000000b0: 8906 41b3 64c1 bc35 9767 1d34 1535 ca36
000000c0: cf1e fa35 74d3 3c37 f930 f9b6 feb7 e6b6
000000d0: 11ce d037 a975 f436 7d86 ceb7 2247 3f37
000000e0: 30d7 a835 be97 dab5 93cc 9536 70e4 0e37
000000f0: fe2c 09b7 241d 2037 2f4a 8cb7 c6d9 a1b4
00000100: 1fca f134 2955 72b4 73ca 9ab0 b711 edb2
00000110: 569c e5b2 a1e8 b532 52f3 e234 5994 87b4
00000120: e85a ac32 8031 9335 22c4 3336 d6c5 2834
00000130: 3a2f dc34 50ab c935 e2f4 69b5 35c5 39b5
00000140: 8031 9335 29c4 3336 d6c5 2834 71fa 2d34
00000150: 7441 0036 1207 fc35 a9d7 42b6 fa3d 6235
00000160: 4c4b a236 0bdd 1436 62b0 db35 3575 a3b5
00000170: 10f4 3f36 2276 2e36 4436 e4b4 f6e5 77b5
00000180: ea8c 84b6 a23a a5b7 8985 38b6 6285 a536
00000190: fca7 1337 bfba bc36 c19b a436 53d6 a1b6
000001a0: a2f9 3cb5 5195 2f38 148b 1db4 95b0 5934
000001b0: f3b5 9f34 712c 3632 e471 1335 af65 bab2
000001c0: 2b91 2e33 e0e3 4935 b501 9434 05fd 5b33
000001d0: b3ca 6935 7f9f e735 5f88 4334 f214 4635
000001e0: 17d7 9b35 8383 7835 6de5 a934 adca 6935
000001f0: 7d9f e735 5f88 4334 5a0b 54b3 de50 f334
00000200: ffe7 47b5 6204 0035 6532 c033 eedc fab5
00000210: f303 2634 4176 07b6 fefe 3335 4efb 48b6
00000220: a87f 0035 2e3c b135 4e99 ed36 f301 2937
00000230: a69c 81b6 5c9f 0535 a240 d0b6 062f 88b6
00000240: 208c 4236 8352 52b5 249e bb35 79e7 4db7
00000250: e5c4 ab37 cabb 2633 b233 6d32 7160 ba34
00000260: ab14 ff31 1538 65b4 14e9 1fb4 bfd6 96b2
00000270: 22a6 56b4 ebb6 5434 2721 2eb2 e0b8 63b4
00000280: cfdc 3335 7f42 08b4 2bf4 ecb4 7235 1eb5
00000290: ce6e 21b5 45db f234 e1b8 63b4 d1dc 3335
000002a0: 7f42 08b4 8a7c 15b5 7a1e fe33 53fd 42b4
000002b0: 5ec5 94b4 6e89 5d34 0379 18b5 7108 8334
000002c0: fcd2 d8b4 b06a aa35 632c 9e35 f065 5136
000002d0: f443 7bb5 c490 32b6 736b 2eb6 a026 64b6
000002e0: 4797 85b5 c081 4436 00e6 eab4 bacd deb5
000002f0: 29f5 c8b4 75ff 79b6 88ab a436 32f4 2037
00000300: 8975 7c34 3c56 e4b3 d8da d333 733e 8db0
00000310: c59e 0ab3 efe4 23b4 3a6f c2b1 fab9 14b4
00000320: d0a1 67b3 cfb6 e5b1 e15d 3fb4 3bec 9031
00000330: ffa9 c131 caa2 e4b4 d877 9d34 8126 a4b4
00000340: c55b 8834 d85d 3fb4 88ed 9031 ffa9 c131
00000350: 7403 7335 24a5 9335 fc22 0ab4 22b1 15b6
00000360: 416e c135 eb61 9536 82e3 2e35 92f6 aeb3
00000370: e2b3 26b6 0256 fcb5 278a 41b5 2cd3 0535
00000380: feed 3234 1184 c336 7e05 35b7 cfa9 bfb6
00000390: 9f1a 9136 1376 f436 ffea ea34 4376 ac36
000003a0: 9abb 4c35 9f58 fb37 4e6b 0638 da90 2934
000003b0: a661 db34 094e fd34 2fe5 3332 20f3 6634
000003c0: 0f7f 6bb4 4669 1633 865d 2735 3961 8734
000003d0: 954a 4333 94e9 e334 2005 5f34 6266 0334
000003e0: 1440 9035 3ae8 6534 e1fa d135 1735 b434
000003f0: 95e9 e334 2a05 5f34 6266 0334 16bb 8735
