2026-01-29_07-44-49_Fase2_Empuje_V1/model_1350.pt (torch, 189045 bytes, 36 tensors)

std f4 [6]
0	0x3e0e6b58	0.13908136
1	0x3de86381	0.11347104
2	0x3da123e0	0.07868171
3	0x3e8cb163	0.27479085
4	0x3ea08ff3	0.31359825
5	0x3fa1d704	1.2643743

actor.0.weight f4 [64, 43]
0	0x3b43b2cc	0.002986121
1	0x3e8beb58	0.2732799
2	0xbd7a0747	-0.061042096
3	0x3cefc488	0.029268518
4	0xbe74ecac	-0.23918408
5	0xbea9b7b9	-0.33147982
6	0xbc8eced4	-0.017432608
7	0xbe63b8f1	-0.22238518
8	0x3d9d3c4e	0.07677518
9	0x3c50f856	0.01275452
10	0xbcf5a5f2	-0.029986355
11	0x3d97c2a9	0.07410175
12	0x3e35734d	0.17719765
13	0x3e1d38cd	0.15353699
14	0x3b85c7a4	0.004082637
15	0xbe0cc272	-0.1374605
16	0xbdecd854	-0.11564699
17	0xbe883495	-0.26602617
18	0xbd2f2be5	-0.04276647
19	0x3a8858e0	0.0010402463
20	0x3f31ceb9	0.6945606
21	0x3dc44835	0.09584085
22	0xbde53016	-0.11190812
23	0xbd919843	-0.0710912
24	0xbec95cda	-0.39328653
25	0xbd00b4c0	-0.031422377
26	0xbe20ffff	-0.15722655
27	0xbe7c7028	-0.24652159
28	0xbd38153f	-0.044942137
29	0xbe8c3b00	-0.27388763
30	0x3e6210a7	0.22076665
31	0x3d9631b4	0.07333699
32	0x3ee50d19	0.44736555
33	0xbf0bff27	-0.54686207
34	0x3dd17b12	0.10228552
35	0x3e27510d	0.16339512
36	0x3e847a15	0.2587439
37	0x3e53350a	0.20625702
38	0x3e60d26c	0.2195527
39	0x3e90252d	0.28153363
40	0xbeb96a9a	-0.36214143
41	0xbd4117b4	-0.047141746
42	0x3eaeba0a	0.34126312
43	0x3c8b9206	0.017037403
44	0x3e11fa8e	0.14255735
45	0x3e879bad	0.2648596
46	0x3f2070d0	0.6267214
47	0xbf1501a5	-0.58205634
48	0xbdcd85d2	-0.1003529
49	0x3dca0098	0.098633945
50	0xbf3e3fdb	-0.74316186
51	0xbe0c449d	-0.13698049
52	0xbde93a7f	-0.1138811
53	0x3d6afef7	0.05737206
54	0x3c70397d	0.014662144
55	0x3e4590a8	0.19293463
56	0xbe341a3c	-0.17588133
57	0xbd791319	-0.06080923
58	0x3ee6229f	0.4494829
59	0xbf2811b7	-0.6565203
60	0xbe15cc94	-0.14628822
61	0xbcc601a8	-0.024170712
62	0x3c8e977a	0.017406214
63	0xbf21bf81	-0.63182837
64	0x3f175405	0.5911258
65	0x3dec9bb3	0.11553135
66	0x3e70ec70	0.23527694
67	0xbf3e834e	-0.74419105
68	0xbf1c326b	-0.6101443
69	0x3cb96b12	0.022634063
70	0xbe1f0a05	-0.15531166
71	0xbccaa1f9	-0.024735438
72	0x3e84aaa3	0.25911435
73	0xbee8e948	-0.4549048
74	0xbd56887a	-0.052376248
75	0x3ed939ee	0.4242701
76	0xbe6221d0	-0.22083211
77	0xbeb94365	-0.3618423
78	0x3e8b3758	0.2719066
79	0x3ec059c7	0.37568495
80	0xbed0cb5f	-0.4078016
81	0xbba65a21	-0.005076662
82	0x3f1fde54	0.6244862
83	0x3db9a151	0.09063972
84	0x3f2b9557	0.6702475
85	0xbd51fa39	-0.05126402
86	0xbec7db60	-0.39034557
87	0xbe285ff5	-0.16442855
88	0xbe7865c5	-0.24257572
89	0x3cd015dd	0.02540105
90	0xbc0ea9f1	-0.008707509
91	0xbea6f346	-0.32607478
92	0x3e89f137	0.26941845
93	0xbda3b07e	-0.079926476
94	0xbed78a80	-0.42097855
95	0xbe29dcec	-0.16588181
96	0x3c9e8ac0	0.01935327
97	0x3d88cbf0	0.06679523
98	0xbe2ab742	-0.1667147
99	0xbe09e937	-0.1346787
100	0xbe9ddddb	-0.30833325
101	0x3dde2d4e	0.10848485
102	0xbd004aa4	-0.031321183
103	0xbe8c367e	-0.27385324
104	0x3b5ab9ef	0.0033374985
105	0x3b8286a1	0.003983334
106	0xbecd7866	-0.4013092
107	0xbf1386de	-0.57627666
108	0xbdfcc43e	-0.12342118
109	0xbe801205	-0.25013748
110	0xbc7a2fe8	-0.015270211
111	0xbb4f2316	-0.0031606606
112	0x3d2ea2e6	0.04263582
113	0xbecf5e52	-0.40501648
114	0xbde15a92	-0.11003603
115	0xbd993199	-0.07480163
116	0xbeeea648	-0.46611238
117	0x3e1e99f9	0.15488423
118	0x3ec2beed	0.3803629
119	0xbe87c558	-0.2651775
120	0xbde176ae	-0.110089645
121	0xbdbdf934	-0.09276047
122	0xbef7505b	-0.48303494
123	0xbf17e253	-0.5932972
124	0x3e3cd2a3	0.18439727
125	0x3eb6d62a	0.3571027
126	0xbf256dee	-0.64620864
127	0xbde2623d	-0.11053894
128	0x3f065079	0.5246654
129	0x3cbb9001	0.022895815
130	0x3db125f2	0.086498156
131	0x3e11bd55	0.1423238
132	0xbee454ad	-0.44595852
133	0x3ea13aed	0.3149027
134	0x3d8ee65f	0.069775335
135	0x3ce356ef	0.027751414
136	0xbe3c4c93	-0.18388586
137	0x3e214b9d	0.157515
138	0x3ddd6e52	0.108120576
139	0xbd8e4ed0	-0.06948626
140	0x3dd4bfbb	0.10388132
141	0xbd49a864	-0.049232855
142	0x3df67294	0.12033573
143	0x3d0f7b34	0.035029605
144	0xbe7b90bc	-0.2456693
145	0x3e41a6d8	0.18911302
146	0x3e18bca5	0.14915712
147	0x3d8242b1	0.063603766
148	0x3b119e7f	0.0022219715
149	0xbd93bcdd	-0.07213757
150	0xbdb4c497	-0.08826559
151	0xbaee1599	-0.0018164396
152	0x3dbdefbc	0.09274241
153	0xbe4f0d0b	-0.20219819
154	0xbc641349	-0.013920614
155	0xbe45b143	-0.19305901
156	0xbc8712ff	-0.01648855
157	0x3d8126f7	0.0630626
158	0xbc318d49	-0.010836908
159	0xbc5e1fe2	-0.013557406
160	0xbdf9f7ab	-0.12205442
161	0x3e458f28	0.19292891
162	0xbdd28122	-0.102785364
163	0xbd9440db	-0.07238933
164	0xbd66aa6d	-0.056314874
165	0xbbb02544	-0.005375536
166	0xba7f013d	-0.00097276625
167	0xbe04caef	-0.12968038
168	0x3e460f02	0.19341663
169	0x3de21dbd	0.110408284
170	0xbdc4db08	-0.096120894
171	0xbef12e47	-0.4710562
172	0x3e371645	0.17879589
173	0xbf0c8d6e	-0.54903305
174	0xbf060991	-0.5235835
175	0xbc4be185	-0.012443905
176	0x3cdb9e07	0.026808752
177	0x3e8d9fd1	0.27660993
178	0x3e103f3c	0.14086622
179	0x3e73c3b3	0.23805122
180	0x3ea04391	0.3130155
181	0x3de2b626	0.11069898
182	0xbcbf688f	-0.023365287
183	0xbda1f38f	-0.07907783
184	0x3e257dee	0.1616132
185	0xbe0c1493	-0.13679723
186	0xbd789070	-0.06068462
187	0x3d8172df	0.06320738
188	0x3c54057b	0.01294076
189	0x3e45cbde	0.1931605
190	0xbce98650	-0.028506428
191	0xbc382813	-0.011240023
192	0x3dc57646	0.096416995
193	0x3e101604	0.14070898
194	0xbdd0d97b	-0.10197731
195	0xbe5446b5	-0.20730098
196	0xbe15af71	-0.14617707
197	0x3de40482	0.11133672
198	0xbd94d2d2	-0.07266773
199	0xbd7b72db	-0.06138883
200	0xbe4c7faf	-0.19970582
201	0xbe312c3b	-0.17302029
202	0xbe7cfd99	-0.24706115
203	0x3e8fa051	0.28052
204	0xbe7ccc11	-0.2468722
205	0xbeacbc8e	-0.33737606
206	0x3c13ba39	0.009016567
207	0xbe601c8b	-0.21885888
208	0xbea00012	-0.31250054
209	0xbea5e103	-0.32398233
210	0x3ea2fec5	0.31835
211	0xbe2ceea0	-0.16887903
212	0x3e78377b	0.24239914
213	0xbf82be75	-1.0214373
214	0x3ecd1668	0.40056157
215	0xbc2f2ebc	-0.010692295
216	0xbd8c9d60	-0.068659544
217	0xbdb531ec	-0.088474125
218	0xbcc2fbc1	-0.023801686
219	0x3e3d0820	0.1846013
220	0xbdfd09b0	-0.12355363
221	0x3eb5602e	0.35424942
222	0xbf62e137	-0.886249
223	0x3d38a89d	0.045082677
224	0xbd7b081d	-0.061287034
225	0x3dce527d	0.10074327
226	0xbcc486ee	-0.02399012
227	0xbd9d17fc	-0.0767059
228	0xbe8c5831	-0.27411035
229	0xbe7def74	-0.24798375
230	0xbe410c39	-0.18852319
231	0x3ed9166b	0.42399916
232	0x3e08fe8f	0.13378356
233	0x3d36ac8a	0.04459814
234	0xbb6282d4	-0.0034562843
235	0xbe4f47e0	-0.20242262
236	0xbeb9b2c2	-0.36269194
237	0x3d021c66	0.031765364
238	0x3df59b1b	0.11992475
239	0xbe680fe9	-0.22662319
240	0xbed6bc47	-0.4194052
241	0xbe56c6de	-0.209743
242	0xbe3e34b4	-0.18574792
243	0xbe1d6f15	-0.15374406
244	0xbe00b750	-0.12569928
245	0xbe936355	-0.28786722
246	0xbe3ea4ab	-0.18617503
247	0x3e1412aa	0.14460245
248	0xbd8c4651	-0.06849349
249	0x3e4cb5fa	0.19991294
250	0xbd4275a1	-0.04747546
251	0xbeb70e17	-0.35752937
252	0xbe546ba8	-0.20744193
253	0xbe244df3	-0.1604536
254	0x3d41fe3a	0.04736159
255	0xbeb5e890	-0.35528994

actor.0.bias f4 [64]
0	0x3cea6823	0.02861411
1	0x3e4cc375	0.19996436
2	0x3d85eaf8	0.06538957
3	0xbde5cfba	-0.11221261
4	0x3cc9f109	0.024651067
5	0xbd6d8d1e	-0.057995908
6	0x3dac2c97	0.08406942
7	0xbb199fa4	-0.00234411
8	0xbdbe5d28	-0.09295112
9	0x3dcf6c0e	0.10128032
10	0xbec5c0c4	-0.3862363
11	0x3e3fb057	0.18719612
12	0xbe8a209b	-0.26978
13	0xbe50d260	-0.20392752
14	0x3d6e254a	0.05814103
15	0xbc48ae5b	-0.012248601
16	0x3bd05f5b	0.0063590235
17	0xbdb39a15	-0.08769623
18	0xbeae4084	-0.34033597
19	0xbdc0d905	-0.09416393
20	0xbeda1fee	-0.42602485
21	0x3c9d2fc2	0.019187812
22	0xbe3163d3	-0.17323236
23	0xbe4ffe07	-0.20311747
24	0xbe2fadec	-0.1715619
25	0x3da2996f	0.079394214
26	0xbe10eb0b	-0.14152162
27	0xbd7484c9	-0.059696946
28	0x3cce164f	0.025157122
29	0xbea467eb	-0.32110533
30	0x3e9e18a0	0.30878162
31	0x3d76dcdc	0.06026922
32	0xbd85ddba	-0.065364316
33	0x3dd10293	0.10205569
34	0xbe8599f0	-0.26094007
35	0x3cc542fb	0.02407979
36	0x3e1b1768	0.15145648
37	0xbe9b3967	-0.30317232
38	0xbe1476fc	-0.14498514
39	0xbeb68c31	-0.35653833
40	0xbdfeb1a2	-0.124362245
41	0xbe86467c	-0.2622565
42	0xbd238395	-0.03992041
43	0xbdc3c151	-0.095583566
44	0xbd936a65	-0.071980275
45	0x3d87ebc6	0.06636767
46	0x3df59fd0	0.119933724
47	0xbe3a683b	-0.18203823
48	0xbe3228be	-0.17398354
49	0x3ce28ec2	0.027655963
50	0x3d6a67fa	0.057228066
51	0xbdfea48b	-0.12433728
52	0xbe1a5005	-0.15069588
53	0xbe2a13d6	-0.1660913
54	0xbd09644d	-0.03354292
55	0x3c5eb48c	0.01359285
56	0x3ea53c60	0.32272625
57	0xbcc80e68	-0.024420932
58	0x3d1746b3	0.03693266
59	0xbedfa08e	-0.4367718
60	0xbea7f8c7	-0.3280699
61	0x3dc96075	0.09832851
62	0xbe3f40ee	-0.18677112
63	0xbe375048	-0.17901719

actor.2.weight f4 [64, 64]
0	0x3d6c836a	0.057742514
1	0xbd0b3b1d	-0.03399192
2	0xbc5419d6	-0.012945613
3	0x3d8ffe2f	0.070309035
4	0x3d026b98	0.03184089
5	0x3cf0002e	0.02929696
6	0x3d7cb463	0.061695468
7	0x3dbe12ba	0.092809156
8	0xbde0bb1e	-0.1097319
9	0x3d28d20d	0.041215945
10	0x3d51edbd	0.051252116
11	0x3b990970	0.0046703145
12	0x3d75e590	0.06003338
13	0xbdd3d43a	-0.103432134
14	0x3eae8310	0.34084368
15	0xbe7f17ff	-0.24911498
16	0xbda80103	-0.08203318
17	0x3e3cd262	0.1843963
18	0xbc48f0f3	-0.012264478
19	0x3bab8fb3	0.005235636
20	0x3d897bfc	0.06713101
21	0xbdf00d94	-0.1172134
22	0xbe5e7958	-0.21725976
23	0x3d16e667	0.036840823
24	0x3df701b3	0.12060871
25	0xbb82580b	-0.0039777807
26	0x3d94c075	0.07263271
27	0x3de4024a	0.11133249
28	0x3e1846e6	0.14870796
29	0xbd9c1730	-0.0762161
30	0x3d890a00	0.066913605
31	0x3e2fc2fb	0.17164223
32	0x3e10caab	0.14139812
33	0x3deb7df8	0.11498636
34	0xbdef08ee	-0.11671625
35	0x3d73927b	0.059465867
36	0xbe06e719	-0.13174094
37	0x3c786691	0.0151611725
38	0x3e472a7a	0.19449797
39	0x3d78f2b6	0.060778342
40	0x3cb5434a	0.022126812
41	0xbd917d65	-0.07103995
42	0xbdf0f53d	-0.117655255
43	0xbd0c9683	-0.034323227
44	0x3da90047	0.08252006
45	0xbe34e569	-0.17665638
46	0x3e0e105b	0.13873427
47	0x3dc1a83a	0.09455915
48	0xbd4b0af7	-0.049571004
49	0x3c1fd5d6	0.009755572
50	0x3cd508a2	0.026005093
51	0xbe09d86b	-0.13461463
52	0x3dbbbdcc	0.0916706
53	0xbe0763ff	-0.13221739
54	0x3d08d0e5	0.033402342
55	0x3e63e4b1	0.22255208
56	0xbd66d55e	-0.056355827
57	0x3da1c994	0.07899776
58	0xbdc8a29f	-0.097966425
59	0xbc6e877f	-0.014558672
60	0x3ce045cc	0.027377032
61	0x3e0be864	0.13662869
62	0xbe076a67	-0.13224183
63	0xbd8420e3	-0.06451585
64	0xbe9d62d4	-0.30739462
65	0xbe427035	-0.18988116
66	0x3dba0a38	0.0908398
67	0xbdd367f8	-0.10322565
68	0x3a94f3f6	0.001136421
69	0x3e69927e	0.22809789
70	0x3d98ab12	0.07454504
71	0xbded674b	-0.11591967
72	0xbdf9eaba	-0.12202974
73	0xbee6145a	-0.44937402
74	0x3e022ddd	0.12712808
75	0xbc0a1879	-0.008428686
76	0xbd59750b	-0.053090136
77	0x3d47b16a	0.04875318
78	0xbe9b4584	-0.30326474
79	0xbe219869	-0.15780796
80	0xbba25148	-0.004953537
81	0x3e874f74	0.26427805
82	0x3e8858d3	0.26630268
83	0x3d49c307	0.04925826
84	0x3d06b387	0.032886054
85	0xbbe81b2e	-0.007083318
86	0x3e0c5e48	0.1370784
87	0x3d1e1873	0.038597535
88	0xbc3dc0c3	-0.0115816025
89	0x3d73fe45	0.059568662
90	0xbe5bc808	-0.21463025
91	0x3d888faf	0.066680305
92	0x3ded1558	0.115763366
93	0x3e2bd120	0.16778994
94	0xbd963711	-0.07334722
95	0x3dae0327	0.08496695
96	0x3e0bfdf5	0.13671096
97	0xbe0b11d0	-0.13581014
98	0xbc5b756e	-0.013394697
99	0x3db86eae	0.090054855
100	0xbe40bbd9	-0.18821658
101	0x3e6e7a5a	0.23288861
102	0x3e085d5a	0.13316861
103	0x3d949aed	0.07256112
104	0x3e326558	0.17421472
105	0x3e13a3b2	0.14417914
106	0x3dc30db4	0.09524098
107	0x3e608ce7	0.2192875
108	0xbed3fae6	-0.41402358
109	0xbda5cb39	-0.08095402
110	0xbf2af2d9	-0.66776806
111	0x3dc8a03f	0.097961895
112	0x3e20e88c	0.1571371
113	0xbce0ea5f	-0.027455507
114	0x3c77e635	0.015130569
115	0x3c3b09d4	0.011415917
116	0xbc6af901	-0.014341594
117	0x3d8e0c8b	0.06935986
118	0xbd9d22ba	-0.07672639
119	0xbead189f	-0.33807847
120	0x3e3ec5fd	0.18630214
121	0x3ca88199	0.02056961
122	0xbdadc63a	-0.08485074
123	0x3d691a9b	0.05691014
124	0xbdaef0f6	-0.085420534
125	0x3ea278be	0.31732744
126	0xbf10409d	-0.5634859
127	0x3e0c3497	0.13691936
128	0xbc60cc5c	-0.013720598
129	0xbd1a38d5	-0.037651855
130	0xbd947e41	-0.072506435
131	0x3e3c9082	0.184145
132	0x3d62a332	0.055331416
133	0x3d962db1	0.07332934
134	0x3d94f93d	0.07274101
135	0xbe20699b	-0.15665285
136	0x3c4f043d	0.012635288
137	0x3e0c7ba5	0.13719042
138	0xbe8857b9	-0.26629427
139	0x3df73c2d	0.120720245
140	0xb986f0b1	-0.000257378
141	0xbc9fa8cb	-0.019489666
142	0x3db36c68	0.08760911
143	0x3d4aa481	0.04947329
144	0x3d668d89	0.056287322
145	0xbd886b7a	-0.066611245
146	0xbbaf7a0f	-0.0053551267
147	0x3e5970c4	0.21234423
148	0xbca475b5	-0.020075658
149	0xbe09963e	-0.13436219
150	0x3c3fb316	0.011700412
151	0xbe338d94	-0.17534477
152	0xbd4c086d	-0.049812723
153	0xbca5177e	-0.020152804
154	0xbb3b7727	-0.0028604956
155	0xbf1dcf2c	-0.61644244
156	0x3cd74e21	0.026282372
157	0xbcc76e5e	-0.02434462
158	0xbeb50c4e	-0.3536095
159	0xbc0063d8	-0.007836305
160	0xbe4087f5	-0.18801863
161	0x3d5ba570	0.05362457
162	0x3e21d819	0.15805091
163	0xbd4131e4	-0.04716672
164	0x3cd72e3b	0.026267162
165	0x3cc22810	0.023700744
166	0xbd9e7f0f	-0.07739078
167	0x3d09192b	0.033471268
168	0xbd8a8e9a	-0.0676548
169	0x3d931ea9	0.07183582
170	0xbc85774b	-0.016292235
171	0x3d0292f8	0.03187844
172	0xbe019737	-0.1265534
173	0xbe462561	-0.19350196
174	0xbe806210	-0.25074816
175	0xbe6c2830	-0.23062205
176	0x3da9b2b1	0.08286036
177	0xbda7f134	-0.08200303
178	0x3e31ad3f	0.17351244
179	0xbe81f270	-0.25380278
180	0xbd60b330	-0.054858387
181	0x3c8e8087	0.017395271
182	0xbd70bcac	-0.05877368
183	0xbe0c4f43	-0.13702111
184	0x3e1dd358	0.15412652
185	0x3dd98e02	0.10622789
186	0x3d42573d	0.04744648
187	0xbe50322f	-0.20331644
188	0x3c01ee47	0.007930345
189	0x3cd3dc95	0.025862018
190	0xbe43083f	-0.19046114
191	0x3d549533	0.0519001
192	0x3c5cd559	0.0134786
193	0xbd19522b	-0.037431877
194	0xbd9f2269	-0.07770235
195	0x3d960b7b	0.073264085
196	0x3d1493e7	0.036273863
197	0x3e37fc61	0.17967369
198	0x3cd1e412	0.025621448
199	0xbd9067e5	-0.07051066
200	0x3cfc43c4	0.030794032
201	0x3d3d493a	0.046212412
202	0x3dde4238	0.10852474
203	0xbd575e06	-0.052579902
204	0xbd10804a	-0.035278596
205	0xbdcbc655	-0.09949938
206	0x3e5061d4	0.20349818
207	0xbe23257b	-0.15932266
208	0x3b64cdb8	0.0034912657
209	0xbb691c87	-0.0035569982
210	0x3d8544db	0.06507274
211	0x3c8b528a	0.017007131
212	0xbdf5cba5	-0.12001733
213	0xbde0c09a	-0.10974236
214	0x3d8f7caf	0.070062034
215	0xbda78e51	-0.081814416
216	0x3da230e8	0.079194844
217	0xbc161daf	-0.009162351
218	0x3e202dab	0.15642421
219	0x3dd51366	0.104040906
220	0xbd0b714c	-0.034043595
221	0xbb28e740	-0.0025772601
222	0xbe315198	-0.17316282
223	0xbdaf7afa	-0.08568378
224	0x3df68ab8	0.12038177
225	0xbc6ee043	-0.014579835
226	0xbd52f58d	-0.051503707
227	0x3e1e5f70	0.15466094
228	0xbe218b1c	-0.15775722
229	0x3de42b5d	0.111410834
230	0x3e6db8c8	0.2321502
231	0x3d525216	0.051347815
232	0xbdb589c6	-0.08864169
233	0xbe0e78b9	-0.1391324
234	0x3d69e825	0.057106156
235	0x3d9c28ea	0.07624991
236	0x3e1fb896	0.15597758
237	0x3d2cd6f3	0.04219718
238	0x3cbe863c	0.023257367
239	0x3e4b472a	0.19851366
240	0x3cb662b9	0.022263872
241	0xbd339d4a	-0.043851174
242	0xbda44dc2	-0.080226436
243	0x3e10f7a8	0.14156973
244	0xbcfbc745	-0.030734668
245	0x3e1b7dd6	0.15184721
246	0xbdaf4a95	-0.08559147
247	0x3e5be9eb	0.21475951
248	0xbe96cdec	-0.2945398
249	0xbe1d1d1c	-0.15343136
250	0x3e186b32	0.14884642
251	0xbcf72ae3	-0.030171817
252	0x3de01589	0.109416075
253	0x3d94b105	0.07260326
254	0xbd164350	-0.036685288
255	0xbd004dc6	-0.03132417

actor.2.bias f4 [64]
0	0xbdce592f	-0.10075604
1	0x3db2a992	0.08723749
2	0x3db49743	0.088179134
3	0x3e06b7d1	0.13156058
4	0x3c264bfb	0.010149951
5	0x3ccb972e	0.024852362
6	0xbd4d7701	-0.05016232
7	0x3e7f1c9f	0.24913262
8	0xbdb22332	-0.08698119
9	0xbdbad1b8	-0.09122032
10	0x3eb3a40c	0.35086095
11	0xbdc4f053	-0.09616151
12	0x3d3cc9b6	0.046090804
13	0xbe8ddb61	-0.27706435
14	0x3d5994db	0.053120475
15	0x3e7fff09	0.24999632
16	0xbccd8676	-0.02508853
17	0xbe955d53	-0.29172763
18	0xbc7697ca	-0.015050838
19	0xbe4f94a8	-0.20271552
20	0x3d8ae32e	0.06781612
21	0xbd50690c	-0.05088143
22	0xbe6d12ea	-0.23151746
23	0xbd3f8ffb	-0.04676817
24	0x3cae6cba	0.02129208
25	0x3e871ee5	0.26390758
26	0x3dacbcae	0.08434425
27	0x3e0186bb	0.12649052
28	0xbd11c083	-0.035583984
29	0xbe04a2e9	-0.1295277
30	0x3df0c0e7	0.11755543
31	0x3d87136a	0.065955
32	0xbe8f2f0e	-0.27965587
33	0xbe19da79	-0.15024747
34	0xbd991b5b	-0.07475921
35	0xbe610ef3	-0.21978359
36	0xbd4d2244	-0.050081506
37	0xbe141f7b	-0.14465134
38	0xbaa81b0f	-0.0012825447
39	0x3cc31a95	0.023816386
40	0x3dfe80f9	0.12426943
41	0xbe9e080b	-0.3086551
42	0xbc24f551	-0.010068254
43	0x3cb6d534	0.02231846
44	0xbdd6d997	-0.10490721
45	0xbe1b9f3a	-0.15197459
46	0xbdf3cd46	-0.11904387
47	0xbe1996bb	-0.14998905
48	0x3d998992	0.074969426
49	0x3eaf7b53	0.34273776
50	0xbd998953	-0.07496896
51	0xbe1fa023	-0.15588431
52	0x3e49d1d0	0.19708943
53	0x3d266fbd	0.040633906
54	0x3dd611ca	0.10452612
55	0xbe9a9c4a	-0.30197364
56	0x3e109d8b	0.14122598
57	0x3da39096	0.07986562
58	0xbd04b78c	-0.032401606
59	0xbdc7994a	-0.097460344
60	0x3c69fb0b	0.014281045
61	0xbd13fb91	-0.036128584
62	0xbe3bf531	-0.18355252
63	0x3e541a4f	0.20713161

actor.4.weight f4 [6, 64]
0	0xbe3cbe0c	-0.18431872
1	0xbdecfcbb	-0.11571642
2	0x3bcdca28	0.0062802024
3	0xbe5a370a	-0.21310058
4	0xbd023320	-0.031787038
5	0x3d5a89ce	0.053354077
6	0xbd9596b1	-0.07304133
7	0x3da94fdc	0.08267185
8	0x3d9889fb	0.07448193
9	0xbdb06b40	-0.08614206
10	0xbd885b6a	-0.06658061
11	0x3d22fab4	0.03978987
12	0x3dcee0d7	0.101014785
13	0x3d7794f5	0.06044479
14	0xbd670052	-0.05639679
15	0xbbff7025	-0.007795351
16	0x3e0738ab	0.13205211
17	0x3e138d91	0.14409472
18	0x3d450d5a	0.048108436
19	0x3df4d4be	0.1195464
20	0x3b923d4e	0.0044628745
21	0xbdf4fae7	-0.11961918
22	0x3d8f6be0	0.070029974
23	0x3e0efd20	0.13963747
24	0x3e3edef6	0.1863974
25	0xbcc2a265	-0.023759076
26	0x3dad2b4c	0.08455524
27	0xbd7ff522	-0.062489636
28	0xbcac6bb5	-0.021047452
29	0xbde82436	-0.11335032
30	0x3d054525	0.032536644
31	0xbcbed914	-0.02329687
32	0x3d5b80c4	0.053589597
33	0x3e1f9cf4	0.15587217
34	0xbd3e7dd4	-0.046506718
35	0x3cf4e4ec	0.029894315
36	0xbdf875ae	-0.121318206
37	0xbc8e48bc	-0.017368667
38	0xbde3d436	-0.111244604
39	0x3e426dfc	0.18987268
40	0x3dbe8504	0.093027145
41	0x3d982ddd	0.07430623
42	0x3db308f1	0.0874194
43	0x3bd6d8cb	0.0065566055
44	0x3e5fd82b	0.21859805
45	0x3dcb9e14	0.099422604
46	0xbcfccf71	-0.030860635
47	0x3d361938	0.044457644
48	0x3d360f08	0.04444793
49	0x3b69e185	0.0035687399
50	0xbdf5557f	-0.11979198
51	0x3bfacda9	0.007653911
52	0xbdd28fcc	-0.10281333
53	0xbd8be628	-0.06831008
54	0xbe54eed5	-0.20794232
55	0xbccd6aea	-0.025075395
56	0x3dc75e95	0.09734837
57	0xbe204200	-0.15650177
58	0x3d2053db	0.03914247
59	0xbd33f95f	-0.04393899
60	0xbd85710d	-0.06515703
61	0x3d079768	0.033103377
62	0x3e7fe5e6	0.24990043
63	0xbe07d3cd	-0.1326439
64	0x3d14be31	0.036314193
65	0x3df8b104	0.12143138
66	0xbe7209cb	-0.23636548
67	0xbdcd9ee5	-0.10040072
68	0xbc829f2c	-0.01594504
69	0xbd7294aa	-0.05922381
70	0x3dab14ae	0.08353554
71	0xbba1f7a9	-0.0049428535
72	0x3e168e7a	0.14702788
73	0xbd7a9ee8	-0.0611867
74	0x3ddf5f66	0.10906868
75	0x3c90ad6a	0.017660815
76	0xbe2c66c5	-0.16836078
77	0xbc7cdbe3	-0.015433284
78	0x3d8c6343	0.0685487
79	0x3bbb59a1	0.0057174717
80	0x3dabfd23	0.08397891
81	0xbcd12581	-0.025530579
82	0x3d7687dd	0.060188163
83	0xbda4f4e9	-0.080545254
84	0xbd2832af	-0.04106396
85	0x3e037d78	0.12840831
86	0xbd85c7bc	-0.06532237
87	0xbe13b8e4	-0.14425999
88	0x3d1828b8	0.037148207
89	0x3d0c959f	0.034322377
90	0x3db20439	0.08692212
91	0xbc7528b8	-0.014963321
92	0xbe0b6649	-0.13613237
93	0xbd5a0172	-0.053224035
94	0xbe0debdb	-0.13859503
95	0x3bb32730	0.005467318
96	0x3d2dc7e8	0.042426974
97	0xbc3d6cec	-0.0115616135
98	0x3deb79b7	0.11497825
99	0xbb7db8d8	-0.0038714912
100	0xbd3e62f0	-0.046481073
101	0xbd98dae5	-0.07463626
102	0xbdb28e11	-0.08718503
103	0x3dc5b4b0	0.09653604
104	0x3e4fbbfc	0.20286554
105	0xbdcb35f6	-0.099224016
106	0xbe8662f1	-0.2624736
107	0x393c4538	0.00017954863
108	0x3db46aea	0.08809455
109	0x3e0605df	0.13088177
110	0x3d7a380b	0.061088603
111	0xbc5d0ca5	-0.013491784
112	0x3e0804e0	0.1328311
113	0x3ceb276c	0.028705321
114	0x3d367ac8	0.044550687
115	0x3e0fd38b	0.14045541
116	0xbc656eb2	-0.014003443
117	0xbbb743c5	-0.0055927956
118	0x3d161acb	0.036646646
119	0xbd19a7bc	-0.03751348
120	0xbd58ce07	-0.052930858
121	0x3d871598	0.065959156
122	0xbdb3186a	-0.08744891
123	0xbdfc7aa9	-0.12328083
124	0x3dae9c4f	0.08525907
125	0x3d389d1a	0.0450717
126	0xbd022503	-0.03177358
127	0x3d0d099c	0.034432992
128	0x3c0cadc7	0.008586354
129	0x3d85182b	0.0649875
130	0xbd7f3896	-0.062309824
131	0x3d43c678	0.047796696
132	0x3d202bdc	0.039104328
133	0x3d17ef73	0.03709359
134	0xbbb77886	-0.0055990843
135	0x3e16ca23	0.14725547
136	0xbe897dab	-0.2685369
137	0x3db606cd	0.08888016
138	0x3db17499	0.08664817
139	0xbe7fd13e	-0.24982163
140	0xbdeef2ec	-0.116674274
141	0xbe4d418e	-0.20044538
142	0x3ca7f5c7	0.020502938
143	0x3dd43840	0.10362291
144	0xbd5029f5	-0.050821263
145	0xbe356ce4	-0.1771732
146	0x3dbb619c	0.09149477
147	0xbe30658a	-0.17226234
148	0x3d9f3e5f	0.07775568
149	0xbd94c61c	-0.07264349
150	0xbe0b17e6	-0.13583335
151	0xbda9bf5c	-0.08288452
152	0xbde7a920	-0.11311555
153	0x3dfe9ff2	0.12432851
154	0x3da5dc4c	0.08098659
155	0x3d8bf64f	0.06834089
156	0xbe819dbc	-0.25315654
157	0xbd2142c5	-0.039370317
158	0x3dc52cc5	0.0962768
159	0x3dbbf8e0	0.091783285
160	0xbc44a2f8	-0.012001745
161	0xbe42b90c	-0.19015902
162	0x3c73e620	0.014886409
163	0xbe241c94	-0.16026527
164	0xbcfb0ee8	-0.030646756
165	0x3bea25a5	0.007145601
166	0xbc319902	-0.010839703
167	0xbdb67394	-0.089087635
168	0x3c873d19	0.016508626
169	0xbe3f9a54	-0.18711215
170	0xbbc44277	-0.0059893685
171	0x3dc59561	0.096476324
172	0x3d139dc5	0.036039133
173	0xbd1e6085	-0.038666267
174	0xbd57627c	-0.052584156
175	0xbd8d4c05	-0.06899265
176	0x3e0e6d9e	0.13909003
177	0x3df41f9f	0.11920094
178	0xbde1958f	-0.11014854
179	0xbdeb1509	-0.114786215
180	0x3dd6864b	0.10474833
181	0x3da5d67d	0.08097551
182	0x3cf58fb9	0.029975759
183	0xbe39f524	-0.1815992
184	0x3dfbfe30	0.12304342
185	0x3db27deb	0.08715423
186	0x3cec8489	0.028871791
187	0xbd7d4d47	-0.061841276
188	0xbd404a57	-0.046945896
189	0x3d3cac2b	0.04606263
190	0xbe25db0f	-0.16196845
191	0x3d3f4de5	0.046705145
192	0xbdab5044	-0.08364919
193	0x3e8be8f8	0.2732618
194	0xbddc114b	-0.10745486
195	0x3d931994	0.07182613
196	0xbd6eba60	-0.05828321
197	0x3d85ad45	0.06527189
198	0x3b13b542	0.0022538458
199	0xbd869d29	-0.06572945
200	0x3e0c0274	0.13672811
201	0xbdd8f525	-0.105936326
202	0x3db12545	0.08649687
203	0x3e510554	0.20412189
204	0x3dd99aa5	0.10625199
205	0xbe3138aa	-0.17306772
206	0x3d72d17c	0.05928181
207	0x3d608b8a	0.054820575
208	0xbd5f54b2	-0.05452413
209	0xbe3be41b	-0.18348734
210	0xbe086e84	-0.13323408
211	0xbe244033	-0.16040115
212	0xbdf7a618	-0.12092227
213	0x3dfcefc8	0.12350422
214	0xbd56ebdd	-0.05247103
215	0xbe0269d0	-0.12735677
216	0xbdb33a08	-0.08751303
217	0xbd134140	-0.0359509
218	0xbda304bc	-0.079598874
219	0x3daf5071	0.08560265
220	0x3d95df18	0.073179424
221	0x3d99001b	0.07470723
222	0x3de1b35f	0.110205404
223	0xbd170fb7	-0.03688022
224	0xbe0be1d1	-0.13660361
225	0x3bb68083	0.005569519
226	0xbdaf7839	-0.085678525
227	0x3e021d4e	0.12706491
228	0xbda01710	-0.07816899
229	0xbd1214e3	-0.03566445
230	0xbcee3510	-0.029078037
231	0x3e8c301d	0.27380458
232	0x3d9b9773	0.07597246
233	0x3ce7e9a4	0.02830965
234	0x3e6e0786	0.23245057
235	0xbe1ec155	-0.15503438
236	0x3d8fa175	0.07013217
237	0xbe1096c3	-0.14120011
238	0xbe816041	-0.25268748
239	0x3e875ca3	0.26437864
240	0xbca55081	-0.020179989
241	0x3da930e6	0.0826128
242	0xbb8a2560	-0.004215881
243	0xbe898365	-0.2685806
244	0xbcb2e2cf	-0.021836666
245	0x3c7514e0	0.01495859
246	0x3dd02fc8	0.101653636
247	0xbdf129bb	-0.117755376
248	0x3e3a8738	0.18215644
249	0xbae872e5	-0.0017734437
250	0xbd25a81f	-0.040443536
251	0xbdac4c45	-0.08412985
252	0xbd418cd5	-0.04725345
253	0xbdb65752	-0.08903374
254	0xbe12c4ab	-0.14332835
255	0xbd226086	-0.039642833

actor.4.bias f4 [6]
0	0xbe1bbd9e	-0.15209052
1	0x3cf17637	0.029475315
2	0x3ddb20dd	0.106996275
3	0x3e393627	0.18087064
4	0x3d8466ea	0.06464942
5	0x3d91c4f7	0.07117646

critic.0.weight f4 [64, 43]
0	0x3f137553	0.576009
1	0xbf3515b6	-0.70736253
2	0xbf28e1ea	-0.6596972
3	0xbdd83cff	-0.10558509
4	0x3da64982	0.08119489
5	0x3ed99fdd	0.42504779
6	0xbeab2ebc	-0.33434093
7	0xbcc7e0ab	-0.024399122
8	0xbe0f8ed9	-0.14019336
9	0x3d9dede6	0.07711391
10	0x3c7d8ba0	0.015475184
11	0x3cd2bc7c	0.025724642
12	0x3e46854b	0.19386785
13	0x3cdfde18	0.027327582
14	0xbdc22106	-0.09478955
15	0x3df160e6	0.1178606
16	0xbd9da0d6	-0.07696693
17	0xbd9641ea	-0.07336791
18	0x3cb2e89c	0.021839432
19	0xbb7526f9	-0.0037407263
20	0x3f06f798	0.5272155
21	0x3f2fa7ad	0.6861523
22	0xbe82b039	-0.25525072
23	0x3ebba5d4	0.36649954
24	0xbf45fdea	-0.7734057
25	0x3debbf6a	0.11511119
26	0xbf21f636	-0.63266313
27	0xbeec9b3d	-0.46212187
28	0x3d1df7b6	0.038566314
29	0xbed27ccb	-0.41110834
30	0x3f9fd38e	1.2486436
31	0x3e191a96	0.14951548
32	0xbf54603a	-0.8295933
33	0xbe92d5ba	-0.28678685
34	0x3ec0c2c4	0.37648594
35	0xbe9d7379	-0.3075216
36	0xbf2e6b03	-0.68132037
37	0x3f85b3ce	1.0445497
38	0x3e567816	0.20944247
39	0xbf6a334f	-0.9148454
40	0xbf0c590f	-0.5482339
41	0x3dc26b51	0.09493125
42	0xbc884be4	-0.01663775
43	0x3e9b7361	0.30361465
44	0xbf1c3f41	-0.6103402
45	0xbebb38d7	-0.36566803
46	0xbe9f8af0	-0.31160688
47	0x3e1c49fe	0.15262601
48	0x3e3ff2b2	0.18744925
49	0x3d03651e	0.032078855
50	0x3ec6cb45	0.38826957
51	0xbdbffc30	-0.09374273
52	0x3ce3e55c	0.027819328
53	0xbcde0a93	-0.027104652
54	0xbc1f3211	-0.009716527
55	0x3e027af6	0.12742218
56	0xbef65d47	-0.4811804
57	0xbe9c9903	-0.3058549
58	0xbe88d51f	-0.26725098
59	0x3e844291	0.25832036
60	0xbb38f0ab	-0.002821962
61	0x3b004f24	0.0019578421
62	0xbb972ebd	-0.004613726
63	0x3f5555ce	0.8333405
64	0x3eaae9be	0.33381456
65	0xbedabce0	-0.42722225
66	0x3d9fb1e1	0.077975996
67	0xbeeaef4c	-0.45885694
68	0x3f02ed2a	0.51143134
69	0xbf21ebd1	-0.6325045
70	0xbe96f314	-0.2948233
71	0xbe0a4fd7	-0.13507019
72	0xbeafb39c	-0.3431672
73	0x4004eaaa	2.0768228
74	0x3e71f782	0.23629573
75	0xbf30defe	-0.6909026
76	0xbebfd845	-0.37469688
77	0x3f529372	0.82256234
78	0x3d318f5f	0.04334962
79	0xbe850472	-0.25979954
80	0x40005ade	2.005546
81	0x3d9cac68	0.076500714
82	0xbf58d702	-0.84703076
83	0xbf20fa50	-0.62881947
84	0x3e82d400	0.25552368
85	0xbe8a0b7e	-0.26961893
86	0x3e8c2d69	0.27378395
87	0xbea88f67	-0.32921907
88	0xbe080160	-0.13281775
89	0xbdc00f3b	-0.09377905
90	0xbdff5747	-0.12467819
91	0x3eb06739	0.34453753
92	0xbd1de465	-0.038547892
93	0xbdbb5bd9	-0.09148378
94	0xbc7374fd	-0.014859435
95	0x3c080755	0.008302529
96	0x3d967673	0.07346811
97	0xbc7a63a7	-0.015282548
98	0xbab9c6de	-0.0014173647
99	0x3e00ad98	0.12566221
100	0x3d593b0d	0.05303483
101	0xbe3d98e9	-0.18515362
102	0xbe7ebfa2	-0.2487779
103	0x3d0a10c6	0.033707403
104	0xbacc6022	-0.0015592615
105	0xbcbc64ca	-0.022997279
106	0xbd489e39	-0.048979018
107	0x3f9465dd	1.1593586
108	0x3f14f62e	0.5818814
109	0x3f942993	1.1575187
110	0x3db05b7a	0.08611198
111	0xbe1a793b	-0.15085308
112	0x3d6597df	0.05605304
113	0x3e6f0009	0.23339857
114	0x3f3e696f	0.7437963
115	0x3cb45d99	0.022017287
116	0xc00eacd0	-2.2292976
117	0x4019ee75	2.4051793
118	0xbf91da74	-1.1394792
119	0xbe657d70	-0.22411132
120	0xbee0c7d0	-0.43902445
121	0x3cbbe2ba	0.02293526
122	0x3e52f72b	0.206021
123	0xc00c6a7a	-2.1939988
124	0x4019e6e8	2.4047184
125	0xbfa073a7	-1.2535294
126	0x3e0cd7d1	0.13754202
127	0xbe135e6b	-0.14391486
128	0x3e3c41d8	0.18384492
129	0x3d7a051e	0.061040036
130	0xbe766b35	-0.24064334
131	0xbd93d414	-0.07218185
132	0x3e4f0a17	0.20218693
133	0xbc9c477a	-0.019077051
134	0xbdf5e797	-0.12007063
135	0xbc43ed02	-0.011958363
136	0xbcb9e1dd	-0.022690708
137	0x3e4eb289	0.20185293
138	0xbc074ed4	-0.00825854
139	0xbdb548c0	-0.088517666
140	0x3ccc7950	0.02496019
141	0xbd833301	-0.064062126
142	0xbcbd5bda	-0.023115087
143	0x3dd08548	0.101816714
144	0x3e56a416	0.20961031
145	0x3e0ca097	0.13733135
146	0xbe02bcb5	-0.12767299
147	0x3ae8f413	0.0017772935
148	0x3c410582	0.011781098
149	0xbf6b7c9e	-0.91987026
150	0x3fb8e5aa	1.4445088
151	0x3f0f0271	0.558631
152	0x3f8a25c4	1.0792775
153	0xbf573948	-0.8407178
154	0x3f88e5b7	1.0695103
155	0x3e44e3f1	0.19227578
156	0xbe6fce39	-0.23418511
157	0x3f808b99	1.0042602
158	0x3e41f13d	0.18939681
159	0x3e86aede	0.26305288
160	0xbf1bba51	-0.6083117
161	0xbe8f9593	-0.28043804
162	0xbd200635	-0.03906842
163	0xbed955b1	-0.4244819
164	0x3e37be34	0.1794365
165	0xbd1d878c	-0.038459346
166	0x3e2499a3	0.16074233
167	0xbf0f3aad	-0.5594891
168	0xbee82723	-0.4534236
169	0x3f2114f0	0.62922573
170	0xbeeb6b37	-0.45980236
171	0xbea81191	-0.32825902
172	0x3f26cab3	0.65153044
173	0xbc373828	-0.011182822
174	0x3d98d680	0.07462788
175	0x3d2eb97e	0.042657368
176	0x3d7c4869	0.061592493
177	0x3e4d4c46	0.20048627
178	0xbe3e5240	-0.18586063
179	0xbc18b49d	-0.009320405
180	0xbd967e16	-0.07348268
181	0x3d885e37	0.06658595
182	0xbcc665c8	-0.024218455
183	0xbd270194	-0.04077299
184	0x3ede2629	0.4338849
185	0x3c93962e	0.018015947
186	0xbca94180	-0.020661116
187	0xbe846acd	-0.25862733
188	0x3d9f0b56	0.07765834
189	0x3e258707	0.1616479
190	0xbb80a98c	-0.0039264616
191	0xba142061	-0.0005650577
192	0xbf2eda31	-0.68301684
193	0xbf8b199a	-1.0867188
194	0xbfaaa485	-1.3331457
195	0x3e4bb3b1	0.19892766
196	0x3f61711d	0.8806322
197	0x3f8094e8	1.0045443
198	0x3e1ab1f6	0.15106949
199	0x3e2e54f5	0.17024596
200	0xbf364d97	-0.7121214
201	0xbd725a13	-0.059167933
202	0xbf73dd0f	-0.95259184
203	0xbef60be5	-0.4805595
204	0xbf06de1f	-0.5268268
205	0xbd896fa0	-0.06710744
206	0xbf372295	-0.71537143
207	0xbd967fbe	-0.07348584
208	0x3ea0fe60	0.31444073
209	0xbf4c8c04	-0.79901147
210	0xbf117843	-0.5682413
211	0xbf1237a5	-0.57116157
212	0xbe6ea83f	-0.23306368
213	0xbe018eea	-0.12652174
214	0x3e49ce90	0.19707704
215	0x3c09ded7	0.008414946
216	0xbd07f293	-0.03319032
217	0xbd4cdda5	-0.050016064
218	0xbdd0c307	-0.101934485
219	0x3d9a0fff	0.07522582
220	0x3c5a0ff2	0.013309466
221	0x3d48ef2a	0.04905621
222	0xbd32eecb	-0.043684762
223	0xbdb99456	-0.09061496
224	0x3ce604bf	0.028078435
225	0x3cada221	0.021195473
226	0xbc7b9fe4	-0.015357945
227	0xbdb5ee81	-0.08883382
228	0x3d61382d	0.054985214
229	0x3cd538c1	0.026028039
230	0xbe0257d2	-0.12728813
231	0xbda1d216	-0.07901399
232	0x3da8f069	0.082489796
233	0xbbe9859c	-0.007126523
234	0x3a432b06	0.00074450707
235	0xbd5b56f7	-0.053549733
236	0x3fa9c0ae	1.3261926
237	0xbfa429dc	-1.2825274
238	0xbfadbf27	-1.357396
239	0xbfaf3cb2	-1.3690398
240	0x400a901c	2.1650457
241	0x3e46d735	0.19418032
242	0xbf07ef16	-0.5309919
243	0xbf1d7010	-0.6149912
244	0x3c38ddee	0.011283381
245	0xbe342ee9	-0.1759602
246	0x3e29e086	0.16589555
247	0x3efaff6f	0.49023005
248	0x3e9ad6e0	0.30242062
249	0x3ce58b75	0.0280206
250	0x3eae1c0b	0.3400577
251	0xbdd9c687	-0.10633569
252	0xbdab28ba	-0.08357377
253	0x3eaf8819	0.34283522
254	0x3ecba592	0.39774758
255	0xbebaa6d8	-0.36455417

critic.0.bias f4 [64]
0	0xbeb5c5fe	-0.3550262
1	0xbeb058b5	-0.34442678
2	0x3e2cb597	0.16866146
3	0x3ec835ee	0.39103645
4	0xbb0baa5c	-0.002131126
5	0x3cb9ce05	0.022681246
6	0x3dc421d9	0.095767684
7	0xbcb0d205	-0.02158452
8	0x3e3cb574	0.18428594
9	0xbdaf2c0c	-0.08553323
10	0x3e3409e3	0.17581896
11	0xbec030c2	-0.375372
12	0xbdeeaf9f	-0.11654591
13	0x3dc04510	0.093881726
14	0xbe944784	-0.28960812
15	0x3ef8827e	0.48537058
16	0xbeadff7a	-0.33983976
17	0xbe92f412	-0.28701836
18	0x3ec3d981	0.3825188
19	0xbd98063f	-0.07423066
20	0xbec95d7f	-0.39329144
21	0xbe2ce1b9	-0.16882981
22	0x3eaf4d7c	0.34238803
23	0xbdbd1b54	-0.09233728
24	0xbb54b585	-0.0032456827
25	0x3d4aedd1	0.049543206
26	0xbeba954e	-0.36442035
27	0x3d89b0c8	0.067231715
28	0x3e32b5b1	0.17452122
29	0x3e178d65	0.14800031
30	0x3ea724fb	0.326454
31	0xbe2fb05c	-0.1715712
32	0xbe249030	-0.16070628
33	0x3e54f8d9	0.20798053
34	0x3db6c704	0.08924678
35	0xbec0aa6e	-0.37630028
36	0xbec36e8d	-0.3817028
37	0x3deacfc7	0.11465412
38	0x3d3b5f5f	0.04574525
39	0x3e58e1f7	0.21179949
40	0x3ee10c8b	0.43954882
41	0x3e269b92	0.16270283
42	0xbc1e8577	-0.009675375
43	0xbc9bea74	-0.019032694
44	0x3b752aaa	0.0037409463
45	0xbe0cbc71	-0.1374376
46	0xbe363028	-0.17791808
47	0x3e5fdee1	0.21862365
48	0x3da034e5	0.07822589
49	0xbeb0b54c	-0.3451332
50	0xbe23efab	-0.16009395
51	0x3e280973	0.16409855
52	0xbd333520	-0.043751836
53	0x3e707369	0.23481525
54	0x3ea76b92	0.32699257
55	0x3e0bf8c9	0.13669123
56	0x3dab52ca	0.083654
57	0x3d878927	0.066179566
58	0xbea4e886	-0.3220865
59	0xbec44229	-0.38331726
60	0xbdbf7e33	-0.093502425
61	0xbe1b9f31	-0.15197445
62	0xbd4679a2	-0.04845584
63	0xbe4df3cf	-0.20112537

critic.2.weight f4 [64, 64]
0	0x3d7d6618	0.061864942
1	0x3e5201ba	0.20508471
2	0xbca40ef3	-0.02002666
3	0xbe1c462e	-0.15261146
4	0xbd9e454a	-0.077280596
5	0xbdc5b48a	-0.09653576
6	0x3d48985a	0.04897342
7	0xbd597119	-0.053086374
8	0xbeb3bc88	-0.35104775
9	0xbb5ba433	-0.0033514618
10	0xbe882d6a	-0.26597148
11	0x3d2cdafb	0.042201024
12	0xbd24c14b	-0.0402234
13	0x3db91578	0.09037298
14	0x3e0a98e4	0.13534886
15	0x3dd60016	0.10449235
16	0x3e0b93df	0.13630627
17	0x3d683d88	0.056699306
18	0x3ccb3f7f	0.02481055
19	0x3d1ef631	0.038809005
20	0x3e0c96f3	0.13729458
21	0x3d59bccd	0.05315857
22	0xbe5963aa	-0.21229425
23	0x3d57712a	0.052598156
24	0xbe54f223	-0.20795493
25	0xbd988eff	-0.07449149
26	0x3e912d51	0.28354886
27	0xbe0b8fca	-0.1362907
28	0xbd39adb5	-0.045331676
29	0xbcdca402	-0.026933674
30	0xbc5b949a	-0.013402129
31	0x3bff1886	0.007784906
32	0xbcca0717	-0.024661584
33	0xbd13c29c	-0.036074266
34	0xbd5b853c	-0.05359386
35	0x3dd39eaf	0.10333001
36	0x3cd4a07a	0.025955427
37	0x3d2550a7	0.04036012
38	0xbd81fce2	-0.06347062
39	0xbe35c7c9	-0.17751993
40	0xbe8d75d3	-0.27628955
41	0xbe56fcc9	-0.20994867
42	0x3d9ccda1	0.07656408
43	0x3e3f79a1	0.18698741
44	0xbd36b839	-0.044609282
45	0x3c9e0774	0.019290663
46	0xbda5eb1b	-0.081014834
47	0xbe058311	-0.13038279
48	0xbd89d586	-0.067301795
49	0xbca0e344	-0.019639619
50	0x3dd51c51	0.104057916
51	0xbe1c27be	-0.15249535
52	0xbe94dadd	-0.2907323
53	0x3d43a4bf	0.047764536
54	0x3d4834a3	0.048878323
55	0xbe486f81	-0.19573785
56	0xbda86b8f	-0.0822364
57	0xbd88c24f	-0.066776864
58	0x3b582375	0.0032980118
59	0x3d0b06a2	0.033941872
60	0x3db35cab	0.087579094
61	0xbd3a7710	-0.045523703
62	0xbd7b82ef	-0.061404165
63	0xbda7d980	-0.08195782
64	0xbe2e9d31	-0.17052151
65	0xbe59bda9	-0.21263756
66	0x3d6988eb	0.05701534
67	0xbe396aa5	-0.18107088
68	0xbd3d9796	-0.04628714
69	0xbce32509	-0.02772762
70	0x3dd8a436	0.10578196
71	0xbd122a8e	-0.035685115
72	0x3e11e3f7	0.14247118
73	0x3c6a31bc	0.014294084
74	0x3e06a1bf	0.13147639
75	0xbca3b043	-0.01998151
76	0xbe236f68	-0.15960467
77	0x3db802dc	0.089849204
78	0xbe14d588	-0.1453458
79	0xbe3030d2	-0.17206123
80	0x3e486f10	0.19573617
81	0xbe2292c8	-0.15876305
82	0xbdbd0719	-0.092298694
83	0x3e34f2ec	0.17670792
84	0xbd8080df	-0.0627458
85	0xbd5d7e37	-0.054075446
86	0xbd6bc663	-0.057562243
87	0xbd662f67	-0.05619755
88	0xbced7a83	-0.028989082
89	0xbe10049a	-0.14064255
90	0xbe1eb4a2	-0.15498593
91	0x3e034031	0.12817456
92	0xbcb679d4	-0.022274889
93	0x3d830eac	0.06399283
94	0x3da16c97	0.0788204
95	0xbbf22077	-0.007389124
96	0x3d3049d6	0.043039165
97	0x3e14ea00	0.14542389
98	0xbb8ae01e	-0.0042381426
99	0xbd3053db	-0.04304872
100	0xbe356391	-0.17713763
101	0xbe4aec80	-0.1981678
102	0x3dabd363	0.08389928
103	0xbe4267e9	-0.18984951
104	0xbd1cc6cb	-0.03827552
105	0x3e154d85	0.14580353
106	0xbd8f165b	-0.06986686
107	0xbe1f8bd5	-0.15580685
108	0x3b974aab	0.0046170554
109	0xbaa13504	-0.0012299125
110	0xbd8265ae	-0.0636705
111	0xbdafa093	-0.08575549
112	0xbe301743	-0.17196374
113	0xbe304798	-0.17214811
114	0x3d5a3104	0.0532694
115	0x3cd281a0	0.025696576
116	0xbda7b99f	-0.08189701
117	0x3e24cb81	0.16093256
118	0xbdac8a95	-0.0842487
119	0xbdf75eea	-0.1207865
120	0xbd889ad6	-0.066701576
121	0x3e1b42dc	0.15162224
122	0x3d5aea0e	0.05344587
123	0xbe0b07f4	-0.13577253
124	0x3d6dec79	0.058086846
125	0xbe49d88e	-0.19711515
126	0xbdcfeda3	-0.101527475
127	0xbd64e9ab	-0.055886906
128	0xbe5a0572	-0.2129114
129	0xbe740adb	-0.23832266
130	0xbe4ac15f	-0.19800328
131	0xbdb897fe	-0.09013365
132	0x3e29e141	0.16589834
133	0xba2e3d08	-0.00066466676
134	0xbe01f698	-0.12691724
135	0xbc4e04a7	-0.012574351
136	0x3dc5abce	0.0965191
137	0xbde4cf92	-0.111724034
138	0x3e1c79e9	0.1528088
139	0x3e278438	0.16359031
140	0xbd4991ba	-0.04921124
141	0x3c72b4d8	0.014813624
142	0x3c657613	0.014005202
143	0x3d9fb0d5	0.077974
144	0x3e96e067	0.2946808
145	0x3d46a833	0.04850025
146	0xbe4c0650	-0.19924283
147	0xbe3e989a	-0.186129
148	0xbdf55993	-0.119799756
149	0x3d91c12e	0.07116924
150	0xbdda2528	-0.10651618
151	0x3c8cbe6d	0.017180646
152	0xbd151934	-0.03640099
153	0xbe0a5dbc	-0.1351232
154	0xbe4ff463	-0.2030807
155	0xbb0a2810	-0.0021081008
156	0x3c4c7f33	0.0124814985
157	0xbe8af3b1	-0.27139047
158	0x3dcfb24f	0.101414315
159	0x3ca328b5	0.019916872
160	0x3b7c75a5	0.003852227
161	0x3ddc492f	0.10756146
162	0xbced1892	-0.02894238
163	0xbe0f5d01	-0.14000322
164	0x3d21be5f	0.039488193
165	0xbe1230f0	-0.1427648
166	0xbde5f861	-0.11229015
167	0xbe07051e	-0.13185546
168	0xbd8056dd	-0.06266568
169	0xbd7e7463	-0.062122714
170	0xbcc0a7a4	-0.023517437
171	0xbceac0eb	-0.028656444
172	0xbe008bdc	-0.12553352
173	0xbbcfbe9c	-0.006339861
174	0x3db4981a	0.088180736
175	0xbd97f8ab	-0.074204765
176	0x3d805dd9	0.062679
177	0xbd3e1bf8	-0.04641339
178	0xbddd6a70	-0.10811317
179	0xbe1b6ef4	-0.15179044
180	0xbe763185	-0.24042328
181	0x3da9fab7	0.08299773
182	0xbe965d9a	-0.29368287
183	0x3dfb0dc2	0.122584835
184	0xbd3606c4	-0.044440046
185	0x3e00bd17	0.12572132
186	0xbd41a43d	-0.04727577
187	0x3c542f65	0.012950753
188	0x3daefaeb	0.085439526
189	0x3d9ad351	0.07559837
190	0xbd8f04af	-0.06983315
191	0xbe081134	-0.13287812
192	0xbe2216f6	-0.15829071
193	0xbe21e559	-0.15810145
194	0xbd78b891	-0.06072289
195	0xbd33df3d	-0.04391407
196	0x3e0c4afd	0.13700481
197	0x3e5a8092	0.21338108
198	0xbe6d8a85	-0.23197372
199	0xbe2a8f5d	-0.16656251
200	0x3cb7386d	0.022365773
201	0xbafa0486	-0.0019074834
202	0x3e3916f0	0.18075156
203	0x3e0a6c63	0.13517909
204	0x3e068f21	0.13140537
205	0xbe38a8d6	-0.18033156
206	0x3d161292	0.036638804
207	0x3e5714cc	0.21004027
208	0x3df6ed31	0.120569594
209	0xbd8a64ad	-0.06757484
210	0xbe811e8c	-0.25218618
211	0xbe180ae7	-0.14847909
212	0x3dd159a0	0.10222173
213	0xbe69caed	-0.22831316
214	0xbca53835	-0.020168403
215	0xbe73e6f8	-0.23818576
216	0x3c147450	0.009060934
217	0xbe2b554c	-0.16731757
218	0x3e202166	0.1563774
219	0xbdf28e8a	-0.118435934
220	0xbd0268af	-0.031838115
221	0xbe9073ac	-0.2821325
222	0x3d25033d	0.04028629
223	0xbe521732	-0.20516661
224	0xbdb48c0e	-0.08815776
225	0x3d9ad998	0.07561034
226	0xbddb8950	-0.1071955
227	0xbde2f936	-0.110826895
228	0xbc00080d	-0.007814419
229	0xbddfdddb	-0.109309874
230	0xbd7f3c62	-0.062313445
231	0x3d1546cf	0.03644448
232	0xbe26b279	-0.1627902
233	0xbdfffd68	-0.12499505
234	0xbd0df37b	-0.03465603
235	0xb96ad5d7	-0.0002239564
236	0xbda6d015	-0.08145157
237	0x3cf7d35a	0.030252147
238	0xbc9bab01	-0.01900244
239	0x3d8ae711	0.06782354
240	0xbd301e72	-0.042997785
241	0xbe3545a9	-0.17702354
242	0xbe3ddfe8	-0.18542445
243	0xbdbbe047	-0.09173637
244	0xbdb0bf61	-0.08630253
245	0xbcf4c532	-0.029879186
246	0xbd96a4c6	-0.07355647
247	0xbef2727f	-0.4735298
248	0x3c3be78e	0.011468781
249	0xbe0feffd	-0.14056392
250	0x3d1a04d8	0.037602276
251	0xbe1c2c99	-0.15251388
252	0xbe718003	-0.23583989
253	0xbdd3c8ff	-0.10341071
254	0x3d58d620	0.05293858
255	0xbd33c303	-0.04388715

critic.2.bias f4 [64]
0	0xbd01081e	-0.03150188
1	0xbcfa87bf	-0.030582307
2	0xbda8bb63	-0.08238866
3	0x3c9aed9f	0.018912135
4	0x3e05f459	0.13081492
5	0xbc645111	-0.013935343
6	0xbdaf10e5	-0.08548144
7	0xbd4df9f4	-0.050287202
8	0x3de4c64b	0.11170634
9	0x3e9b440e	0.3032536
10	0x3db5425f	0.0885055
11	0x3e32d376	0.17463478
12	0xbdcf88c0	-0.10133505
13	0xbd14920f	-0.036272105
14	0x3e2aadb6	0.16667828
15	0xbe053d09	-0.13011564
16	0xbe269952	-0.16269425
17	0x3d2409cd	0.04004841
18	0xbc8fb7fd	-0.017543787
19	0x3e7b4325	0.24537332
20	0xbd3d6d45	-0.046246786
21	0xbd7d3027	-0.0618135
22	0xbe000817	-0.12503086
23	0x3d791208	0.06080821
24	0x3d209817	0.039207544
25	0x3e2c3dcb	0.16820447
26	0xbdd508fd	-0.10402105
27	0x3e9d5fc8	0.30737138
28	0xbd668f8f	-0.056289252
29	0xbea51fd5	-0.32250848
30	0xbe177b4c	-0.14793128
31	0xbd73dfd3	-0.059539627
32	0x3d74bb86	0.05974915
33	0xbdfe545f	-0.12418436
34	0x3dba9ef1	0.09112347
35	0xbd95f7aa	-0.07322629
36	0xbd2d3864	-0.042290106
37	0x3db7e960	0.089800596
38	0x3d2c02ea	0.041994967
39	0x3d2723ad	0.040805507
40	0xbd61dc60	-0.055141807
41	0xbc84e6a0	-0.016223252
42	0x3db67f40	0.0891099
43	0x3e15187c	0.14560121
44	0x3c9f2258	0.019425556
45	0xbd87e05d	-0.06634591
46	0xbe0665aa	-0.1312472
47	0x3db10153	0.08642831
48	0xbe8611d8	-0.2618549
49	0x3dc3a8e0	0.09553695
50	0xbe6353e5	-0.22199972
51	0x3c9f7bb3	0.019468164
52	0xbd6e82b5	-0.05823012
53	0xbcbe7461	-0.023248853
54	0xbe62d9a8	-0.22153342
55	0xbd80d95a	-0.062914565
56	0xbddf5bf7	-0.10906213
57	0x3d5f4759	0.0545114
58	0xbc87059c	-0.016482167
59	0x3d71763f	0.05895066
60	0x3d955a7b	0.072926484
61	0x3d266fa0	0.040633798
62	0x3d9f825c	0.07788536
63	0xbd29370f	-0.041312274

critic.4.weight f4 [1, 64]
0	0xbd92f845	-0.0717626
1	0x3db14a8c	0.08656797
2	0x3e0aed18	0.13567007
3	0x3dc716c0	0.09721136
4	0x3eed7ea3	0.4638568
5	0xbdc19101	-0.094514854
6	0x3e8dd24f	0.27699515
7	0x3f3cd7f9	0.7376705
8	0x3e16b0db	0.14715903
9	0x3e450655	0.19240697
10	0x3d347d3a	0.044064738
11	0x3dd489e7	0.10377865
12	0xbe2a3068	-0.16620028
13	0x3e4ad83d	0.19809051
14	0x3e14131b	0.14460413
15	0x3ea79f2a	0.3273862
16	0xbebca9da	-0.36848336
17	0xbda437d8	-0.08018464
18	0x3df6542c	0.12027773
19	0x3e9163a3	0.2839633
20	0x3e296c83	0.165453
21	0xbec232ba	-0.37929326
22	0x3e46fc88	0.1943227
23	0x3e108f8a	0.14117256
24	0xbd46d9f9	-0.04854772
25	0x3e42315e	0.18964145
26	0xbe1824d9	-0.14857806
27	0x3e3c00f8	0.18359745
28	0xbf087760	-0.5330715
29	0xbee2a5df	-0.44267175
30	0x3d9eea7f	0.0775957
31	0xbdf02802	-0.11726381
32	0xbee57186	-0.44813174
33	0xbec2ea0d	-0.38069192
34	0xbf11f784	-0.57018304
35	0xbe3c1cd1	-0.18370368
36	0x3eea0c53	0.45712528
37	0x3de78688	0.11304957
38	0x3e2d43f4	0.16920453
39	0x3dd9190e	0.10600482
40	0xbda3ffe7	-0.08007794
41	0x3dd977ac	0.10618529
42	0xbd758fc3	-0.059951555
43	0x3e69bdcd	0.2282631
44	0x3e193f79	0.14965619
45	0xbddd22b4	-0.10797635
46	0xbda1cd30	-0.079004645
47	0x3df930a8	0.121674836
48	0x3eec5453	0.46158084
49	0x3e84869a	0.25883943
50	0x3e1b3851	0.15158202
51	0x3df9b27d	0.12192247
52	0xbe449b73	-0.19199924
53	0xbf4e9196	-0.80690897
54	0xbdba524c	-0.09097728
55	0xbe011a67	-0.12607728
56	0xbf6179f8	-0.88076735
57	0x3e42ca0b	0.19022386
58	0x3de55cf5	0.11199371
59	0x3ee7d9a8	0.45283246
60	0x3e82c58d	0.25541344
61	0x3dcd372a	0.10020287
62	0x3ea8c747	0.32964537
63	0xbd9db2ef	-0.077001445

exp_avg f4 [6]
0	0x39576095	0.00020539977
1	0xb95b81ed	-0.00020933869
2	0xb81649d8	-3.583156e-05
3	0xba1f82e5	-0.00060848735
4	0xb93747cb	-0.00017478985
5	0xb95eb422	-0.00021238675

exp_avg_sq f4 [6]
0	0x378db185	1.6891174e-05
1	0x380b648e	3.323383e-05
2	0x38588304	5.162043e-05
3	0x36a87b88	5.021171e-06
4	0x3678d83c	3.7080745e-06
5	0x347ed1d0	2.3731923e-07

exp_avg f4 [64, 43]
0	0x385c74fc	5.2561038e-05
1	0x35af9cc1	1.3084137e-06
2	0x367ab269	3.7356751e-06
3	0xb8c4edd9	-9.390311e-05
4	0xb82c24bb	-4.1042204e-05
5	0x38803a4b	6.1143735e-05
6	0x384466ec	4.6825895e-05
7	0xb8785e40	-5.9215585e-05
8	0xb89cbaa8	-7.473427e-05
9	0x38cde45a	9.8176955e-05
10	0x3805cbbf	3.1899424e-05
11	0x37c3cb09	2.3340357e-05
12	0x38d4015b	0.000101092
13	0xb6bfe5ed	-5.7190105e-06
14	0xb76dd114	-1.4174981e-05
15	0xb92d20c7	-0.00016510776
16	0xb8a57efa	-7.891464e-05
17	0x393ba1b4	0.00017893949
18	0x3a9a09fe	0.0011752245
19	0xbb0e8450	-0.0021746345
20	0x3693379e	4.387416e-06
21	0xb6f48cc5	-7.2881544e-06
22	0xb7925cdd	-1.74478e-05
23	0x3501c8f4	4.834867e-07
24	0xb52051e2	-5.97238e-07
25	0x375897b1	1.2909922e-05
26	0xb5555cdc	-7.948381e-07
27	0xb7043b5d	-7.881635e-06
28	0xb6985f14	-4.5410216e-06
29	0xb4a733ff	-3.1144006e-07
30	0x36ca98e1	6.0378666e-06
31	0x37024040	7.763563e-06
32	0xb6d62adc	-6.3826865e-06
33	0xb576a167	-9.187701e-07
34	0xb81a5cee	-3.680301e-05
35	0x3724e5e4	9.828687e-06
36	0x37e775af	2.7592147e-05
37	0x36ca98e1	6.0378666e-06
38	0x37024040	7.763563e-06
39	0xb6d62adc	-6.3826865e-06
40	0x348ba27d	2.6008993e-07
41	0x378b097f	1.6574513e-05
42	0x378bfdd3	1.6688287e-05
43	0x388b023c	6.628453e-05
44	0xb830179f	-4.198367e-05
45	0xb932b6f8	-0.00017043564
46	0xb72d8c05	-1.0344204e-05
47	0x369bc863	4.642688e-06
48	0x3852a946	5.022555e-05
49	0x37009db4	7.666113e-06
50	0x37d9c01d	2.5957876e-05
51	0xb81d0ef5	-3.7445647e-05
52	0xb80794eb	-3.23252e-05
53	0xb8c55d9d	-9.411129e-05
54	0x3945e612	0.00018873092
55	0x38ed2576	0.00011308018
56	0xb87a16b7	-5.96258e-05
57	0xb9bd1339	-0.0003606321
58	0x369373ad	4.394408e-06
59	0xb65f3e07	-3.3265694e-06
60	0x391368f2	0.00014058108
61	0x3a6e3588	0.0009086956
62	0xbb4ec0fe	-0.0031548138
63	0x36cace72	6.0441025e-06
64	0xb6d7a694	-6.4268916e-06
65	0xb76c47b0	-1.4083387e-05
66	0xb45befb4	-2.0483168e-07
67	0xb7aa753b	-2.0320169e-05
68	0xb5ff10a2	-1.9003821e-06
69	0xb5c5ef8a	-1.4747359e-06
70	0xb7e0417c	-2.6733374e-05
71	0xb786145b	-1.5983524e-05
72	0xb5e15539	-1.6788609e-06
73	0xb67b3398	-3.7431946e-06
74	0x3794e9d6	1.7751863e-05
75	0x35c4e6e6	1.4670338e-06
76	0xb8364748	-4.3458567e-05
77	0xb6381e60	-2.7435817e-06
78	0xb84ae49c	-4.8373462e-05
79	0xb80dec8e	-3.383733e-05
80	0xb67b3398	-3.7431946e-06
81	0x3794e9d6	1.7751863e-05
82	0x35c4e6e6	1.4670338e-06
83	0xb7a8c4ba	-2.0118769e-05
84	0x38173fb3	3.606053e-05
85	0x37aedc0d	2.0844886e-05
86	0x364e6232	3.075355e-06
87	0xb7644987	-1.3606978e-05
88	0xb82d269e	-4.128238e-05
89	0x38240232	3.910269e-05
90	0xb785f94a	-1.597092e-05
91	0xb6bbd395	-5.5976657e-06
92	0xb6de271a	-6.6206676e-06
93	0x3781a830	1.5456317e-05
94	0x356c9adf	8.814222e-07
95	0xb747b82e	-1.1904207e-05
96	0x3915b41b	0.00014276842
97	0x3640e384	2.874266e-06
98	0x3740967c	1.1479129e-05
99	0xb8150b25	-3.5534747e-05
100	0xb8bd5544	-9.028104e-05
101	0x3884a135	6.324278e-05
102	0xb6b80aed	-5.4848992e-06
103	0xb60ae33a	-2.0695866e-06
104	0xba345052	-0.0006878424
105	0x3aac4f8b	0.0013146264
106	0xb733dbcc	-1.0720407e-05
107	0xb70f023a	-8.523983e-06
108	0x36e1f538	6.7340698e-06
109	0x33823139	6.06255e-08
110	0x3703541b	7.827791e-06
111	0xb655ecd4	-3.1877325e-06
112	0x33c1358a	8.9970015e-08
113	0xb53c099a	-7.004943e-07
114	0x366dde81	3.5445266e-06
115	0x3421abc9	1.5056789e-07
116	0xb6d98e44	-6.483666e-06
117	0xb738c84a	-1.1013888e-05
118	0x3599b30d	1.1451499e-06
119	0xb6633d35	-3.3861263e-06
120	0xb780e705	-1.5366366e-05
121	0xb7203a61	-9.550336e-06
122	0x3694aeeb	4.431107e-06
123	0xb6d98e44	-6.483666e-06
124	0xb738c84a	-1.1013888e-05
125	0x3599b30d	1.1451499e-06
126	0x3670f84b	3.5907312e-06
127	0xb785af9f	-1.5936615e-05
128	0xb72a1623	-1.0137944e-05
129	0xb8a20d91	-7.727289e-05
130	0x381c0e51	3.720663e-05
131	0x38fa6689	0.000119400276
132	0xb70e3f2f	-8.478571e-06
133	0x3815dd93	3.5730725e-05
134	0xb85326d5	-5.0342485e-05
135	0xb7a41f42	-1.9564879e-05
136	0x388874e0	6.506755e-05
137	0x38a341aa	7.7846766e-05
138	0xb91d862b	-0.00015022668
139	0xb74307b5	-1.16247e-05
140	0xb282b43d	-1.5215955e-08
141	0xb917f116	-0.00014490294
142	0x389b45ac	7.403953e-05
143	0x397be808	0.00024023664
144	0xb89c82b3	-7.463004e-05
145	0x388fb188	6.851839e-05
146	0xb8f59f95	-0.00011712235
147	0xb8c36e42	-9.318862e-05
148	0x3b1ede80	0.0024241507
149	0xb6980e40	-4.531612e-06
150	0x3753b8dc	1.2619621e-05
151	0x37d1d24c	2.5012669e-05
152	0xb45e93ca	-2.0729127e-07
153	0x36c5f609	5.8996998e-06
154	0xb72fdcfb	-1.0482264e-05
155	0x35c923da	1.4986101e-06
156	0x379b532c	1.851617e-05
157	0x3773cff9	1.4532351e-05
158	0x35ad5d19	1.2916599e-06
159	0xb6b9442d	-5.5213663e-06
160	0xb76cc62f	-1.4112839e-05
161	0xb651b683	-3.1249663e-06
162	0x38245836	3.91828e-05
163	0x3740c3be	1.1489667e-05
164	0x37ed3bc4	2.8280432e-05
165	0x35ea3883	1.7450806e-06
166	0xb6b9442d	-5.5213663e-06
167	0xb76cc62f	-1.4112839e-05
168	0xb651b683	-3.1249663e-06
169	0x356ce2de	8.8246986e-07
170	0xb75fe6ef	-1.3345604e-05
171	0xb7eba215	-2.8089658e-05
172	0x379dc4a7	1.8807432e-05
173	0x37939dbd	1.7597218e-05
174	0xb6b2fdec	-5.334374e-06
175	0xb755f0fc	-1.2751898e-05
176	0x37fd06ed	3.0163175e-05
177	0x378d8a04	1.6872778e-05
178	0xb78ebf95	-1.7016931e-05
179	0xb8f06f86	-0.00011464865
180	0x38033288	3.1279895e-05
181	0x39391cb1	0.00017653663
182	0x36ab588a	5.1065044e-06
183	0xb90380a4	-0.00012541056
184	0x38102bb5	3.437298e-05
185	0x36d3db65	6.313831e-06
186	0xb7a0bcfe	-1.9161493e-05
187	0x387e1de7	6.0586168e-05
188	0x3877b908	5.9061713e-05
189	0x37e9c5d7	2.786789e-05
190	0x391a4336	0.00014711622
191	0x3afaad76	0.0019125182
192	0x370e0050	8.463932e-06
193	0xb6387fee	-2.7492601e-06
194	0xb70c1706	-8.350011e-06
195	0x339b88fb	7.2426666e-08
196	0x32a0fb04	1.87406e-08
197	0x3703f317	7.864807e-06
198	0xb4b79e3d	-3.420154e-07
199	0xb636fe85	-2.7268263e-06
200	0xb5032d68	-4.886738e-07
201	0xb490b855	-2.695621e-07
202	0xb4d774e9	-4.0131934e-07
203	0x359a4b0c	1.1495736e-06
204	0x3347d616	4.6528008e-08
205	0xb7191324	-9.123967e-06
206	0x3785ea17	1.5963842e-05
207	0x35e0769a	1.6723818e-06
208	0x3692253c	4.3554737e-06
209	0xb4d774e9	-4.0131934e-07
210	0x359a4b0c	1.1495736e-06
211	0x3347d616	4.6528008e-08
212	0xb726d202	-9.943267e-06
213	0x3795a955	1.7841036e-05
214	0xb841214f	-4.6045807e-05
215	0x36ce01f1	6.1395044e-06
216	0xb7af7d1e	-2.0919888e-05
217	0xb7e8054f	-2.7659027e-05
218	0x375a2674	1.3002766e-05
219	0xb7da3047	-2.6010106e-05
220	0xb6aea70e	-5.205052e-06
221	0xb800f4ef	-3.074569e-05
222	0x380d2042	3.3647062e-05
223	0xb6bf0d0f	-5.693764e-06
224	0x3720b65b	9.579201e-06
225	0xb8a6d902	-7.955918e-05
226	0x3950b7ca	0.00019904893
227	0xb697ee53	-4.5278953e-06
228	0xb7a9b78d	-2.0231842e-05
229	0xb8c35b49	-9.315328e-05
230	0x387b85af	5.9967566e-05
231	0xb88c9b7d	-6.704682e-05
232	0x383b3378	4.463221e-05
233	0xb8ca23f8	-9.63881e-05
234	0xbb0e0cfa	-0.0021675215
235	0x36522e71	3.131947e-06
236	0x36874d94	4.032345e-06
237	0x360864af	2.0324185e-06
238	0xb50a94f7	-5.162578e-07
239	0xb73eddc8	-1.137652e-05
240	0xb6c900c1	-5.9903546e-06
241	0x339df6e7	7.3557935e-08
242	0xb6f612be	-7.333553e-06
243	0xb684f458	-3.962352e-06
244	0xb4ed4503	-4.4194903e-07
245	0x3590f985	1.0801456e-06
246	0xb75330e6	-1.2587965e-05
247	0xb5d62052	-1.5953649e-06
248	0xb54a705d	-7.5414374e-07
249	0x36611fcd	3.3546123e-06
250	0x35210d48	5.99965e-07
251	0xb6e3c9ff	-6.7886426e-06
252	0x3590f985	1.0801456e-06
253	0xb75330e6	-1.2587965e-05
254	0xb5d62052	-1.5953649e-06
255	0xb6415a89	-2.881194e-06
